module @"RPA-bq_128-bkvp_8-p_128" attributes {stable_mosaic.version = 9 : i64} {
  func.func @main(%arg0: i32, %arg1: memref<128xi32, #tpu.tiled<(128),[1]>, #tpu.memory_space<smem>>, %arg2: memref<2048xi32, #tpu.tiled<(1024),[1]>, #tpu.memory_space<smem>>, %arg3: memref<128xi32, #tpu.tiled<(128),[1]>, #tpu.memory_space<smem>>, %arg4: memref<128xi32, #tpu.tiled<(128),[1]>, #tpu.memory_space<smem>>, %arg5: memref<128xi32, #tpu.tiled<(128),[1]>, #tpu.memory_space<smem>>, %arg6: memref<128xi32, #tpu.tiled<(128),[1]>, #tpu.memory_space<smem>>, %arg7: memref<128xi32, #tpu.tiled<(128),[1]>, #tpu.memory_space<smem>>, %arg8: memref<128xi32, #tpu.tiled<(128),[1]>, #tpu.memory_space<smem>>, %arg9: memref<128xi32, #tpu.tiled<(128),[1]>, #tpu.memory_space<smem>>, %arg10: memref<8x8192x2x2x128xbf16, #tpu.tiled<(2,128)(2,1),[16384,2,1,1,1]>, #tpu.memory_space<vmem>> {llo.passthrough_operand, llo.unspecified_memory_space}, %arg11: memref<8192x8x2x128xbf16, #tpu.tiled<(2,128)(2,1),[8,1,1,1]>, #tpu.memory_space<hbm>> {llo.passthrough_operand, llo.unspecified_memory_space}, %arg12: memref<4688x128x8x2x128xbf16, #tpu.tiled<(2,128)(2,1),[1024,8,1,1,1]>, #tpu.memory_space<hbm>> {llo.passthrough_operand, llo.unspecified_memory_space}, %arg13: memref<1024x128xi32, #tpu.tiled<(8,128),[1,1]>, #tpu.memory_space<hbm>> {llo.passthrough_operand, llo.unspecified_memory_space}, %arg14: memref<8x8192x2x2x128xbf16, #tpu.tiled<(2,128)(2,1),[16384,2,1,1,1]>, #tpu.memory_space<vmem>> {llo.passthrough_operand, llo.unspecified_memory_space}, %arg15: memref<4688x128x8x2x128xbf16, #tpu.tiled<(2,128)(2,1),[1024,8,1,1,1]>, #tpu.memory_space<hbm>> {llo.passthrough_operand, llo.unspecified_memory_space}, %arg16: memref<2x1024x8x2x128xbf16, #tpu.tiled<(2,128)(2,1),[8192,8,1,1,1]>, #tpu.memory_space<vmem>>, %arg17: memref<2x8x128x2x2x128xbf16, #tpu.tiled<(2,128)(2,1),[2048,256,2,1,1,1]>, #tpu.memory_space<vmem>>, %arg18: memref<2x8x128x2x2x128xbf16, #tpu.tiled<(2,128)(2,1),[2048,256,2,1,1,1]>, #tpu.memory_space<vmem>>, %arg19: memref<5x2x!tpu.dma_semaphore, #tpu.tiled<,[2,1]>, #tpu.memory_space<semaphore_mem>> {llo.passthrough_operand}, %arg20: memref<8x512x128xf32, #tpu.tiled<(8,128),[64,1,1]>, #tpu.memory_space<vmem>>, %arg21: memref<8x512x128xf32, #tpu.tiled<(8,128),[64,1,1]>, #tpu.memory_space<vmem>>, %arg22: memref<8x512x128xf32, #tpu.tiled<(8,128),[64,1,1]>, #tpu.memory_space<vmem>>) attributes {dimension_semantics = [#tpu.dimension_semantics<arbitrary>], iteration_bounds = array<i64: -9223372036854775808>, scalar_prefetch = 9 : i64, scratch_operands = 7 : i64, window_params = [{}, {}, {}, {}, {}, {}]} {
    %cst = arith.constant dense<0.000000e+00> : vector<512x1024xf32>
    %cst_0 = arith.constant dense<0.000000e+00> : vector<4x1024xf32>
    %cst_1 = arith.constant dense<1> : vector<512x128xi32>
    %cst_2 = arith.constant dense<1> : vector<4x128xi32>
    %cst_3 = arith.constant dense<0xFF800000> : vector<512x128xf32>
    %cst_4 = arith.constant dense<-2.38197633E+38> : vector<8x512x1024xf32>
    %cst_5 = arith.constant dense<1> : vector<8x512x1024xi32>
    %cst_6 = arith.constant dense<0> : vector<8x512x1024xi32>
    %cst_7 = arith.constant dense<4> : vector<8x512x1024xi32>
    %cst_8 = arith.constant dense<0.0883883461> : vector<8x512x1024xf32>
    %cst_9 = arith.constant dense<0xFF800000> : vector<4x128xf32>
    %cst_10 = arith.constant dense<-2.38197633E+38> : vector<8x4x1024xf32>
    %cst_11 = arith.constant dense<1> : vector<8x4x1024xi32>
    %cst_12 = arith.constant dense<0> : vector<8x4x1024xi32>
    %cst_13 = arith.constant dense<4> : vector<8x4x1024xi32>
    %cst_14 = arith.constant dense<0.0883883461> : vector<8x4x1024xf32>
    %cst_15 = arith.constant dense<16> : vector<1024x128xi32>
    %cst_16 = arith.constant dense<0> : vector<1024x128xi32>
    %cst_17 = arith.constant dense<-1> : vector<1024x128xi32>
    %c1023_i32 = arith.constant 1023 : i32
    %c127_i32 = arith.constant 127 : i32
    %cst_18 = arith.constant dense<0.000000e+00> : vector<512xf32>
    %cst_19 = arith.constant dense<0.000000e+00> : vector<512x128xf32>
    %cst_20 = arith.constant dense<0xFF800000> : vector<512xf32>
    %cst_21 = arith.constant dense<0.000000e+00> : vector<8x512x1024xf32>
    %cst_22 = arith.constant dense<0.000000e+00> : vector<4xf32>
    %cst_23 = arith.constant dense<0.000000e+00> : vector<4x128xf32>
    %cst_24 = arith.constant dense<0xFF800000> : vector<4xf32>
    %cst_25 = arith.constant dense<0.000000e+00> : vector<8x4x1024xf32>
    %c7_i32 = arith.constant 7 : i32
    %c6_i32 = arith.constant 6 : i32
    %c5_i32 = arith.constant 5 : i32
    %c7 = arith.constant 7 : index
    %c6 = arith.constant 6 : index
    %c5 = arith.constant 5 : index
    %c3 = arith.constant 3 : index
    %c2_i32 = arith.constant 2 : i32
    %c4_i32 = arith.constant 4 : i32
    %c3_i32 = arith.constant 3 : i32
    %c4 = arith.constant 4 : index
    %c1024_i32 = arith.constant 1024 : i32
    %c8_i32 = arith.constant 8 : i32
    %c128_i32 = arith.constant 128 : i32
    %c0_i32 = arith.constant 0 : i32
    %c1_i32 = arith.constant 1 : i32
    %c2 = arith.constant 2 : index
    %c1 = arith.constant 1 : index
    %c0 = arith.constant 0 : index
    %0 = tpu.erase_memref_layout %arg1 : memref<128xi32, #tpu.tiled<(128),[1]>, #tpu.memory_space<smem>> -> memref<128xi32, #tpu.memory_space<smem>>
    %1 = tpu.erase_memref_layout %arg2 : memref<2048xi32, #tpu.tiled<(1024),[1]>, #tpu.memory_space<smem>> -> memref<2048xi32, #tpu.memory_space<smem>>
    %2 = tpu.erase_memref_layout %arg3 : memref<128xi32, #tpu.tiled<(128),[1]>, #tpu.memory_space<smem>> -> memref<128xi32, #tpu.memory_space<smem>>
    %3 = tpu.erase_memref_layout %arg4 : memref<128xi32, #tpu.tiled<(128),[1]>, #tpu.memory_space<smem>> -> memref<128xi32, #tpu.memory_space<smem>>
    %4 = tpu.erase_memref_layout %arg6 : memref<128xi32, #tpu.tiled<(128),[1]>, #tpu.memory_space<smem>> -> memref<128xi32, #tpu.memory_space<smem>>
    %5 = tpu.erase_memref_layout %arg7 : memref<128xi32, #tpu.tiled<(128),[1]>, #tpu.memory_space<smem>> -> memref<128xi32, #tpu.memory_space<smem>>
    %6 = tpu.erase_memref_layout %arg8 : memref<128xi32, #tpu.tiled<(128),[1]>, #tpu.memory_space<smem>> -> memref<128xi32, #tpu.memory_space<smem>>
    %7 = tpu.erase_memref_layout %arg9 : memref<128xi32, #tpu.tiled<(128),[1]>, #tpu.memory_space<smem>> -> memref<128xi32, #tpu.memory_space<smem>>
    %8 = tpu.reinterpret_cast %arg20 : memref<8x512x128xf32, #tpu.tiled<(8,128),[64,1,1]>, #tpu.memory_space<vmem>> -> memref<8x512x128xf32, #tpu.tiled<(1,128),[512,1,1]>, #tpu.memory_space<vmem>>
    %9 = tpu.erase_memref_layout %8 : memref<8x512x128xf32, #tpu.tiled<(1,128),[512,1,1]>, #tpu.memory_space<vmem>> -> memref<8x512x128xf32, #tpu.memory_space<vmem>>
    %10 = tpu.reinterpret_cast %arg21 : memref<8x512x128xf32, #tpu.tiled<(8,128),[64,1,1]>, #tpu.memory_space<vmem>> -> memref<8x512x128xf32, #tpu.tiled<(1,128),[512,1,1]>, #tpu.memory_space<vmem>>
    %11 = tpu.erase_memref_layout %10 : memref<8x512x128xf32, #tpu.tiled<(1,128),[512,1,1]>, #tpu.memory_space<vmem>> -> memref<8x512x128xf32, #tpu.memory_space<vmem>>
    %12 = tpu.reinterpret_cast %arg22 : memref<8x512x128xf32, #tpu.tiled<(8,128),[64,1,1]>, #tpu.memory_space<vmem>> -> memref<8x512x128xf32, #tpu.tiled<(1,128),[512,1,1]>, #tpu.memory_space<vmem>>
    %13 = tpu.erase_memref_layout %12 : memref<8x512x128xf32, #tpu.tiled<(1,128),[512,1,1]>, #tpu.memory_space<vmem>> -> memref<8x512x128xf32, #tpu.memory_space<vmem>>
    %14 = tpu.iteration_bound 0 : i32
    %15 = memref.load %4[%c0] : memref<128xi32, #tpu.memory_space<smem>>
    %16 = memref.load %4[%c1] : memref<128xi32, #tpu.memory_space<smem>>
    %17 = memref.load %4[%c2] : memref<128xi32, #tpu.memory_space<smem>>
    %18 = arith.index_cast %arg0 : i32 to index
    %19 = memref.load %2[%18] : memref<128xi32, #tpu.memory_space<smem>>
    %20 = arith.addi %arg0, %c1_i32 : i32
    %21 = arith.index_cast %20 : i32 to index
    %22 = memref.load %2[%21] : memref<128xi32, #tpu.memory_space<smem>>
    %23 = arith.subi %22, %19 : i32
    %24 = memref.load %0[%18] : memref<128xi32, #tpu.memory_space<smem>>
    %25 = arith.cmpi eq, %arg0, %c0_i32 : i32
    scf.if %25 {
      %35 = memref.load %2[%c0] : memref<128xi32, #tpu.memory_space<smem>>
      %36 = memref.load %2[%c1] : memref<128xi32, #tpu.memory_space<smem>>
      %37 = arith.subi %36, %35 : i32
      %38 = arith.minsi %37, %c128_i32 : i32
      %39 = tpu.memref_slice %arg10[%c0_i32, %35, %c0_i32, %c0_i32, %c0_i32] <%38> : memref<8x8192x2x2x128xbf16, #tpu.tiled<(2,128)(2,1),[16384,2,1,1,1]>, #tpu.memory_space<vmem>> -> memref<8x?x2x2x128xbf16, #tpu.tiled<(2,128)(2,1),[16384,2,1,1,1]>, #tpu.memory_space<vmem>>
      %40 = tpu.erase_memref_layout %39 : memref<8x?x2x2x128xbf16, #tpu.tiled<(2,128)(2,1),[16384,2,1,1,1]>, #tpu.memory_space<vmem>> -> memref<8x?x2x2x128xbf16, strided<[4194304, 512, 256, 128, 1], offset: ?>, #tpu.memory_space<vmem>>
      %41 = tpu.memref_slice %arg17[%c0_i32, %c0_i32, %c0_i32, %c0_i32, %c0_i32, %c0_i32] : memref<2x8x128x2x2x128xbf16, #tpu.tiled<(2,128)(2,1),[2048,256,2,1,1,1]>, #tpu.memory_space<vmem>> -> memref<1x8x128x2x2x128xbf16, #tpu.tiled<(2,128)(2,1),[2048,256,2,1,1,1]>, #tpu.memory_space<vmem>>
      %42 = tpu.memref_squeeze %41 : memref<1x8x128x2x2x128xbf16, #tpu.tiled<(2,128)(2,1),[2048,256,2,1,1,1]>, #tpu.memory_space<vmem>> -> memref<8x128x2x2x128xbf16, #tpu.tiled<(2,128)(2,1),[256,2,1,1,1]>, #tpu.memory_space<vmem>>
      %43 = tpu.memref_slice %42[%c0_i32, %c0_i32, %c0_i32, %c0_i32, %c0_i32] <%38> : memref<8x128x2x2x128xbf16, #tpu.tiled<(2,128)(2,1),[256,2,1,1,1]>, #tpu.memory_space<vmem>> -> memref<8x?x2x2x128xbf16, #tpu.tiled<(2,128)(2,1),[256,2,1,1,1]>, #tpu.memory_space<vmem>>
      %44 = tpu.erase_memref_layout %43 : memref<8x?x2x2x128xbf16, #tpu.tiled<(2,128)(2,1),[256,2,1,1,1]>, #tpu.memory_space<vmem>> -> memref<8x?x2x2x128xbf16, strided<[65536, 512, 256, 128, 1]>, #tpu.memory_space<vmem>>
      %45 = tpu.memref_slice %arg19[%c1_i32, %c0_i32] : memref<5x2x!tpu.dma_semaphore, #tpu.tiled<,[2,1]>, #tpu.memory_space<semaphore_mem>> -> memref<1x1x!tpu.dma_semaphore, #tpu.tiled<,[2,1]>, #tpu.memory_space<semaphore_mem>>
      %46 = tpu.memref_squeeze %45 : memref<1x1x!tpu.dma_semaphore, #tpu.tiled<,[2,1]>, #tpu.memory_space<semaphore_mem>> -> memref<!tpu.dma_semaphore, #tpu.tiled<,[]>, #tpu.memory_space<semaphore_mem>>
      %47 = tpu.erase_memref_layout %46 : memref<!tpu.dma_semaphore, #tpu.tiled<,[]>, #tpu.memory_space<semaphore_mem>> -> memref<!tpu.dma_semaphore, strided<[], offset: 2>, #tpu.memory_space<semaphore_mem>>
      tpu.enqueue_dma source(%40 : memref<8x?x2x2x128xbf16, strided<[4194304, 512, 256, 128, 1], offset: ?>, #tpu.memory_space<vmem>>) target(%44 : memref<8x?x2x2x128xbf16, strided<[65536, 512, 256, 128, 1]>, #tpu.memory_space<vmem>>) target_semaphore(%47 : memref<!tpu.dma_semaphore, strided<[], offset: 2>, #tpu.memory_space<semaphore_mem>>)
      %48 = memref.load %0[%c0] : memref<128xi32, #tpu.memory_space<smem>>
      %49 = memref.load %2[%c0] : memref<128xi32, #tpu.memory_space<smem>>
      %50 = memref.load %2[%c1] : memref<128xi32, #tpu.memory_space<smem>>
      %51 = arith.subi %50, %49 : i32
      %52 = arith.subi %48, %51 : i32
      %53 = arith.maxsi %52, %c0_i32 : i32
      %54 = arith.subi %48, %53 : i32
      %55 = arith.addi %53, %c127_i32 : i32
      %56 = arith.divsi %55, %c128_i32 : i32
      %57 = arith.cmpi sgt, %55, %c0_i32 : i32
      %58 = arith.extui %57 : i1 to i32
      %59 = arith.cmpi slt, %55, %c0_i32 : i32
      %60 = arith.extui %59 : i1 to i32
      %61 = arith.subi %58, %60 : i32
      %62 = arith.cmpi ne, %61, %c1_i32 : i32
      %63 = arith.remsi %55, %c128_i32 : i32
      %64 = arith.cmpi ne, %63, %c0_i32 : i32
      %65 = arith.andi %62, %64 : i1
      %66 = arith.subi %56, %c1_i32 : i32
      %67 = arith.select %65, %66, %56 : i32
      %68 = arith.minsi %67, %c8_i32 : i32
      %69 = arith.subi %c1024_i32, %53 : i32
      %70 = arith.maxsi %69, %c0_i32 : i32
      %71 = arith.minsi %70, %54 : i32
      %72 = memref.load %3[%c0] : memref<128xi32, #tpu.memory_space<smem>>
      %73 = arith.addi %72, %c127_i32 : i32
      %74 = arith.divsi %73, %c128_i32 : i32
      %75 = arith.cmpi sgt, %73, %c0_i32 : i32
      %76 = arith.extui %75 : i1 to i32
      %77 = arith.cmpi slt, %73, %c0_i32 : i32
      %78 = arith.extui %77 : i1 to i32
      %79 = arith.subi %76, %78 : i32
      %80 = arith.cmpi ne, %79, %c1_i32 : i32
      %81 = arith.remsi %73, %c128_i32 : i32
      %82 = arith.cmpi ne, %81, %c0_i32 : i32
      %83 = arith.andi %80, %82 : i1
      %84 = arith.subi %74, %c1_i32 : i32
      %85 = arith.select %83, %84, %74 : i32
      %86 = memref.load %7[%c4] : memref<128xi32, #tpu.memory_space<smem>>
      %87 = arith.cmpi sgt, %86, %c0_i32 : i32
      scf.if %87 {
        %90 = memref.load %7[%c0] : memref<128xi32, #tpu.memory_space<smem>>
        %91 = memref.load %7[%c2] : memref<128xi32, #tpu.memory_space<smem>>
        memref.store %c0_i32, %7[%c4] : memref<128xi32, #tpu.memory_space<smem>>
        %92 = arith.divsi %91, %c1024_i32 : i32
        %93 = arith.cmpi sgt, %91, %c0_i32 : i32
        %94 = arith.extui %93 : i1 to i32
        %95 = arith.cmpi slt, %91, %c0_i32 : i32
        %96 = arith.extui %95 : i1 to i32
        %97 = arith.subi %94, %96 : i32
        %98 = arith.cmpi ne, %97, %c1_i32 : i32
        %99 = arith.remsi %91, %c1024_i32 : i32
        %100 = arith.cmpi ne, %99, %c0_i32 : i32
        %101 = arith.andi %98, %100 : i1
        %102 = arith.subi %92, %c1_i32 : i32
        %103 = arith.select %101, %102, %92 : i32
        %104 = arith.divsi %91, %c128_i32 : i32
        %105 = arith.remsi %91, %c128_i32 : i32
        %106 = arith.cmpi ne, %105, %c0_i32 : i32
        %107 = arith.andi %98, %106 : i1
        %108 = arith.subi %104, %c1_i32 : i32
        %109 = arith.select %107, %108, %104 : i32
        %110 = arith.addi %91, %86 : i32
        %111 = arith.addi %110, %c127_i32 : i32
        %112 = arith.divsi %111, %c128_i32 : i32
        %113 = arith.cmpi sgt, %111, %c0_i32 : i32
        %114 = arith.extui %113 : i1 to i32
        %115 = arith.cmpi slt, %111, %c0_i32 : i32
        %116 = arith.extui %115 : i1 to i32
        %117 = arith.subi %114, %116 : i32
        %118 = arith.cmpi ne, %117, %c1_i32 : i32
        %119 = arith.remsi %111, %c128_i32 : i32
        %120 = arith.cmpi ne, %119, %c0_i32 : i32
        %121 = arith.andi %118, %120 : i1
        %122 = arith.subi %112, %c1_i32 : i32
        %123 = arith.select %121, %122, %112 : i32
        %124 = arith.cmpi slt, %105, %c0_i32 : i32
        %125 = arith.andi %124, %106 : i1
        %126 = arith.addi %105, %c128_i32 : i32
        %127 = arith.select %125, %126, %105 : i32
        %128 = arith.muli %103, %c8_i32 : i32
        %129 = arith.subi %109, %128 : i32
        %130 = arith.index_cast %90 : i32 to index
        %131 = memref.load %3[%130] : memref<128xi32, #tpu.memory_space<smem>>
        %132 = arith.addi %131, %c127_i32 : i32
        %133 = arith.divsi %132, %c128_i32 : i32
        %134 = arith.cmpi sgt, %132, %c0_i32 : i32
        %135 = arith.extui %134 : i1 to i32
        %136 = arith.cmpi slt, %132, %c0_i32 : i32
        %137 = arith.extui %136 : i1 to i32
        %138 = arith.subi %135, %137 : i32
        %139 = arith.cmpi ne, %138, %c1_i32 : i32
        %140 = arith.remsi %132, %c128_i32 : i32
        %141 = arith.cmpi ne, %140, %c0_i32 : i32
        %142 = arith.andi %139, %141 : i1
        %143 = arith.subi %133, %c1_i32 : i32
        %144 = arith.select %142, %143, %133 : i32
        %145 = arith.addi %144, %109 : i32
        %146 = arith.subi %123, %109 : i32
        %147:2 = scf.for %arg23 = %c0_i32 to %146 step %c1_i32 iter_args(%arg24 = %86, %arg25 = %127) -> (i32, i32)  : i32 {
          %148 = arith.subi %c128_i32, %arg25 : i32
          %149 = arith.minsi %148, %arg24 : i32
          %150 = arith.addi %129, %arg23 : i32
          %151 = arith.muli %150, %c128_i32 : i32
          %152 = arith.addi %151, %arg25 : i32
          %153 = arith.addi %145, %arg23 : i32
          %154 = arith.index_cast %153 : i32 to index
          %155 = memref.load %1[%154] : memref<2048xi32, #tpu.memory_space<smem>>
          %156 = arith.muli %155, %c128_i32 : i32
          %157 = arith.addi %156, %arg25 : i32
          %158 = tpu.memref_slice %arg16[%c0_i32, %c0_i32, %c0_i32, %c0_i32, %c0_i32] : memref<2x1024x8x2x128xbf16, #tpu.tiled<(2,128)(2,1),[8192,8,1,1,1]>, #tpu.memory_space<vmem>> -> memref<1x1024x8x2x128xbf16, #tpu.tiled<(2,128)(2,1),[8192,8,1,1,1]>, #tpu.memory_space<vmem>>
          %159 = tpu.memref_squeeze %158 : memref<1x1024x8x2x128xbf16, #tpu.tiled<(2,128)(2,1),[8192,8,1,1,1]>, #tpu.memory_space<vmem>> -> memref<1024x8x2x128xbf16, #tpu.tiled<(2,128)(2,1),[8,1,1,1]>, #tpu.memory_space<vmem>>
          %160 = tpu.memref_slice %159[%152, %c0_i32, %c0_i32, %c0_i32] <%149> : memref<1024x8x2x128xbf16, #tpu.tiled<(2,128)(2,1),[8,1,1,1]>, #tpu.memory_space<vmem>> -> memref<?x8x2x128xbf16, #tpu.tiled<(2,128)(2,1),[8,1,1,1]>, #tpu.memory_space<vmem>>
          %161 = tpu.erase_memref_layout %160 : memref<?x8x2x128xbf16, #tpu.tiled<(2,128)(2,1),[8,1,1,1]>, #tpu.memory_space<vmem>> -> memref<?x8x2x128xbf16, strided<[2048, 256, 128, 1], offset: ?>, #tpu.memory_space<vmem>>
          %162 = tpu.memref_reshape %arg15 : memref<4688x128x8x2x128xbf16, #tpu.tiled<(2,128)(2,1),[1024,8,1,1,1]>, #tpu.memory_space<hbm>> -> memref<600064x8x2x128xbf16, #tpu.tiled<(2,128)(2,1),[8,1,1,1]>, #tpu.memory_space<hbm>>
          %163 = tpu.memref_slice %162[%157, %c0_i32, %c0_i32, %c0_i32] <%149> : memref<600064x8x2x128xbf16, #tpu.tiled<(2,128)(2,1),[8,1,1,1]>, #tpu.memory_space<hbm>> -> memref<?x8x2x128xbf16, #tpu.tiled<(2,128)(2,1),[8,1,1,1]>, #tpu.memory_space<hbm>>
          %164 = tpu.erase_memref_layout %163 : memref<?x8x2x128xbf16, #tpu.tiled<(2,128)(2,1),[8,1,1,1]>, #tpu.memory_space<hbm>> -> memref<?x8x2x128xbf16, strided<[2048, 256, 128, 1], offset: ?>, #tpu.memory_space<hbm>>
          %165 = tpu.memref_slice %arg19[%c3_i32, %c0_i32] : memref<5x2x!tpu.dma_semaphore, #tpu.tiled<,[2,1]>, #tpu.memory_space<semaphore_mem>> -> memref<1x1x!tpu.dma_semaphore, #tpu.tiled<,[2,1]>, #tpu.memory_space<semaphore_mem>>
          %166 = tpu.memref_squeeze %165 : memref<1x1x!tpu.dma_semaphore, #tpu.tiled<,[2,1]>, #tpu.memory_space<semaphore_mem>> -> memref<!tpu.dma_semaphore, #tpu.tiled<,[]>, #tpu.memory_space<semaphore_mem>>
          %167 = tpu.erase_memref_layout %166 : memref<!tpu.dma_semaphore, #tpu.tiled<,[]>, #tpu.memory_space<semaphore_mem>> -> memref<!tpu.dma_semaphore, strided<[], offset: 6>, #tpu.memory_space<semaphore_mem>>
          tpu.wait_dma2 semaphore(%167 : memref<!tpu.dma_semaphore, strided<[], offset: 6>, #tpu.memory_space<semaphore_mem>>) src(%161 : memref<?x8x2x128xbf16, strided<[2048, 256, 128, 1], offset: ?>, #tpu.memory_space<vmem>>) dst(%164 : memref<?x8x2x128xbf16, strided<[2048, 256, 128, 1], offset: ?>, #tpu.memory_space<hbm>>)
          %168 = arith.subi %arg24, %149 : i32
          scf.yield %168, %c0_i32 : i32, i32
        }
      }
      %88 = scf.for %arg23 = %c0_i32 to %68 step %c1_i32 iter_args(%arg24 = %c0_i32) -> (i32)  : i32 {
        %90 = arith.muli %arg23, %c128_i32 : i32
        %91 = arith.subi %53, %90 : i32
        %92 = arith.minsi %91, %c128_i32 : i32
        %93 = arith.addi %85, %arg23 : i32
        %94 = arith.index_cast %93 : i32 to index
        %95 = memref.load %1[%94] : memref<2048xi32, #tpu.memory_space<smem>>
        %96 = arith.muli %95, %c128_i32 : i32
        %97 = tpu.memref_reshape %arg12 : memref<4688x128x8x2x128xbf16, #tpu.tiled<(2,128)(2,1),[1024,8,1,1,1]>, #tpu.memory_space<hbm>> -> memref<600064x8x2x128xbf16, #tpu.tiled<(2,128)(2,1),[8,1,1,1]>, #tpu.memory_space<hbm>>
        %98 = tpu.memref_slice %97[%96, %c0_i32, %c0_i32, %c0_i32] <%92> : memref<600064x8x2x128xbf16, #tpu.tiled<(2,128)(2,1),[8,1,1,1]>, #tpu.memory_space<hbm>> -> memref<?x8x2x128xbf16, #tpu.tiled<(2,128)(2,1),[8,1,1,1]>, #tpu.memory_space<hbm>>
        %99 = tpu.erase_memref_layout %98 : memref<?x8x2x128xbf16, #tpu.tiled<(2,128)(2,1),[8,1,1,1]>, #tpu.memory_space<hbm>> -> memref<?x8x2x128xbf16, strided<[2048, 256, 128, 1], offset: ?>, #tpu.memory_space<hbm>>
        %100 = tpu.memref_slice %arg16[%c0_i32, %c0_i32, %c0_i32, %c0_i32, %c0_i32] : memref<2x1024x8x2x128xbf16, #tpu.tiled<(2,128)(2,1),[8192,8,1,1,1]>, #tpu.memory_space<vmem>> -> memref<1x1024x8x2x128xbf16, #tpu.tiled<(2,128)(2,1),[8192,8,1,1,1]>, #tpu.memory_space<vmem>>
        %101 = tpu.memref_squeeze %100 : memref<1x1024x8x2x128xbf16, #tpu.tiled<(2,128)(2,1),[8192,8,1,1,1]>, #tpu.memory_space<vmem>> -> memref<1024x8x2x128xbf16, #tpu.tiled<(2,128)(2,1),[8,1,1,1]>, #tpu.memory_space<vmem>>
        %102 = tpu.memref_slice %101[%90, %c0_i32, %c0_i32, %c0_i32] <%92> : memref<1024x8x2x128xbf16, #tpu.tiled<(2,128)(2,1),[8,1,1,1]>, #tpu.memory_space<vmem>> -> memref<?x8x2x128xbf16, #tpu.tiled<(2,128)(2,1),[8,1,1,1]>, #tpu.memory_space<vmem>>
        %103 = tpu.erase_memref_layout %102 : memref<?x8x2x128xbf16, #tpu.tiled<(2,128)(2,1),[8,1,1,1]>, #tpu.memory_space<vmem>> -> memref<?x8x2x128xbf16, strided<[2048, 256, 128, 1], offset: ?>, #tpu.memory_space<vmem>>
        %104 = tpu.memref_slice %arg19[%c0_i32, %c0_i32] : memref<5x2x!tpu.dma_semaphore, #tpu.tiled<,[2,1]>, #tpu.memory_space<semaphore_mem>> -> memref<1x1x!tpu.dma_semaphore, #tpu.tiled<,[2,1]>, #tpu.memory_space<semaphore_mem>>
        %105 = tpu.memref_squeeze %104 : memref<1x1x!tpu.dma_semaphore, #tpu.tiled<,[2,1]>, #tpu.memory_space<semaphore_mem>> -> memref<!tpu.dma_semaphore, #tpu.tiled<,[]>, #tpu.memory_space<semaphore_mem>>
        %106 = tpu.erase_memref_layout %105 : memref<!tpu.dma_semaphore, #tpu.tiled<,[]>, #tpu.memory_space<semaphore_mem>> -> memref<!tpu.dma_semaphore, strided<[]>, #tpu.memory_space<semaphore_mem>>
        tpu.enqueue_dma source(%99 : memref<?x8x2x128xbf16, strided<[2048, 256, 128, 1], offset: ?>, #tpu.memory_space<hbm>>) target(%103 : memref<?x8x2x128xbf16, strided<[2048, 256, 128, 1], offset: ?>, #tpu.memory_space<vmem>>) target_semaphore(%106 : memref<!tpu.dma_semaphore, strided<[]>, #tpu.memory_space<semaphore_mem>>)
        %107 = arith.addi %arg24, %92 : i32
        scf.yield %107 : i32
      }
      %89 = arith.cmpi sgt, %71, %c0_i32 : i32
      scf.if %89 {
        %90 = arith.subi %50, %54 : i32
        %91 = tpu.memref_slice %arg11[%90, %c0_i32, %c0_i32, %c0_i32] <%71> : memref<8192x8x2x128xbf16, #tpu.tiled<(2,128)(2,1),[8,1,1,1]>, #tpu.memory_space<hbm>> -> memref<?x8x2x128xbf16, #tpu.tiled<(2,128)(2,1),[8,1,1,1]>, #tpu.memory_space<hbm>>
        %92 = tpu.erase_memref_layout %91 : memref<?x8x2x128xbf16, #tpu.tiled<(2,128)(2,1),[8,1,1,1]>, #tpu.memory_space<hbm>> -> memref<?x8x2x128xbf16, strided<[2048, 256, 128, 1], offset: ?>, #tpu.memory_space<hbm>>
        %93 = tpu.memref_slice %arg16[%c0_i32, %c0_i32, %c0_i32, %c0_i32, %c0_i32] : memref<2x1024x8x2x128xbf16, #tpu.tiled<(2,128)(2,1),[8192,8,1,1,1]>, #tpu.memory_space<vmem>> -> memref<1x1024x8x2x128xbf16, #tpu.tiled<(2,128)(2,1),[8192,8,1,1,1]>, #tpu.memory_space<vmem>>
        %94 = tpu.memref_squeeze %93 : memref<1x1024x8x2x128xbf16, #tpu.tiled<(2,128)(2,1),[8192,8,1,1,1]>, #tpu.memory_space<vmem>> -> memref<1024x8x2x128xbf16, #tpu.tiled<(2,128)(2,1),[8,1,1,1]>, #tpu.memory_space<vmem>>
        %95 = tpu.memref_slice %94[%88, %c0_i32, %c0_i32, %c0_i32] <%71> : memref<1024x8x2x128xbf16, #tpu.tiled<(2,128)(2,1),[8,1,1,1]>, #tpu.memory_space<vmem>> -> memref<?x8x2x128xbf16, #tpu.tiled<(2,128)(2,1),[8,1,1,1]>, #tpu.memory_space<vmem>>
        %96 = tpu.erase_memref_layout %95 : memref<?x8x2x128xbf16, #tpu.tiled<(2,128)(2,1),[8,1,1,1]>, #tpu.memory_space<vmem>> -> memref<?x8x2x128xbf16, strided<[2048, 256, 128, 1], offset: ?>, #tpu.memory_space<vmem>>
        %97 = tpu.memref_slice %arg19[%c0_i32, %c0_i32] : memref<5x2x!tpu.dma_semaphore, #tpu.tiled<,[2,1]>, #tpu.memory_space<semaphore_mem>> -> memref<1x1x!tpu.dma_semaphore, #tpu.tiled<,[2,1]>, #tpu.memory_space<semaphore_mem>>
        %98 = tpu.memref_squeeze %97 : memref<1x1x!tpu.dma_semaphore, #tpu.tiled<,[2,1]>, #tpu.memory_space<semaphore_mem>> -> memref<!tpu.dma_semaphore, #tpu.tiled<,[]>, #tpu.memory_space<semaphore_mem>>
        %99 = tpu.erase_memref_layout %98 : memref<!tpu.dma_semaphore, #tpu.tiled<,[]>, #tpu.memory_space<semaphore_mem>> -> memref<!tpu.dma_semaphore, strided<[]>, #tpu.memory_space<semaphore_mem>>
        tpu.enqueue_dma source(%92 : memref<?x8x2x128xbf16, strided<[2048, 256, 128, 1], offset: ?>, #tpu.memory_space<hbm>>) target(%96 : memref<?x8x2x128xbf16, strided<[2048, 256, 128, 1], offset: ?>, #tpu.memory_space<vmem>>) target_semaphore(%99 : memref<!tpu.dma_semaphore, strided<[]>, #tpu.memory_space<semaphore_mem>>)
      }
    }
    %26 = arith.cmpi slt, %arg0, %15 : i32
    scf.if %26 {
      %35 = arith.addi %24, %c1023_i32 : i32
      %36 = arith.divsi %35, %c1024_i32 : i32
      %37 = arith.cmpi sgt, %35, %c0_i32 : i32
      %38 = arith.extui %37 : i1 to i32
      %39 = arith.cmpi slt, %35, %c0_i32 : i32
      %40 = arith.extui %39 : i1 to i32
      %41 = arith.subi %38, %40 : i32
      %42 = arith.cmpi ne, %41, %c1_i32 : i32
      %43 = arith.remsi %35, %c1024_i32 : i32
      %44 = arith.cmpi ne, %43, %c0_i32 : i32
      %45 = arith.andi %42, %44 : i1
      %46 = arith.subi %36, %c1_i32 : i32
      %47 = arith.select %45, %46, %36 : i32
      %48 = memref.load %5[%c0] : memref<128xi32, #tpu.memory_space<smem>>
      %49 = arith.cmpi eq, %48, %c0_i32 : i32
      %50 = arith.extui %49 : i1 to i32
      %51 = arith.cmpi slt, %20, %14 : i32
      scf.if %51 {
        memref.store %50, %5[%c0] : memref<128xi32, #tpu.memory_space<smem>>
        %85 = memref.load %2[%21] : memref<128xi32, #tpu.memory_space<smem>>
        %86 = arith.addi %arg0, %c2_i32 : i32
        %87 = arith.index_cast %86 : i32 to index
        %88 = memref.load %2[%87] : memref<128xi32, #tpu.memory_space<smem>>
        %89 = arith.subi %88, %85 : i32
        %90 = arith.minsi %89, %c128_i32 : i32
        %91 = tpu.memref_slice %arg10[%c0_i32, %85, %c0_i32, %c0_i32, %c0_i32] <%90> : memref<8x8192x2x2x128xbf16, #tpu.tiled<(2,128)(2,1),[16384,2,1,1,1]>, #tpu.memory_space<vmem>> -> memref<8x?x2x2x128xbf16, #tpu.tiled<(2,128)(2,1),[16384,2,1,1,1]>, #tpu.memory_space<vmem>>
        %92 = tpu.erase_memref_layout %91 : memref<8x?x2x2x128xbf16, #tpu.tiled<(2,128)(2,1),[16384,2,1,1,1]>, #tpu.memory_space<vmem>> -> memref<8x?x2x2x128xbf16, strided<[4194304, 512, 256, 128, 1], offset: ?>, #tpu.memory_space<vmem>>
        %93 = tpu.memref_slice %arg17[%50, %c0_i32, %c0_i32, %c0_i32, %c0_i32, %c0_i32] : memref<2x8x128x2x2x128xbf16, #tpu.tiled<(2,128)(2,1),[2048,256,2,1,1,1]>, #tpu.memory_space<vmem>> -> memref<1x8x128x2x2x128xbf16, #tpu.tiled<(2,128)(2,1),[2048,256,2,1,1,1]>, #tpu.memory_space<vmem>>
        %94 = tpu.memref_squeeze %93 : memref<1x8x128x2x2x128xbf16, #tpu.tiled<(2,128)(2,1),[2048,256,2,1,1,1]>, #tpu.memory_space<vmem>> -> memref<8x128x2x2x128xbf16, #tpu.tiled<(2,128)(2,1),[256,2,1,1,1]>, #tpu.memory_space<vmem>>
        %95 = tpu.memref_slice %94[%c0_i32, %c0_i32, %c0_i32, %c0_i32, %c0_i32] <%90> : memref<8x128x2x2x128xbf16, #tpu.tiled<(2,128)(2,1),[256,2,1,1,1]>, #tpu.memory_space<vmem>> -> memref<8x?x2x2x128xbf16, #tpu.tiled<(2,128)(2,1),[256,2,1,1,1]>, #tpu.memory_space<vmem>>
        %96 = tpu.erase_memref_layout %95 : memref<8x?x2x2x128xbf16, #tpu.tiled<(2,128)(2,1),[256,2,1,1,1]>, #tpu.memory_space<vmem>> -> memref<8x?x2x2x128xbf16, strided<[65536, 512, 256, 128, 1], offset: ?>, #tpu.memory_space<vmem>>
        %97 = tpu.memref_slice %arg19[%c1_i32, %50] : memref<5x2x!tpu.dma_semaphore, #tpu.tiled<,[2,1]>, #tpu.memory_space<semaphore_mem>> -> memref<1x1x!tpu.dma_semaphore, #tpu.tiled<,[2,1]>, #tpu.memory_space<semaphore_mem>>
        %98 = tpu.memref_squeeze %97 : memref<1x1x!tpu.dma_semaphore, #tpu.tiled<,[2,1]>, #tpu.memory_space<semaphore_mem>> -> memref<!tpu.dma_semaphore, #tpu.tiled<,[]>, #tpu.memory_space<semaphore_mem>>
        %99 = tpu.erase_memref_layout %98 : memref<!tpu.dma_semaphore, #tpu.tiled<,[]>, #tpu.memory_space<semaphore_mem>> -> memref<!tpu.dma_semaphore, strided<[], offset: ?>, #tpu.memory_space<semaphore_mem>>
        tpu.enqueue_dma source(%92 : memref<8x?x2x2x128xbf16, strided<[4194304, 512, 256, 128, 1], offset: ?>, #tpu.memory_space<vmem>>) target(%96 : memref<8x?x2x2x128xbf16, strided<[65536, 512, 256, 128, 1], offset: ?>, #tpu.memory_space<vmem>>) target_semaphore(%99 : memref<!tpu.dma_semaphore, strided<[], offset: ?>, #tpu.memory_space<semaphore_mem>>)
      }
      scf.for %arg23 = %c0_i32 to %47 step %c1_i32  : i32 {
        %85 = arith.muli %arg23, %c1024_i32 : i32
        %86 = arith.subi %24, %85 : i32
        %87 = arith.minsi %86, %c1024_i32 : i32
        %88 = tpu.iota {dimensions = array<i32: 0>} : vector<1024x128xi32>
        %89 = vector.broadcast %87 : i32 to vector<1024x128xi32>
        %90 = arith.cmpi slt, %88, %89 : vector<1024x128xi32>
        %91 = arith.select %90, %cst_17, %cst_16 : vector<1024x128xi1>, vector<1024x128xi32>
        %92 = arith.trunci %91 : vector<1024x128xi32> to vector<1024x128xi16>
        %93 = tpu.bitcast %92 : vector<1024x128xi16> -> vector<512x128xi32>
        %94 = memref.load %5[%c1] : memref<128xi32, #tpu.memory_space<smem>>
        %95 = arith.addi %arg23, %c1_i32 : i32
        %96 = arith.cmpi eq, %95, %47 : i32
        %97 = arith.select %96, %c0_i32, %95 : i32
        %98 = arith.extui %96 : i1 to i32
        %99 = arith.cmpi eq, %98, %c1_i32 : i32
        %100 = arith.select %99, %20, %arg0 : i32
        %101 = arith.cmpi eq, %94, %c0_i32 : i32
        %102 = arith.extui %101 : i1 to i32
        %103 = arith.cmpi slt, %100, %14 : i32
        scf.if %103 {
          memref.store %102, %5[%c1] : memref<128xi32, #tpu.memory_space<smem>>
          %625 = arith.index_cast %100 : i32 to index
          %626 = memref.load %0[%625] : memref<128xi32, #tpu.memory_space<smem>>
          %627 = arith.muli %97, %c1024_i32 : i32
          %628 = arith.muli %97, %c8_i32 : i32
          %629 = memref.load %2[%625] : memref<128xi32, #tpu.memory_space<smem>>
          %630 = arith.addi %100, %c1_i32 : i32
          %631 = arith.index_cast %630 : i32 to index
          %632 = memref.load %2[%631] : memref<128xi32, #tpu.memory_space<smem>>
          %633 = arith.subi %632, %629 : i32
          %634 = arith.subi %626, %627 : i32
          %635 = arith.subi %634, %633 : i32
          %636 = arith.maxsi %635, %c0_i32 : i32
          %637 = arith.subi %634, %636 : i32
          %638 = arith.addi %636, %c127_i32 : i32
          %639 = arith.divsi %638, %c128_i32 : i32
          %640 = arith.cmpi sgt, %638, %c0_i32 : i32
          %641 = arith.extui %640 : i1 to i32
          %642 = arith.cmpi slt, %638, %c0_i32 : i32
          %643 = arith.extui %642 : i1 to i32
          %644 = arith.subi %641, %643 : i32
          %645 = arith.cmpi ne, %644, %c1_i32 : i32
          %646 = arith.remsi %638, %c128_i32 : i32
          %647 = arith.cmpi ne, %646, %c0_i32 : i32
          %648 = arith.andi %645, %647 : i1
          %649 = arith.subi %639, %c1_i32 : i32
          %650 = arith.select %648, %649, %639 : i32
          %651 = arith.minsi %650, %c8_i32 : i32
          %652 = arith.subi %c1024_i32, %636 : i32
          %653 = arith.maxsi %652, %c0_i32 : i32
          %654 = arith.minsi %653, %637 : i32
          %655 = memref.load %3[%625] : memref<128xi32, #tpu.memory_space<smem>>
          %656 = arith.addi %655, %c127_i32 : i32
          %657 = arith.divsi %656, %c128_i32 : i32
          %658 = arith.cmpi sgt, %656, %c0_i32 : i32
          %659 = arith.extui %658 : i1 to i32
          %660 = arith.cmpi slt, %656, %c0_i32 : i32
          %661 = arith.extui %660 : i1 to i32
          %662 = arith.subi %659, %661 : i32
          %663 = arith.cmpi ne, %662, %c1_i32 : i32
          %664 = arith.remsi %656, %c128_i32 : i32
          %665 = arith.cmpi ne, %664, %c0_i32 : i32
          %666 = arith.andi %663, %665 : i1
          %667 = arith.subi %657, %c1_i32 : i32
          %668 = arith.select %666, %667, %657 : i32
          %669 = arith.addi %668, %628 : i32
          %670 = arith.addi %102, %c4_i32 : i32
          %671 = arith.index_cast %670 : i32 to index
          %672 = memref.load %7[%671] : memref<128xi32, #tpu.memory_space<smem>>
          %673 = arith.cmpi sgt, %672, %c0_i32 : i32
          scf.if %673 {
            %676 = arith.index_cast %102 : i32 to index
            %677 = memref.load %7[%676] : memref<128xi32, #tpu.memory_space<smem>>
            %678 = arith.addi %102, %c2_i32 : i32
            %679 = arith.index_cast %678 : i32 to index
            %680 = memref.load %7[%679] : memref<128xi32, #tpu.memory_space<smem>>
            memref.store %c0_i32, %7[%671] : memref<128xi32, #tpu.memory_space<smem>>
            %681 = arith.divsi %680, %c1024_i32 : i32
            %682 = arith.cmpi sgt, %680, %c0_i32 : i32
            %683 = arith.extui %682 : i1 to i32
            %684 = arith.cmpi slt, %680, %c0_i32 : i32
            %685 = arith.extui %684 : i1 to i32
            %686 = arith.subi %683, %685 : i32
            %687 = arith.cmpi ne, %686, %c1_i32 : i32
            %688 = arith.remsi %680, %c1024_i32 : i32
            %689 = arith.cmpi ne, %688, %c0_i32 : i32
            %690 = arith.andi %687, %689 : i1
            %691 = arith.subi %681, %c1_i32 : i32
            %692 = arith.select %690, %691, %681 : i32
            %693 = arith.divsi %680, %c128_i32 : i32
            %694 = arith.remsi %680, %c128_i32 : i32
            %695 = arith.cmpi ne, %694, %c0_i32 : i32
            %696 = arith.andi %687, %695 : i1
            %697 = arith.subi %693, %c1_i32 : i32
            %698 = arith.select %696, %697, %693 : i32
            %699 = arith.addi %680, %672 : i32
            %700 = arith.addi %699, %c127_i32 : i32
            %701 = arith.divsi %700, %c128_i32 : i32
            %702 = arith.cmpi sgt, %700, %c0_i32 : i32
            %703 = arith.extui %702 : i1 to i32
            %704 = arith.cmpi slt, %700, %c0_i32 : i32
            %705 = arith.extui %704 : i1 to i32
            %706 = arith.subi %703, %705 : i32
            %707 = arith.cmpi ne, %706, %c1_i32 : i32
            %708 = arith.remsi %700, %c128_i32 : i32
            %709 = arith.cmpi ne, %708, %c0_i32 : i32
            %710 = arith.andi %707, %709 : i1
            %711 = arith.subi %701, %c1_i32 : i32
            %712 = arith.select %710, %711, %701 : i32
            %713 = arith.cmpi slt, %694, %c0_i32 : i32
            %714 = arith.andi %713, %695 : i1
            %715 = arith.addi %694, %c128_i32 : i32
            %716 = arith.select %714, %715, %694 : i32
            %717 = arith.muli %692, %c8_i32 : i32
            %718 = arith.subi %698, %717 : i32
            %719 = arith.index_cast %677 : i32 to index
            %720 = memref.load %3[%719] : memref<128xi32, #tpu.memory_space<smem>>
            %721 = arith.addi %720, %c127_i32 : i32
            %722 = arith.divsi %721, %c128_i32 : i32
            %723 = arith.cmpi sgt, %721, %c0_i32 : i32
            %724 = arith.extui %723 : i1 to i32
            %725 = arith.cmpi slt, %721, %c0_i32 : i32
            %726 = arith.extui %725 : i1 to i32
            %727 = arith.subi %724, %726 : i32
            %728 = arith.cmpi ne, %727, %c1_i32 : i32
            %729 = arith.remsi %721, %c128_i32 : i32
            %730 = arith.cmpi ne, %729, %c0_i32 : i32
            %731 = arith.andi %728, %730 : i1
            %732 = arith.subi %722, %c1_i32 : i32
            %733 = arith.select %731, %732, %722 : i32
            %734 = arith.addi %733, %698 : i32
            %735 = arith.subi %712, %698 : i32
            %736:2 = scf.for %arg24 = %c0_i32 to %735 step %c1_i32 iter_args(%arg25 = %672, %arg26 = %716) -> (i32, i32)  : i32 {
              %737 = arith.subi %c128_i32, %arg26 : i32
              %738 = arith.minsi %737, %arg25 : i32
              %739 = arith.addi %718, %arg24 : i32
              %740 = arith.muli %739, %c128_i32 : i32
              %741 = arith.addi %740, %arg26 : i32
              %742 = arith.addi %734, %arg24 : i32
              %743 = arith.index_cast %742 : i32 to index
              %744 = memref.load %1[%743] : memref<2048xi32, #tpu.memory_space<smem>>
              %745 = arith.muli %744, %c128_i32 : i32
              %746 = arith.addi %745, %arg26 : i32
              %747 = tpu.memref_slice %arg16[%102, %c0_i32, %c0_i32, %c0_i32, %c0_i32] : memref<2x1024x8x2x128xbf16, #tpu.tiled<(2,128)(2,1),[8192,8,1,1,1]>, #tpu.memory_space<vmem>> -> memref<1x1024x8x2x128xbf16, #tpu.tiled<(2,128)(2,1),[8192,8,1,1,1]>, #tpu.memory_space<vmem>>
              %748 = tpu.memref_squeeze %747 : memref<1x1024x8x2x128xbf16, #tpu.tiled<(2,128)(2,1),[8192,8,1,1,1]>, #tpu.memory_space<vmem>> -> memref<1024x8x2x128xbf16, #tpu.tiled<(2,128)(2,1),[8,1,1,1]>, #tpu.memory_space<vmem>>
              %749 = tpu.memref_slice %748[%741, %c0_i32, %c0_i32, %c0_i32] <%738> : memref<1024x8x2x128xbf16, #tpu.tiled<(2,128)(2,1),[8,1,1,1]>, #tpu.memory_space<vmem>> -> memref<?x8x2x128xbf16, #tpu.tiled<(2,128)(2,1),[8,1,1,1]>, #tpu.memory_space<vmem>>
              %750 = tpu.erase_memref_layout %749 : memref<?x8x2x128xbf16, #tpu.tiled<(2,128)(2,1),[8,1,1,1]>, #tpu.memory_space<vmem>> -> memref<?x8x2x128xbf16, strided<[2048, 256, 128, 1], offset: ?>, #tpu.memory_space<vmem>>
              %751 = tpu.memref_reshape %arg15 : memref<4688x128x8x2x128xbf16, #tpu.tiled<(2,128)(2,1),[1024,8,1,1,1]>, #tpu.memory_space<hbm>> -> memref<600064x8x2x128xbf16, #tpu.tiled<(2,128)(2,1),[8,1,1,1]>, #tpu.memory_space<hbm>>
              %752 = tpu.memref_slice %751[%746, %c0_i32, %c0_i32, %c0_i32] <%738> : memref<600064x8x2x128xbf16, #tpu.tiled<(2,128)(2,1),[8,1,1,1]>, #tpu.memory_space<hbm>> -> memref<?x8x2x128xbf16, #tpu.tiled<(2,128)(2,1),[8,1,1,1]>, #tpu.memory_space<hbm>>
              %753 = tpu.erase_memref_layout %752 : memref<?x8x2x128xbf16, #tpu.tiled<(2,128)(2,1),[8,1,1,1]>, #tpu.memory_space<hbm>> -> memref<?x8x2x128xbf16, strided<[2048, 256, 128, 1], offset: ?>, #tpu.memory_space<hbm>>
              %754 = tpu.memref_slice %arg19[%c3_i32, %102] : memref<5x2x!tpu.dma_semaphore, #tpu.tiled<,[2,1]>, #tpu.memory_space<semaphore_mem>> -> memref<1x1x!tpu.dma_semaphore, #tpu.tiled<,[2,1]>, #tpu.memory_space<semaphore_mem>>
              %755 = tpu.memref_squeeze %754 : memref<1x1x!tpu.dma_semaphore, #tpu.tiled<,[2,1]>, #tpu.memory_space<semaphore_mem>> -> memref<!tpu.dma_semaphore, #tpu.tiled<,[]>, #tpu.memory_space<semaphore_mem>>
              %756 = tpu.erase_memref_layout %755 : memref<!tpu.dma_semaphore, #tpu.tiled<,[]>, #tpu.memory_space<semaphore_mem>> -> memref<!tpu.dma_semaphore, strided<[], offset: ?>, #tpu.memory_space<semaphore_mem>>
              tpu.wait_dma2 semaphore(%756 : memref<!tpu.dma_semaphore, strided<[], offset: ?>, #tpu.memory_space<semaphore_mem>>) src(%750 : memref<?x8x2x128xbf16, strided<[2048, 256, 128, 1], offset: ?>, #tpu.memory_space<vmem>>) dst(%753 : memref<?x8x2x128xbf16, strided<[2048, 256, 128, 1], offset: ?>, #tpu.memory_space<hbm>>)
              %757 = arith.subi %arg25, %738 : i32
              scf.yield %757, %c0_i32 : i32, i32
            }
          }
          %674 = scf.for %arg24 = %c0_i32 to %651 step %c1_i32 iter_args(%arg25 = %c0_i32) -> (i32)  : i32 {
            %676 = arith.muli %arg24, %c128_i32 : i32
            %677 = arith.subi %636, %676 : i32
            %678 = arith.minsi %677, %c128_i32 : i32
            %679 = arith.addi %669, %arg24 : i32
            %680 = arith.index_cast %679 : i32 to index
            %681 = memref.load %1[%680] : memref<2048xi32, #tpu.memory_space<smem>>
            %682 = arith.muli %681, %c128_i32 : i32
            %683 = tpu.memref_reshape %arg12 : memref<4688x128x8x2x128xbf16, #tpu.tiled<(2,128)(2,1),[1024,8,1,1,1]>, #tpu.memory_space<hbm>> -> memref<600064x8x2x128xbf16, #tpu.tiled<(2,128)(2,1),[8,1,1,1]>, #tpu.memory_space<hbm>>
            %684 = tpu.memref_slice %683[%682, %c0_i32, %c0_i32, %c0_i32] <%678> : memref<600064x8x2x128xbf16, #tpu.tiled<(2,128)(2,1),[8,1,1,1]>, #tpu.memory_space<hbm>> -> memref<?x8x2x128xbf16, #tpu.tiled<(2,128)(2,1),[8,1,1,1]>, #tpu.memory_space<hbm>>
            %685 = tpu.erase_memref_layout %684 : memref<?x8x2x128xbf16, #tpu.tiled<(2,128)(2,1),[8,1,1,1]>, #tpu.memory_space<hbm>> -> memref<?x8x2x128xbf16, strided<[2048, 256, 128, 1], offset: ?>, #tpu.memory_space<hbm>>
            %686 = tpu.memref_slice %arg16[%102, %c0_i32, %c0_i32, %c0_i32, %c0_i32] : memref<2x1024x8x2x128xbf16, #tpu.tiled<(2,128)(2,1),[8192,8,1,1,1]>, #tpu.memory_space<vmem>> -> memref<1x1024x8x2x128xbf16, #tpu.tiled<(2,128)(2,1),[8192,8,1,1,1]>, #tpu.memory_space<vmem>>
            %687 = tpu.memref_squeeze %686 : memref<1x1024x8x2x128xbf16, #tpu.tiled<(2,128)(2,1),[8192,8,1,1,1]>, #tpu.memory_space<vmem>> -> memref<1024x8x2x128xbf16, #tpu.tiled<(2,128)(2,1),[8,1,1,1]>, #tpu.memory_space<vmem>>
            %688 = tpu.memref_slice %687[%676, %c0_i32, %c0_i32, %c0_i32] <%678> : memref<1024x8x2x128xbf16, #tpu.tiled<(2,128)(2,1),[8,1,1,1]>, #tpu.memory_space<vmem>> -> memref<?x8x2x128xbf16, #tpu.tiled<(2,128)(2,1),[8,1,1,1]>, #tpu.memory_space<vmem>>
            %689 = tpu.erase_memref_layout %688 : memref<?x8x2x128xbf16, #tpu.tiled<(2,128)(2,1),[8,1,1,1]>, #tpu.memory_space<vmem>> -> memref<?x8x2x128xbf16, strided<[2048, 256, 128, 1], offset: ?>, #tpu.memory_space<vmem>>
            %690 = tpu.memref_slice %arg19[%c0_i32, %102] : memref<5x2x!tpu.dma_semaphore, #tpu.tiled<,[2,1]>, #tpu.memory_space<semaphore_mem>> -> memref<1x1x!tpu.dma_semaphore, #tpu.tiled<,[2,1]>, #tpu.memory_space<semaphore_mem>>
            %691 = tpu.memref_squeeze %690 : memref<1x1x!tpu.dma_semaphore, #tpu.tiled<,[2,1]>, #tpu.memory_space<semaphore_mem>> -> memref<!tpu.dma_semaphore, #tpu.tiled<,[]>, #tpu.memory_space<semaphore_mem>>
            %692 = tpu.erase_memref_layout %691 : memref<!tpu.dma_semaphore, #tpu.tiled<,[]>, #tpu.memory_space<semaphore_mem>> -> memref<!tpu.dma_semaphore, strided<[], offset: ?>, #tpu.memory_space<semaphore_mem>>
            tpu.enqueue_dma source(%685 : memref<?x8x2x128xbf16, strided<[2048, 256, 128, 1], offset: ?>, #tpu.memory_space<hbm>>) target(%689 : memref<?x8x2x128xbf16, strided<[2048, 256, 128, 1], offset: ?>, #tpu.memory_space<vmem>>) target_semaphore(%692 : memref<!tpu.dma_semaphore, strided<[], offset: ?>, #tpu.memory_space<semaphore_mem>>)
            %693 = arith.addi %arg25, %678 : i32
            scf.yield %693 : i32
          }
          %675 = arith.cmpi sgt, %654, %c0_i32 : i32
          scf.if %675 {
            %676 = arith.subi %632, %637 : i32
            %677 = tpu.memref_slice %arg11[%676, %c0_i32, %c0_i32, %c0_i32] <%654> : memref<8192x8x2x128xbf16, #tpu.tiled<(2,128)(2,1),[8,1,1,1]>, #tpu.memory_space<hbm>> -> memref<?x8x2x128xbf16, #tpu.tiled<(2,128)(2,1),[8,1,1,1]>, #tpu.memory_space<hbm>>
            %678 = tpu.erase_memref_layout %677 : memref<?x8x2x128xbf16, #tpu.tiled<(2,128)(2,1),[8,1,1,1]>, #tpu.memory_space<hbm>> -> memref<?x8x2x128xbf16, strided<[2048, 256, 128, 1], offset: ?>, #tpu.memory_space<hbm>>
            %679 = tpu.memref_slice %arg16[%102, %c0_i32, %c0_i32, %c0_i32, %c0_i32] : memref<2x1024x8x2x128xbf16, #tpu.tiled<(2,128)(2,1),[8192,8,1,1,1]>, #tpu.memory_space<vmem>> -> memref<1x1024x8x2x128xbf16, #tpu.tiled<(2,128)(2,1),[8192,8,1,1,1]>, #tpu.memory_space<vmem>>
            %680 = tpu.memref_squeeze %679 : memref<1x1024x8x2x128xbf16, #tpu.tiled<(2,128)(2,1),[8192,8,1,1,1]>, #tpu.memory_space<vmem>> -> memref<1024x8x2x128xbf16, #tpu.tiled<(2,128)(2,1),[8,1,1,1]>, #tpu.memory_space<vmem>>
            %681 = tpu.memref_slice %680[%674, %c0_i32, %c0_i32, %c0_i32] <%654> : memref<1024x8x2x128xbf16, #tpu.tiled<(2,128)(2,1),[8,1,1,1]>, #tpu.memory_space<vmem>> -> memref<?x8x2x128xbf16, #tpu.tiled<(2,128)(2,1),[8,1,1,1]>, #tpu.memory_space<vmem>>
            %682 = tpu.erase_memref_layout %681 : memref<?x8x2x128xbf16, #tpu.tiled<(2,128)(2,1),[8,1,1,1]>, #tpu.memory_space<vmem>> -> memref<?x8x2x128xbf16, strided<[2048, 256, 128, 1], offset: ?>, #tpu.memory_space<vmem>>
            %683 = tpu.memref_slice %arg19[%c0_i32, %102] : memref<5x2x!tpu.dma_semaphore, #tpu.tiled<,[2,1]>, #tpu.memory_space<semaphore_mem>> -> memref<1x1x!tpu.dma_semaphore, #tpu.tiled<,[2,1]>, #tpu.memory_space<semaphore_mem>>
            %684 = tpu.memref_squeeze %683 : memref<1x1x!tpu.dma_semaphore, #tpu.tiled<,[2,1]>, #tpu.memory_space<semaphore_mem>> -> memref<!tpu.dma_semaphore, #tpu.tiled<,[]>, #tpu.memory_space<semaphore_mem>>
            %685 = tpu.erase_memref_layout %684 : memref<!tpu.dma_semaphore, #tpu.tiled<,[]>, #tpu.memory_space<semaphore_mem>> -> memref<!tpu.dma_semaphore, strided<[], offset: ?>, #tpu.memory_space<semaphore_mem>>
            tpu.enqueue_dma source(%678 : memref<?x8x2x128xbf16, strided<[2048, 256, 128, 1], offset: ?>, #tpu.memory_space<hbm>>) target(%682 : memref<?x8x2x128xbf16, strided<[2048, 256, 128, 1], offset: ?>, #tpu.memory_space<vmem>>) target_semaphore(%685 : memref<!tpu.dma_semaphore, strided<[], offset: ?>, #tpu.memory_space<semaphore_mem>>)
          }
        }
        %104 = arith.cmpi eq, %arg23, %c0_i32 : i32
        scf.if %104 {
          %625 = memref.load %2[%18] : memref<128xi32, #tpu.memory_space<smem>>
          %626 = memref.load %2[%21] : memref<128xi32, #tpu.memory_space<smem>>
          %627 = arith.subi %626, %625 : i32
          %628 = arith.minsi %627, %c128_i32 : i32
          %629 = tpu.memref_slice %arg10[%c0_i32, %625, %c0_i32, %c0_i32, %c0_i32] <%628> : memref<8x8192x2x2x128xbf16, #tpu.tiled<(2,128)(2,1),[16384,2,1,1,1]>, #tpu.memory_space<vmem>> -> memref<8x?x2x2x128xbf16, #tpu.tiled<(2,128)(2,1),[16384,2,1,1,1]>, #tpu.memory_space<vmem>>
          %630 = tpu.erase_memref_layout %629 : memref<8x?x2x2x128xbf16, #tpu.tiled<(2,128)(2,1),[16384,2,1,1,1]>, #tpu.memory_space<vmem>> -> memref<8x?x2x2x128xbf16, strided<[4194304, 512, 256, 128, 1], offset: ?>, #tpu.memory_space<vmem>>
          %631 = tpu.memref_slice %arg17[%48, %c0_i32, %c0_i32, %c0_i32, %c0_i32, %c0_i32] : memref<2x8x128x2x2x128xbf16, #tpu.tiled<(2,128)(2,1),[2048,256,2,1,1,1]>, #tpu.memory_space<vmem>> -> memref<1x8x128x2x2x128xbf16, #tpu.tiled<(2,128)(2,1),[2048,256,2,1,1,1]>, #tpu.memory_space<vmem>>
          %632 = tpu.memref_squeeze %631 : memref<1x8x128x2x2x128xbf16, #tpu.tiled<(2,128)(2,1),[2048,256,2,1,1,1]>, #tpu.memory_space<vmem>> -> memref<8x128x2x2x128xbf16, #tpu.tiled<(2,128)(2,1),[256,2,1,1,1]>, #tpu.memory_space<vmem>>
          %633 = tpu.memref_slice %632[%c0_i32, %c0_i32, %c0_i32, %c0_i32, %c0_i32] <%628> : memref<8x128x2x2x128xbf16, #tpu.tiled<(2,128)(2,1),[256,2,1,1,1]>, #tpu.memory_space<vmem>> -> memref<8x?x2x2x128xbf16, #tpu.tiled<(2,128)(2,1),[256,2,1,1,1]>, #tpu.memory_space<vmem>>
          %634 = tpu.erase_memref_layout %633 : memref<8x?x2x2x128xbf16, #tpu.tiled<(2,128)(2,1),[256,2,1,1,1]>, #tpu.memory_space<vmem>> -> memref<8x?x2x2x128xbf16, strided<[65536, 512, 256, 128, 1], offset: ?>, #tpu.memory_space<vmem>>
          %635 = tpu.memref_slice %arg19[%c1_i32, %48] : memref<5x2x!tpu.dma_semaphore, #tpu.tiled<,[2,1]>, #tpu.memory_space<semaphore_mem>> -> memref<1x1x!tpu.dma_semaphore, #tpu.tiled<,[2,1]>, #tpu.memory_space<semaphore_mem>>
          %636 = tpu.memref_squeeze %635 : memref<1x1x!tpu.dma_semaphore, #tpu.tiled<,[2,1]>, #tpu.memory_space<semaphore_mem>> -> memref<!tpu.dma_semaphore, #tpu.tiled<,[]>, #tpu.memory_space<semaphore_mem>>
          %637 = tpu.erase_memref_layout %636 : memref<!tpu.dma_semaphore, #tpu.tiled<,[]>, #tpu.memory_space<semaphore_mem>> -> memref<!tpu.dma_semaphore, strided<[], offset: ?>, #tpu.memory_space<semaphore_mem>>
          tpu.wait_dma2 semaphore(%637 : memref<!tpu.dma_semaphore, strided<[], offset: ?>, #tpu.memory_space<semaphore_mem>>) src(%630 : memref<8x?x2x2x128xbf16, strided<[4194304, 512, 256, 128, 1], offset: ?>, #tpu.memory_space<vmem>>) dst(%634 : memref<8x?x2x2x128xbf16, strided<[65536, 512, 256, 128, 1], offset: ?>, #tpu.memory_space<vmem>>)
        }
        %105 = memref.load %0[%18] : memref<128xi32, #tpu.memory_space<smem>>
        %106 = arith.muli %arg23, %c8_i32 : i32
        %107 = memref.load %2[%18] : memref<128xi32, #tpu.memory_space<smem>>
        %108 = memref.load %2[%21] : memref<128xi32, #tpu.memory_space<smem>>
        %109 = arith.subi %108, %107 : i32
        %110 = arith.subi %105, %85 : i32
        %111 = arith.subi %110, %109 : i32
        %112 = arith.maxsi %111, %c0_i32 : i32
        %113 = arith.subi %110, %112 : i32
        %114 = arith.addi %112, %c127_i32 : i32
        %115 = arith.divsi %114, %c128_i32 : i32
        %116 = arith.cmpi sgt, %114, %c0_i32 : i32
        %117 = arith.extui %116 : i1 to i32
        %118 = arith.cmpi slt, %114, %c0_i32 : i32
        %119 = arith.extui %118 : i1 to i32
        %120 = arith.subi %117, %119 : i32
        %121 = arith.cmpi ne, %120, %c1_i32 : i32
        %122 = arith.remsi %114, %c128_i32 : i32
        %123 = arith.cmpi ne, %122, %c0_i32 : i32
        %124 = arith.andi %121, %123 : i1
        %125 = arith.subi %115, %c1_i32 : i32
        %126 = arith.select %124, %125, %115 : i32
        %127 = arith.minsi %126, %c8_i32 : i32
        %128 = arith.subi %c1024_i32, %112 : i32
        %129 = arith.maxsi %128, %c0_i32 : i32
        %130 = arith.minsi %129, %113 : i32
        %131 = memref.load %3[%18] : memref<128xi32, #tpu.memory_space<smem>>
        %132 = arith.addi %131, %c127_i32 : i32
        %133 = arith.divsi %132, %c128_i32 : i32
        %134 = arith.cmpi sgt, %132, %c0_i32 : i32
        %135 = arith.extui %134 : i1 to i32
        %136 = arith.cmpi slt, %132, %c0_i32 : i32
        %137 = arith.extui %136 : i1 to i32
        %138 = arith.subi %135, %137 : i32
        %139 = arith.cmpi ne, %138, %c1_i32 : i32
        %140 = arith.remsi %132, %c128_i32 : i32
        %141 = arith.cmpi ne, %140, %c0_i32 : i32
        %142 = arith.andi %139, %141 : i1
        %143 = arith.subi %133, %c1_i32 : i32
        %144 = arith.select %142, %143, %133 : i32
        %145 = arith.addi %144, %106 : i32
        %146 = arith.addi %94, %c4_i32 : i32
        %147 = arith.index_cast %146 : i32 to index
        %148 = memref.load %7[%147] : memref<128xi32, #tpu.memory_space<smem>>
        %149 = arith.cmpi sgt, %148, %c0_i32 : i32
        scf.if %149 {
          %625 = arith.index_cast %94 : i32 to index
          %626 = memref.load %7[%625] : memref<128xi32, #tpu.memory_space<smem>>
          %627 = arith.addi %94, %c2_i32 : i32
          %628 = arith.index_cast %627 : i32 to index
          %629 = memref.load %7[%628] : memref<128xi32, #tpu.memory_space<smem>>
          memref.store %c0_i32, %7[%147] : memref<128xi32, #tpu.memory_space<smem>>
          %630 = arith.divsi %629, %c1024_i32 : i32
          %631 = arith.cmpi sgt, %629, %c0_i32 : i32
          %632 = arith.extui %631 : i1 to i32
          %633 = arith.cmpi slt, %629, %c0_i32 : i32
          %634 = arith.extui %633 : i1 to i32
          %635 = arith.subi %632, %634 : i32
          %636 = arith.cmpi ne, %635, %c1_i32 : i32
          %637 = arith.remsi %629, %c1024_i32 : i32
          %638 = arith.cmpi ne, %637, %c0_i32 : i32
          %639 = arith.andi %636, %638 : i1
          %640 = arith.subi %630, %c1_i32 : i32
          %641 = arith.select %639, %640, %630 : i32
          %642 = arith.divsi %629, %c128_i32 : i32
          %643 = arith.remsi %629, %c128_i32 : i32
          %644 = arith.cmpi ne, %643, %c0_i32 : i32
          %645 = arith.andi %636, %644 : i1
          %646 = arith.subi %642, %c1_i32 : i32
          %647 = arith.select %645, %646, %642 : i32
          %648 = arith.addi %629, %148 : i32
          %649 = arith.addi %648, %c127_i32 : i32
          %650 = arith.divsi %649, %c128_i32 : i32
          %651 = arith.cmpi sgt, %649, %c0_i32 : i32
          %652 = arith.extui %651 : i1 to i32
          %653 = arith.cmpi slt, %649, %c0_i32 : i32
          %654 = arith.extui %653 : i1 to i32
          %655 = arith.subi %652, %654 : i32
          %656 = arith.cmpi ne, %655, %c1_i32 : i32
          %657 = arith.remsi %649, %c128_i32 : i32
          %658 = arith.cmpi ne, %657, %c0_i32 : i32
          %659 = arith.andi %656, %658 : i1
          %660 = arith.subi %650, %c1_i32 : i32
          %661 = arith.select %659, %660, %650 : i32
          %662 = arith.cmpi slt, %643, %c0_i32 : i32
          %663 = arith.andi %662, %644 : i1
          %664 = arith.addi %643, %c128_i32 : i32
          %665 = arith.select %663, %664, %643 : i32
          %666 = arith.muli %641, %c8_i32 : i32
          %667 = arith.subi %647, %666 : i32
          %668 = arith.index_cast %626 : i32 to index
          %669 = memref.load %3[%668] : memref<128xi32, #tpu.memory_space<smem>>
          %670 = arith.addi %669, %c127_i32 : i32
          %671 = arith.divsi %670, %c128_i32 : i32
          %672 = arith.cmpi sgt, %670, %c0_i32 : i32
          %673 = arith.extui %672 : i1 to i32
          %674 = arith.cmpi slt, %670, %c0_i32 : i32
          %675 = arith.extui %674 : i1 to i32
          %676 = arith.subi %673, %675 : i32
          %677 = arith.cmpi ne, %676, %c1_i32 : i32
          %678 = arith.remsi %670, %c128_i32 : i32
          %679 = arith.cmpi ne, %678, %c0_i32 : i32
          %680 = arith.andi %677, %679 : i1
          %681 = arith.subi %671, %c1_i32 : i32
          %682 = arith.select %680, %681, %671 : i32
          %683 = arith.addi %682, %647 : i32
          %684 = arith.subi %661, %647 : i32
          %685:2 = scf.for %arg24 = %c0_i32 to %684 step %c1_i32 iter_args(%arg25 = %148, %arg26 = %665) -> (i32, i32)  : i32 {
            %686 = arith.subi %c128_i32, %arg26 : i32
            %687 = arith.minsi %686, %arg25 : i32
            %688 = arith.addi %667, %arg24 : i32
            %689 = arith.muli %688, %c128_i32 : i32
            %690 = arith.addi %689, %arg26 : i32
            %691 = arith.addi %683, %arg24 : i32
            %692 = arith.index_cast %691 : i32 to index
            %693 = memref.load %1[%692] : memref<2048xi32, #tpu.memory_space<smem>>
            %694 = arith.muli %693, %c128_i32 : i32
            %695 = arith.addi %694, %arg26 : i32
            %696 = tpu.memref_slice %arg16[%94, %c0_i32, %c0_i32, %c0_i32, %c0_i32] : memref<2x1024x8x2x128xbf16, #tpu.tiled<(2,128)(2,1),[8192,8,1,1,1]>, #tpu.memory_space<vmem>> -> memref<1x1024x8x2x128xbf16, #tpu.tiled<(2,128)(2,1),[8192,8,1,1,1]>, #tpu.memory_space<vmem>>
            %697 = tpu.memref_squeeze %696 : memref<1x1024x8x2x128xbf16, #tpu.tiled<(2,128)(2,1),[8192,8,1,1,1]>, #tpu.memory_space<vmem>> -> memref<1024x8x2x128xbf16, #tpu.tiled<(2,128)(2,1),[8,1,1,1]>, #tpu.memory_space<vmem>>
            %698 = tpu.memref_slice %697[%690, %c0_i32, %c0_i32, %c0_i32] <%687> : memref<1024x8x2x128xbf16, #tpu.tiled<(2,128)(2,1),[8,1,1,1]>, #tpu.memory_space<vmem>> -> memref<?x8x2x128xbf16, #tpu.tiled<(2,128)(2,1),[8,1,1,1]>, #tpu.memory_space<vmem>>
            %699 = tpu.erase_memref_layout %698 : memref<?x8x2x128xbf16, #tpu.tiled<(2,128)(2,1),[8,1,1,1]>, #tpu.memory_space<vmem>> -> memref<?x8x2x128xbf16, strided<[2048, 256, 128, 1], offset: ?>, #tpu.memory_space<vmem>>
            %700 = tpu.memref_reshape %arg15 : memref<4688x128x8x2x128xbf16, #tpu.tiled<(2,128)(2,1),[1024,8,1,1,1]>, #tpu.memory_space<hbm>> -> memref<600064x8x2x128xbf16, #tpu.tiled<(2,128)(2,1),[8,1,1,1]>, #tpu.memory_space<hbm>>
            %701 = tpu.memref_slice %700[%695, %c0_i32, %c0_i32, %c0_i32] <%687> : memref<600064x8x2x128xbf16, #tpu.tiled<(2,128)(2,1),[8,1,1,1]>, #tpu.memory_space<hbm>> -> memref<?x8x2x128xbf16, #tpu.tiled<(2,128)(2,1),[8,1,1,1]>, #tpu.memory_space<hbm>>
            %702 = tpu.erase_memref_layout %701 : memref<?x8x2x128xbf16, #tpu.tiled<(2,128)(2,1),[8,1,1,1]>, #tpu.memory_space<hbm>> -> memref<?x8x2x128xbf16, strided<[2048, 256, 128, 1], offset: ?>, #tpu.memory_space<hbm>>
            %703 = tpu.memref_slice %arg19[%c3_i32, %94] : memref<5x2x!tpu.dma_semaphore, #tpu.tiled<,[2,1]>, #tpu.memory_space<semaphore_mem>> -> memref<1x1x!tpu.dma_semaphore, #tpu.tiled<,[2,1]>, #tpu.memory_space<semaphore_mem>>
            %704 = tpu.memref_squeeze %703 : memref<1x1x!tpu.dma_semaphore, #tpu.tiled<,[2,1]>, #tpu.memory_space<semaphore_mem>> -> memref<!tpu.dma_semaphore, #tpu.tiled<,[]>, #tpu.memory_space<semaphore_mem>>
            %705 = tpu.erase_memref_layout %704 : memref<!tpu.dma_semaphore, #tpu.tiled<,[]>, #tpu.memory_space<semaphore_mem>> -> memref<!tpu.dma_semaphore, strided<[], offset: ?>, #tpu.memory_space<semaphore_mem>>
            tpu.wait_dma2 semaphore(%705 : memref<!tpu.dma_semaphore, strided<[], offset: ?>, #tpu.memory_space<semaphore_mem>>) src(%699 : memref<?x8x2x128xbf16, strided<[2048, 256, 128, 1], offset: ?>, #tpu.memory_space<vmem>>) dst(%702 : memref<?x8x2x128xbf16, strided<[2048, 256, 128, 1], offset: ?>, #tpu.memory_space<hbm>>)
            %706 = arith.subi %arg25, %687 : i32
            scf.yield %706, %c0_i32 : i32, i32
          }
        }
        %150 = scf.for %arg24 = %c0_i32 to %127 step %c1_i32 iter_args(%arg25 = %c0_i32) -> (i32)  : i32 {
          %625 = arith.muli %arg24, %c128_i32 : i32
          %626 = arith.subi %112, %625 : i32
          %627 = arith.minsi %626, %c128_i32 : i32
          %628 = arith.addi %145, %arg24 : i32
          %629 = arith.index_cast %628 : i32 to index
          %630 = memref.load %1[%629] : memref<2048xi32, #tpu.memory_space<smem>>
          %631 = arith.muli %630, %c128_i32 : i32
          %632 = tpu.memref_reshape %arg12 : memref<4688x128x8x2x128xbf16, #tpu.tiled<(2,128)(2,1),[1024,8,1,1,1]>, #tpu.memory_space<hbm>> -> memref<600064x8x2x128xbf16, #tpu.tiled<(2,128)(2,1),[8,1,1,1]>, #tpu.memory_space<hbm>>
          %633 = tpu.memref_slice %632[%631, %c0_i32, %c0_i32, %c0_i32] <%627> : memref<600064x8x2x128xbf16, #tpu.tiled<(2,128)(2,1),[8,1,1,1]>, #tpu.memory_space<hbm>> -> memref<?x8x2x128xbf16, #tpu.tiled<(2,128)(2,1),[8,1,1,1]>, #tpu.memory_space<hbm>>
          %634 = tpu.erase_memref_layout %633 : memref<?x8x2x128xbf16, #tpu.tiled<(2,128)(2,1),[8,1,1,1]>, #tpu.memory_space<hbm>> -> memref<?x8x2x128xbf16, strided<[2048, 256, 128, 1], offset: ?>, #tpu.memory_space<hbm>>
          %635 = tpu.memref_slice %arg16[%94, %c0_i32, %c0_i32, %c0_i32, %c0_i32] : memref<2x1024x8x2x128xbf16, #tpu.tiled<(2,128)(2,1),[8192,8,1,1,1]>, #tpu.memory_space<vmem>> -> memref<1x1024x8x2x128xbf16, #tpu.tiled<(2,128)(2,1),[8192,8,1,1,1]>, #tpu.memory_space<vmem>>
          %636 = tpu.memref_squeeze %635 : memref<1x1024x8x2x128xbf16, #tpu.tiled<(2,128)(2,1),[8192,8,1,1,1]>, #tpu.memory_space<vmem>> -> memref<1024x8x2x128xbf16, #tpu.tiled<(2,128)(2,1),[8,1,1,1]>, #tpu.memory_space<vmem>>
          %637 = tpu.memref_slice %636[%625, %c0_i32, %c0_i32, %c0_i32] <%627> : memref<1024x8x2x128xbf16, #tpu.tiled<(2,128)(2,1),[8,1,1,1]>, #tpu.memory_space<vmem>> -> memref<?x8x2x128xbf16, #tpu.tiled<(2,128)(2,1),[8,1,1,1]>, #tpu.memory_space<vmem>>
          %638 = tpu.erase_memref_layout %637 : memref<?x8x2x128xbf16, #tpu.tiled<(2,128)(2,1),[8,1,1,1]>, #tpu.memory_space<vmem>> -> memref<?x8x2x128xbf16, strided<[2048, 256, 128, 1], offset: ?>, #tpu.memory_space<vmem>>
          %639 = tpu.memref_slice %arg19[%c0_i32, %94] : memref<5x2x!tpu.dma_semaphore, #tpu.tiled<,[2,1]>, #tpu.memory_space<semaphore_mem>> -> memref<1x1x!tpu.dma_semaphore, #tpu.tiled<,[2,1]>, #tpu.memory_space<semaphore_mem>>
          %640 = tpu.memref_squeeze %639 : memref<1x1x!tpu.dma_semaphore, #tpu.tiled<,[2,1]>, #tpu.memory_space<semaphore_mem>> -> memref<!tpu.dma_semaphore, #tpu.tiled<,[]>, #tpu.memory_space<semaphore_mem>>
          %641 = tpu.erase_memref_layout %640 : memref<!tpu.dma_semaphore, #tpu.tiled<,[]>, #tpu.memory_space<semaphore_mem>> -> memref<!tpu.dma_semaphore, strided<[], offset: ?>, #tpu.memory_space<semaphore_mem>>
          tpu.wait_dma2 semaphore(%641 : memref<!tpu.dma_semaphore, strided<[], offset: ?>, #tpu.memory_space<semaphore_mem>>) src(%634 : memref<?x8x2x128xbf16, strided<[2048, 256, 128, 1], offset: ?>, #tpu.memory_space<hbm>>) dst(%638 : memref<?x8x2x128xbf16, strided<[2048, 256, 128, 1], offset: ?>, #tpu.memory_space<vmem>>)
          %642 = arith.addi %arg25, %627 : i32
          scf.yield %642 : i32
        }
        %151 = arith.cmpi sgt, %130, %c0_i32 : i32
        scf.if %151 {
          %625 = arith.subi %108, %113 : i32
          %626 = tpu.memref_slice %arg11[%625, %c0_i32, %c0_i32, %c0_i32] <%130> : memref<8192x8x2x128xbf16, #tpu.tiled<(2,128)(2,1),[8,1,1,1]>, #tpu.memory_space<hbm>> -> memref<?x8x2x128xbf16, #tpu.tiled<(2,128)(2,1),[8,1,1,1]>, #tpu.memory_space<hbm>>
          %627 = tpu.erase_memref_layout %626 : memref<?x8x2x128xbf16, #tpu.tiled<(2,128)(2,1),[8,1,1,1]>, #tpu.memory_space<hbm>> -> memref<?x8x2x128xbf16, strided<[2048, 256, 128, 1], offset: ?>, #tpu.memory_space<hbm>>
          %628 = tpu.memref_slice %arg16[%94, %c0_i32, %c0_i32, %c0_i32, %c0_i32] : memref<2x1024x8x2x128xbf16, #tpu.tiled<(2,128)(2,1),[8192,8,1,1,1]>, #tpu.memory_space<vmem>> -> memref<1x1024x8x2x128xbf16, #tpu.tiled<(2,128)(2,1),[8192,8,1,1,1]>, #tpu.memory_space<vmem>>
          %629 = tpu.memref_squeeze %628 : memref<1x1024x8x2x128xbf16, #tpu.tiled<(2,128)(2,1),[8192,8,1,1,1]>, #tpu.memory_space<vmem>> -> memref<1024x8x2x128xbf16, #tpu.tiled<(2,128)(2,1),[8,1,1,1]>, #tpu.memory_space<vmem>>
          %630 = tpu.memref_slice %629[%150, %c0_i32, %c0_i32, %c0_i32] <%130> : memref<1024x8x2x128xbf16, #tpu.tiled<(2,128)(2,1),[8,1,1,1]>, #tpu.memory_space<vmem>> -> memref<?x8x2x128xbf16, #tpu.tiled<(2,128)(2,1),[8,1,1,1]>, #tpu.memory_space<vmem>>
          %631 = tpu.erase_memref_layout %630 : memref<?x8x2x128xbf16, #tpu.tiled<(2,128)(2,1),[8,1,1,1]>, #tpu.memory_space<vmem>> -> memref<?x8x2x128xbf16, strided<[2048, 256, 128, 1], offset: ?>, #tpu.memory_space<vmem>>
          %632 = tpu.memref_slice %arg19[%c0_i32, %94] : memref<5x2x!tpu.dma_semaphore, #tpu.tiled<,[2,1]>, #tpu.memory_space<semaphore_mem>> -> memref<1x1x!tpu.dma_semaphore, #tpu.tiled<,[2,1]>, #tpu.memory_space<semaphore_mem>>
          %633 = tpu.memref_squeeze %632 : memref<1x1x!tpu.dma_semaphore, #tpu.tiled<,[2,1]>, #tpu.memory_space<semaphore_mem>> -> memref<!tpu.dma_semaphore, #tpu.tiled<,[]>, #tpu.memory_space<semaphore_mem>>
          %634 = tpu.erase_memref_layout %633 : memref<!tpu.dma_semaphore, #tpu.tiled<,[]>, #tpu.memory_space<semaphore_mem>> -> memref<!tpu.dma_semaphore, strided<[], offset: ?>, #tpu.memory_space<semaphore_mem>>
          tpu.wait_dma2 semaphore(%634 : memref<!tpu.dma_semaphore, strided<[], offset: ?>, #tpu.memory_space<semaphore_mem>>) src(%627 : memref<?x8x2x128xbf16, strided<[2048, 256, 128, 1], offset: ?>, #tpu.memory_space<hbm>>) dst(%631 : memref<?x8x2x128xbf16, strided<[2048, 256, 128, 1], offset: ?>, #tpu.memory_space<vmem>>)
        }
        %152 = arith.addi %85, %150 : i32
        scf.if %151 {
          %625 = arith.index_cast %94 : i32 to index
          memref.store %arg0, %7[%625] : memref<128xi32, #tpu.memory_space<smem>>
          %626 = arith.addi %94, %c2_i32 : i32
          %627 = arith.index_cast %626 : i32 to index
          memref.store %152, %7[%627] : memref<128xi32, #tpu.memory_space<smem>>
          memref.store %130, %7[%147] : memref<128xi32, #tpu.memory_space<smem>>
          %628 = arith.divsi %152, %c1024_i32 : i32
          %629 = arith.cmpi sgt, %152, %c0_i32 : i32
          %630 = arith.extui %629 : i1 to i32
          %631 = arith.cmpi slt, %152, %c0_i32 : i32
          %632 = arith.extui %631 : i1 to i32
          %633 = arith.subi %630, %632 : i32
          %634 = arith.cmpi ne, %633, %c1_i32 : i32
          %635 = arith.remsi %152, %c1024_i32 : i32
          %636 = arith.cmpi ne, %635, %c0_i32 : i32
          %637 = arith.andi %634, %636 : i1
          %638 = arith.subi %628, %c1_i32 : i32
          %639 = arith.select %637, %638, %628 : i32
          %640 = arith.divsi %152, %c128_i32 : i32
          %641 = arith.remsi %152, %c128_i32 : i32
          %642 = arith.cmpi ne, %641, %c0_i32 : i32
          %643 = arith.andi %634, %642 : i1
          %644 = arith.subi %640, %c1_i32 : i32
          %645 = arith.select %643, %644, %640 : i32
          %646 = arith.addi %152, %130 : i32
          %647 = arith.addi %646, %c127_i32 : i32
          %648 = arith.divsi %647, %c128_i32 : i32
          %649 = arith.cmpi sgt, %647, %c0_i32 : i32
          %650 = arith.extui %649 : i1 to i32
          %651 = arith.cmpi slt, %647, %c0_i32 : i32
          %652 = arith.extui %651 : i1 to i32
          %653 = arith.subi %650, %652 : i32
          %654 = arith.cmpi ne, %653, %c1_i32 : i32
          %655 = arith.remsi %647, %c128_i32 : i32
          %656 = arith.cmpi ne, %655, %c0_i32 : i32
          %657 = arith.andi %654, %656 : i1
          %658 = arith.subi %648, %c1_i32 : i32
          %659 = arith.select %657, %658, %648 : i32
          %660 = arith.cmpi slt, %641, %c0_i32 : i32
          %661 = arith.andi %660, %642 : i1
          %662 = arith.addi %641, %c128_i32 : i32
          %663 = arith.select %661, %662, %641 : i32
          %664 = arith.muli %639, %c8_i32 : i32
          %665 = arith.subi %645, %664 : i32
          %666 = memref.load %3[%18] : memref<128xi32, #tpu.memory_space<smem>>
          %667 = arith.addi %666, %c127_i32 : i32
          %668 = arith.divsi %667, %c128_i32 : i32
          %669 = arith.cmpi sgt, %667, %c0_i32 : i32
          %670 = arith.extui %669 : i1 to i32
          %671 = arith.cmpi slt, %667, %c0_i32 : i32
          %672 = arith.extui %671 : i1 to i32
          %673 = arith.subi %670, %672 : i32
          %674 = arith.cmpi ne, %673, %c1_i32 : i32
          %675 = arith.remsi %667, %c128_i32 : i32
          %676 = arith.cmpi ne, %675, %c0_i32 : i32
          %677 = arith.andi %674, %676 : i1
          %678 = arith.subi %668, %c1_i32 : i32
          %679 = arith.select %677, %678, %668 : i32
          %680 = arith.addi %679, %645 : i32
          %681 = arith.subi %659, %645 : i32
          %682:2 = scf.for %arg24 = %c0_i32 to %681 step %c1_i32 iter_args(%arg25 = %130, %arg26 = %663) -> (i32, i32)  : i32 {
            %683 = arith.subi %c128_i32, %arg26 : i32
            %684 = arith.minsi %683, %arg25 : i32
            %685 = arith.addi %665, %arg24 : i32
            %686 = arith.muli %685, %c128_i32 : i32
            %687 = arith.addi %686, %arg26 : i32
            %688 = arith.addi %680, %arg24 : i32
            %689 = arith.index_cast %688 : i32 to index
            %690 = memref.load %1[%689] : memref<2048xi32, #tpu.memory_space<smem>>
            %691 = arith.muli %690, %c128_i32 : i32
            %692 = arith.addi %691, %arg26 : i32
            %693 = tpu.memref_slice %arg16[%94, %c0_i32, %c0_i32, %c0_i32, %c0_i32] : memref<2x1024x8x2x128xbf16, #tpu.tiled<(2,128)(2,1),[8192,8,1,1,1]>, #tpu.memory_space<vmem>> -> memref<1x1024x8x2x128xbf16, #tpu.tiled<(2,128)(2,1),[8192,8,1,1,1]>, #tpu.memory_space<vmem>>
            %694 = tpu.memref_squeeze %693 : memref<1x1024x8x2x128xbf16, #tpu.tiled<(2,128)(2,1),[8192,8,1,1,1]>, #tpu.memory_space<vmem>> -> memref<1024x8x2x128xbf16, #tpu.tiled<(2,128)(2,1),[8,1,1,1]>, #tpu.memory_space<vmem>>
            %695 = tpu.memref_slice %694[%687, %c0_i32, %c0_i32, %c0_i32] <%684> : memref<1024x8x2x128xbf16, #tpu.tiled<(2,128)(2,1),[8,1,1,1]>, #tpu.memory_space<vmem>> -> memref<?x8x2x128xbf16, #tpu.tiled<(2,128)(2,1),[8,1,1,1]>, #tpu.memory_space<vmem>>
            %696 = tpu.erase_memref_layout %695 : memref<?x8x2x128xbf16, #tpu.tiled<(2,128)(2,1),[8,1,1,1]>, #tpu.memory_space<vmem>> -> memref<?x8x2x128xbf16, strided<[2048, 256, 128, 1], offset: ?>, #tpu.memory_space<vmem>>
            %697 = tpu.memref_reshape %arg15 : memref<4688x128x8x2x128xbf16, #tpu.tiled<(2,128)(2,1),[1024,8,1,1,1]>, #tpu.memory_space<hbm>> -> memref<600064x8x2x128xbf16, #tpu.tiled<(2,128)(2,1),[8,1,1,1]>, #tpu.memory_space<hbm>>
            %698 = tpu.memref_slice %697[%692, %c0_i32, %c0_i32, %c0_i32] <%684> : memref<600064x8x2x128xbf16, #tpu.tiled<(2,128)(2,1),[8,1,1,1]>, #tpu.memory_space<hbm>> -> memref<?x8x2x128xbf16, #tpu.tiled<(2,128)(2,1),[8,1,1,1]>, #tpu.memory_space<hbm>>
            %699 = tpu.erase_memref_layout %698 : memref<?x8x2x128xbf16, #tpu.tiled<(2,128)(2,1),[8,1,1,1]>, #tpu.memory_space<hbm>> -> memref<?x8x2x128xbf16, strided<[2048, 256, 128, 1], offset: ?>, #tpu.memory_space<hbm>>
            %700 = tpu.memref_slice %arg19[%c3_i32, %94] : memref<5x2x!tpu.dma_semaphore, #tpu.tiled<,[2,1]>, #tpu.memory_space<semaphore_mem>> -> memref<1x1x!tpu.dma_semaphore, #tpu.tiled<,[2,1]>, #tpu.memory_space<semaphore_mem>>
            %701 = tpu.memref_squeeze %700 : memref<1x1x!tpu.dma_semaphore, #tpu.tiled<,[2,1]>, #tpu.memory_space<semaphore_mem>> -> memref<!tpu.dma_semaphore, #tpu.tiled<,[]>, #tpu.memory_space<semaphore_mem>>
            %702 = tpu.erase_memref_layout %701 : memref<!tpu.dma_semaphore, #tpu.tiled<,[]>, #tpu.memory_space<semaphore_mem>> -> memref<!tpu.dma_semaphore, strided<[], offset: ?>, #tpu.memory_space<semaphore_mem>>
            tpu.enqueue_dma source(%696 : memref<?x8x2x128xbf16, strided<[2048, 256, 128, 1], offset: ?>, #tpu.memory_space<vmem>>) target(%699 : memref<?x8x2x128xbf16, strided<[2048, 256, 128, 1], offset: ?>, #tpu.memory_space<hbm>>) target_semaphore(%702 : memref<!tpu.dma_semaphore, strided<[], offset: ?>, #tpu.memory_space<semaphore_mem>>)
            %703 = arith.subi %arg25, %684 : i32
            scf.yield %703, %c0_i32 : i32, i32
          }
        }
        %153 = tpu.memref_bitcast %arg16 : memref<2x1024x8x2x128xbf16, #tpu.tiled<(2,128)(2,1),[8192,8,1,1,1]>, #tpu.memory_space<vmem>> -> memref<2x1024x8x1x128xi32, #tpu.tiled<(1,128),[8192,8,1,1,1]>, #tpu.memory_space<vmem>>
        %154 = tpu.memref_slice %153[%94, %c0_i32, %c0_i32, %c0_i32, %c0_i32] : memref<2x1024x8x1x128xi32, #tpu.tiled<(1,128),[8192,8,1,1,1]>, #tpu.memory_space<vmem>> -> memref<1x1024x8x1x128xi32, #tpu.tiled<(1,128),[8192,8,1,1,1]>, #tpu.memory_space<vmem>>
        %155 = tpu.memref_squeeze %154 : memref<1x1024x8x1x128xi32, #tpu.tiled<(1,128),[8192,8,1,1,1]>, #tpu.memory_space<vmem>> -> memref<1024x8x1x128xi32, #tpu.tiled<(1,128),[8,1,1,1]>, #tpu.memory_space<vmem>>
        %156 = tpu.memref_reshape %155 : memref<1024x8x1x128xi32, #tpu.tiled<(1,128),[8,1,1,1]>, #tpu.memory_space<vmem>> -> memref<8192x128xi32, #tpu.tiled<(1,128),[1,1]>, #tpu.memory_space<vmem>>
        %157 = tpu.memref_reshape %156 : memref<8192x128xi32, #tpu.tiled<(1,128),[1,1]>, #tpu.memory_space<vmem>> -> memref<8192x128xi32, #tpu.tiled<(1,128),[1,1]>, #tpu.memory_space<vmem>>
        %158 = tpu.erase_memref_layout %157 : memref<8192x128xi32, #tpu.tiled<(1,128),[1,1]>, #tpu.memory_space<vmem>> -> memref<8192x128xi32, #tpu.memory_space<vmem>>
        %159 = tpu.strided_load %158[%c0, %c0] {strides = array<i32: 8, 1>} : memref<8192x128xi32, #tpu.memory_space<vmem>>, vector<1024x128xi32>
        %160 = arith.trunci %159 : vector<1024x128xi32> to vector<1024x128xi16>
        %161 = arith.shrui %159, %cst_15 : vector<1024x128xi32>
        %162 = arith.trunci %161 : vector<1024x128xi32> to vector<1024x128xi16>
        %163 = tpu.bitcast %160 : vector<1024x128xi16> -> vector<512x128xi32>
        %164 = tpu.bitcast %162 : vector<1024x128xi16> -> vector<512x128xi32>
        %165 = arith.andi %163, %93 : vector<512x128xi32>
        %166 = arith.andi %164, %93 : vector<512x128xi32>
        %167 = tpu.bitcast %165 : vector<512x128xi32> -> vector<1024x128xbf16>
        %168 = tpu.bitcast %166 : vector<512x128xi32> -> vector<1024x128xbf16>
        %169 = tpu.strided_load %158[%c1, %c0] {strides = array<i32: 8, 1>} : memref<8192x128xi32, #tpu.memory_space<vmem>>, vector<1024x128xi32>
        %170 = arith.trunci %169 : vector<1024x128xi32> to vector<1024x128xi16>
        %171 = arith.shrui %169, %cst_15 : vector<1024x128xi32>
        %172 = arith.trunci %171 : vector<1024x128xi32> to vector<1024x128xi16>
        %173 = tpu.bitcast %170 : vector<1024x128xi16> -> vector<512x128xi32>
        %174 = tpu.bitcast %172 : vector<1024x128xi16> -> vector<512x128xi32>
        %175 = arith.andi %173, %93 : vector<512x128xi32>
        %176 = arith.andi %174, %93 : vector<512x128xi32>
        %177 = tpu.bitcast %175 : vector<512x128xi32> -> vector<1024x128xbf16>
        %178 = tpu.bitcast %176 : vector<512x128xi32> -> vector<1024x128xbf16>
        %179 = tpu.strided_load %158[%c2, %c0] {strides = array<i32: 8, 1>} : memref<8192x128xi32, #tpu.memory_space<vmem>>, vector<1024x128xi32>
        %180 = arith.trunci %179 : vector<1024x128xi32> to vector<1024x128xi16>
        %181 = arith.shrui %179, %cst_15 : vector<1024x128xi32>
        %182 = arith.trunci %181 : vector<1024x128xi32> to vector<1024x128xi16>
        %183 = tpu.bitcast %180 : vector<1024x128xi16> -> vector<512x128xi32>
        %184 = tpu.bitcast %182 : vector<1024x128xi16> -> vector<512x128xi32>
        %185 = arith.andi %183, %93 : vector<512x128xi32>
        %186 = arith.andi %184, %93 : vector<512x128xi32>
        %187 = tpu.bitcast %185 : vector<512x128xi32> -> vector<1024x128xbf16>
        %188 = tpu.bitcast %186 : vector<512x128xi32> -> vector<1024x128xbf16>
        %189 = tpu.strided_load %158[%c3, %c0] {strides = array<i32: 8, 1>} : memref<8192x128xi32, #tpu.memory_space<vmem>>, vector<1024x128xi32>
        %190 = arith.trunci %189 : vector<1024x128xi32> to vector<1024x128xi16>
        %191 = arith.shrui %189, %cst_15 : vector<1024x128xi32>
        %192 = arith.trunci %191 : vector<1024x128xi32> to vector<1024x128xi16>
        %193 = tpu.bitcast %190 : vector<1024x128xi16> -> vector<512x128xi32>
        %194 = tpu.bitcast %192 : vector<1024x128xi16> -> vector<512x128xi32>
        %195 = arith.andi %193, %93 : vector<512x128xi32>
        %196 = arith.andi %194, %93 : vector<512x128xi32>
        %197 = tpu.bitcast %195 : vector<512x128xi32> -> vector<1024x128xbf16>
        %198 = tpu.bitcast %196 : vector<512x128xi32> -> vector<1024x128xbf16>
        %199 = tpu.strided_load %158[%c4, %c0] {strides = array<i32: 8, 1>} : memref<8192x128xi32, #tpu.memory_space<vmem>>, vector<1024x128xi32>
        %200 = arith.trunci %199 : vector<1024x128xi32> to vector<1024x128xi16>
        %201 = arith.shrui %199, %cst_15 : vector<1024x128xi32>
        %202 = arith.trunci %201 : vector<1024x128xi32> to vector<1024x128xi16>
        %203 = tpu.bitcast %200 : vector<1024x128xi16> -> vector<512x128xi32>
        %204 = tpu.bitcast %202 : vector<1024x128xi16> -> vector<512x128xi32>
        %205 = arith.andi %203, %93 : vector<512x128xi32>
        %206 = arith.andi %204, %93 : vector<512x128xi32>
        %207 = tpu.bitcast %205 : vector<512x128xi32> -> vector<1024x128xbf16>
        %208 = tpu.bitcast %206 : vector<512x128xi32> -> vector<1024x128xbf16>
        %209 = tpu.strided_load %158[%c5, %c0] {strides = array<i32: 8, 1>} : memref<8192x128xi32, #tpu.memory_space<vmem>>, vector<1024x128xi32>
        %210 = arith.trunci %209 : vector<1024x128xi32> to vector<1024x128xi16>
        %211 = arith.shrui %209, %cst_15 : vector<1024x128xi32>
        %212 = arith.trunci %211 : vector<1024x128xi32> to vector<1024x128xi16>
        %213 = tpu.bitcast %210 : vector<1024x128xi16> -> vector<512x128xi32>
        %214 = tpu.bitcast %212 : vector<1024x128xi16> -> vector<512x128xi32>
        %215 = arith.andi %213, %93 : vector<512x128xi32>
        %216 = arith.andi %214, %93 : vector<512x128xi32>
        %217 = tpu.bitcast %215 : vector<512x128xi32> -> vector<1024x128xbf16>
        %218 = tpu.bitcast %216 : vector<512x128xi32> -> vector<1024x128xbf16>
        %219 = tpu.strided_load %158[%c6, %c0] {strides = array<i32: 8, 1>} : memref<8192x128xi32, #tpu.memory_space<vmem>>, vector<1024x128xi32>
        %220 = arith.trunci %219 : vector<1024x128xi32> to vector<1024x128xi16>
        %221 = arith.shrui %219, %cst_15 : vector<1024x128xi32>
        %222 = arith.trunci %221 : vector<1024x128xi32> to vector<1024x128xi16>
        %223 = tpu.bitcast %220 : vector<1024x128xi16> -> vector<512x128xi32>
        %224 = tpu.bitcast %222 : vector<1024x128xi16> -> vector<512x128xi32>
        %225 = arith.andi %223, %93 : vector<512x128xi32>
        %226 = arith.andi %224, %93 : vector<512x128xi32>
        %227 = tpu.bitcast %225 : vector<512x128xi32> -> vector<1024x128xbf16>
        %228 = tpu.bitcast %226 : vector<512x128xi32> -> vector<1024x128xbf16>
        %229 = tpu.strided_load %158[%c7, %c0] {strides = array<i32: 8, 1>} : memref<8192x128xi32, #tpu.memory_space<vmem>>, vector<1024x128xi32>
        %230 = arith.trunci %229 : vector<1024x128xi32> to vector<1024x128xi16>
        %231 = arith.shrui %229, %cst_15 : vector<1024x128xi32>
        %232 = arith.trunci %231 : vector<1024x128xi32> to vector<1024x128xi16>
        %233 = tpu.bitcast %230 : vector<1024x128xi16> -> vector<512x128xi32>
        %234 = tpu.bitcast %232 : vector<1024x128xi16> -> vector<512x128xi32>
        %235 = arith.andi %233, %93 : vector<512x128xi32>
        %236 = arith.andi %234, %93 : vector<512x128xi32>
        %237 = tpu.bitcast %235 : vector<512x128xi32> -> vector<1024x128xbf16>
        %238 = tpu.bitcast %236 : vector<512x128xi32> -> vector<1024x128xbf16>
        %239 = tpu.reshape %167 : vector<1024x128xbf16> -> vector<1x1024x128xbf16>
        %240 = tpu.reshape %177 : vector<1024x128xbf16> -> vector<1x1024x128xbf16>
        %241 = tpu.reshape %187 : vector<1024x128xbf16> -> vector<1x1024x128xbf16>
        %242 = tpu.reshape %197 : vector<1024x128xbf16> -> vector<1x1024x128xbf16>
        %243 = tpu.reshape %207 : vector<1024x128xbf16> -> vector<1x1024x128xbf16>
        %244 = tpu.reshape %217 : vector<1024x128xbf16> -> vector<1x1024x128xbf16>
        %245 = tpu.reshape %227 : vector<1024x128xbf16> -> vector<1x1024x128xbf16>
        %246 = tpu.reshape %237 : vector<1024x128xbf16> -> vector<1x1024x128xbf16>
        %247 = tpu.concatenate %239, %240, %241, %242, %243, %244, %245, %246 in 0 : vector<1x1024x128xbf16>, vector<1x1024x128xbf16>, vector<1x1024x128xbf16>, vector<1x1024x128xbf16>, vector<1x1024x128xbf16>, vector<1x1024x128xbf16>, vector<1x1024x128xbf16>, vector<1x1024x128xbf16> -> vector<8x1024x128xbf16>
        %248 = tpu.reshape %168 : vector<1024x128xbf16> -> vector<1x1024x128xbf16>
        %249 = tpu.reshape %178 : vector<1024x128xbf16> -> vector<1x1024x128xbf16>
        %250 = tpu.reshape %188 : vector<1024x128xbf16> -> vector<1x1024x128xbf16>
        %251 = tpu.reshape %198 : vector<1024x128xbf16> -> vector<1x1024x128xbf16>
        %252 = tpu.reshape %208 : vector<1024x128xbf16> -> vector<1x1024x128xbf16>
        %253 = tpu.reshape %218 : vector<1024x128xbf16> -> vector<1x1024x128xbf16>
        %254 = tpu.reshape %228 : vector<1024x128xbf16> -> vector<1x1024x128xbf16>
        %255 = tpu.reshape %238 : vector<1024x128xbf16> -> vector<1x1024x128xbf16>
        %256 = tpu.concatenate %248, %249, %250, %251, %252, %253, %254, %255 in 0 : vector<1x1024x128xbf16>, vector<1x1024x128xbf16>, vector<1x1024x128xbf16>, vector<1x1024x128xbf16>, vector<1x1024x128xbf16>, vector<1x1024x128xbf16>, vector<1x1024x128xbf16>, vector<1x1024x128xbf16> -> vector<8x1024x128xbf16>
        %257 = tpu.memref_bitcast %arg17 : memref<2x8x128x2x2x128xbf16, #tpu.tiled<(2,128)(2,1),[2048,256,2,1,1,1]>, #tpu.memory_space<vmem>> -> memref<2x8x128x2x1x128xi32, #tpu.tiled<(1,128),[2048,256,2,1,1,1]>, #tpu.memory_space<vmem>>
        %258 = tpu.memref_slice %257[%48, %c0_i32, %c0_i32, %c0_i32, %c0_i32, %c0_i32] : memref<2x8x128x2x1x128xi32, #tpu.tiled<(1,128),[2048,256,2,1,1,1]>, #tpu.memory_space<vmem>> -> memref<1x1x128x2x1x128xi32, #tpu.tiled<(1,128),[2048,256,2,1,1,1]>, #tpu.memory_space<vmem>>
        %259 = tpu.memref_squeeze %258 : memref<1x1x128x2x1x128xi32, #tpu.tiled<(1,128),[2048,256,2,1,1,1]>, #tpu.memory_space<vmem>> -> memref<128x2x1x128xi32, #tpu.tiled<(1,128),[2,1,1,1]>, #tpu.memory_space<vmem>>
        %260 = tpu.memref_reshape %259 : memref<128x2x1x128xi32, #tpu.tiled<(1,128),[2,1,1,1]>, #tpu.memory_space<vmem>> -> memref<256x128xi32, #tpu.tiled<(1,128),[1,1]>, #tpu.memory_space<vmem>>
        %261 = tpu.erase_memref_layout %260 : memref<256x128xi32, #tpu.tiled<(1,128),[1,1]>, #tpu.memory_space<vmem>> -> memref<256x128xi32, #tpu.memory_space<vmem>>
        %262 = vector.load %261[%c0, %c0] : memref<256x128xi32, #tpu.memory_space<vmem>>, vector<2x128xi32>
        %263 = tpu.bitcast %262 : vector<2x128xi32> -> vector<4x128xbf16>
        %264 = tpu.memref_slice %257[%48, %c1_i32, %c0_i32, %c0_i32, %c0_i32, %c0_i32] : memref<2x8x128x2x1x128xi32, #tpu.tiled<(1,128),[2048,256,2,1,1,1]>, #tpu.memory_space<vmem>> -> memref<1x1x128x2x1x128xi32, #tpu.tiled<(1,128),[2048,256,2,1,1,1]>, #tpu.memory_space<vmem>>
        %265 = tpu.memref_squeeze %264 : memref<1x1x128x2x1x128xi32, #tpu.tiled<(1,128),[2048,256,2,1,1,1]>, #tpu.memory_space<vmem>> -> memref<128x2x1x128xi32, #tpu.tiled<(1,128),[2,1,1,1]>, #tpu.memory_space<vmem>>
        %266 = tpu.memref_reshape %265 : memref<128x2x1x128xi32, #tpu.tiled<(1,128),[2,1,1,1]>, #tpu.memory_space<vmem>> -> memref<256x128xi32, #tpu.tiled<(1,128),[1,1]>, #tpu.memory_space<vmem>>
        %267 = tpu.erase_memref_layout %266 : memref<256x128xi32, #tpu.tiled<(1,128),[1,1]>, #tpu.memory_space<vmem>> -> memref<256x128xi32, #tpu.memory_space<vmem>>
        %268 = vector.load %267[%c0, %c0] : memref<256x128xi32, #tpu.memory_space<vmem>>, vector<2x128xi32>
        %269 = tpu.bitcast %268 : vector<2x128xi32> -> vector<4x128xbf16>
        %270 = tpu.memref_slice %257[%48, %c2_i32, %c0_i32, %c0_i32, %c0_i32, %c0_i32] : memref<2x8x128x2x1x128xi32, #tpu.tiled<(1,128),[2048,256,2,1,1,1]>, #tpu.memory_space<vmem>> -> memref<1x1x128x2x1x128xi32, #tpu.tiled<(1,128),[2048,256,2,1,1,1]>, #tpu.memory_space<vmem>>
        %271 = tpu.memref_squeeze %270 : memref<1x1x128x2x1x128xi32, #tpu.tiled<(1,128),[2048,256,2,1,1,1]>, #tpu.memory_space<vmem>> -> memref<128x2x1x128xi32, #tpu.tiled<(1,128),[2,1,1,1]>, #tpu.memory_space<vmem>>
        %272 = tpu.memref_reshape %271 : memref<128x2x1x128xi32, #tpu.tiled<(1,128),[2,1,1,1]>, #tpu.memory_space<vmem>> -> memref<256x128xi32, #tpu.tiled<(1,128),[1,1]>, #tpu.memory_space<vmem>>
        %273 = tpu.erase_memref_layout %272 : memref<256x128xi32, #tpu.tiled<(1,128),[1,1]>, #tpu.memory_space<vmem>> -> memref<256x128xi32, #tpu.memory_space<vmem>>
        %274 = vector.load %273[%c0, %c0] : memref<256x128xi32, #tpu.memory_space<vmem>>, vector<2x128xi32>
        %275 = tpu.bitcast %274 : vector<2x128xi32> -> vector<4x128xbf16>
        %276 = tpu.memref_slice %257[%48, %c3_i32, %c0_i32, %c0_i32, %c0_i32, %c0_i32] : memref<2x8x128x2x1x128xi32, #tpu.tiled<(1,128),[2048,256,2,1,1,1]>, #tpu.memory_space<vmem>> -> memref<1x1x128x2x1x128xi32, #tpu.tiled<(1,128),[2048,256,2,1,1,1]>, #tpu.memory_space<vmem>>
        %277 = tpu.memref_squeeze %276 : memref<1x1x128x2x1x128xi32, #tpu.tiled<(1,128),[2048,256,2,1,1,1]>, #tpu.memory_space<vmem>> -> memref<128x2x1x128xi32, #tpu.tiled<(1,128),[2,1,1,1]>, #tpu.memory_space<vmem>>
        %278 = tpu.memref_reshape %277 : memref<128x2x1x128xi32, #tpu.tiled<(1,128),[2,1,1,1]>, #tpu.memory_space<vmem>> -> memref<256x128xi32, #tpu.tiled<(1,128),[1,1]>, #tpu.memory_space<vmem>>
        %279 = tpu.erase_memref_layout %278 : memref<256x128xi32, #tpu.tiled<(1,128),[1,1]>, #tpu.memory_space<vmem>> -> memref<256x128xi32, #tpu.memory_space<vmem>>
        %280 = vector.load %279[%c0, %c0] : memref<256x128xi32, #tpu.memory_space<vmem>>, vector<2x128xi32>
        %281 = tpu.bitcast %280 : vector<2x128xi32> -> vector<4x128xbf16>
        %282 = tpu.memref_slice %257[%48, %c4_i32, %c0_i32, %c0_i32, %c0_i32, %c0_i32] : memref<2x8x128x2x1x128xi32, #tpu.tiled<(1,128),[2048,256,2,1,1,1]>, #tpu.memory_space<vmem>> -> memref<1x1x128x2x1x128xi32, #tpu.tiled<(1,128),[2048,256,2,1,1,1]>, #tpu.memory_space<vmem>>
        %283 = tpu.memref_squeeze %282 : memref<1x1x128x2x1x128xi32, #tpu.tiled<(1,128),[2048,256,2,1,1,1]>, #tpu.memory_space<vmem>> -> memref<128x2x1x128xi32, #tpu.tiled<(1,128),[2,1,1,1]>, #tpu.memory_space<vmem>>
        %284 = tpu.memref_reshape %283 : memref<128x2x1x128xi32, #tpu.tiled<(1,128),[2,1,1,1]>, #tpu.memory_space<vmem>> -> memref<256x128xi32, #tpu.tiled<(1,128),[1,1]>, #tpu.memory_space<vmem>>
        %285 = tpu.erase_memref_layout %284 : memref<256x128xi32, #tpu.tiled<(1,128),[1,1]>, #tpu.memory_space<vmem>> -> memref<256x128xi32, #tpu.memory_space<vmem>>
        %286 = vector.load %285[%c0, %c0] : memref<256x128xi32, #tpu.memory_space<vmem>>, vector<2x128xi32>
        %287 = tpu.bitcast %286 : vector<2x128xi32> -> vector<4x128xbf16>
        %288 = tpu.memref_slice %257[%48, %c5_i32, %c0_i32, %c0_i32, %c0_i32, %c0_i32] : memref<2x8x128x2x1x128xi32, #tpu.tiled<(1,128),[2048,256,2,1,1,1]>, #tpu.memory_space<vmem>> -> memref<1x1x128x2x1x128xi32, #tpu.tiled<(1,128),[2048,256,2,1,1,1]>, #tpu.memory_space<vmem>>
        %289 = tpu.memref_squeeze %288 : memref<1x1x128x2x1x128xi32, #tpu.tiled<(1,128),[2048,256,2,1,1,1]>, #tpu.memory_space<vmem>> -> memref<128x2x1x128xi32, #tpu.tiled<(1,128),[2,1,1,1]>, #tpu.memory_space<vmem>>
        %290 = tpu.memref_reshape %289 : memref<128x2x1x128xi32, #tpu.tiled<(1,128),[2,1,1,1]>, #tpu.memory_space<vmem>> -> memref<256x128xi32, #tpu.tiled<(1,128),[1,1]>, #tpu.memory_space<vmem>>
        %291 = tpu.erase_memref_layout %290 : memref<256x128xi32, #tpu.tiled<(1,128),[1,1]>, #tpu.memory_space<vmem>> -> memref<256x128xi32, #tpu.memory_space<vmem>>
        %292 = vector.load %291[%c0, %c0] : memref<256x128xi32, #tpu.memory_space<vmem>>, vector<2x128xi32>
        %293 = tpu.bitcast %292 : vector<2x128xi32> -> vector<4x128xbf16>
        %294 = tpu.memref_slice %257[%48, %c6_i32, %c0_i32, %c0_i32, %c0_i32, %c0_i32] : memref<2x8x128x2x1x128xi32, #tpu.tiled<(1,128),[2048,256,2,1,1,1]>, #tpu.memory_space<vmem>> -> memref<1x1x128x2x1x128xi32, #tpu.tiled<(1,128),[2048,256,2,1,1,1]>, #tpu.memory_space<vmem>>
        %295 = tpu.memref_squeeze %294 : memref<1x1x128x2x1x128xi32, #tpu.tiled<(1,128),[2048,256,2,1,1,1]>, #tpu.memory_space<vmem>> -> memref<128x2x1x128xi32, #tpu.tiled<(1,128),[2,1,1,1]>, #tpu.memory_space<vmem>>
        %296 = tpu.memref_reshape %295 : memref<128x2x1x128xi32, #tpu.tiled<(1,128),[2,1,1,1]>, #tpu.memory_space<vmem>> -> memref<256x128xi32, #tpu.tiled<(1,128),[1,1]>, #tpu.memory_space<vmem>>
        %297 = tpu.erase_memref_layout %296 : memref<256x128xi32, #tpu.tiled<(1,128),[1,1]>, #tpu.memory_space<vmem>> -> memref<256x128xi32, #tpu.memory_space<vmem>>
        %298 = vector.load %297[%c0, %c0] : memref<256x128xi32, #tpu.memory_space<vmem>>, vector<2x128xi32>
        %299 = tpu.bitcast %298 : vector<2x128xi32> -> vector<4x128xbf16>
        %300 = tpu.memref_slice %257[%48, %c7_i32, %c0_i32, %c0_i32, %c0_i32, %c0_i32] : memref<2x8x128x2x1x128xi32, #tpu.tiled<(1,128),[2048,256,2,1,1,1]>, #tpu.memory_space<vmem>> -> memref<1x1x128x2x1x128xi32, #tpu.tiled<(1,128),[2048,256,2,1,1,1]>, #tpu.memory_space<vmem>>
        %301 = tpu.memref_squeeze %300 : memref<1x1x128x2x1x128xi32, #tpu.tiled<(1,128),[2048,256,2,1,1,1]>, #tpu.memory_space<vmem>> -> memref<128x2x1x128xi32, #tpu.tiled<(1,128),[2,1,1,1]>, #tpu.memory_space<vmem>>
        %302 = tpu.memref_reshape %301 : memref<128x2x1x128xi32, #tpu.tiled<(1,128),[2,1,1,1]>, #tpu.memory_space<vmem>> -> memref<256x128xi32, #tpu.tiled<(1,128),[1,1]>, #tpu.memory_space<vmem>>
        %303 = tpu.erase_memref_layout %302 : memref<256x128xi32, #tpu.tiled<(1,128),[1,1]>, #tpu.memory_space<vmem>> -> memref<256x128xi32, #tpu.memory_space<vmem>>
        %304 = vector.load %303[%c0, %c0] : memref<256x128xi32, #tpu.memory_space<vmem>>, vector<2x128xi32>
        %305 = tpu.bitcast %304 : vector<2x128xi32> -> vector<4x128xbf16>
        %306 = tpu.reshape %263 : vector<4x128xbf16> -> vector<1x4x128xbf16>
        %307 = tpu.reshape %269 : vector<4x128xbf16> -> vector<1x4x128xbf16>
        %308 = tpu.reshape %275 : vector<4x128xbf16> -> vector<1x4x128xbf16>
        %309 = tpu.reshape %281 : vector<4x128xbf16> -> vector<1x4x128xbf16>
        %310 = tpu.reshape %287 : vector<4x128xbf16> -> vector<1x4x128xbf16>
        %311 = tpu.reshape %293 : vector<4x128xbf16> -> vector<1x4x128xbf16>
        %312 = tpu.reshape %299 : vector<4x128xbf16> -> vector<1x4x128xbf16>
        %313 = tpu.reshape %305 : vector<4x128xbf16> -> vector<1x4x128xbf16>
        %314 = tpu.concatenate %306, %307, %308, %309, %310, %311, %312, %313 in 0 : vector<1x4x128xbf16>, vector<1x4x128xbf16>, vector<1x4x128xbf16>, vector<1x4x128xbf16>, vector<1x4x128xbf16>, vector<1x4x128xbf16>, vector<1x4x128xbf16>, vector<1x4x128xbf16> -> vector<8x4x128xbf16>
        %315 = tpu.extf %314 : vector<8x4x128xbf16> -> vector<8x4x128xf32>
        %316 = tpu.extf %247 : vector<8x1024x128xbf16> -> vector<8x1024x128xf32>
        %317 = tpu.extf %256 : vector<8x1024x128xbf16> -> vector<8x1024x128xf32>
        "tpu.trace_start"() <{level = 10 : i32, message = "hqd,hkd->hqk"}> : () -> ()
        %318 = vector.extract %315[0] : vector<4x128xf32> from vector<8x4x128xf32>
        %319 = vector.extract %316[0] : vector<1024x128xf32> from vector<8x1024x128xf32>
        %320 = tpu.matmul %318, %319, %cst_0 {dimension_numbers = #tpu.dot_dimension_numbers<[1], [1], [0], [0], [0, 0, 1, 0], [], []>} : vector<4x128xf32>, vector<1024x128xf32>, vector<4x1024xf32> -> vector<4x1024xf32>
        %321 = tpu.reshape %320 : vector<4x1024xf32> -> vector<1x4x1024xf32>
        %322 = vector.extract %315[1] : vector<4x128xf32> from vector<8x4x128xf32>
        %323 = vector.extract %316[1] : vector<1024x128xf32> from vector<8x1024x128xf32>
        %324 = tpu.matmul %322, %323, %cst_0 {dimension_numbers = #tpu.dot_dimension_numbers<[1], [1], [0], [0], [0, 0, 1, 0], [], []>} : vector<4x128xf32>, vector<1024x128xf32>, vector<4x1024xf32> -> vector<4x1024xf32>
        %325 = tpu.reshape %324 : vector<4x1024xf32> -> vector<1x4x1024xf32>
        %326 = vector.extract %315[2] : vector<4x128xf32> from vector<8x4x128xf32>
        %327 = vector.extract %316[2] : vector<1024x128xf32> from vector<8x1024x128xf32>
        %328 = tpu.matmul %326, %327, %cst_0 {dimension_numbers = #tpu.dot_dimension_numbers<[1], [1], [0], [0], [0, 0, 1, 0], [], []>} : vector<4x128xf32>, vector<1024x128xf32>, vector<4x1024xf32> -> vector<4x1024xf32>
        %329 = tpu.reshape %328 : vector<4x1024xf32> -> vector<1x4x1024xf32>
        %330 = vector.extract %315[3] : vector<4x128xf32> from vector<8x4x128xf32>
        %331 = vector.extract %316[3] : vector<1024x128xf32> from vector<8x1024x128xf32>
        %332 = tpu.matmul %330, %331, %cst_0 {dimension_numbers = #tpu.dot_dimension_numbers<[1], [1], [0], [0], [0, 0, 1, 0], [], []>} : vector<4x128xf32>, vector<1024x128xf32>, vector<4x1024xf32> -> vector<4x1024xf32>
        %333 = tpu.reshape %332 : vector<4x1024xf32> -> vector<1x4x1024xf32>
        %334 = vector.extract %315[4] : vector<4x128xf32> from vector<8x4x128xf32>
        %335 = vector.extract %316[4] : vector<1024x128xf32> from vector<8x1024x128xf32>
        %336 = tpu.matmul %334, %335, %cst_0 {dimension_numbers = #tpu.dot_dimension_numbers<[1], [1], [0], [0], [0, 0, 1, 0], [], []>} : vector<4x128xf32>, vector<1024x128xf32>, vector<4x1024xf32> -> vector<4x1024xf32>
        %337 = tpu.reshape %336 : vector<4x1024xf32> -> vector<1x4x1024xf32>
        %338 = vector.extract %315[5] : vector<4x128xf32> from vector<8x4x128xf32>
        %339 = vector.extract %316[5] : vector<1024x128xf32> from vector<8x1024x128xf32>
        %340 = tpu.matmul %338, %339, %cst_0 {dimension_numbers = #tpu.dot_dimension_numbers<[1], [1], [0], [0], [0, 0, 1, 0], [], []>} : vector<4x128xf32>, vector<1024x128xf32>, vector<4x1024xf32> -> vector<4x1024xf32>
        %341 = tpu.reshape %340 : vector<4x1024xf32> -> vector<1x4x1024xf32>
        %342 = vector.extract %315[6] : vector<4x128xf32> from vector<8x4x128xf32>
        %343 = vector.extract %316[6] : vector<1024x128xf32> from vector<8x1024x128xf32>
        %344 = tpu.matmul %342, %343, %cst_0 {dimension_numbers = #tpu.dot_dimension_numbers<[1], [1], [0], [0], [0, 0, 1, 0], [], []>} : vector<4x128xf32>, vector<1024x128xf32>, vector<4x1024xf32> -> vector<4x1024xf32>
        %345 = tpu.reshape %344 : vector<4x1024xf32> -> vector<1x4x1024xf32>
        %346 = vector.extract %315[7] : vector<4x128xf32> from vector<8x4x128xf32>
        %347 = vector.extract %316[7] : vector<1024x128xf32> from vector<8x1024x128xf32>
        %348 = tpu.matmul %346, %347, %cst_0 {dimension_numbers = #tpu.dot_dimension_numbers<[1], [1], [0], [0], [0, 0, 1, 0], [], []>} : vector<4x128xf32>, vector<1024x128xf32>, vector<4x1024xf32> -> vector<4x1024xf32>
        %349 = tpu.reshape %348 : vector<4x1024xf32> -> vector<1x4x1024xf32>
        %350 = tpu.concatenate %321, %325, %329, %333, %337, %341, %345, %349 in 0 : vector<1x4x1024xf32>, vector<1x4x1024xf32>, vector<1x4x1024xf32>, vector<1x4x1024xf32>, vector<1x4x1024xf32>, vector<1x4x1024xf32>, vector<1x4x1024xf32>, vector<1x4x1024xf32> -> vector<8x4x1024xf32>
        "tpu.trace_stop"() : () -> ()
        %351 = arith.mulf %350, %cst_14 : vector<8x4x1024xf32>
        %352 = arith.subi %24, %23 : i32
        %353 = tpu.iota {dimensions = array<i32: 1>} : vector<8x4x1024xi32>
        %354 = arith.divsi %353, %cst_13 : vector<8x4x1024xi32>
        %355 = arith.cmpi sgt, %353, %cst_12 : vector<8x4x1024xi32>
        %356 = arith.extui %355 : vector<8x4x1024xi1> to vector<8x4x1024xi32>
        %357 = arith.cmpi slt, %353, %cst_12 : vector<8x4x1024xi32>
        %358 = arith.extui %357 : vector<8x4x1024xi1> to vector<8x4x1024xi32>
        %359 = arith.subi %356, %358 : vector<8x4x1024xi32>
        %360 = arith.cmpi ne, %359, %cst_11 : vector<8x4x1024xi32>
        %361 = arith.remsi %353, %cst_13 : vector<8x4x1024xi32>
        %362 = arith.cmpi ne, %361, %cst_12 : vector<8x4x1024xi32>
        %363 = arith.andi %360, %362 : vector<8x4x1024xi1>
        %364 = arith.subi %354, %cst_11 : vector<8x4x1024xi32>
        %365 = arith.select %363, %364, %354 : vector<8x4x1024xi1>, vector<8x4x1024xi32>
        %366 = vector.broadcast %352 : i32 to vector<8x4x1024xi32>
        %367 = arith.addi %366, %365 : vector<8x4x1024xi32>
        %368 = tpu.iota {dimensions = array<i32: 2>} : vector<8x4x1024xi32>
        %369 = vector.broadcast %85 : i32 to vector<8x4x1024xi32>
        %370 = arith.addi %369, %368 : vector<8x4x1024xi32>
        %371 = arith.cmpi slt, %367, %370 : vector<8x4x1024xi32>
        %372 = arith.select %371, %cst_10, %cst_25 : vector<8x4x1024xi1>, vector<8x4x1024xf32>
        %373 = arith.addf %351, %372 : vector<8x4x1024xf32>
        %374 = vector.extract %373[0] : vector<4x1024xf32> from vector<8x4x1024xf32>
        %375 = vector.multi_reduction <maximumf>, %374, %cst_24 [1] : vector<4x1024xf32> to vector<4xf32>
        %376 = tpu.reshape %375 : vector<4xf32> -> vector<4x1xf32>
        %377 = vector.load %11[%c0, %c0, %c0] : memref<8x512x128xf32, #tpu.memory_space<vmem>>, vector<1x4x128xf32>
        %378 = tpu.reshape %377 : vector<1x4x128xf32> -> vector<4x128xf32>
        %379 = arith.extui %104 : i1 to i32
        %380 = vector.broadcast %379 : i32 to vector<4x128xi32>
        %381 = arith.cmpi eq, %380, %cst_2 : vector<4x128xi32>
        %382 = arith.select %381, %cst_9, %378 : vector<4x128xi1>, vector<4x128xf32>
        %383 = vector.broadcast %376 : vector<4x1xf32> to vector<4x128xf32>
        %384 = arith.maximumf %382, %383 : vector<4x128xf32>
        %385 = tpu.reshape %384 : vector<4x128xf32> -> vector<1x4x128xf32>
        tpu.vector_store %11[%c0, %c0, %c0], %385 {strides = array<i32>} : memref<8x512x128xf32, #tpu.memory_space<vmem>>, vector<1x4x128xf32>, 
        %386 = tpu.concatenate %384, %384, %384, %384, %384, %384, %384, %384 in 1 : vector<4x128xf32>, vector<4x128xf32>, vector<4x128xf32>, vector<4x128xf32>, vector<4x128xf32>, vector<4x128xf32>, vector<4x128xf32>, vector<4x128xf32> -> vector<4x1024xf32>
        %387 = arith.subf %374, %386 : vector<4x1024xf32>
        %388 = math.exp %387 : vector<4x1024xf32>
        %389 = vector.extract %317[0] : vector<1024x128xf32> from vector<8x1024x128xf32>
        "tpu.trace_start"() <{level = 10 : i32, message = "qk,kd->qd"}> : () -> ()
        %390 = tpu.matmul %388, %389, %cst_23 {dimension_numbers = #tpu.dot_dimension_numbers<[1], [0], [0], [1], [0, 0, 1, 1], [], []>} : vector<4x1024xf32>, vector<1024x128xf32>, vector<4x128xf32> -> vector<4x128xf32>
        "tpu.trace_stop"() : () -> ()
        %391 = vector.multi_reduction <add>, %388, %cst_22 [1] : vector<4x1024xf32> to vector<4xf32>
        %392 = tpu.reshape %391 : vector<4xf32> -> vector<4x1xf32>
        %393 = arith.subf %382, %384 : vector<4x128xf32>
        %394 = math.exp %393 : vector<4x128xf32>
        %395 = vector.load %9[%c0, %c0, %c0] : memref<8x512x128xf32, #tpu.memory_space<vmem>>, vector<1x4x128xf32>
        %396 = tpu.reshape %395 : vector<1x4x128xf32> -> vector<4x128xf32>
        %397 = arith.select %381, %cst_23, %396 : vector<4x128xi1>, vector<4x128xf32>
        %398 = arith.mulf %394, %397 : vector<4x128xf32>
        %399 = vector.broadcast %392 : vector<4x1xf32> to vector<4x128xf32>
        %400 = arith.addf %398, %399 : vector<4x128xf32>
        %401 = tpu.reshape %400 : vector<4x128xf32> -> vector<1x4x128xf32>
        tpu.vector_store %9[%c0, %c0, %c0], %401 {strides = array<i32>} : memref<8x512x128xf32, #tpu.memory_space<vmem>>, vector<1x4x128xf32>, 
        %402 = vector.load %13[%c0, %c0, %c0] : memref<8x512x128xf32, #tpu.memory_space<vmem>>, vector<1x4x128xf32>
        %403 = tpu.reshape %402 : vector<1x4x128xf32> -> vector<4x128xf32>
        %404 = arith.select %381, %cst_23, %403 : vector<4x128xi1>, vector<4x128xf32>
        %405 = arith.mulf %394, %404 : vector<4x128xf32>
        %406 = arith.addf %405, %390 : vector<4x128xf32>
        %407 = tpu.reshape %406 : vector<4x128xf32> -> vector<1x4x128xf32>
        tpu.vector_store %13[%c0, %c0, %c0], %407 {strides = array<i32>} : memref<8x512x128xf32, #tpu.memory_space<vmem>>, vector<1x4x128xf32>, 
        %408 = vector.extract %373[1] : vector<4x1024xf32> from vector<8x4x1024xf32>
        %409 = vector.multi_reduction <maximumf>, %408, %cst_24 [1] : vector<4x1024xf32> to vector<4xf32>
        %410 = tpu.reshape %409 : vector<4xf32> -> vector<4x1xf32>
        %411 = vector.load %11[%c1, %c0, %c0] : memref<8x512x128xf32, #tpu.memory_space<vmem>>, vector<1x4x128xf32>
        %412 = tpu.reshape %411 : vector<1x4x128xf32> -> vector<4x128xf32>
        %413 = arith.select %381, %cst_9, %412 : vector<4x128xi1>, vector<4x128xf32>
        %414 = vector.broadcast %410 : vector<4x1xf32> to vector<4x128xf32>
        %415 = arith.maximumf %413, %414 : vector<4x128xf32>
        %416 = tpu.reshape %415 : vector<4x128xf32> -> vector<1x4x128xf32>
        tpu.vector_store %11[%c1, %c0, %c0], %416 {strides = array<i32>} : memref<8x512x128xf32, #tpu.memory_space<vmem>>, vector<1x4x128xf32>, 
        %417 = tpu.concatenate %415, %415, %415, %415, %415, %415, %415, %415 in 1 : vector<4x128xf32>, vector<4x128xf32>, vector<4x128xf32>, vector<4x128xf32>, vector<4x128xf32>, vector<4x128xf32>, vector<4x128xf32>, vector<4x128xf32> -> vector<4x1024xf32>
        %418 = arith.subf %408, %417 : vector<4x1024xf32>
        %419 = math.exp %418 : vector<4x1024xf32>
        %420 = vector.extract %317[1] : vector<1024x128xf32> from vector<8x1024x128xf32>
        "tpu.trace_start"() <{level = 10 : i32, message = "qk,kd->qd"}> : () -> ()
        %421 = tpu.matmul %419, %420, %cst_23 {dimension_numbers = #tpu.dot_dimension_numbers<[1], [0], [0], [1], [0, 0, 1, 1], [], []>} : vector<4x1024xf32>, vector<1024x128xf32>, vector<4x128xf32> -> vector<4x128xf32>
        "tpu.trace_stop"() : () -> ()
        %422 = vector.multi_reduction <add>, %419, %cst_22 [1] : vector<4x1024xf32> to vector<4xf32>
        %423 = tpu.reshape %422 : vector<4xf32> -> vector<4x1xf32>
        %424 = arith.subf %413, %415 : vector<4x128xf32>
        %425 = math.exp %424 : vector<4x128xf32>
        %426 = vector.load %9[%c1, %c0, %c0] : memref<8x512x128xf32, #tpu.memory_space<vmem>>, vector<1x4x128xf32>
        %427 = tpu.reshape %426 : vector<1x4x128xf32> -> vector<4x128xf32>
        %428 = arith.select %381, %cst_23, %427 : vector<4x128xi1>, vector<4x128xf32>
        %429 = arith.mulf %425, %428 : vector<4x128xf32>
        %430 = vector.broadcast %423 : vector<4x1xf32> to vector<4x128xf32>
        %431 = arith.addf %429, %430 : vector<4x128xf32>
        %432 = tpu.reshape %431 : vector<4x128xf32> -> vector<1x4x128xf32>
        tpu.vector_store %9[%c1, %c0, %c0], %432 {strides = array<i32>} : memref<8x512x128xf32, #tpu.memory_space<vmem>>, vector<1x4x128xf32>, 
        %433 = vector.load %13[%c1, %c0, %c0] : memref<8x512x128xf32, #tpu.memory_space<vmem>>, vector<1x4x128xf32>
        %434 = tpu.reshape %433 : vector<1x4x128xf32> -> vector<4x128xf32>
        %435 = arith.select %381, %cst_23, %434 : vector<4x128xi1>, vector<4x128xf32>
        %436 = arith.mulf %425, %435 : vector<4x128xf32>
        %437 = arith.addf %436, %421 : vector<4x128xf32>
        %438 = tpu.reshape %437 : vector<4x128xf32> -> vector<1x4x128xf32>
        tpu.vector_store %13[%c1, %c0, %c0], %438 {strides = array<i32>} : memref<8x512x128xf32, #tpu.memory_space<vmem>>, vector<1x4x128xf32>, 
        %439 = vector.extract %373[2] : vector<4x1024xf32> from vector<8x4x1024xf32>
        %440 = vector.multi_reduction <maximumf>, %439, %cst_24 [1] : vector<4x1024xf32> to vector<4xf32>
        %441 = tpu.reshape %440 : vector<4xf32> -> vector<4x1xf32>
        %442 = vector.load %11[%c2, %c0, %c0] : memref<8x512x128xf32, #tpu.memory_space<vmem>>, vector<1x4x128xf32>
        %443 = tpu.reshape %442 : vector<1x4x128xf32> -> vector<4x128xf32>
        %444 = arith.select %381, %cst_9, %443 : vector<4x128xi1>, vector<4x128xf32>
        %445 = vector.broadcast %441 : vector<4x1xf32> to vector<4x128xf32>
        %446 = arith.maximumf %444, %445 : vector<4x128xf32>
        %447 = tpu.reshape %446 : vector<4x128xf32> -> vector<1x4x128xf32>
        tpu.vector_store %11[%c2, %c0, %c0], %447 {strides = array<i32>} : memref<8x512x128xf32, #tpu.memory_space<vmem>>, vector<1x4x128xf32>, 
        %448 = tpu.concatenate %446, %446, %446, %446, %446, %446, %446, %446 in 1 : vector<4x128xf32>, vector<4x128xf32>, vector<4x128xf32>, vector<4x128xf32>, vector<4x128xf32>, vector<4x128xf32>, vector<4x128xf32>, vector<4x128xf32> -> vector<4x1024xf32>
        %449 = arith.subf %439, %448 : vector<4x1024xf32>
        %450 = math.exp %449 : vector<4x1024xf32>
        %451 = vector.extract %317[2] : vector<1024x128xf32> from vector<8x1024x128xf32>
        "tpu.trace_start"() <{level = 10 : i32, message = "qk,kd->qd"}> : () -> ()
        %452 = tpu.matmul %450, %451, %cst_23 {dimension_numbers = #tpu.dot_dimension_numbers<[1], [0], [0], [1], [0, 0, 1, 1], [], []>} : vector<4x1024xf32>, vector<1024x128xf32>, vector<4x128xf32> -> vector<4x128xf32>
        "tpu.trace_stop"() : () -> ()
        %453 = vector.multi_reduction <add>, %450, %cst_22 [1] : vector<4x1024xf32> to vector<4xf32>
        %454 = tpu.reshape %453 : vector<4xf32> -> vector<4x1xf32>
        %455 = arith.subf %444, %446 : vector<4x128xf32>
        %456 = math.exp %455 : vector<4x128xf32>
        %457 = vector.load %9[%c2, %c0, %c0] : memref<8x512x128xf32, #tpu.memory_space<vmem>>, vector<1x4x128xf32>
        %458 = tpu.reshape %457 : vector<1x4x128xf32> -> vector<4x128xf32>
        %459 = arith.select %381, %cst_23, %458 : vector<4x128xi1>, vector<4x128xf32>
        %460 = arith.mulf %456, %459 : vector<4x128xf32>
        %461 = vector.broadcast %454 : vector<4x1xf32> to vector<4x128xf32>
        %462 = arith.addf %460, %461 : vector<4x128xf32>
        %463 = tpu.reshape %462 : vector<4x128xf32> -> vector<1x4x128xf32>
        tpu.vector_store %9[%c2, %c0, %c0], %463 {strides = array<i32>} : memref<8x512x128xf32, #tpu.memory_space<vmem>>, vector<1x4x128xf32>, 
        %464 = vector.load %13[%c2, %c0, %c0] : memref<8x512x128xf32, #tpu.memory_space<vmem>>, vector<1x4x128xf32>
        %465 = tpu.reshape %464 : vector<1x4x128xf32> -> vector<4x128xf32>
        %466 = arith.select %381, %cst_23, %465 : vector<4x128xi1>, vector<4x128xf32>
        %467 = arith.mulf %456, %466 : vector<4x128xf32>
        %468 = arith.addf %467, %452 : vector<4x128xf32>
        %469 = tpu.reshape %468 : vector<4x128xf32> -> vector<1x4x128xf32>
        tpu.vector_store %13[%c2, %c0, %c0], %469 {strides = array<i32>} : memref<8x512x128xf32, #tpu.memory_space<vmem>>, vector<1x4x128xf32>, 
        %470 = vector.extract %373[3] : vector<4x1024xf32> from vector<8x4x1024xf32>
        %471 = vector.multi_reduction <maximumf>, %470, %cst_24 [1] : vector<4x1024xf32> to vector<4xf32>
        %472 = tpu.reshape %471 : vector<4xf32> -> vector<4x1xf32>
        %473 = vector.load %11[%c3, %c0, %c0] : memref<8x512x128xf32, #tpu.memory_space<vmem>>, vector<1x4x128xf32>
        %474 = tpu.reshape %473 : vector<1x4x128xf32> -> vector<4x128xf32>
        %475 = arith.select %381, %cst_9, %474 : vector<4x128xi1>, vector<4x128xf32>
        %476 = vector.broadcast %472 : vector<4x1xf32> to vector<4x128xf32>
        %477 = arith.maximumf %475, %476 : vector<4x128xf32>
        %478 = tpu.reshape %477 : vector<4x128xf32> -> vector<1x4x128xf32>
        tpu.vector_store %11[%c3, %c0, %c0], %478 {strides = array<i32>} : memref<8x512x128xf32, #tpu.memory_space<vmem>>, vector<1x4x128xf32>, 
        %479 = tpu.concatenate %477, %477, %477, %477, %477, %477, %477, %477 in 1 : vector<4x128xf32>, vector<4x128xf32>, vector<4x128xf32>, vector<4x128xf32>, vector<4x128xf32>, vector<4x128xf32>, vector<4x128xf32>, vector<4x128xf32> -> vector<4x1024xf32>
        %480 = arith.subf %470, %479 : vector<4x1024xf32>
        %481 = math.exp %480 : vector<4x1024xf32>
        %482 = vector.extract %317[3] : vector<1024x128xf32> from vector<8x1024x128xf32>
        "tpu.trace_start"() <{level = 10 : i32, message = "qk,kd->qd"}> : () -> ()
        %483 = tpu.matmul %481, %482, %cst_23 {dimension_numbers = #tpu.dot_dimension_numbers<[1], [0], [0], [1], [0, 0, 1, 1], [], []>} : vector<4x1024xf32>, vector<1024x128xf32>, vector<4x128xf32> -> vector<4x128xf32>
        "tpu.trace_stop"() : () -> ()
        %484 = vector.multi_reduction <add>, %481, %cst_22 [1] : vector<4x1024xf32> to vector<4xf32>
        %485 = tpu.reshape %484 : vector<4xf32> -> vector<4x1xf32>
        %486 = arith.subf %475, %477 : vector<4x128xf32>
        %487 = math.exp %486 : vector<4x128xf32>
        %488 = vector.load %9[%c3, %c0, %c0] : memref<8x512x128xf32, #tpu.memory_space<vmem>>, vector<1x4x128xf32>
        %489 = tpu.reshape %488 : vector<1x4x128xf32> -> vector<4x128xf32>
        %490 = arith.select %381, %cst_23, %489 : vector<4x128xi1>, vector<4x128xf32>
        %491 = arith.mulf %487, %490 : vector<4x128xf32>
        %492 = vector.broadcast %485 : vector<4x1xf32> to vector<4x128xf32>
        %493 = arith.addf %491, %492 : vector<4x128xf32>
        %494 = tpu.reshape %493 : vector<4x128xf32> -> vector<1x4x128xf32>
        tpu.vector_store %9[%c3, %c0, %c0], %494 {strides = array<i32>} : memref<8x512x128xf32, #tpu.memory_space<vmem>>, vector<1x4x128xf32>, 
        %495 = vector.load %13[%c3, %c0, %c0] : memref<8x512x128xf32, #tpu.memory_space<vmem>>, vector<1x4x128xf32>
        %496 = tpu.reshape %495 : vector<1x4x128xf32> -> vector<4x128xf32>
        %497 = arith.select %381, %cst_23, %496 : vector<4x128xi1>, vector<4x128xf32>
        %498 = arith.mulf %487, %497 : vector<4x128xf32>
        %499 = arith.addf %498, %483 : vector<4x128xf32>
        %500 = tpu.reshape %499 : vector<4x128xf32> -> vector<1x4x128xf32>
        tpu.vector_store %13[%c3, %c0, %c0], %500 {strides = array<i32>} : memref<8x512x128xf32, #tpu.memory_space<vmem>>, vector<1x4x128xf32>, 
        %501 = vector.extract %373[4] : vector<4x1024xf32> from vector<8x4x1024xf32>
        %502 = vector.multi_reduction <maximumf>, %501, %cst_24 [1] : vector<4x1024xf32> to vector<4xf32>
        %503 = tpu.reshape %502 : vector<4xf32> -> vector<4x1xf32>
        %504 = vector.load %11[%c4, %c0, %c0] : memref<8x512x128xf32, #tpu.memory_space<vmem>>, vector<1x4x128xf32>
        %505 = tpu.reshape %504 : vector<1x4x128xf32> -> vector<4x128xf32>
        %506 = arith.select %381, %cst_9, %505 : vector<4x128xi1>, vector<4x128xf32>
        %507 = vector.broadcast %503 : vector<4x1xf32> to vector<4x128xf32>
        %508 = arith.maximumf %506, %507 : vector<4x128xf32>
        %509 = tpu.reshape %508 : vector<4x128xf32> -> vector<1x4x128xf32>
        tpu.vector_store %11[%c4, %c0, %c0], %509 {strides = array<i32>} : memref<8x512x128xf32, #tpu.memory_space<vmem>>, vector<1x4x128xf32>, 
        %510 = tpu.concatenate %508, %508, %508, %508, %508, %508, %508, %508 in 1 : vector<4x128xf32>, vector<4x128xf32>, vector<4x128xf32>, vector<4x128xf32>, vector<4x128xf32>, vector<4x128xf32>, vector<4x128xf32>, vector<4x128xf32> -> vector<4x1024xf32>
        %511 = arith.subf %501, %510 : vector<4x1024xf32>
        %512 = math.exp %511 : vector<4x1024xf32>
        %513 = vector.extract %317[4] : vector<1024x128xf32> from vector<8x1024x128xf32>
        "tpu.trace_start"() <{level = 10 : i32, message = "qk,kd->qd"}> : () -> ()
        %514 = tpu.matmul %512, %513, %cst_23 {dimension_numbers = #tpu.dot_dimension_numbers<[1], [0], [0], [1], [0, 0, 1, 1], [], []>} : vector<4x1024xf32>, vector<1024x128xf32>, vector<4x128xf32> -> vector<4x128xf32>
        "tpu.trace_stop"() : () -> ()
        %515 = vector.multi_reduction <add>, %512, %cst_22 [1] : vector<4x1024xf32> to vector<4xf32>
        %516 = tpu.reshape %515 : vector<4xf32> -> vector<4x1xf32>
        %517 = arith.subf %506, %508 : vector<4x128xf32>
        %518 = math.exp %517 : vector<4x128xf32>
        %519 = vector.load %9[%c4, %c0, %c0] : memref<8x512x128xf32, #tpu.memory_space<vmem>>, vector<1x4x128xf32>
        %520 = tpu.reshape %519 : vector<1x4x128xf32> -> vector<4x128xf32>
        %521 = arith.select %381, %cst_23, %520 : vector<4x128xi1>, vector<4x128xf32>
        %522 = arith.mulf %518, %521 : vector<4x128xf32>
        %523 = vector.broadcast %516 : vector<4x1xf32> to vector<4x128xf32>
        %524 = arith.addf %522, %523 : vector<4x128xf32>
        %525 = tpu.reshape %524 : vector<4x128xf32> -> vector<1x4x128xf32>
        tpu.vector_store %9[%c4, %c0, %c0], %525 {strides = array<i32>} : memref<8x512x128xf32, #tpu.memory_space<vmem>>, vector<1x4x128xf32>, 
        %526 = vector.load %13[%c4, %c0, %c0] : memref<8x512x128xf32, #tpu.memory_space<vmem>>, vector<1x4x128xf32>
        %527 = tpu.reshape %526 : vector<1x4x128xf32> -> vector<4x128xf32>
        %528 = arith.select %381, %cst_23, %527 : vector<4x128xi1>, vector<4x128xf32>
        %529 = arith.mulf %518, %528 : vector<4x128xf32>
        %530 = arith.addf %529, %514 : vector<4x128xf32>
        %531 = tpu.reshape %530 : vector<4x128xf32> -> vector<1x4x128xf32>
        tpu.vector_store %13[%c4, %c0, %c0], %531 {strides = array<i32>} : memref<8x512x128xf32, #tpu.memory_space<vmem>>, vector<1x4x128xf32>, 
        %532 = vector.extract %373[5] : vector<4x1024xf32> from vector<8x4x1024xf32>
        %533 = vector.multi_reduction <maximumf>, %532, %cst_24 [1] : vector<4x1024xf32> to vector<4xf32>
        %534 = tpu.reshape %533 : vector<4xf32> -> vector<4x1xf32>
        %535 = vector.load %11[%c5, %c0, %c0] : memref<8x512x128xf32, #tpu.memory_space<vmem>>, vector<1x4x128xf32>
        %536 = tpu.reshape %535 : vector<1x4x128xf32> -> vector<4x128xf32>
        %537 = arith.select %381, %cst_9, %536 : vector<4x128xi1>, vector<4x128xf32>
        %538 = vector.broadcast %534 : vector<4x1xf32> to vector<4x128xf32>
        %539 = arith.maximumf %537, %538 : vector<4x128xf32>
        %540 = tpu.reshape %539 : vector<4x128xf32> -> vector<1x4x128xf32>
        tpu.vector_store %11[%c5, %c0, %c0], %540 {strides = array<i32>} : memref<8x512x128xf32, #tpu.memory_space<vmem>>, vector<1x4x128xf32>, 
        %541 = tpu.concatenate %539, %539, %539, %539, %539, %539, %539, %539 in 1 : vector<4x128xf32>, vector<4x128xf32>, vector<4x128xf32>, vector<4x128xf32>, vector<4x128xf32>, vector<4x128xf32>, vector<4x128xf32>, vector<4x128xf32> -> vector<4x1024xf32>
        %542 = arith.subf %532, %541 : vector<4x1024xf32>
        %543 = math.exp %542 : vector<4x1024xf32>
        %544 = vector.extract %317[5] : vector<1024x128xf32> from vector<8x1024x128xf32>
        "tpu.trace_start"() <{level = 10 : i32, message = "qk,kd->qd"}> : () -> ()
        %545 = tpu.matmul %543, %544, %cst_23 {dimension_numbers = #tpu.dot_dimension_numbers<[1], [0], [0], [1], [0, 0, 1, 1], [], []>} : vector<4x1024xf32>, vector<1024x128xf32>, vector<4x128xf32> -> vector<4x128xf32>
        "tpu.trace_stop"() : () -> ()
        %546 = vector.multi_reduction <add>, %543, %cst_22 [1] : vector<4x1024xf32> to vector<4xf32>
        %547 = tpu.reshape %546 : vector<4xf32> -> vector<4x1xf32>
        %548 = arith.subf %537, %539 : vector<4x128xf32>
        %549 = math.exp %548 : vector<4x128xf32>
        %550 = vector.load %9[%c5, %c0, %c0] : memref<8x512x128xf32, #tpu.memory_space<vmem>>, vector<1x4x128xf32>
        %551 = tpu.reshape %550 : vector<1x4x128xf32> -> vector<4x128xf32>
        %552 = arith.select %381, %cst_23, %551 : vector<4x128xi1>, vector<4x128xf32>
        %553 = arith.mulf %549, %552 : vector<4x128xf32>
        %554 = vector.broadcast %547 : vector<4x1xf32> to vector<4x128xf32>
        %555 = arith.addf %553, %554 : vector<4x128xf32>
        %556 = tpu.reshape %555 : vector<4x128xf32> -> vector<1x4x128xf32>
        tpu.vector_store %9[%c5, %c0, %c0], %556 {strides = array<i32>} : memref<8x512x128xf32, #tpu.memory_space<vmem>>, vector<1x4x128xf32>, 
        %557 = vector.load %13[%c5, %c0, %c0] : memref<8x512x128xf32, #tpu.memory_space<vmem>>, vector<1x4x128xf32>
        %558 = tpu.reshape %557 : vector<1x4x128xf32> -> vector<4x128xf32>
        %559 = arith.select %381, %cst_23, %558 : vector<4x128xi1>, vector<4x128xf32>
        %560 = arith.mulf %549, %559 : vector<4x128xf32>
        %561 = arith.addf %560, %545 : vector<4x128xf32>
        %562 = tpu.reshape %561 : vector<4x128xf32> -> vector<1x4x128xf32>
        tpu.vector_store %13[%c5, %c0, %c0], %562 {strides = array<i32>} : memref<8x512x128xf32, #tpu.memory_space<vmem>>, vector<1x4x128xf32>, 
        %563 = vector.extract %373[6] : vector<4x1024xf32> from vector<8x4x1024xf32>
        %564 = vector.multi_reduction <maximumf>, %563, %cst_24 [1] : vector<4x1024xf32> to vector<4xf32>
        %565 = tpu.reshape %564 : vector<4xf32> -> vector<4x1xf32>
        %566 = vector.load %11[%c6, %c0, %c0] : memref<8x512x128xf32, #tpu.memory_space<vmem>>, vector<1x4x128xf32>
        %567 = tpu.reshape %566 : vector<1x4x128xf32> -> vector<4x128xf32>
        %568 = arith.select %381, %cst_9, %567 : vector<4x128xi1>, vector<4x128xf32>
        %569 = vector.broadcast %565 : vector<4x1xf32> to vector<4x128xf32>
        %570 = arith.maximumf %568, %569 : vector<4x128xf32>
        %571 = tpu.reshape %570 : vector<4x128xf32> -> vector<1x4x128xf32>
        tpu.vector_store %11[%c6, %c0, %c0], %571 {strides = array<i32>} : memref<8x512x128xf32, #tpu.memory_space<vmem>>, vector<1x4x128xf32>, 
        %572 = tpu.concatenate %570, %570, %570, %570, %570, %570, %570, %570 in 1 : vector<4x128xf32>, vector<4x128xf32>, vector<4x128xf32>, vector<4x128xf32>, vector<4x128xf32>, vector<4x128xf32>, vector<4x128xf32>, vector<4x128xf32> -> vector<4x1024xf32>
        %573 = arith.subf %563, %572 : vector<4x1024xf32>
        %574 = math.exp %573 : vector<4x1024xf32>
        %575 = vector.extract %317[6] : vector<1024x128xf32> from vector<8x1024x128xf32>
        "tpu.trace_start"() <{level = 10 : i32, message = "qk,kd->qd"}> : () -> ()
        %576 = tpu.matmul %574, %575, %cst_23 {dimension_numbers = #tpu.dot_dimension_numbers<[1], [0], [0], [1], [0, 0, 1, 1], [], []>} : vector<4x1024xf32>, vector<1024x128xf32>, vector<4x128xf32> -> vector<4x128xf32>
        "tpu.trace_stop"() : () -> ()
        %577 = vector.multi_reduction <add>, %574, %cst_22 [1] : vector<4x1024xf32> to vector<4xf32>
        %578 = tpu.reshape %577 : vector<4xf32> -> vector<4x1xf32>
        %579 = arith.subf %568, %570 : vector<4x128xf32>
        %580 = math.exp %579 : vector<4x128xf32>
        %581 = vector.load %9[%c6, %c0, %c0] : memref<8x512x128xf32, #tpu.memory_space<vmem>>, vector<1x4x128xf32>
        %582 = tpu.reshape %581 : vector<1x4x128xf32> -> vector<4x128xf32>
        %583 = arith.select %381, %cst_23, %582 : vector<4x128xi1>, vector<4x128xf32>
        %584 = arith.mulf %580, %583 : vector<4x128xf32>
        %585 = vector.broadcast %578 : vector<4x1xf32> to vector<4x128xf32>
        %586 = arith.addf %584, %585 : vector<4x128xf32>
        %587 = tpu.reshape %586 : vector<4x128xf32> -> vector<1x4x128xf32>
        tpu.vector_store %9[%c6, %c0, %c0], %587 {strides = array<i32>} : memref<8x512x128xf32, #tpu.memory_space<vmem>>, vector<1x4x128xf32>, 
        %588 = vector.load %13[%c6, %c0, %c0] : memref<8x512x128xf32, #tpu.memory_space<vmem>>, vector<1x4x128xf32>
        %589 = tpu.reshape %588 : vector<1x4x128xf32> -> vector<4x128xf32>
        %590 = arith.select %381, %cst_23, %589 : vector<4x128xi1>, vector<4x128xf32>
        %591 = arith.mulf %580, %590 : vector<4x128xf32>
        %592 = arith.addf %591, %576 : vector<4x128xf32>
        %593 = tpu.reshape %592 : vector<4x128xf32> -> vector<1x4x128xf32>
        tpu.vector_store %13[%c6, %c0, %c0], %593 {strides = array<i32>} : memref<8x512x128xf32, #tpu.memory_space<vmem>>, vector<1x4x128xf32>, 
        %594 = vector.extract %373[7] : vector<4x1024xf32> from vector<8x4x1024xf32>
        %595 = vector.multi_reduction <maximumf>, %594, %cst_24 [1] : vector<4x1024xf32> to vector<4xf32>
        %596 = tpu.reshape %595 : vector<4xf32> -> vector<4x1xf32>
        %597 = vector.load %11[%c7, %c0, %c0] : memref<8x512x128xf32, #tpu.memory_space<vmem>>, vector<1x4x128xf32>
        %598 = tpu.reshape %597 : vector<1x4x128xf32> -> vector<4x128xf32>
        %599 = arith.select %381, %cst_9, %598 : vector<4x128xi1>, vector<4x128xf32>
        %600 = vector.broadcast %596 : vector<4x1xf32> to vector<4x128xf32>
        %601 = arith.maximumf %599, %600 : vector<4x128xf32>
        %602 = tpu.reshape %601 : vector<4x128xf32> -> vector<1x4x128xf32>
        tpu.vector_store %11[%c7, %c0, %c0], %602 {strides = array<i32>} : memref<8x512x128xf32, #tpu.memory_space<vmem>>, vector<1x4x128xf32>, 
        %603 = tpu.concatenate %601, %601, %601, %601, %601, %601, %601, %601 in 1 : vector<4x128xf32>, vector<4x128xf32>, vector<4x128xf32>, vector<4x128xf32>, vector<4x128xf32>, vector<4x128xf32>, vector<4x128xf32>, vector<4x128xf32> -> vector<4x1024xf32>
        %604 = arith.subf %594, %603 : vector<4x1024xf32>
        %605 = math.exp %604 : vector<4x1024xf32>
        %606 = vector.extract %317[7] : vector<1024x128xf32> from vector<8x1024x128xf32>
        "tpu.trace_start"() <{level = 10 : i32, message = "qk,kd->qd"}> : () -> ()
        %607 = tpu.matmul %605, %606, %cst_23 {dimension_numbers = #tpu.dot_dimension_numbers<[1], [0], [0], [1], [0, 0, 1, 1], [], []>} : vector<4x1024xf32>, vector<1024x128xf32>, vector<4x128xf32> -> vector<4x128xf32>
        "tpu.trace_stop"() : () -> ()
        %608 = vector.multi_reduction <add>, %605, %cst_22 [1] : vector<4x1024xf32> to vector<4xf32>
        %609 = tpu.reshape %608 : vector<4xf32> -> vector<4x1xf32>
        %610 = arith.subf %599, %601 : vector<4x128xf32>
        %611 = math.exp %610 : vector<4x128xf32>
        %612 = vector.load %9[%c7, %c0, %c0] : memref<8x512x128xf32, #tpu.memory_space<vmem>>, vector<1x4x128xf32>
        %613 = tpu.reshape %612 : vector<1x4x128xf32> -> vector<4x128xf32>
        %614 = arith.select %381, %cst_23, %613 : vector<4x128xi1>, vector<4x128xf32>
        %615 = arith.mulf %611, %614 : vector<4x128xf32>
        %616 = vector.broadcast %609 : vector<4x1xf32> to vector<4x128xf32>
        %617 = arith.addf %615, %616 : vector<4x128xf32>
        %618 = tpu.reshape %617 : vector<4x128xf32> -> vector<1x4x128xf32>
        tpu.vector_store %9[%c7, %c0, %c0], %618 {strides = array<i32>} : memref<8x512x128xf32, #tpu.memory_space<vmem>>, vector<1x4x128xf32>, 
        %619 = vector.load %13[%c7, %c0, %c0] : memref<8x512x128xf32, #tpu.memory_space<vmem>>, vector<1x4x128xf32>
        %620 = tpu.reshape %619 : vector<1x4x128xf32> -> vector<4x128xf32>
        %621 = arith.select %381, %cst_23, %620 : vector<4x128xi1>, vector<4x128xf32>
        %622 = arith.mulf %611, %621 : vector<4x128xf32>
        %623 = arith.addf %622, %607 : vector<4x128xf32>
        %624 = tpu.reshape %623 : vector<4x128xf32> -> vector<1x4x128xf32>
        tpu.vector_store %13[%c7, %c0, %c0], %624 {strides = array<i32>} : memref<8x512x128xf32, #tpu.memory_space<vmem>>, vector<1x4x128xf32>, 
      }
      %52 = vector.load %13[%c0, %c0, %c0] : memref<8x512x128xf32, #tpu.memory_space<vmem>>, vector<8x512x128xf32>
      %53 = vector.load %9[%c0, %c0, %c0] : memref<8x512x128xf32, #tpu.memory_space<vmem>>, vector<8x512x128xf32>
      %54 = tpu.reciprocal %53 {approx = true} : vector<8x512x128xf32> -> vector<8x512x128xf32>
      %55 = arith.mulf %52, %54 : vector<8x512x128xf32>
      %56 = tpu.truncf %55 {rounding_mode = #tpu.rounding_mode<to_nearest_even>} : vector<8x512x128xf32> -> vector<8x512x128xbf16>
      %57 = memref.load %5[%c2] : memref<128xi32, #tpu.memory_space<smem>>
      %58 = arith.cmpi eq, %57, %c0_i32 : i32
      %59 = arith.extui %58 : i1 to i32
      memref.store %59, %5[%c2] : memref<128xi32, #tpu.memory_space<smem>>
      %60 = arith.index_cast %57 : i32 to index
      %61 = memref.load %6[%60] : memref<128xi32, #tpu.memory_space<smem>>
      %62 = arith.addi %57, %c2_i32 : i32
      %63 = arith.index_cast %62 : i32 to index
      %64 = memref.load %6[%63] : memref<128xi32, #tpu.memory_space<smem>>
      %65 = arith.cmpi sge, %61, %c0_i32 : i32
      %66 = arith.cmpi sle, %61, %arg0 : i32
      %67 = arith.andi %65, %66 : i1
      scf.if %67 {
        %85 = arith.index_cast %61 : i32 to index
        %86 = memref.load %2[%85] : memref<128xi32, #tpu.memory_space<smem>>
        %87 = arith.muli %64, %c128_i32 : i32
        %88 = arith.addi %86, %87 : i32
        %89 = arith.addi %61, %c1_i32 : i32
        %90 = arith.index_cast %89 : i32 to index
        %91 = memref.load %2[%90] : memref<128xi32, #tpu.memory_space<smem>>
        %92 = arith.subi %91, %88 : i32
        %93 = arith.minsi %92, %c128_i32 : i32
        %94 = tpu.memref_slice %arg18[%57, %c0_i32, %c0_i32, %c0_i32, %c0_i32, %c0_i32] : memref<2x8x128x2x2x128xbf16, #tpu.tiled<(2,128)(2,1),[2048,256,2,1,1,1]>, #tpu.memory_space<vmem>> -> memref<1x8x128x2x2x128xbf16, #tpu.tiled<(2,128)(2,1),[2048,256,2,1,1,1]>, #tpu.memory_space<vmem>>
        %95 = tpu.memref_squeeze %94 : memref<1x8x128x2x2x128xbf16, #tpu.tiled<(2,128)(2,1),[2048,256,2,1,1,1]>, #tpu.memory_space<vmem>> -> memref<8x128x2x2x128xbf16, #tpu.tiled<(2,128)(2,1),[256,2,1,1,1]>, #tpu.memory_space<vmem>>
        %96 = tpu.memref_slice %95[%c0_i32, %c0_i32, %c0_i32, %c0_i32, %c0_i32] <%93> : memref<8x128x2x2x128xbf16, #tpu.tiled<(2,128)(2,1),[256,2,1,1,1]>, #tpu.memory_space<vmem>> -> memref<8x?x2x2x128xbf16, #tpu.tiled<(2,128)(2,1),[256,2,1,1,1]>, #tpu.memory_space<vmem>>
        %97 = tpu.erase_memref_layout %96 : memref<8x?x2x2x128xbf16, #tpu.tiled<(2,128)(2,1),[256,2,1,1,1]>, #tpu.memory_space<vmem>> -> memref<8x?x2x2x128xbf16, strided<[65536, 512, 256, 128, 1], offset: ?>, #tpu.memory_space<vmem>>
        %98 = tpu.memref_slice %arg14[%c0_i32, %88, %c0_i32, %c0_i32, %c0_i32] <%93> : memref<8x8192x2x2x128xbf16, #tpu.tiled<(2,128)(2,1),[16384,2,1,1,1]>, #tpu.memory_space<vmem>> -> memref<8x?x2x2x128xbf16, #tpu.tiled<(2,128)(2,1),[16384,2,1,1,1]>, #tpu.memory_space<vmem>>
        %99 = tpu.erase_memref_layout %98 : memref<8x?x2x2x128xbf16, #tpu.tiled<(2,128)(2,1),[16384,2,1,1,1]>, #tpu.memory_space<vmem>> -> memref<8x?x2x2x128xbf16, strided<[4194304, 512, 256, 128, 1], offset: ?>, #tpu.memory_space<vmem>>
        %100 = tpu.memref_slice %arg19[%c2_i32, %57] : memref<5x2x!tpu.dma_semaphore, #tpu.tiled<,[2,1]>, #tpu.memory_space<semaphore_mem>> -> memref<1x1x!tpu.dma_semaphore, #tpu.tiled<,[2,1]>, #tpu.memory_space<semaphore_mem>>
        %101 = tpu.memref_squeeze %100 : memref<1x1x!tpu.dma_semaphore, #tpu.tiled<,[2,1]>, #tpu.memory_space<semaphore_mem>> -> memref<!tpu.dma_semaphore, #tpu.tiled<,[]>, #tpu.memory_space<semaphore_mem>>
        %102 = tpu.erase_memref_layout %101 : memref<!tpu.dma_semaphore, #tpu.tiled<,[]>, #tpu.memory_space<semaphore_mem>> -> memref<!tpu.dma_semaphore, strided<[], offset: ?>, #tpu.memory_space<semaphore_mem>>
        tpu.wait_dma2 semaphore(%102 : memref<!tpu.dma_semaphore, strided<[], offset: ?>, #tpu.memory_space<semaphore_mem>>) src(%97 : memref<8x?x2x2x128xbf16, strided<[65536, 512, 256, 128, 1], offset: ?>, #tpu.memory_space<vmem>>) dst(%99 : memref<8x?x2x2x128xbf16, strided<[4194304, 512, 256, 128, 1], offset: ?>, #tpu.memory_space<vmem>>)
      }
      %68 = tpu.bitcast %56 : vector<8x512x128xbf16> -> vector<8x256x128xi32>
      %69 = tpu.memref_slice %arg18[%57, %c0_i32, %c0_i32, %c0_i32, %c0_i32, %c0_i32] : memref<2x8x128x2x2x128xbf16, #tpu.tiled<(2,128)(2,1),[2048,256,2,1,1,1]>, #tpu.memory_space<vmem>> -> memref<1x8x128x2x2x128xbf16, #tpu.tiled<(2,128)(2,1),[2048,256,2,1,1,1]>, #tpu.memory_space<vmem>>
      %70 = tpu.memref_squeeze %69 : memref<1x8x128x2x2x128xbf16, #tpu.tiled<(2,128)(2,1),[2048,256,2,1,1,1]>, #tpu.memory_space<vmem>> -> memref<8x128x2x2x128xbf16, #tpu.tiled<(2,128)(2,1),[256,2,1,1,1]>, #tpu.memory_space<vmem>>
      %71 = tpu.memref_bitcast %70 : memref<8x128x2x2x128xbf16, #tpu.tiled<(2,128)(2,1),[256,2,1,1,1]>, #tpu.memory_space<vmem>> -> memref<8x128x2x1x128xi32, #tpu.tiled<(1,128),[256,2,1,1,1]>, #tpu.memory_space<vmem>>
      %72 = tpu.memref_reshape %71 : memref<8x128x2x1x128xi32, #tpu.tiled<(1,128),[256,2,1,1,1]>, #tpu.memory_space<vmem>> -> memref<8x256x128xi32, #tpu.tiled<(1,128),[256,1,1]>, #tpu.memory_space<vmem>>
      %73 = tpu.erase_memref_layout %72 : memref<8x256x128xi32, #tpu.tiled<(1,128),[256,1,1]>, #tpu.memory_space<vmem>> -> memref<8x256x128xi32, #tpu.memory_space<vmem>>
      tpu.vector_store %73[%c0, %c0, %c0], %68 {strides = array<i32>} : memref<8x256x128xi32, #tpu.memory_space<vmem>>, vector<8x256x128xi32>, 
      memref.store %arg0, %6[%60] : memref<128xi32, #tpu.memory_space<smem>>
      memref.store %c0_i32, %6[%63] : memref<128xi32, #tpu.memory_space<smem>>
      %74 = memref.load %2[%18] : memref<128xi32, #tpu.memory_space<smem>>
      %75 = memref.load %2[%21] : memref<128xi32, #tpu.memory_space<smem>>
      %76 = arith.subi %75, %74 : i32
      %77 = arith.minsi %76, %c128_i32 : i32
      %78 = tpu.memref_slice %70[%c0_i32, %c0_i32, %c0_i32, %c0_i32, %c0_i32] <%77> : memref<8x128x2x2x128xbf16, #tpu.tiled<(2,128)(2,1),[256,2,1,1,1]>, #tpu.memory_space<vmem>> -> memref<8x?x2x2x128xbf16, #tpu.tiled<(2,128)(2,1),[256,2,1,1,1]>, #tpu.memory_space<vmem>>
      %79 = tpu.erase_memref_layout %78 : memref<8x?x2x2x128xbf16, #tpu.tiled<(2,128)(2,1),[256,2,1,1,1]>, #tpu.memory_space<vmem>> -> memref<8x?x2x2x128xbf16, strided<[65536, 512, 256, 128, 1], offset: ?>, #tpu.memory_space<vmem>>
      %80 = tpu.memref_slice %arg14[%c0_i32, %74, %c0_i32, %c0_i32, %c0_i32] <%77> : memref<8x8192x2x2x128xbf16, #tpu.tiled<(2,128)(2,1),[16384,2,1,1,1]>, #tpu.memory_space<vmem>> -> memref<8x?x2x2x128xbf16, #tpu.tiled<(2,128)(2,1),[16384,2,1,1,1]>, #tpu.memory_space<vmem>>
      %81 = tpu.erase_memref_layout %80 : memref<8x?x2x2x128xbf16, #tpu.tiled<(2,128)(2,1),[16384,2,1,1,1]>, #tpu.memory_space<vmem>> -> memref<8x?x2x2x128xbf16, strided<[4194304, 512, 256, 128, 1], offset: ?>, #tpu.memory_space<vmem>>
      %82 = tpu.memref_slice %arg19[%c2_i32, %57] : memref<5x2x!tpu.dma_semaphore, #tpu.tiled<,[2,1]>, #tpu.memory_space<semaphore_mem>> -> memref<1x1x!tpu.dma_semaphore, #tpu.tiled<,[2,1]>, #tpu.memory_space<semaphore_mem>>
      %83 = tpu.memref_squeeze %82 : memref<1x1x!tpu.dma_semaphore, #tpu.tiled<,[2,1]>, #tpu.memory_space<semaphore_mem>> -> memref<!tpu.dma_semaphore, #tpu.tiled<,[]>, #tpu.memory_space<semaphore_mem>>
      %84 = tpu.erase_memref_layout %83 : memref<!tpu.dma_semaphore, #tpu.tiled<,[]>, #tpu.memory_space<semaphore_mem>> -> memref<!tpu.dma_semaphore, strided<[], offset: ?>, #tpu.memory_space<semaphore_mem>>
      tpu.enqueue_dma source(%79 : memref<8x?x2x2x128xbf16, strided<[65536, 512, 256, 128, 1], offset: ?>, #tpu.memory_space<vmem>>) target(%81 : memref<8x?x2x2x128xbf16, strided<[4194304, 512, 256, 128, 1], offset: ?>, #tpu.memory_space<vmem>>) target_semaphore(%84 : memref<!tpu.dma_semaphore, strided<[], offset: ?>, #tpu.memory_space<semaphore_mem>>)
    }
    %27 = arith.cmpi sle, %15, %arg0 : i32
    %28 = arith.cmpi slt, %arg0, %16 : i32
    %29 = arith.andi %27, %28 : i1
    scf.if %29 {
      %35 = arith.addi %24, %c1023_i32 : i32
      %36 = arith.divsi %35, %c1024_i32 : i32
      %37 = arith.cmpi sgt, %35, %c0_i32 : i32
      %38 = arith.extui %37 : i1 to i32
      %39 = arith.cmpi slt, %35, %c0_i32 : i32
      %40 = arith.extui %39 : i1 to i32
      %41 = arith.subi %38, %40 : i32
      %42 = arith.cmpi ne, %41, %c1_i32 : i32
      %43 = arith.remsi %35, %c1024_i32 : i32
      %44 = arith.cmpi ne, %43, %c0_i32 : i32
      %45 = arith.andi %42, %44 : i1
      %46 = arith.subi %36, %c1_i32 : i32
      %47 = arith.select %45, %46, %36 : i32
      %48 = arith.addi %23, %c127_i32 : i32
      %49 = arith.divsi %48, %c128_i32 : i32
      %50 = arith.cmpi sgt, %48, %c0_i32 : i32
      %51 = arith.extui %50 : i1 to i32
      %52 = arith.cmpi slt, %48, %c0_i32 : i32
      %53 = arith.extui %52 : i1 to i32
      %54 = arith.subi %51, %53 : i32
      %55 = arith.cmpi ne, %54, %c1_i32 : i32
      %56 = arith.remsi %48, %c128_i32 : i32
      %57 = arith.cmpi ne, %56, %c0_i32 : i32
      %58 = arith.andi %55, %57 : i1
      %59 = arith.subi %49, %c1_i32 : i32
      %60 = arith.select %58, %59, %49 : i32
      scf.for %arg23 = %c0_i32 to %60 step %c1_i32  : i32 {
        %61 = memref.load %5[%c0] : memref<128xi32, #tpu.memory_space<smem>>
        %62 = arith.addi %arg23, %c1_i32 : i32
        %63 = arith.cmpi eq, %62, %60 : i32
        %64 = arith.select %63, %c0_i32, %62 : i32
        %65 = arith.select %63, %20, %arg0 : i32
        %66 = arith.cmpi eq, %61, %c0_i32 : i32
        %67 = arith.extui %66 : i1 to i32
        %68 = arith.cmpi slt, %65, %14 : i32
        scf.if %68 {
          memref.store %67, %5[%c0] : memref<128xi32, #tpu.memory_space<smem>>
          %104 = arith.index_cast %65 : i32 to index
          %105 = memref.load %2[%104] : memref<128xi32, #tpu.memory_space<smem>>
          %106 = arith.muli %64, %c128_i32 : i32
          %107 = arith.addi %105, %106 : i32
          %108 = arith.addi %65, %c1_i32 : i32
          %109 = arith.index_cast %108 : i32 to index
          %110 = memref.load %2[%109] : memref<128xi32, #tpu.memory_space<smem>>
          %111 = arith.subi %110, %107 : i32
          %112 = arith.minsi %111, %c128_i32 : i32
          %113 = tpu.memref_slice %arg10[%c0_i32, %107, %c0_i32, %c0_i32, %c0_i32] <%112> : memref<8x8192x2x2x128xbf16, #tpu.tiled<(2,128)(2,1),[16384,2,1,1,1]>, #tpu.memory_space<vmem>> -> memref<8x?x2x2x128xbf16, #tpu.tiled<(2,128)(2,1),[16384,2,1,1,1]>, #tpu.memory_space<vmem>>
          %114 = tpu.erase_memref_layout %113 : memref<8x?x2x2x128xbf16, #tpu.tiled<(2,128)(2,1),[16384,2,1,1,1]>, #tpu.memory_space<vmem>> -> memref<8x?x2x2x128xbf16, strided<[4194304, 512, 256, 128, 1], offset: ?>, #tpu.memory_space<vmem>>
          %115 = tpu.memref_slice %arg17[%67, %c0_i32, %c0_i32, %c0_i32, %c0_i32, %c0_i32] : memref<2x8x128x2x2x128xbf16, #tpu.tiled<(2,128)(2,1),[2048,256,2,1,1,1]>, #tpu.memory_space<vmem>> -> memref<1x8x128x2x2x128xbf16, #tpu.tiled<(2,128)(2,1),[2048,256,2,1,1,1]>, #tpu.memory_space<vmem>>
          %116 = tpu.memref_squeeze %115 : memref<1x8x128x2x2x128xbf16, #tpu.tiled<(2,128)(2,1),[2048,256,2,1,1,1]>, #tpu.memory_space<vmem>> -> memref<8x128x2x2x128xbf16, #tpu.tiled<(2,128)(2,1),[256,2,1,1,1]>, #tpu.memory_space<vmem>>
          %117 = tpu.memref_slice %116[%c0_i32, %c0_i32, %c0_i32, %c0_i32, %c0_i32] <%112> : memref<8x128x2x2x128xbf16, #tpu.tiled<(2,128)(2,1),[256,2,1,1,1]>, #tpu.memory_space<vmem>> -> memref<8x?x2x2x128xbf16, #tpu.tiled<(2,128)(2,1),[256,2,1,1,1]>, #tpu.memory_space<vmem>>
          %118 = tpu.erase_memref_layout %117 : memref<8x?x2x2x128xbf16, #tpu.tiled<(2,128)(2,1),[256,2,1,1,1]>, #tpu.memory_space<vmem>> -> memref<8x?x2x2x128xbf16, strided<[65536, 512, 256, 128, 1], offset: ?>, #tpu.memory_space<vmem>>
          %119 = tpu.memref_slice %arg19[%c1_i32, %67] : memref<5x2x!tpu.dma_semaphore, #tpu.tiled<,[2,1]>, #tpu.memory_space<semaphore_mem>> -> memref<1x1x!tpu.dma_semaphore, #tpu.tiled<,[2,1]>, #tpu.memory_space<semaphore_mem>>
          %120 = tpu.memref_squeeze %119 : memref<1x1x!tpu.dma_semaphore, #tpu.tiled<,[2,1]>, #tpu.memory_space<semaphore_mem>> -> memref<!tpu.dma_semaphore, #tpu.tiled<,[]>, #tpu.memory_space<semaphore_mem>>
          %121 = tpu.erase_memref_layout %120 : memref<!tpu.dma_semaphore, #tpu.tiled<,[]>, #tpu.memory_space<semaphore_mem>> -> memref<!tpu.dma_semaphore, strided<[], offset: ?>, #tpu.memory_space<semaphore_mem>>
          tpu.enqueue_dma source(%114 : memref<8x?x2x2x128xbf16, strided<[4194304, 512, 256, 128, 1], offset: ?>, #tpu.memory_space<vmem>>) target(%118 : memref<8x?x2x2x128xbf16, strided<[65536, 512, 256, 128, 1], offset: ?>, #tpu.memory_space<vmem>>) target_semaphore(%121 : memref<!tpu.dma_semaphore, strided<[], offset: ?>, #tpu.memory_space<semaphore_mem>>)
        }
        scf.for %arg24 = %c0_i32 to %47 step %c1_i32  : i32 {
          %104 = arith.muli %arg24, %c1024_i32 : i32
          %105 = arith.subi %24, %104 : i32
          %106 = arith.minsi %105, %c1024_i32 : i32
          %107 = tpu.iota {dimensions = array<i32: 0>} : vector<1024x128xi32>
          %108 = vector.broadcast %106 : i32 to vector<1024x128xi32>
          %109 = arith.cmpi slt, %107, %108 : vector<1024x128xi32>
          %110 = arith.select %109, %cst_17, %cst_16 : vector<1024x128xi1>, vector<1024x128xi32>
          %111 = arith.trunci %110 : vector<1024x128xi32> to vector<1024x128xi16>
          %112 = tpu.bitcast %111 : vector<1024x128xi16> -> vector<512x128xi32>
          %113 = memref.load %5[%c1] : memref<128xi32, #tpu.memory_space<smem>>
          %114 = arith.addi %arg24, %c1_i32 : i32
          %115 = arith.cmpi eq, %114, %47 : i32
          %116 = arith.select %115, %c0_i32, %114 : i32
          %117 = arith.select %115, %62, %arg23 : i32
          %118 = arith.cmpi eq, %117, %60 : i32
          %119 = arith.select %118, %20, %arg0 : i32
          %120 = arith.cmpi eq, %113, %c0_i32 : i32
          %121 = arith.extui %120 : i1 to i32
          %122 = arith.cmpi slt, %119, %14 : i32
          scf.if %122 {
            memref.store %121, %5[%c1] : memref<128xi32, #tpu.memory_space<smem>>
            %648 = arith.index_cast %119 : i32 to index
            %649 = memref.load %0[%648] : memref<128xi32, #tpu.memory_space<smem>>
            %650 = arith.muli %116, %c1024_i32 : i32
            %651 = arith.muli %116, %c8_i32 : i32
            %652 = memref.load %2[%648] : memref<128xi32, #tpu.memory_space<smem>>
            %653 = arith.addi %119, %c1_i32 : i32
            %654 = arith.index_cast %653 : i32 to index
            %655 = memref.load %2[%654] : memref<128xi32, #tpu.memory_space<smem>>
            %656 = arith.subi %655, %652 : i32
            %657 = arith.subi %649, %650 : i32
            %658 = arith.subi %657, %656 : i32
            %659 = arith.maxsi %658, %c0_i32 : i32
            %660 = arith.subi %657, %659 : i32
            %661 = arith.addi %659, %c127_i32 : i32
            %662 = arith.divsi %661, %c128_i32 : i32
            %663 = arith.cmpi sgt, %661, %c0_i32 : i32
            %664 = arith.extui %663 : i1 to i32
            %665 = arith.cmpi slt, %661, %c0_i32 : i32
            %666 = arith.extui %665 : i1 to i32
            %667 = arith.subi %664, %666 : i32
            %668 = arith.cmpi ne, %667, %c1_i32 : i32
            %669 = arith.remsi %661, %c128_i32 : i32
            %670 = arith.cmpi ne, %669, %c0_i32 : i32
            %671 = arith.andi %668, %670 : i1
            %672 = arith.subi %662, %c1_i32 : i32
            %673 = arith.select %671, %672, %662 : i32
            %674 = arith.minsi %673, %c8_i32 : i32
            %675 = arith.subi %c1024_i32, %659 : i32
            %676 = arith.maxsi %675, %c0_i32 : i32
            %677 = arith.minsi %676, %660 : i32
            %678 = memref.load %3[%648] : memref<128xi32, #tpu.memory_space<smem>>
            %679 = arith.addi %678, %c127_i32 : i32
            %680 = arith.divsi %679, %c128_i32 : i32
            %681 = arith.cmpi sgt, %679, %c0_i32 : i32
            %682 = arith.extui %681 : i1 to i32
            %683 = arith.cmpi slt, %679, %c0_i32 : i32
            %684 = arith.extui %683 : i1 to i32
            %685 = arith.subi %682, %684 : i32
            %686 = arith.cmpi ne, %685, %c1_i32 : i32
            %687 = arith.remsi %679, %c128_i32 : i32
            %688 = arith.cmpi ne, %687, %c0_i32 : i32
            %689 = arith.andi %686, %688 : i1
            %690 = arith.subi %680, %c1_i32 : i32
            %691 = arith.select %689, %690, %680 : i32
            %692 = arith.addi %691, %651 : i32
            %693 = arith.addi %121, %c4_i32 : i32
            %694 = arith.index_cast %693 : i32 to index
            %695 = memref.load %7[%694] : memref<128xi32, #tpu.memory_space<smem>>
            %696 = arith.cmpi sgt, %695, %c0_i32 : i32
            scf.if %696 {
              %699 = arith.index_cast %121 : i32 to index
              %700 = memref.load %7[%699] : memref<128xi32, #tpu.memory_space<smem>>
              %701 = arith.addi %121, %c2_i32 : i32
              %702 = arith.index_cast %701 : i32 to index
              %703 = memref.load %7[%702] : memref<128xi32, #tpu.memory_space<smem>>
              memref.store %c0_i32, %7[%694] : memref<128xi32, #tpu.memory_space<smem>>
              %704 = arith.divsi %703, %c1024_i32 : i32
              %705 = arith.cmpi sgt, %703, %c0_i32 : i32
              %706 = arith.extui %705 : i1 to i32
              %707 = arith.cmpi slt, %703, %c0_i32 : i32
              %708 = arith.extui %707 : i1 to i32
              %709 = arith.subi %706, %708 : i32
              %710 = arith.cmpi ne, %709, %c1_i32 : i32
              %711 = arith.remsi %703, %c1024_i32 : i32
              %712 = arith.cmpi ne, %711, %c0_i32 : i32
              %713 = arith.andi %710, %712 : i1
              %714 = arith.subi %704, %c1_i32 : i32
              %715 = arith.select %713, %714, %704 : i32
              %716 = arith.divsi %703, %c128_i32 : i32
              %717 = arith.remsi %703, %c128_i32 : i32
              %718 = arith.cmpi ne, %717, %c0_i32 : i32
              %719 = arith.andi %710, %718 : i1
              %720 = arith.subi %716, %c1_i32 : i32
              %721 = arith.select %719, %720, %716 : i32
              %722 = arith.addi %703, %695 : i32
              %723 = arith.addi %722, %c127_i32 : i32
              %724 = arith.divsi %723, %c128_i32 : i32
              %725 = arith.cmpi sgt, %723, %c0_i32 : i32
              %726 = arith.extui %725 : i1 to i32
              %727 = arith.cmpi slt, %723, %c0_i32 : i32
              %728 = arith.extui %727 : i1 to i32
              %729 = arith.subi %726, %728 : i32
              %730 = arith.cmpi ne, %729, %c1_i32 : i32
              %731 = arith.remsi %723, %c128_i32 : i32
              %732 = arith.cmpi ne, %731, %c0_i32 : i32
              %733 = arith.andi %730, %732 : i1
              %734 = arith.subi %724, %c1_i32 : i32
              %735 = arith.select %733, %734, %724 : i32
              %736 = arith.cmpi slt, %717, %c0_i32 : i32
              %737 = arith.andi %736, %718 : i1
              %738 = arith.addi %717, %c128_i32 : i32
              %739 = arith.select %737, %738, %717 : i32
              %740 = arith.muli %715, %c8_i32 : i32
              %741 = arith.subi %721, %740 : i32
              %742 = arith.index_cast %700 : i32 to index
              %743 = memref.load %3[%742] : memref<128xi32, #tpu.memory_space<smem>>
              %744 = arith.addi %743, %c127_i32 : i32
              %745 = arith.divsi %744, %c128_i32 : i32
              %746 = arith.cmpi sgt, %744, %c0_i32 : i32
              %747 = arith.extui %746 : i1 to i32
              %748 = arith.cmpi slt, %744, %c0_i32 : i32
              %749 = arith.extui %748 : i1 to i32
              %750 = arith.subi %747, %749 : i32
              %751 = arith.cmpi ne, %750, %c1_i32 : i32
              %752 = arith.remsi %744, %c128_i32 : i32
              %753 = arith.cmpi ne, %752, %c0_i32 : i32
              %754 = arith.andi %751, %753 : i1
              %755 = arith.subi %745, %c1_i32 : i32
              %756 = arith.select %754, %755, %745 : i32
              %757 = arith.addi %756, %721 : i32
              %758 = arith.subi %735, %721 : i32
              %759:2 = scf.for %arg25 = %c0_i32 to %758 step %c1_i32 iter_args(%arg26 = %695, %arg27 = %739) -> (i32, i32)  : i32 {
                %760 = arith.subi %c128_i32, %arg27 : i32
                %761 = arith.minsi %760, %arg26 : i32
                %762 = arith.addi %741, %arg25 : i32
                %763 = arith.muli %762, %c128_i32 : i32
                %764 = arith.addi %763, %arg27 : i32
                %765 = arith.addi %757, %arg25 : i32
                %766 = arith.index_cast %765 : i32 to index
                %767 = memref.load %1[%766] : memref<2048xi32, #tpu.memory_space<smem>>
                %768 = arith.muli %767, %c128_i32 : i32
                %769 = arith.addi %768, %arg27 : i32
                %770 = tpu.memref_slice %arg16[%121, %c0_i32, %c0_i32, %c0_i32, %c0_i32] : memref<2x1024x8x2x128xbf16, #tpu.tiled<(2,128)(2,1),[8192,8,1,1,1]>, #tpu.memory_space<vmem>> -> memref<1x1024x8x2x128xbf16, #tpu.tiled<(2,128)(2,1),[8192,8,1,1,1]>, #tpu.memory_space<vmem>>
                %771 = tpu.memref_squeeze %770 : memref<1x1024x8x2x128xbf16, #tpu.tiled<(2,128)(2,1),[8192,8,1,1,1]>, #tpu.memory_space<vmem>> -> memref<1024x8x2x128xbf16, #tpu.tiled<(2,128)(2,1),[8,1,1,1]>, #tpu.memory_space<vmem>>
                %772 = tpu.memref_slice %771[%764, %c0_i32, %c0_i32, %c0_i32] <%761> : memref<1024x8x2x128xbf16, #tpu.tiled<(2,128)(2,1),[8,1,1,1]>, #tpu.memory_space<vmem>> -> memref<?x8x2x128xbf16, #tpu.tiled<(2,128)(2,1),[8,1,1,1]>, #tpu.memory_space<vmem>>
                %773 = tpu.erase_memref_layout %772 : memref<?x8x2x128xbf16, #tpu.tiled<(2,128)(2,1),[8,1,1,1]>, #tpu.memory_space<vmem>> -> memref<?x8x2x128xbf16, strided<[2048, 256, 128, 1], offset: ?>, #tpu.memory_space<vmem>>
                %774 = tpu.memref_reshape %arg15 : memref<4688x128x8x2x128xbf16, #tpu.tiled<(2,128)(2,1),[1024,8,1,1,1]>, #tpu.memory_space<hbm>> -> memref<600064x8x2x128xbf16, #tpu.tiled<(2,128)(2,1),[8,1,1,1]>, #tpu.memory_space<hbm>>
                %775 = tpu.memref_slice %774[%769, %c0_i32, %c0_i32, %c0_i32] <%761> : memref<600064x8x2x128xbf16, #tpu.tiled<(2,128)(2,1),[8,1,1,1]>, #tpu.memory_space<hbm>> -> memref<?x8x2x128xbf16, #tpu.tiled<(2,128)(2,1),[8,1,1,1]>, #tpu.memory_space<hbm>>
                %776 = tpu.erase_memref_layout %775 : memref<?x8x2x128xbf16, #tpu.tiled<(2,128)(2,1),[8,1,1,1]>, #tpu.memory_space<hbm>> -> memref<?x8x2x128xbf16, strided<[2048, 256, 128, 1], offset: ?>, #tpu.memory_space<hbm>>
                %777 = tpu.memref_slice %arg19[%c3_i32, %121] : memref<5x2x!tpu.dma_semaphore, #tpu.tiled<,[2,1]>, #tpu.memory_space<semaphore_mem>> -> memref<1x1x!tpu.dma_semaphore, #tpu.tiled<,[2,1]>, #tpu.memory_space<semaphore_mem>>
                %778 = tpu.memref_squeeze %777 : memref<1x1x!tpu.dma_semaphore, #tpu.tiled<,[2,1]>, #tpu.memory_space<semaphore_mem>> -> memref<!tpu.dma_semaphore, #tpu.tiled<,[]>, #tpu.memory_space<semaphore_mem>>
                %779 = tpu.erase_memref_layout %778 : memref<!tpu.dma_semaphore, #tpu.tiled<,[]>, #tpu.memory_space<semaphore_mem>> -> memref<!tpu.dma_semaphore, strided<[], offset: ?>, #tpu.memory_space<semaphore_mem>>
                tpu.wait_dma2 semaphore(%779 : memref<!tpu.dma_semaphore, strided<[], offset: ?>, #tpu.memory_space<semaphore_mem>>) src(%773 : memref<?x8x2x128xbf16, strided<[2048, 256, 128, 1], offset: ?>, #tpu.memory_space<vmem>>) dst(%776 : memref<?x8x2x128xbf16, strided<[2048, 256, 128, 1], offset: ?>, #tpu.memory_space<hbm>>)
                %780 = arith.subi %arg26, %761 : i32
                scf.yield %780, %c0_i32 : i32, i32
              }
            }
            %697 = scf.for %arg25 = %c0_i32 to %674 step %c1_i32 iter_args(%arg26 = %c0_i32) -> (i32)  : i32 {
              %699 = arith.muli %arg25, %c128_i32 : i32
              %700 = arith.subi %659, %699 : i32
              %701 = arith.minsi %700, %c128_i32 : i32
              %702 = arith.addi %692, %arg25 : i32
              %703 = arith.index_cast %702 : i32 to index
              %704 = memref.load %1[%703] : memref<2048xi32, #tpu.memory_space<smem>>
              %705 = arith.muli %704, %c128_i32 : i32
              %706 = tpu.memref_reshape %arg12 : memref<4688x128x8x2x128xbf16, #tpu.tiled<(2,128)(2,1),[1024,8,1,1,1]>, #tpu.memory_space<hbm>> -> memref<600064x8x2x128xbf16, #tpu.tiled<(2,128)(2,1),[8,1,1,1]>, #tpu.memory_space<hbm>>
              %707 = tpu.memref_slice %706[%705, %c0_i32, %c0_i32, %c0_i32] <%701> : memref<600064x8x2x128xbf16, #tpu.tiled<(2,128)(2,1),[8,1,1,1]>, #tpu.memory_space<hbm>> -> memref<?x8x2x128xbf16, #tpu.tiled<(2,128)(2,1),[8,1,1,1]>, #tpu.memory_space<hbm>>
              %708 = tpu.erase_memref_layout %707 : memref<?x8x2x128xbf16, #tpu.tiled<(2,128)(2,1),[8,1,1,1]>, #tpu.memory_space<hbm>> -> memref<?x8x2x128xbf16, strided<[2048, 256, 128, 1], offset: ?>, #tpu.memory_space<hbm>>
              %709 = tpu.memref_slice %arg16[%121, %c0_i32, %c0_i32, %c0_i32, %c0_i32] : memref<2x1024x8x2x128xbf16, #tpu.tiled<(2,128)(2,1),[8192,8,1,1,1]>, #tpu.memory_space<vmem>> -> memref<1x1024x8x2x128xbf16, #tpu.tiled<(2,128)(2,1),[8192,8,1,1,1]>, #tpu.memory_space<vmem>>
              %710 = tpu.memref_squeeze %709 : memref<1x1024x8x2x128xbf16, #tpu.tiled<(2,128)(2,1),[8192,8,1,1,1]>, #tpu.memory_space<vmem>> -> memref<1024x8x2x128xbf16, #tpu.tiled<(2,128)(2,1),[8,1,1,1]>, #tpu.memory_space<vmem>>
              %711 = tpu.memref_slice %710[%699, %c0_i32, %c0_i32, %c0_i32] <%701> : memref<1024x8x2x128xbf16, #tpu.tiled<(2,128)(2,1),[8,1,1,1]>, #tpu.memory_space<vmem>> -> memref<?x8x2x128xbf16, #tpu.tiled<(2,128)(2,1),[8,1,1,1]>, #tpu.memory_space<vmem>>
              %712 = tpu.erase_memref_layout %711 : memref<?x8x2x128xbf16, #tpu.tiled<(2,128)(2,1),[8,1,1,1]>, #tpu.memory_space<vmem>> -> memref<?x8x2x128xbf16, strided<[2048, 256, 128, 1], offset: ?>, #tpu.memory_space<vmem>>
              %713 = tpu.memref_slice %arg19[%c0_i32, %121] : memref<5x2x!tpu.dma_semaphore, #tpu.tiled<,[2,1]>, #tpu.memory_space<semaphore_mem>> -> memref<1x1x!tpu.dma_semaphore, #tpu.tiled<,[2,1]>, #tpu.memory_space<semaphore_mem>>
              %714 = tpu.memref_squeeze %713 : memref<1x1x!tpu.dma_semaphore, #tpu.tiled<,[2,1]>, #tpu.memory_space<semaphore_mem>> -> memref<!tpu.dma_semaphore, #tpu.tiled<,[]>, #tpu.memory_space<semaphore_mem>>
              %715 = tpu.erase_memref_layout %714 : memref<!tpu.dma_semaphore, #tpu.tiled<,[]>, #tpu.memory_space<semaphore_mem>> -> memref<!tpu.dma_semaphore, strided<[], offset: ?>, #tpu.memory_space<semaphore_mem>>
              tpu.enqueue_dma source(%708 : memref<?x8x2x128xbf16, strided<[2048, 256, 128, 1], offset: ?>, #tpu.memory_space<hbm>>) target(%712 : memref<?x8x2x128xbf16, strided<[2048, 256, 128, 1], offset: ?>, #tpu.memory_space<vmem>>) target_semaphore(%715 : memref<!tpu.dma_semaphore, strided<[], offset: ?>, #tpu.memory_space<semaphore_mem>>)
              %716 = arith.addi %arg26, %701 : i32
              scf.yield %716 : i32
            }
            %698 = arith.cmpi sgt, %677, %c0_i32 : i32
            scf.if %698 {
              %699 = arith.subi %655, %660 : i32
              %700 = tpu.memref_slice %arg11[%699, %c0_i32, %c0_i32, %c0_i32] <%677> : memref<8192x8x2x128xbf16, #tpu.tiled<(2,128)(2,1),[8,1,1,1]>, #tpu.memory_space<hbm>> -> memref<?x8x2x128xbf16, #tpu.tiled<(2,128)(2,1),[8,1,1,1]>, #tpu.memory_space<hbm>>
              %701 = tpu.erase_memref_layout %700 : memref<?x8x2x128xbf16, #tpu.tiled<(2,128)(2,1),[8,1,1,1]>, #tpu.memory_space<hbm>> -> memref<?x8x2x128xbf16, strided<[2048, 256, 128, 1], offset: ?>, #tpu.memory_space<hbm>>
              %702 = tpu.memref_slice %arg16[%121, %c0_i32, %c0_i32, %c0_i32, %c0_i32] : memref<2x1024x8x2x128xbf16, #tpu.tiled<(2,128)(2,1),[8192,8,1,1,1]>, #tpu.memory_space<vmem>> -> memref<1x1024x8x2x128xbf16, #tpu.tiled<(2,128)(2,1),[8192,8,1,1,1]>, #tpu.memory_space<vmem>>
              %703 = tpu.memref_squeeze %702 : memref<1x1024x8x2x128xbf16, #tpu.tiled<(2,128)(2,1),[8192,8,1,1,1]>, #tpu.memory_space<vmem>> -> memref<1024x8x2x128xbf16, #tpu.tiled<(2,128)(2,1),[8,1,1,1]>, #tpu.memory_space<vmem>>
              %704 = tpu.memref_slice %703[%697, %c0_i32, %c0_i32, %c0_i32] <%677> : memref<1024x8x2x128xbf16, #tpu.tiled<(2,128)(2,1),[8,1,1,1]>, #tpu.memory_space<vmem>> -> memref<?x8x2x128xbf16, #tpu.tiled<(2,128)(2,1),[8,1,1,1]>, #tpu.memory_space<vmem>>
              %705 = tpu.erase_memref_layout %704 : memref<?x8x2x128xbf16, #tpu.tiled<(2,128)(2,1),[8,1,1,1]>, #tpu.memory_space<vmem>> -> memref<?x8x2x128xbf16, strided<[2048, 256, 128, 1], offset: ?>, #tpu.memory_space<vmem>>
              %706 = tpu.memref_slice %arg19[%c0_i32, %121] : memref<5x2x!tpu.dma_semaphore, #tpu.tiled<,[2,1]>, #tpu.memory_space<semaphore_mem>> -> memref<1x1x!tpu.dma_semaphore, #tpu.tiled<,[2,1]>, #tpu.memory_space<semaphore_mem>>
              %707 = tpu.memref_squeeze %706 : memref<1x1x!tpu.dma_semaphore, #tpu.tiled<,[2,1]>, #tpu.memory_space<semaphore_mem>> -> memref<!tpu.dma_semaphore, #tpu.tiled<,[]>, #tpu.memory_space<semaphore_mem>>
…
          %444 = tpu.matmul %442, %443, %cst_19 {dimension_numbers = #tpu.dot_dimension_numbers<[1], [0], [0], [1], [0, 0, 1, 1], [], []>} : vector<512x1024xf32>, vector<1024x128xf32>, vector<512x128xf32> -> vector<512x128xf32>
          "tpu.trace_stop"() : () -> ()
          %445 = vector.multi_reduction <add>, %442, %cst_18 [1] : vector<512x1024xf32> to vector<512xf32>
          %446 = tpu.reshape %445 : vector<512xf32> -> vector<512x1xf32>
          %447 = arith.subf %436, %438 : vector<512x128xf32>
          %448 = math.exp %447 : vector<512x128xf32>
          %449 = vector.load %9[%c1, %c0, %c0] : memref<8x512x128xf32, #tpu.memory_space<vmem>>, vector<1x512x128xf32>
          %450 = tpu.reshape %449 : vector<1x512x128xf32> -> vector<512x128xf32>
          %451 = arith.select %404, %cst_19, %450 : vector<512x128xi1>, vector<512x128xf32>
          %452 = arith.mulf %448, %451 : vector<512x128xf32>
          %453 = vector.broadcast %446 : vector<512x1xf32> to vector<512x128xf32>
          %454 = arith.addf %452, %453 : vector<512x128xf32>
          %455 = tpu.reshape %454 : vector<512x128xf32> -> vector<1x512x128xf32>
          tpu.vector_store %9[%c1, %c0, %c0], %455 {strides = array<i32>} : memref<8x512x128xf32, #tpu.memory_space<vmem>>, vector<1x512x128xf32>, 
          %456 = vector.load %13[%c1, %c0, %c0] : memref<8x512x128xf32, #tpu.memory_space<vmem>>, vector<1x512x128xf32>
          %457 = tpu.reshape %456 : vector<1x512x128xf32> -> vector<512x128xf32>
          %458 = arith.select %404, %cst_19, %457 : vector<512x128xi1>, vector<512x128xf32>
          %459 = arith.mulf %448, %458 : vector<512x128xf32>
          %460 = arith.addf %459, %444 : vector<512x128xf32>
          %461 = tpu.reshape %460 : vector<512x128xf32> -> vector<1x512x128xf32>
          tpu.vector_store %13[%c1, %c0, %c0], %461 {strides = array<i32>} : memref<8x512x128xf32, #tpu.memory_space<vmem>>, vector<1x512x128xf32>, 
          %462 = vector.extract %396[2] : vector<512x1024xf32> from vector<8x512x1024xf32>
          %463 = vector.multi_reduction <maximumf>, %462, %cst_20 [1] : vector<512x1024xf32> to vector<512xf32>
          %464 = tpu.reshape %463 : vector<512xf32> -> vector<512x1xf32>
          %465 = vector.load %11[%c2, %c0, %c0] : memref<8x512x128xf32, #tpu.memory_space<vmem>>, vector<1x512x128xf32>
          %466 = tpu.reshape %465 : vector<1x512x128xf32> -> vector<512x128xf32>
          %467 = arith.select %404, %cst_3, %466 : vector<512x128xi1>, vector<512x128xf32>
          %468 = vector.broadcast %464 : vector<512x1xf32> to vector<512x128xf32>
          %469 = arith.maximumf %467, %468 : vector<512x128xf32>
          %470 = tpu.reshape %469 : vector<512x128xf32> -> vector<1x512x128xf32>
          tpu.vector_store %11[%c2, %c0, %c0], %470 {strides = array<i32>} : memref<8x512x128xf32, #tpu.memory_space<vmem>>, vector<1x512x128xf32>, 
          %471 = tpu.concatenate %469, %469, %469, %469, %469, %469, %469, %469 in 1 : vector<512x128xf32>, vector<512x128xf32>, vector<512x128xf32>, vector<512x128xf32>, vector<512x128xf32>, vector<512x128xf32>, vector<512x128xf32>, vector<512x128xf32> -> vector<512x1024xf32>
          %472 = arith.subf %462, %471 : vector<512x1024xf32>
          %473 = math.exp %472 : vector<512x1024xf32>
          %474 = vector.extract %338[2] : vector<1024x128xf32> from vector<8x1024x128xf32>
          "tpu.trace_start"() <{level = 10 : i32, message = "qk,kd->qd"}> : () -> ()
          %475 = tpu.matmul %473, %474, %cst_19 {dimension_numbers = #tpu.dot_dimension_numbers<[1], [0], [0], [1], [0, 0, 1, 1], [], []>} : vector<512x1024xf32>, vector<1024x128xf32>, vector<512x128xf32> -> vector<512x128xf32>
          "tpu.trace_stop"() : () -> ()
          %476 = vector.multi_reduction <add>, %473, %cst_18 [1] : vector<512x1024xf32> to vector<512xf32>
          %477 = tpu.reshape %476 : vector<512xf32> -> vector<512x1xf32>
          %478 = arith.subf %467, %469 : vector<512x128xf32>
          %479 = math.exp %478 : vector<512x128xf32>
          %480 = vector.load %9[%c2, %c0, %c0] : memref<8x512x128xf32, #tpu.memory_space<vmem>>, vector<1x512x128xf32>
          %481 = tpu.reshape %480 : vector<1x512x128xf32> -> vector<512x128xf32>
          %482 = arith.select %404, %cst_19, %481 : vector<512x128xi1>, vector<512x128xf32>
          %483 = arith.mulf %479, %482 : vector<512x128xf32>
          %484 = vector.broadcast %477 : vector<512x1xf32> to vector<512x128xf32>
          %485 = arith.addf %483, %484 : vector<512x128xf32>
          %486 = tpu.reshape %485 : vector<512x128xf32> -> vector<1x512x128xf32>
          tpu.vector_store %9[%c2, %c0, %c0], %486 {strides = array<i32>} : memref<8x512x128xf32, #tpu.memory_space<vmem>>, vector<1x512x128xf32>, 
          %487 = vector.load %13[%c2, %c0, %c0] : memref<8x512x128xf32, #tpu.memory_space<vmem>>, vector<1x512x128xf32>
          %488 = tpu.reshape %487 : vector<1x512x128xf32> -> vector<512x128xf32>
          %489 = arith.select %404, %cst_19, %488 : vector<512x128xi1>, vector<512x128xf32>
          %490 = arith.mulf %479, %489 : vector<512x128xf32>
          %491 = arith.addf %490, %475 : vector<512x128xf32>
          %492 = tpu.reshape %491 : vector<512x128xf32> -> vector<1x512x128xf32>
          tpu.vector_store %13[%c2, %c0, %c0], %492 {strides = array<i32>} : memref<8x512x128xf32, #tpu.memory_space<vmem>>, vector<1x512x128xf32>, 
          %493 = vector.extract %396[3] : vector<512x1024xf32> from vector<8x512x1024xf32>
          %494 = vector.multi_reduction <maximumf>, %493, %cst_20 [1] : vector<512x1024xf32> to vector<512xf32>
          %495 = tpu.reshape %494 : vector<512xf32> -> vector<512x1xf32>
          %496 = vector.load %11[%c3, %c0, %c0] : memref<8x512x128xf32, #tpu.memory_space<vmem>>, vector<1x512x128xf32>
          %497 = tpu.reshape %496 : vector<1x512x128xf32> -> vector<512x128xf32>
          %498 = arith.select %404, %cst_3, %497 : vector<512x128xi1>, vector<512x128xf32>
          %499 = vector.broadcast %495 : vector<512x1xf32> to vector<512x128xf32>
          %500 = arith.maximumf %498, %499 : vector<512x128xf32>
          %501 = tpu.reshape %500 : vector<512x128xf32> -> vector<1x512x128xf32>
          tpu.vector_store %11[%c3, %c0, %c0], %501 {strides = array<i32>} : memref<8x512x128xf32, #tpu.memory_space<vmem>>, vector<1x512x128xf32>, 
          %502 = tpu.concatenate %500, %500, %500, %500, %500, %500, %500, %500 in 1 : vector<512x128xf32>, vector<512x128xf32>, vector<512x128xf32>, vector<512x128xf32>, vector<512x128xf32>, vector<512x128xf32>, vector<512x128xf32>, vector<512x128xf32> -> vector<512x1024xf32>
          %503 = arith.subf %493, %502 : vector<512x1024xf32>
          %504 = math.exp %503 : vector<512x1024xf32>
          %505 = vector.extract %338[3] : vector<1024x128xf32> from vector<8x1024x128xf32>
          "tpu.trace_start"() <{level = 10 : i32, message = "qk,kd->qd"}> : () -> ()
          %506 = tpu.matmul %504, %505, %cst_19 {dimension_numbers = #tpu.dot_dimension_numbers<[1], [0], [0], [1], [0, 0, 1, 1], [], []>} : vector<512x1024xf32>, vector<1024x128xf32>, vector<512x128xf32> -> vector<512x128xf32>
          "tpu.trace_stop"() : () -> ()
          %507 = vector.multi_reduction <add>, %504, %cst_18 [1] : vector<512x1024xf32> to vector<512xf32>
          %508 = tpu.reshape %507 : vector<512xf32> -> vector<512x1xf32>
          %509 = arith.subf %498, %500 : vector<512x128xf32>
          %510 = math.exp %509 : vector<512x128xf32>
          %511 = vector.load %9[%c3, %c0, %c0] : memref<8x512x128xf32, #tpu.memory_space<vmem>>, vector<1x512x128xf32>
          %512 = tpu.reshape %511 : vector<1x512x128xf32> -> vector<512x128xf32>
          %513 = arith.select %404, %cst_19, %512 : vector<512x128xi1>, vector<512x128xf32>
          %514 = arith.mulf %510, %513 : vector<512x128xf32>
          %515 = vector.broadcast %508 : vector<512x1xf32> to vector<512x128xf32>
          %516 = arith.addf %514, %515 : vector<512x128xf32>
          %517 = tpu.reshape %516 : vector<512x128xf32> -> vector<1x512x128xf32>
          tpu.vector_store %9[%c3, %c0, %c0], %517 {strides = array<i32>} : memref<8x512x128xf32, #tpu.memory_space<vmem>>, vector<1x512x128xf32>, 
          %518 = vector.load %13[%c3, %c0, %c0] : memref<8x512x128xf32, #tpu.memory_space<vmem>>, vector<1x512x128xf32>
          %519 = tpu.reshape %518 : vector<1x512x128xf32> -> vector<512x128xf32>
          %520 = arith.select %404, %cst_19, %519 : vector<512x128xi1>, vector<512x128xf32>
          %521 = arith.mulf %510, %520 : vector<512x128xf32>
          %522 = arith.addf %521, %506 : vector<512x128xf32>
          %523 = tpu.reshape %522 : vector<512x128xf32> -> vector<1x512x128xf32>
          tpu.vector_store %13[%c3, %c0, %c0], %523 {strides = array<i32>} : memref<8x512x128xf32, #tpu.memory_space<vmem>>, vector<1x512x128xf32>, 
          %524 = vector.extract %396[4] : vector<512x1024xf32> from vector<8x512x1024xf32>
          %525 = vector.multi_reduction <maximumf>, %524, %cst_20 [1] : vector<512x1024xf32> to vector<512xf32>
          %526 = tpu.reshape %525 : vector<512xf32> -> vector<512x1xf32>
          %527 = vector.load %11[%c4, %c0, %c0] : memref<8x512x128xf32, #tpu.memory_space<vmem>>, vector<1x512x128xf32>
          %528 = tpu.reshape %527 : vector<1x512x128xf32> -> vector<512x128xf32>
          %529 = arith.select %404, %cst_3, %528 : vector<512x128xi1>, vector<512x128xf32>
          %530 = vector.broadcast %526 : vector<512x1xf32> to vector<512x128xf32>
          %531 = arith.maximumf %529, %530 : vector<512x128xf32>
          %532 = tpu.reshape %531 : vector<512x128xf32> -> vector<1x512x128xf32>
          tpu.vector_store %11[%c4, %c0, %c0], %532 {strides = array<i32>} : memref<8x512x128xf32, #tpu.memory_space<vmem>>, vector<1x512x128xf32>, 
          %533 = tpu.concatenate %531, %531, %531, %531, %531, %531, %531, %531 in 1 : vector<512x128xf32>, vector<512x128xf32>, vector<512x128xf32>, vector<512x128xf32>, vector<512x128xf32>, vector<512x128xf32>, vector<512x128xf32>, vector<512x128xf32> -> vector<512x1024xf32>
          %534 = arith.subf %524, %533 : vector<512x1024xf32>
          %535 = math.exp %534 : vector<512x1024xf32>
          %536 = vector.extract %338[4] : vector<1024x128xf32> from vector<8x1024x128xf32>
          "tpu.trace_start"() <{level = 10 : i32, message = "qk,kd->qd"}> : () -> ()
          %537 = tpu.matmul %535, %536, %cst_19 {dimension_numbers = #tpu.dot_dimension_numbers<[1], [0], [0], [1], [0, 0, 1, 1], [], []>} : vector<512x1024xf32>, vector<1024x128xf32>, vector<512x128xf32> -> vector<512x128xf32>
          "tpu.trace_stop"() : () -> ()
          %538 = vector.multi_reduction <add>, %535, %cst_18 [1] : vector<512x1024xf32> to vector<512xf32>
          %539 = tpu.reshape %538 : vector<512xf32> -> vector<512x1xf32>
          %540 = arith.subf %529, %531 : vector<512x128xf32>
          %541 = math.exp %540 : vector<512x128xf32>
          %542 = vector.load %9[%c4, %c0, %c0] : memref<8x512x128xf32, #tpu.memory_space<vmem>>, vector<1x512x128xf32>
          %543 = tpu.reshape %542 : vector<1x512x128xf32> -> vector<512x128xf32>
          %544 = arith.select %404, %cst_19, %543 : vector<512x128xi1>, vector<512x128xf32>
          %545 = arith.mulf %541, %544 : vector<512x128xf32>
          %546 = vector.broadcast %539 : vector<512x1xf32> to vector<512x128xf32>
          %547 = arith.addf %545, %546 : vector<512x128xf32>
          %548 = tpu.reshape %547 : vector<512x128xf32> -> vector<1x512x128xf32>
          tpu.vector_store %9[%c4, %c0, %c0], %548 {strides = array<i32>} : memref<8x512x128xf32, #tpu.memory_space<vmem>>, vector<1x512x128xf32>, 
          %549 = vector.load %13[%c4, %c0, %c0] : memref<8x512x128xf32, #tpu.memory_space<vmem>>, vector<1x512x128xf32>
          %550 = tpu.reshape %549 : vector<1x512x128xf32> -> vector<512x128xf32>
          %551 = arith.select %404, %cst_19, %550 : vector<512x128xi1>, vector<512x128xf32>
          %552 = arith.mulf %541, %551 : vector<512x128xf32>
          %553 = arith.addf %552, %537 : vector<512x128xf32>
          %554 = tpu.reshape %553 : vector<512x128xf32> -> vector<1x512x128xf32>
          tpu.vector_store %13[%c4, %c0, %c0], %554 {strides = array<i32>} : memref<8x512x128xf32, #tpu.memory_space<vmem>>, vector<1x512x128xf32>, 
          %555 = vector.extract %396[5] : vector<512x1024xf32> from vector<8x512x1024xf32>
          %556 = vector.multi_reduction <maximumf>, %555, %cst_20 [1] : vector<512x1024xf32> to vector<512xf32>
          %557 = tpu.reshape %556 : vector<512xf32> -> vector<512x1xf32>
          %558 = vector.load %11[%c5, %c0, %c0] : memref<8x512x128xf32, #tpu.memory_space<vmem>>, vector<1x512x128xf32>
          %559 = tpu.reshape %558 : vector<1x512x128xf32> -> vector<512x128xf32>
          %560 = arith.select %404, %cst_3, %559 : vector<512x128xi1>, vector<512x128xf32>
          %561 = vector.broadcast %557 : vector<512x1xf32> to vector<512x128xf32>
          %562 = arith.maximumf %560, %561 : vector<512x128xf32>
          %563 = tpu.reshape %562 : vector<512x128xf32> -> vector<1x512x128xf32>
          tpu.vector_store %11[%c5, %c0, %c0], %563 {strides = array<i32>} : memref<8x512x128xf32, #tpu.memory_space<vmem>>, vector<1x512x128xf32>, 
          %564 = tpu.concatenate %562, %562, %562, %562, %562, %562, %562, %562 in 1 : vector<512x128xf32>, vector<512x128xf32>, vector<512x128xf32>, vector<512x128xf32>, vector<512x128xf32>, vector<512x128xf32>, vector<512x128xf32>, vector<512x128xf32> -> vector<512x1024xf32>
          %565 = arith.subf %555, %564 : vector<512x1024xf32>
          %566 = math.exp %565 : vector<512x1024xf32>
          %567 = vector.extract %338[5] : vector<1024x128xf32> from vector<8x1024x128xf32>
          "tpu.trace_start"() <{level = 10 : i32, message = "qk,kd->qd"}> : () -> ()
          %568 = tpu.matmul %566, %567, %cst_19 {dimension_numbers = #tpu.dot_dimension_numbers<[1], [0], [0], [1], [0, 0, 1, 1], [], []>} : vector<512x1024xf32>, vector<1024x128xf32>, vector<512x128xf32> -> vector<512x128xf32>
          "tpu.trace_stop"() : () -> ()
          %569 = vector.multi_reduction <add>, %566, %cst_18 [1] : vector<512x1024xf32> to vector<512xf32>
          %570 = tpu.reshape %569 : vector<512xf32> -> vector<512x1xf32>
          %571 = arith.subf %560, %562 : vector<512x128xf32>
          %572 = math.exp %571 : vector<512x128xf32>
          %573 = vector.load %9[%c5, %c0, %c0] : memref<8x512x128xf32, #tpu.memory_space<vmem>>, vector<1x512x128xf32>
          %574 = tpu.reshape %573 : vector<1x512x128xf32> -> vector<512x128xf32>
          %575 = arith.select %404, %cst_19, %574 : vector<512x128xi1>, vector<512x128xf32>
          %576 = arith.mulf %572, %575 : vector<512x128xf32>
          %577 = vector.broadcast %570 : vector<512x1xf32> to vector<512x128xf32>
          %578 = arith.addf %576, %577 : vector<512x128xf32>
          %579 = tpu.reshape %578 : vector<512x128xf32> -> vector<1x512x128xf32>
          tpu.vector_store %9[%c5, %c0, %c0], %579 {strides = array<i32>} : memref<8x512x128xf32, #tpu.memory_space<vmem>>, vector<1x512x128xf32>, 
          %580 = vector.load %13[%c5, %c0, %c0] : memref<8x512x128xf32, #tpu.memory_space<vmem>>, vector<1x512x128xf32>
          %581 = tpu.reshape %580 : vector<1x512x128xf32> -> vector<512x128xf32>
          %582 = arith.select %404, %cst_19, %581 : vector<512x128xi1>, vector<512x128xf32>
          %583 = arith.mulf %572, %582 : vector<512x128xf32>
          %584 = arith.addf %583, %568 : vector<512x128xf32>
          %585 = tpu.reshape %584 : vector<512x128xf32> -> vector<1x512x128xf32>
          tpu.vector_store %13[%c5, %c0, %c0], %585 {strides = array<i32>} : memref<8x512x128xf32, #tpu.memory_space<vmem>>, vector<1x512x128xf32>, 
          %586 = vector.extract %396[6] : vector<512x1024xf32> from vector<8x512x1024xf32>
          %587 = vector.multi_reduction <maximumf>, %586, %cst_20 [1] : vector<512x1024xf32> to vector<512xf32>
          %588 = tpu.reshape %587 : vector<512xf32> -> vector<512x1xf32>
          %589 = vector.load %11[%c6, %c0, %c0] : memref<8x512x128xf32, #tpu.memory_space<vmem>>, vector<1x512x128xf32>
          %590 = tpu.reshape %589 : vector<1x512x128xf32> -> vector<512x128xf32>
          %591 = arith.select %404, %cst_3, %590 : vector<512x128xi1>, vector<512x128xf32>
          %592 = vector.broadcast %588 : vector<512x1xf32> to vector<512x128xf32>
          %593 = arith.maximumf %591, %592 : vector<512x128xf32>
          %594 = tpu.reshape %593 : vector<512x128xf32> -> vector<1x512x128xf32>
          tpu.vector_store %11[%c6, %c0, %c0], %594 {strides = array<i32>} : memref<8x512x128xf32, #tpu.memory_space<vmem>>, vector<1x512x128xf32>, 
          %595 = tpu.concatenate %593, %593, %593, %593, %593, %593, %593, %593 in 1 : vector<512x128xf32>, vector<512x128xf32>, vector<512x128xf32>, vector<512x128xf32>, vector<512x128xf32>, vector<512x128xf32>, vector<512x128xf32>, vector<512x128xf32> -> vector<512x1024xf32>
          %596 = arith.subf %586, %595 : vector<512x1024xf32>
          %597 = math.exp %596 : vector<512x1024xf32>
          %598 = vector.extract %338[6] : vector<1024x128xf32> from vector<8x1024x128xf32>
          "tpu.trace_start"() <{level = 10 : i32, message = "qk,kd->qd"}> : () -> ()
          %599 = tpu.matmul %597, %598, %cst_19 {dimension_numbers = #tpu.dot_dimension_numbers<[1], [0], [0], [1], [0, 0, 1, 1], [], []>} : vector<512x1024xf32>, vector<1024x128xf32>, vector<512x128xf32> -> vector<512x128xf32>
          "tpu.trace_stop"() : () -> ()
          %600 = vector.multi_reduction <add>, %597, %cst_18 [1] : vector<512x1024xf32> to vector<512xf32>
          %601 = tpu.reshape %600 : vector<512xf32> -> vector<512x1xf32>
          %602 = arith.subf %591, %593 : vector<512x128xf32>
          %603 = math.exp %602 : vector<512x128xf32>
          %604 = vector.load %9[%c6, %c0, %c0] : memref<8x512x128xf32, #tpu.memory_space<vmem>>, vector<1x512x128xf32>
          %605 = tpu.reshape %604 : vector<1x512x128xf32> -> vector<512x128xf32>
          %606 = arith.select %404, %cst_19, %605 : vector<512x128xi1>, vector<512x128xf32>
          %607 = arith.mulf %603, %606 : vector<512x128xf32>
          %608 = vector.broadcast %601 : vector<512x1xf32> to vector<512x128xf32>
          %609 = arith.addf %607, %608 : vector<512x128xf32>
          %610 = tpu.reshape %609 : vector<512x128xf32> -> vector<1x512x128xf32>
          tpu.vector_store %9[%c6, %c0, %c0], %610 {strides = array<i32>} : memref<8x512x128xf32, #tpu.memory_space<vmem>>, vector<1x512x128xf32>, 
          %611 = vector.load %13[%c6, %c0, %c0] : memref<8x512x128xf32, #tpu.memory_space<vmem>>, vector<1x512x128xf32>
          %612 = tpu.reshape %611 : vector<1x512x128xf32> -> vector<512x128xf32>
          %613 = arith.select %404, %cst_19, %612 : vector<512x128xi1>, vector<512x128xf32>
          %614 = arith.mulf %603, %613 : vector<512x128xf32>
          %615 = arith.addf %614, %599 : vector<512x128xf32>
          %616 = tpu.reshape %615 : vector<512x128xf32> -> vector<1x512x128xf32>
          tpu.vector_store %13[%c6, %c0, %c0], %616 {strides = array<i32>} : memref<8x512x128xf32, #tpu.memory_space<vmem>>, vector<1x512x128xf32>, 
          %617 = vector.extract %396[7] : vector<512x1024xf32> from vector<8x512x1024xf32>
          %618 = vector.multi_reduction <maximumf>, %617, %cst_20 [1] : vector<512x1024xf32> to vector<512xf32>
          %619 = tpu.reshape %618 : vector<512xf32> -> vector<512x1xf32>
          %620 = vector.load %11[%c7, %c0, %c0] : memref<8x512x128xf32, #tpu.memory_space<vmem>>, vector<1x512x128xf32>
          %621 = tpu.reshape %620 : vector<1x512x128xf32> -> vector<512x128xf32>
          %622 = arith.select %404, %cst_3, %621 : vector<512x128xi1>, vector<512x128xf32>
          %623 = vector.broadcast %619 : vector<512x1xf32> to vector<512x128xf32>
          %624 = arith.maximumf %622, %623 : vector<512x128xf32>
          %625 = tpu.reshape %624 : vector<512x128xf32> -> vector<1x512x128xf32>
          tpu.vector_store %11[%c7, %c0, %c0], %625 {strides = array<i32>} : memref<8x512x128xf32, #tpu.memory_space<vmem>>, vector<1x512x128xf32>, 
          %626 = tpu.concatenate %624, %624, %624, %624, %624, %624, %624, %624 in 1 : vector<512x128xf32>, vector<512x128xf32>, vector<512x128xf32>, vector<512x128xf32>, vector<512x128xf32>, vector<512x128xf32>, vector<512x128xf32>, vector<512x128xf32> -> vector<512x1024xf32>
          %627 = arith.subf %617, %626 : vector<512x1024xf32>
          %628 = math.exp %627 : vector<512x1024xf32>
          %629 = vector.extract %338[7] : vector<1024x128xf32> from vector<8x1024x128xf32>
          "tpu.trace_start"() <{level = 10 : i32, message = "qk,kd->qd"}> : () -> ()
          %630 = tpu.matmul %628, %629, %cst_19 {dimension_numbers = #tpu.dot_dimension_numbers<[1], [0], [0], [1], [0, 0, 1, 1], [], []>} : vector<512x1024xf32>, vector<1024x128xf32>, vector<512x128xf32> -> vector<512x128xf32>
          "tpu.trace_stop"() : () -> ()
          %631 = vector.multi_reduction <add>, %628, %cst_18 [1] : vector<512x1024xf32> to vector<512xf32>
          %632 = tpu.reshape %631 : vector<512xf32> -> vector<512x1xf32>
          %633 = arith.subf %622, %624 : vector<512x128xf32>
          %634 = math.exp %633 : vector<512x128xf32>
          %635 = vector.load %9[%c7, %c0, %c0] : memref<8x512x128xf32, #tpu.memory_space<vmem>>, vector<1x512x128xf32>
          %636 = tpu.reshape %635 : vector<1x512x128xf32> -> vector<512x128xf32>
          %637 = arith.select %404, %cst_19, %636 : vector<512x128xi1>, vector<512x128xf32>
          %638 = arith.mulf %634, %637 : vector<512x128xf32>
          %639 = vector.broadcast %632 : vector<512x1xf32> to vector<512x128xf32>
          %640 = arith.addf %638, %639 : vector<512x128xf32>
          %641 = tpu.reshape %640 : vector<512x128xf32> -> vector<1x512x128xf32>
          tpu.vector_store %9[%c7, %c0, %c0], %641 {strides = array<i32>} : memref<8x512x128xf32, #tpu.memory_space<vmem>>, vector<1x512x128xf32>, 
          %642 = vector.load %13[%c7, %c0, %c0] : memref<8x512x128xf32, #tpu.memory_space<vmem>>, vector<1x512x128xf32>
          %643 = tpu.reshape %642 : vector<1x512x128xf32> -> vector<512x128xf32>
          %644 = arith.select %404, %cst_19, %643 : vector<512x128xi1>, vector<512x128xf32>
          %645 = arith.mulf %634, %644 : vector<512x128xf32>
          %646 = arith.addf %645, %630 : vector<512x128xf32>
          %647 = tpu.reshape %646 : vector<512x128xf32> -> vector<1x512x128xf32>
          tpu.vector_store %13[%c7, %c0, %c0], %647 {strides = array<i32>} : memref<8x512x128xf32, #tpu.memory_space<vmem>>, vector<1x512x128xf32>, 
        }
        %69 = vector.load %13[%c0, %c0, %c0] : memref<8x512x128xf32, #tpu.memory_space<vmem>>, vector<8x512x128xf32>
        %70 = vector.load %9[%c0, %c0, %c0] : memref<8x512x128xf32, #tpu.memory_space<vmem>>, vector<8x512x128xf32>
        %71 = tpu.reciprocal %70 {approx = true} : vector<8x512x128xf32> -> vector<8x512x128xf32>
        %72 = arith.mulf %69, %71 : vector<8x512x128xf32>
        %73 = tpu.truncf %72 {rounding_mode = #tpu.rounding_mode<to_nearest_even>} : vector<8x512x128xf32> -> vector<8x512x128xbf16>
        %74 = memref.load %5[%c2] : memref<128xi32, #tpu.memory_space<smem>>
        %75 = arith.cmpi eq, %74, %c0_i32 : i32
        %76 = arith.extui %75 : i1 to i32
        memref.store %76, %5[%c2] : memref<128xi32, #tpu.memory_space<smem>>
        %77 = arith.index_cast %74 : i32 to index
        %78 = memref.load %6[%77] : memref<128xi32, #tpu.memory_space<smem>>
        %79 = arith.addi %74, %c2_i32 : i32
        %80 = arith.index_cast %79 : i32 to index
        %81 = memref.load %6[%80] : memref<128xi32, #tpu.memory_space<smem>>
        %82 = arith.cmpi sge, %78, %c0_i32 : i32
        %83 = arith.cmpi sle, %78, %arg0 : i32
        %84 = arith.andi %82, %83 : i1
        scf.if %84 {
          %104 = arith.index_cast %78 : i32 to index
          %105 = memref.load %2[%104] : memref<128xi32, #tpu.memory_space<smem>>
          %106 = arith.muli %81, %c128_i32 : i32
          %107 = arith.addi %105, %106 : i32
          %108 = arith.addi %78, %c1_i32 : i32
          %109 = arith.index_cast %108 : i32 to index
          %110 = memref.load %2[%109] : memref<128xi32, #tpu.memory_space<smem>>
          %111 = arith.subi %110, %107 : i32
          %112 = arith.minsi %111, %c128_i32 : i32
          %113 = tpu.memref_slice %arg18[%74, %c0_i32, %c0_i32, %c0_i32, %c0_i32, %c0_i32] : memref<2x8x128x2x2x128xbf16, #tpu.tiled<(2,128)(2,1),[2048,256,2,1,1,1]>, #tpu.memory_space<vmem>> -> memref<1x8x128x2x2x128xbf16, #tpu.tiled<(2,128)(2,1),[2048,256,2,1,1,1]>, #tpu.memory_space<vmem>>
          %114 = tpu.memref_squeeze %113 : memref<1x8x128x2x2x128xbf16, #tpu.tiled<(2,128)(2,1),[2048,256,2,1,1,1]>, #tpu.memory_space<vmem>> -> memref<8x128x2x2x128xbf16, #tpu.tiled<(2,128)(2,1),[256,2,1,1,1]>, #tpu.memory_space<vmem>>
          %115 = tpu.memref_slice %114[%c0_i32, %c0_i32, %c0_i32, %c0_i32, %c0_i32] <%112> : memref<8x128x2x2x128xbf16, #tpu.tiled<(2,128)(2,1),[256,2,1,1,1]>, #tpu.memory_space<vmem>> -> memref<8x?x2x2x128xbf16, #tpu.tiled<(2,128)(2,1),[256,2,1,1,1]>, #tpu.memory_space<vmem>>
          %116 = tpu.erase_memref_layout %115 : memref<8x?x2x2x128xbf16, #tpu.tiled<(2,128)(2,1),[256,2,1,1,1]>, #tpu.memory_space<vmem>> -> memref<8x?x2x2x128xbf16, strided<[65536, 512, 256, 128, 1], offset: ?>, #tpu.memory_space<vmem>>
          %117 = tpu.memref_slice %arg14[%c0_i32, %107, %c0_i32, %c0_i32, %c0_i32] <%112> : memref<8x8192x2x2x128xbf16, #tpu.tiled<(2,128)(2,1),[16384,2,1,1,1]>, #tpu.memory_space<vmem>> -> memref<8x?x2x2x128xbf16, #tpu.tiled<(2,128)(2,1),[16384,2,1,1,1]>, #tpu.memory_space<vmem>>
          %118 = tpu.erase_memref_layout %117 : memref<8x?x2x2x128xbf16, #tpu.tiled<(2,128)(2,1),[16384,2,1,1,1]>, #tpu.memory_space<vmem>> -> memref<8x?x2x2x128xbf16, strided<[4194304, 512, 256, 128, 1], offset: ?>, #tpu.memory_space<vmem>>
          %119 = tpu.memref_slice %arg19[%c2_i32, %74] : memref<5x2x!tpu.dma_semaphore, #tpu.tiled<,[2,1]>, #tpu.memory_space<semaphore_mem>> -> memref<1x1x!tpu.dma_semaphore, #tpu.tiled<,[2,1]>, #tpu.memory_space<semaphore_mem>>
          %120 = tpu.memref_squeeze %119 : memref<1x1x!tpu.dma_semaphore, #tpu.tiled<,[2,1]>, #tpu.memory_space<semaphore_mem>> -> memref<!tpu.dma_semaphore, #tpu.tiled<,[]>, #tpu.memory_space<semaphore_mem>>
          %121 = tpu.erase_memref_layout %120 : memref<!tpu.dma_semaphore, #tpu.tiled<,[]>, #tpu.memory_space<semaphore_mem>> -> memref<!tpu.dma_semaphore, strided<[], offset: ?>, #tpu.memory_space<semaphore_mem>>
          tpu.wait_dma2 semaphore(%121 : memref<!tpu.dma_semaphore, strided<[], offset: ?>, #tpu.memory_space<semaphore_mem>>) src(%116 : memref<8x?x2x2x128xbf16, strided<[65536, 512, 256, 128, 1], offset: ?>, #tpu.memory_space<vmem>>) dst(%118 : memref<8x?x2x2x128xbf16, strided<[4194304, 512, 256, 128, 1], offset: ?>, #tpu.memory_space<vmem>>)
        }
        %85 = tpu.bitcast %73 : vector<8x512x128xbf16> -> vector<8x256x128xi32>
        %86 = tpu.memref_slice %arg18[%74, %c0_i32, %c0_i32, %c0_i32, %c0_i32, %c0_i32] : memref<2x8x128x2x2x128xbf16, #tpu.tiled<(2,128)(2,1),[2048,256,2,1,1,1]>, #tpu.memory_space<vmem>> -> memref<1x8x128x2x2x128xbf16, #tpu.tiled<(2,128)(2,1),[2048,256,2,1,1,1]>, #tpu.memory_space<vmem>>
        %87 = tpu.memref_squeeze %86 : memref<1x8x128x2x2x128xbf16, #tpu.tiled<(2,128)(2,1),[2048,256,2,1,1,1]>, #tpu.memory_space<vmem>> -> memref<8x128x2x2x128xbf16, #tpu.tiled<(2,128)(2,1),[256,2,1,1,1]>, #tpu.memory_space<vmem>>
        %88 = tpu.memref_bitcast %87 : memref<8x128x2x2x128xbf16, #tpu.tiled<(2,128)(2,1),[256,2,1,1,1]>, #tpu.memory_space<vmem>> -> memref<8x128x2x1x128xi32, #tpu.tiled<(1,128),[256,2,1,1,1]>, #tpu.memory_space<vmem>>
        %89 = tpu.memref_reshape %88 : memref<8x128x2x1x128xi32, #tpu.tiled<(1,128),[256,2,1,1,1]>, #tpu.memory_space<vmem>> -> memref<8x256x128xi32, #tpu.tiled<(1,128),[256,1,1]>, #tpu.memory_space<vmem>>
        %90 = tpu.erase_memref_layout %89 : memref<8x256x128xi32, #tpu.tiled<(1,128),[256,1,1]>, #tpu.memory_space<vmem>> -> memref<8x256x128xi32, #tpu.memory_space<vmem>>
        tpu.vector_store %90[%c0, %c0, %c0], %85 {strides = array<i32>} : memref<8x256x128xi32, #tpu.memory_space<vmem>>, vector<8x256x128xi32>, 
        memref.store %arg0, %6[%77] : memref<128xi32, #tpu.memory_space<smem>>
        memref.store %arg23, %6[%80] : memref<128xi32, #tpu.memory_space<smem>>
        %91 = memref.load %2[%18] : memref<128xi32, #tpu.memory_space<smem>>
        %92 = arith.muli %arg23, %c128_i32 : i32
        %93 = arith.addi %91, %92 : i32
        %94 = memref.load %2[%21] : memref<128xi32, #tpu.memory_space<smem>>
        %95 = arith.subi %94, %93 : i32
        %96 = arith.minsi %95, %c128_i32 : i32
        %97 = tpu.memref_slice %87[%c0_i32, %c0_i32, %c0_i32, %c0_i32, %c0_i32] <%96> : memref<8x128x2x2x128xbf16, #tpu.tiled<(2,128)(2,1),[256,2,1,1,1]>, #tpu.memory_space<vmem>> -> memref<8x?x2x2x128xbf16, #tpu.tiled<(2,128)(2,1),[256,2,1,1,1]>, #tpu.memory_space<vmem>>
        %98 = tpu.erase_memref_layout %97 : memref<8x?x2x2x128xbf16, #tpu.tiled<(2,128)(2,1),[256,2,1,1,1]>, #tpu.memory_space<vmem>> -> memref<8x?x2x2x128xbf16, strided<[65536, 512, 256, 128, 1], offset: ?>, #tpu.memory_space<vmem>>
        %99 = tpu.memref_slice %arg14[%c0_i32, %93, %c0_i32, %c0_i32, %c0_i32] <%96> : memref<8x8192x2x2x128xbf16, #tpu.tiled<(2,128)(2,1),[16384,2,1,1,1]>, #tpu.memory_space<vmem>> -> memref<8x?x2x2x128xbf16, #tpu.tiled<(2,128)(2,1),[16384,2,1,1,1]>, #tpu.memory_space<vmem>>
        %100 = tpu.erase_memref_layout %99 : memref<8x?x2x2x128xbf16, #tpu.tiled<(2,128)(2,1),[16384,2,1,1,1]>, #tpu.memory_space<vmem>> -> memref<8x?x2x2x128xbf16, strided<[4194304, 512, 256, 128, 1], offset: ?>, #tpu.memory_space<vmem>>
        %101 = tpu.memref_slice %arg19[%c2_i32, %74] : memref<5x2x!tpu.dma_semaphore, #tpu.tiled<,[2,1]>, #tpu.memory_space<semaphore_mem>> -> memref<1x1x!tpu.dma_semaphore, #tpu.tiled<,[2,1]>, #tpu.memory_space<semaphore_mem>>
        %102 = tpu.memref_squeeze %101 : memref<1x1x!tpu.dma_semaphore, #tpu.tiled<,[2,1]>, #tpu.memory_space<semaphore_mem>> -> memref<!tpu.dma_semaphore, #tpu.tiled<,[]>, #tpu.memory_space<semaphore_mem>>
        %103 = tpu.erase_memref_layout %102 : memref<!tpu.dma_semaphore, #tpu.tiled<,[]>, #tpu.memory_space<semaphore_mem>> -> memref<!tpu.dma_semaphore, strided<[], offset: ?>, #tpu.memory_space<semaphore_mem>>
        tpu.enqueue_dma source(%98 : memref<8x?x2x2x128xbf16, strided<[65536, 512, 256, 128, 1], offset: ?>, #tpu.memory_space<vmem>>) target(%100 : memref<8x?x2x2x128xbf16, strided<[4194304, 512, 256, 128, 1], offset: ?>, #tpu.memory_space<vmem>>) target_semaphore(%103 : memref<!tpu.dma_semaphore, strided<[], offset: ?>, #tpu.memory_space<semaphore_mem>>)
      }
    }
    %33 = arith.subi %14, %c1_i32 : i32
    %34 = arith.cmpi eq, %arg0, %33 : i32
    scf.if %34 {
      %35 = memref.load %6[%c0] : memref<128xi32, #tpu.memory_space<smem>>
      %36 = memref.load %6[%c2] : memref<128xi32, #tpu.memory_space<smem>>
      %37 = arith.cmpi sge, %35, %c0_i32 : i32
      %38 = arith.cmpi sle, %35, %arg0 : i32
      %39 = arith.andi %37, %38 : i1
      scf.if %39 {
        %49 = arith.index_cast %35 : i32 to index
        %50 = memref.load %2[%49] : memref<128xi32, #tpu.memory_space<smem>>
        %51 = arith.muli %36, %c128_i32 : i32
        %52 = arith.addi %50, %51 : i32
        %53 = arith.addi %35, %c1_i32 : i32
        %54 = arith.index_cast %53 : i32 to index
        %55 = memref.load %2[%54] : memref<128xi32, #tpu.memory_space<smem>>
        %56 = arith.subi %55, %52 : i32
        %57 = arith.minsi %56, %c128_i32 : i32
        %58 = tpu.memref_slice %arg18[%c0_i32, %c0_i32, %c0_i32, %c0_i32, %c0_i32, %c0_i32] : memref<2x8x128x2x2x128xbf16, #tpu.tiled<(2,128)(2,1),[2048,256,2,1,1,1]>, #tpu.memory_space<vmem>> -> memref<1x8x128x2x2x128xbf16, #tpu.tiled<(2,128)(2,1),[2048,256,2,1,1,1]>, #tpu.memory_space<vmem>>
        %59 = tpu.memref_squeeze %58 : memref<1x8x128x2x2x128xbf16, #tpu.tiled<(2,128)(2,1),[2048,256,2,1,1,1]>, #tpu.memory_space<vmem>> -> memref<8x128x2x2x128xbf16, #tpu.tiled<(2,128)(2,1),[256,2,1,1,1]>, #tpu.memory_space<vmem>>
        %60 = tpu.memref_slice %59[%c0_i32, %c0_i32, %c0_i32, %c0_i32, %c0_i32] <%57> : memref<8x128x2x2x128xbf16, #tpu.tiled<(2,128)(2,1),[256,2,1,1,1]>, #tpu.memory_space<vmem>> -> memref<8x?x2x2x128xbf16, #tpu.tiled<(2,128)(2,1),[256,2,1,1,1]>, #tpu.memory_space<vmem>>
        %61 = tpu.erase_memref_layout %60 : memref<8x?x2x2x128xbf16, #tpu.tiled<(2,128)(2,1),[256,2,1,1,1]>, #tpu.memory_space<vmem>> -> memref<8x?x2x2x128xbf16, strided<[65536, 512, 256, 128, 1]>, #tpu.memory_space<vmem>>
        %62 = tpu.memref_slice %arg14[%c0_i32, %52, %c0_i32, %c0_i32, %c0_i32] <%57> : memref<8x8192x2x2x128xbf16, #tpu.tiled<(2,128)(2,1),[16384,2,1,1,1]>, #tpu.memory_space<vmem>> -> memref<8x?x2x2x128xbf16, #tpu.tiled<(2,128)(2,1),[16384,2,1,1,1]>, #tpu.memory_space<vmem>>
        %63 = tpu.erase_memref_layout %62 : memref<8x?x2x2x128xbf16, #tpu.tiled<(2,128)(2,1),[16384,2,1,1,1]>, #tpu.memory_space<vmem>> -> memref<8x?x2x2x128xbf16, strided<[4194304, 512, 256, 128, 1], offset: ?>, #tpu.memory_space<vmem>>
        %64 = tpu.memref_slice %arg19[%c2_i32, %c0_i32] : memref<5x2x!tpu.dma_semaphore, #tpu.tiled<,[2,1]>, #tpu.memory_space<semaphore_mem>> -> memref<1x1x!tpu.dma_semaphore, #tpu.tiled<,[2,1]>, #tpu.memory_space<semaphore_mem>>
        %65 = tpu.memref_squeeze %64 : memref<1x1x!tpu.dma_semaphore, #tpu.tiled<,[2,1]>, #tpu.memory_space<semaphore_mem>> -> memref<!tpu.dma_semaphore, #tpu.tiled<,[]>, #tpu.memory_space<semaphore_mem>>
        %66 = tpu.erase_memref_layout %65 : memref<!tpu.dma_semaphore, #tpu.tiled<,[]>, #tpu.memory_space<semaphore_mem>> -> memref<!tpu.dma_semaphore, strided<[], offset: 4>, #tpu.memory_space<semaphore_mem>>
        tpu.wait_dma2 semaphore(%66 : memref<!tpu.dma_semaphore, strided<[], offset: 4>, #tpu.memory_space<semaphore_mem>>) src(%61 : memref<8x?x2x2x128xbf16, strided<[65536, 512, 256, 128, 1]>, #tpu.memory_space<vmem>>) dst(%63 : memref<8x?x2x2x128xbf16, strided<[4194304, 512, 256, 128, 1], offset: ?>, #tpu.memory_space<vmem>>)
      }
      %40 = memref.load %7[%c4] : memref<128xi32, #tpu.memory_space<smem>>
      %41 = arith.cmpi sgt, %40, %c0_i32 : i32
      scf.if %41 {
        %49 = memref.load %7[%c0] : memref<128xi32, #tpu.memory_space<smem>>
        %50 = memref.load %7[%c2] : memref<128xi32, #tpu.memory_space<smem>>
        memref.store %c0_i32, %7[%c4] : memref<128xi32, #tpu.memory_space<smem>>
        %51 = arith.divsi %50, %c1024_i32 : i32
        %52 = arith.cmpi sgt, %50, %c0_i32 : i32
        %53 = arith.extui %52 : i1 to i32
        %54 = arith.cmpi slt, %50, %c0_i32 : i32
        %55 = arith.extui %54 : i1 to i32
        %56 = arith.subi %53, %55 : i32
        %57 = arith.cmpi ne, %56, %c1_i32 : i32
        %58 = arith.remsi %50, %c1024_i32 : i32
        %59 = arith.cmpi ne, %58, %c0_i32 : i32
        %60 = arith.andi %57, %59 : i1
        %61 = arith.subi %51, %c1_i32 : i32
        %62 = arith.select %60, %61, %51 : i32
        %63 = arith.divsi %50, %c128_i32 : i32
        %64 = arith.remsi %50, %c128_i32 : i32
        %65 = arith.cmpi ne, %64, %c0_i32 : i32
        %66 = arith.andi %57, %65 : i1
        %67 = arith.subi %63, %c1_i32 : i32
        %68 = arith.select %66, %67, %63 : i32
        %69 = arith.addi %50, %40 : i32
        %70 = arith.addi %69, %c127_i32 : i32
        %71 = arith.divsi %70, %c128_i32 : i32
        %72 = arith.cmpi sgt, %70, %c0_i32 : i32
        %73 = arith.extui %72 : i1 to i32
        %74 = arith.cmpi slt, %70, %c0_i32 : i32
        %75 = arith.extui %74 : i1 to i32
        %76 = arith.subi %73, %75 : i32
        %77 = arith.cmpi ne, %76, %c1_i32 : i32
        %78 = arith.remsi %70, %c128_i32 : i32
        %79 = arith.cmpi ne, %78, %c0_i32 : i32
        %80 = arith.andi %77, %79 : i1
        %81 = arith.subi %71, %c1_i32 : i32
        %82 = arith.select %80, %81, %71 : i32
        %83 = arith.cmpi slt, %64, %c0_i32 : i32
        %84 = arith.andi %83, %65 : i1
        %85 = arith.addi %64, %c128_i32 : i32
        %86 = arith.select %84, %85, %64 : i32
        %87 = arith.muli %62, %c8_i32 : i32
        %88 = arith.subi %68, %87 : i32
        %89 = arith.index_cast %49 : i32 to index
        %90 = memref.load %3[%89] : memref<128xi32, #tpu.memory_space<smem>>
        %91 = arith.addi %90, %c127_i32 : i32
        %92 = arith.divsi %91, %c128_i32 : i32
        %93 = arith.cmpi sgt, %91, %c0_i32 : i32
        %94 = arith.extui %93 : i1 to i32
        %95 = arith.cmpi slt, %91, %c0_i32 : i32
        %96 = arith.extui %95 : i1 to i32
        %97 = arith.subi %94, %96 : i32
        %98 = arith.cmpi ne, %97, %c1_i32 : i32
        %99 = arith.remsi %91, %c128_i32 : i32
        %100 = arith.cmpi ne, %99, %c0_i32 : i32
        %101 = arith.andi %98, %100 : i1
        %102 = arith.subi %92, %c1_i32 : i32
        %103 = arith.select %101, %102, %92 : i32
        %104 = arith.addi %103, %68 : i32
        %105 = arith.subi %82, %68 : i32
        %106:2 = scf.for %arg23 = %c0_i32 to %105 step %c1_i32 iter_args(%arg24 = %40, %arg25 = %86) -> (i32, i32)  : i32 {
          %107 = arith.subi %c128_i32, %arg25 : i32
          %108 = arith.minsi %107, %arg24 : i32
          %109 = arith.addi %88, %arg23 : i32
          %110 = arith.muli %109, %c128_i32 : i32
          %111 = arith.addi %110, %arg25 : i32
          %112 = arith.addi %104, %arg23 : i32
          %113 = arith.index_cast %112 : i32 to index
          %114 = memref.load %1[%113] : memref<2048xi32, #tpu.memory_space<smem>>
          %115 = arith.muli %114, %c128_i32 : i32
          %116 = arith.addi %115, %arg25 : i32
          %117 = tpu.memref_slice %arg16[%c0_i32, %c0_i32, %c0_i32, %c0_i32, %c0_i32] : memref<2x1024x8x2x128xbf16, #tpu.tiled<(2,128)(2,1),[8192,8,1,1,1]>, #tpu.memory_space<vmem>> -> memref<1x1024x8x2x128xbf16, #tpu.tiled<(2,128)(2,1),[8192,8,1,1,1]>, #tpu.memory_space<vmem>>
          %118 = tpu.memref_squeeze %117 : memref<1x1024x8x2x128xbf16, #tpu.tiled<(2,128)(2,1),[8192,8,1,1,1]>, #tpu.memory_space<vmem>> -> memref<1024x8x2x128xbf16, #tpu.tiled<(2,128)(2,1),[8,1,1,1]>, #tpu.memory_space<vmem>>
          %119 = tpu.memref_slice %118[%111, %c0_i32, %c0_i32, %c0_i32] <%108> : memref<1024x8x2x128xbf16, #tpu.tiled<(2,128)(2,1),[8,1,1,1]>, #tpu.memory_space<vmem>> -> memref<?x8x2x128xbf16, #tpu.tiled<(2,128)(2,1),[8,1,1,1]>, #tpu.memory_space<vmem>>
          %120 = tpu.erase_memref_layout %119 : memref<?x8x2x128xbf16, #tpu.tiled<(2,128)(2,1),[8,1,1,1]>, #tpu.memory_space<vmem>> -> memref<?x8x2x128xbf16, strided<[2048, 256, 128, 1], offset: ?>, #tpu.memory_space<vmem>>
          %121 = tpu.memref_reshape %arg15 : memref<4688x128x8x2x128xbf16, #tpu.tiled<(2,128)(2,1),[1024,8,1,1,1]>, #tpu.memory_space<hbm>> -> memref<600064x8x2x128xbf16, #tpu.tiled<(2,128)(2,1),[8,1,1,1]>, #tpu.memory_space<hbm>>
          %122 = tpu.memref_slice %121[%116, %c0_i32, %c0_i32, %c0_i32] <%108> : memref<600064x8x2x128xbf16, #tpu.tiled<(2,128)(2,1),[8,1,1,1]>, #tpu.memory_space<hbm>> -> memref<?x8x2x128xbf16, #tpu.tiled<(2,128)(2,1),[8,1,1,1]>, #tpu.memory_space<hbm>>
          %123 = tpu.erase_memref_layout %122 : memref<?x8x2x128xbf16, #tpu.tiled<(2,128)(2,1),[8,1,1,1]>, #tpu.memory_space<hbm>> -> memref<?x8x2x128xbf16, strided<[2048, 256, 128, 1], offset: ?>, #tpu.memory_space<hbm>>
          %124 = tpu.memref_slice %arg19[%c3_i32, %c0_i32] : memref<5x2x!tpu.dma_semaphore, #tpu.tiled<,[2,1]>, #tpu.memory_space<semaphore_mem>> -> memref<1x1x!tpu.dma_semaphore, #tpu.tiled<,[2,1]>, #tpu.memory_space<semaphore_mem>>
          %125 = tpu.memref_squeeze %124 : memref<1x1x!tpu.dma_semaphore, #tpu.tiled<,[2,1]>, #tpu.memory_space<semaphore_mem>> -> memref<!tpu.dma_semaphore, #tpu.tiled<,[]>, #tpu.memory_space<semaphore_mem>>
          %126 = tpu.erase_memref_layout %125 : memref<!tpu.dma_semaphore, #tpu.tiled<,[]>, #tpu.memory_space<semaphore_mem>> -> memref<!tpu.dma_semaphore, strided<[], offset: 6>, #tpu.memory_space<semaphore_mem>>
          tpu.wait_dma2 semaphore(%126 : memref<!tpu.dma_semaphore, strided<[], offset: 6>, #tpu.memory_space<semaphore_mem>>) src(%120 : memref<?x8x2x128xbf16, strided<[2048, 256, 128, 1], offset: ?>, #tpu.memory_space<vmem>>) dst(%123 : memref<?x8x2x128xbf16, strided<[2048, 256, 128, 1], offset: ?>, #tpu.memory_space<hbm>>)
          %127 = arith.subi %arg24, %108 : i32
          scf.yield %127, %c0_i32 : i32, i32
        }
      }
      %42 = memref.load %6[%c1] : memref<128xi32, #tpu.memory_space<smem>>
      %43 = memref.load %6[%c3] : memref<128xi32, #tpu.memory_space<smem>>
      %44 = arith.cmpi sge, %42, %c0_i32 : i32
      %45 = arith.cmpi sle, %42, %arg0 : i32
      %46 = arith.andi %44, %45 : i1
      scf.if %46 {
        %49 = arith.index_cast %42 : i32 to index
        %50 = memref.load %2[%49] : memref<128xi32, #tpu.memory_space<smem>>
        %51 = arith.muli %43, %c128_i32 : i32
        %52 = arith.addi %50, %51 : i32
        %53 = arith.addi %42, %c1_i32 : i32
        %54 = arith.index_cast %53 : i32 to index
        %55 = memref.load %2[%54] : memref<128xi32, #tpu.memory_space<smem>>
        %56 = arith.subi %55, %52 : i32
        %57 = arith.minsi %56, %c128_i32 : i32
        %58 = tpu.memref_slice %arg18[%c1_i32, %c0_i32, %c0_i32, %c0_i32, %c0_i32, %c0_i32] : memref<2x8x128x2x2x128xbf16, #tpu.tiled<(2,128)(2,1),[2048,256,2,1,1,1]>, #tpu.memory_space<vmem>> -> memref<1x8x128x2x2x128xbf16, #tpu.tiled<(2,128)(2,1),[2048,256,2,1,1,1]>, #tpu.memory_space<vmem>>
        %59 = tpu.memref_squeeze %58 : memref<1x8x128x2x2x128xbf16, #tpu.tiled<(2,128)(2,1),[2048,256,2,1,1,1]>, #tpu.memory_space<vmem>> -> memref<8x128x2x2x128xbf16, #tpu.tiled<(2,128)(2,1),[256,2,1,1,1]>, #tpu.memory_space<vmem>>
        %60 = tpu.memref_slice %59[%c0_i32, %c0_i32, %c0_i32, %c0_i32, %c0_i32] <%57> : memref<8x128x2x2x128xbf16, #tpu.tiled<(2,128)(2,1),[256,2,1,1,1]>, #tpu.memory_space<vmem>> -> memref<8x?x2x2x128xbf16, #tpu.tiled<(2,128)(2,1),[256,2,1,1,1]>, #tpu.memory_space<vmem>>
        %61 = tpu.erase_memref_layout %60 : memref<8x?x2x2x128xbf16, #tpu.tiled<(2,128)(2,1),[256,2,1,1,1]>, #tpu.memory_space<vmem>> -> memref<8x?x2x2x128xbf16, strided<[65536, 512, 256, 128, 1], offset: 524288>, #tpu.memory_space<vmem>>
        %62 = tpu.memref_slice %arg14[%c0_i32, %52, %c0_i32, %c0_i32, %c0_i32] <%57> : memref<8x8192x2x2x128xbf16, #tpu.tiled<(2,128)(2,1),[16384,2,1,1,1]>, #tpu.memory_space<vmem>> -> memref<8x?x2x2x128xbf16, #tpu.tiled<(2,128)(2,1),[16384,2,1,1,1]>, #tpu.memory_space<vmem>>
        %63 = tpu.erase_memref_layout %62 : memref<8x?x2x2x128xbf16, #tpu.tiled<(2,128)(2,1),[16384,2,1,1,1]>, #tpu.memory_space<vmem>> -> memref<8x?x2x2x128xbf16, strided<[4194304, 512, 256, 128, 1], offset: ?>, #tpu.memory_space<vmem>>
        %64 = tpu.memref_slice %arg19[%c2_i32, %c1_i32] : memref<5x2x!tpu.dma_semaphore, #tpu.tiled<,[2,1]>, #tpu.memory_space<semaphore_mem>> -> memref<1x1x!tpu.dma_semaphore, #tpu.tiled<,[2,1]>, #tpu.memory_space<semaphore_mem>>
        %65 = tpu.memref_squeeze %64 : memref<1x1x!tpu.dma_semaphore, #tpu.tiled<,[2,1]>, #tpu.memory_space<semaphore_mem>> -> memref<!tpu.dma_semaphore, #tpu.tiled<,[]>, #tpu.memory_space<semaphore_mem>>
        %66 = tpu.erase_memref_layout %65 : memref<!tpu.dma_semaphore, #tpu.tiled<,[]>, #tpu.memory_space<semaphore_mem>> -> memref<!tpu.dma_semaphore, strided<[], offset: 5>, #tpu.memory_space<semaphore_mem>>
        tpu.wait_dma2 semaphore(%66 : memref<!tpu.dma_semaphore, strided<[], offset: 5>, #tpu.memory_space<semaphore_mem>>) src(%61 : memref<8x?x2x2x128xbf16, strided<[65536, 512, 256, 128, 1], offset: 524288>, #tpu.memory_space<vmem>>) dst(%63 : memref<8x?x2x2x128xbf16, strided<[4194304, 512, 256, 128, 1], offset: ?>, #tpu.memory_space<vmem>>)
      }
      %47 = memref.load %7[%c5] : memref<128xi32, #tpu.memory_space<smem>>
      %48 = arith.cmpi sgt, %47, %c0_i32 : i32
      scf.if %48 {
        %49 = memref.load %7[%c1] : memref<128xi32, #tpu.memory_space<smem>>
        %50 = memref.load %7[%c3] : memref<128xi32, #tpu.memory_space<smem>>
        memref.store %c0_i32, %7[%c5] : memref<128xi32, #tpu.memory_space<smem>>
        %51 = arith.divsi %50, %c1024_i32 : i32
        %52 = arith.cmpi sgt, %50, %c0_i32 : i32
        %53 = arith.extui %52 : i1 to i32
        %54 = arith.cmpi slt, %50, %c0_i32 : i32
        %55 = arith.extui %54 : i1 to i32
        %56 = arith.subi %53, %55 : i32
        %57 = arith.cmpi ne, %56, %c1_i32 : i32
        %58 = arith.remsi %50, %c1024_i32 : i32
        %59 = arith.cmpi ne, %58, %c0_i32 : i32
        %60 = arith.andi %57, %59 : i1
        %61 = arith.subi %51, %c1_i32 : i32
        %62 = arith.select %60, %61, %51 : i32
        %63 = arith.divsi %50, %c128_i32 : i32
        %64 = arith.remsi %50, %c128_i32 : i32
        %65 = arith.cmpi ne, %64, %c0_i32 : i32
        %66 = arith.andi %57, %65 : i1
        %67 = arith.subi %63, %c1_i32 : i32
        %68 = arith.select %66, %67, %63 : i32
        %69 = arith.addi %50, %47 : i32
        %70 = arith.addi %69, %c127_i32 : i32
        %71 = arith.divsi %70, %c128_i32 : i32
        %72 = arith.cmpi sgt, %70, %c0_i32 : i32
        %73 = arith.extui %72 : i1 to i32
        %74 = arith.cmpi slt, %70, %c0_i32 : i32
        %75 = arith.extui %74 : i1 to i32
        %76 = arith.subi %73, %75 : i32
        %77 = arith.cmpi ne, %76, %c1_i32 : i32
        %78 = arith.remsi %70, %c128_i32 : i32
        %79 = arith.cmpi ne, %78, %c0_i32 : i32
        %80 = arith.andi %77, %79 : i1
        %81 = arith.subi %71, %c1_i32 : i32
        %82 = arith.select %80, %81, %71 : i32
        %83 = arith.cmpi slt, %64, %c0_i32 : i32
        %84 = arith.andi %83, %65 : i1
        %85 = arith.addi %64, %c128_i32 : i32
        %86 = arith.select %84, %85, %64 : i32
        %87 = arith.muli %62, %c8_i32 : i32
        %88 = arith.subi %68, %87 : i32
        %89 = arith.index_cast %49 : i32 to index
        %90 = memref.load %3[%89] : memref<128xi32, #tpu.memory_space<smem>>
        %91 = arith.addi %90, %c127_i32 : i32
        %92 = arith.divsi %91, %c128_i32 : i32
        %93 = arith.cmpi sgt, %91, %c0_i32 : i32
        %94 = arith.extui %93 : i1 to i32
        %95 = arith.cmpi slt, %91, %c0_i32 : i32
        %96 = arith.extui %95 : i1 to i32
        %97 = arith.subi %94, %96 : i32
        %98 = arith.cmpi ne, %97, %c1_i32 : i32
        %99 = arith.remsi %91, %c128_i32 : i32
        %100 = arith.cmpi ne, %99, %c0_i32 : i32
        %101 = arith.andi %98, %100 : i1
        %102 = arith.subi %92, %c1_i32 : i32
        %103 = arith.select %101, %102, %92 : i32
        %104 = arith.addi %103, %68 : i32
        %105 = arith.subi %82, %68 : i32
        %106:2 = scf.for %arg23 = %c0_i32 to %105 step %c1_i32 iter_args(%arg24 = %47, %arg25 = %86) -> (i32, i32)  : i32 {
          %107 = arith.subi %c128_i32, %arg25 : i32
          %108 = arith.minsi %107, %arg24 : i32
          %109 = arith.addi %88, %arg23 : i32
          %110 = arith.muli %109, %c128_i32 : i32
          %111 = arith.addi %110, %arg25 : i32
          %112 = arith.addi %104, %arg23 : i32
          %113 = arith.index_cast %112 : i32 to index
          %114 = memref.load %1[%113] : memref<2048xi32, #tpu.memory_space<smem>>
          %115 = arith.muli %114, %c128_i32 : i32
          %116 = arith.addi %115, %arg25 : i32
          %117 = tpu.memref_slice %arg16[%c1_i32, %c0_i32, %c0_i32, %c0_i32, %c0_i32] : memref<2x1024x8x2x128xbf16, #tpu.tiled<(2,128)(2,1),[8192,8,1,1,1]>, #tpu.memory_space<vmem>> -> memref<1x1024x8x2x128xbf16, #tpu.tiled<(2,128)(2,1),[8192,8,1,1,1]>, #tpu.memory_space<vmem>>
          %118 = tpu.memref_squeeze %117 : memref<1x1024x8x2x128xbf16, #tpu.tiled<(2,128)(2,1),[8192,8,1,1,1]>, #tpu.memory_space<vmem>> -> memref<1024x8x2x128xbf16, #tpu.tiled<(2,128)(2,1),[8,1,1,1]>, #tpu.memory_space<vmem>>
          %119 = tpu.memref_slice %118[%111, %c0_i32, %c0_i32, %c0_i32] <%108> : memref<1024x8x2x128xbf16, #tpu.tiled<(2,128)(2,1),[8,1,1,1]>, #tpu.memory_space<vmem>> -> memref<?x8x2x128xbf16, #tpu.tiled<(2,128)(2,1),[8,1,1,1]>, #tpu.memory_space<vmem>>
          %120 = tpu.erase_memref_layout %119 : memref<?x8x2x128xbf16, #tpu.tiled<(2,128)(2,1),[8,1,1,1]>, #tpu.memory_space<vmem>> -> memref<?x8x2x128xbf16, strided<[2048, 256, 128, 1], offset: ?>, #tpu.memory_space<vmem>>
          %121 = tpu.memref_reshape %arg15 : memref<4688x128x8x2x128xbf16, #tpu.tiled<(2,128)(2,1),[1024,8,1,1,1]>, #tpu.memory_space<hbm>> -> memref<600064x8x2x128xbf16, #tpu.tiled<(2,128)(2,1),[8,1,1,1]>, #tpu.memory_space<hbm>>
          %122 = tpu.memref_slice %121[%116, %c0_i32, %c0_i32, %c0_i32] <%108> : memref<600064x8x2x128xbf16, #tpu.tiled<(2,128)(2,1),[8,1,1,1]>, #tpu.memory_space<hbm>> -> memref<?x8x2x128xbf16, #tpu.tiled<(2,128)(2,1),[8,1,1,1]>, #tpu.memory_space<hbm>>
          %123 = tpu.erase_memref_layout %122 : memref<?x8x2x128xbf16, #tpu.tiled<(2,128)(2,1),[8,1,1,1]>, #tpu.memory_space<hbm>> -> memref<?x8x2x128xbf16, strided<[2048, 256, 128, 1], offset: ?>, #tpu.memory_space<hbm>>
          %124 = tpu.memref_slice %arg19[%c3_i32, %c1_i32] : memref<5x2x!tpu.dma_semaphore, #tpu.tiled<,[2,1]>, #tpu.memory_space<semaphore_mem>> -> memref<1x1x!tpu.dma_semaphore, #tpu.tiled<,[2,1]>, #tpu.memory_space<semaphore_mem>>
          %125 = tpu.memref_squeeze %124 : memref<1x1x!tpu.dma_semaphore, #tpu.tiled<,[2,1]>, #tpu.memory_space<semaphore_mem>> -> memref<!tpu.dma_semaphore, #tpu.tiled<,[]>, #tpu.memory_space<semaphore_mem>>
          %126 = tpu.erase_memref_layout %125 : memref<!tpu.dma_semaphore, #tpu.tiled<,[]>, #tpu.memory_space<semaphore_mem>> -> memref<!tpu.dma_semaphore, strided<[], offset: 7>, #tpu.memory_space<semaphore_mem>>
          tpu.wait_dma2 semaphore(%126 : memref<!tpu.dma_semaphore, strided<[], offset: 7>, #tpu.memory_space<semaphore_mem>>) src(%120 : memref<?x8x2x128xbf16, strided<[2048, 256, 128, 1], offset: ?>, #tpu.memory_space<vmem>>) dst(%123 : memref<?x8x2x128xbf16, strided<[2048, 256, 128, 1], offset: ?>, #tpu.memory_space<hbm>>)
          %127 = arith.subi %arg24, %108 : i32
          scf.yield %127, %c0_i32 : i32, i32
        }
      }
    }
    return
  }
}
