module @"RPA-bq_128-bkvp_8-p_128" attributes {stable_mosaic.version = 9 : i64} {
  func.func @main(%arg0: i32, %arg1: memref<128xi32, #tpu.tiled<(128),[1]>, #tpu.memory_space<smem>>, %arg2: memref<2048xi32, #tpu.tiled<(1024),[1]>, #tpu.memory_space<smem>>, %arg3: memref<128xi32, #tpu.tiled<(128),[1]>, #tpu.memory_space<smem>>, %arg4: memref<128xi32, #tpu.tiled<(128),[1]>, #tpu.memory_space<smem>>, %arg5: memref<128xi32, #tpu.tiled<(128),[1]>, #tpu.memory_space<smem>>, %arg6: memref<128xi32, #tpu.tiled<(128),[1]>, #tpu.memory_space<smem>>, %arg7: memref<128xi32, #tpu.tiled<(128),[1]>, #tpu.memory_space<smem>>, %arg8: memref<128xi32, #tpu.tiled<(128),[1]>, #tpu.memory_space<smem>>, %arg9: memref<128xi32, #tpu.tiled<(128),[1]>, #tpu.memory_space<smem>>, %arg10: memref<8x8192x2x2x128xbf16, #tpu.tiled<(2,128)(2,1),[16384,2,1,1,1]>, #tpu.memory_space<vmem>> {llo.passthrough_operand, llo.unspecified_memory_space}, %arg11: memref<8192x8x2x128xbf16, #tpu.tiled<(2,128)(2,1),[8,1,1,1]>, #tpu.memory_space<hbm>> {llo.passthrough_operand, llo.unspecified_memory_space}, %arg12: memref<4688x128x8x2x128xbf16, #tpu.tiled<(2,128)(2,1),[1024,8,1,1,1]>, #tpu.memory_space<hbm>> {llo.passthrough_operand, llo.unspecified_memory_space}, %arg13: memref<1024x128xi32, #tpu.tiled<(8,128),[1,1]>, #tpu.memory_space<hbm>> {llo.passthrough_operand, llo.unspecified_memory_space}, %arg14: memref<8x8192x2x2x128xbf16, #tpu.tiled<(2,128)(2,1),[16384,2,1,1,1]>, #tpu.memory_space<vmem>> {llo.passthrough_operand, llo.unspecified_memory_space}, %arg15: memref<4688x128x8x2x128xbf16, #tpu.tiled<(2,128)(2,1),[1024,8,1,1,1]>, #tpu.memory_space<hbm>> {llo.passthrough_operand, llo.unspecified_memory_space}, %arg16: memref<2x1024x8x2x128xbf16, #tpu.tiled<(2,128)(2,1),[8192,8,1,1,1]>, #tpu.memory_space<vmem>>, %arg17: memref<2x8x128x2x2x128xbf16, #tpu.tiled<(2,128)(2,1),[2048,256,2,1,1,1]>, #tpu.memory_space<vmem>>, %arg18: memref<2x8x128x2x2x128xbf16, #tpu.tiled<(2,128)(2,1),[2048,256,2,1,1,1]>, #tpu.memory_space<vmem>>, %arg19: memref<5x2x!tpu.dma_semaphore, #tpu.tiled<,[2,1]>, #tpu.memory_space<semaphore_mem>> {llo.passthrough_operand}, %arg20: memref<8x512x128xf32, #tpu.tiled<(8,128),[64,1,1]>, #tpu.memory_space<vmem>>, %arg21: memref<8x512x128xf32, #tpu.tiled<(8,128),[64,1,1]>, #tpu.memory_space<vmem>>, %arg22: memref<8x512x128xf32, #tpu.tiled<(8,128),[64,1,1]>, #tpu.memory_space<vmem>>) attributes {dimension_semantics = [#tpu.dimension_semantics<arbitrary>], iteration_bounds = array<i64: -9223372036854775808>, scalar_prefetch = 9 : i64, scratch_operands = 7 : i64, window_params = [{}, {}, {}, {}, {}, {}]} {
    %cst = arith.constant dense<0xFF800000> : vector<512x128xf32>
    %cst_0 = arith.constant dense<-2.38197633E+38> : vector<8x512x1024xf32>
    %cst_1 = arith.constant dense<1> : vector<8x512x1024xi32>
    %cst_2 = arith.constant dense<0> : vector<8x512x1024xi32>
    %cst_3 = arith.constant dense<4> : vector<8x512x1024xi32>
    %cst_4 = arith.constant dense<0.0883883461> : vector<8x512x1024xf32>
    %cst_5 = arith.constant dense<0xFF800000> : vector<4x128xf32>
    %cst_6 = arith.constant dense<-2.38197633E+38> : vector<8x4x1024xf32>
    %cst_7 = arith.constant dense<1> : vector<8x4x1024xi32>
    %cst_8 = arith.constant dense<0> : vector<8x4x1024xi32>
    %cst_9 = arith.constant dense<4> : vector<8x4x1024xi32>
    %cst_10 = arith.constant dense<0.0883883461> : vector<8x4x1024xf32>
    %cst_11 = arith.constant dense<16> : vector<1024x128xi32>
    %cst_12 = arith.constant dense<0> : vector<1024x128xi32>
    %cst_13 = arith.constant dense<-1> : vector<1024x128xi32>
    %c1023_i32 = arith.constant 1023 : i32
    %c127_i32 = arith.constant 127 : i32
    %cst_14 = arith.constant dense<0.000000e+00> : vector<512xf32>
    %cst_15 = arith.constant dense<0.000000e+00> : vector<512x128xf32>
    %cst_16 = arith.constant dense<0xFF800000> : vector<512xf32>
    %cst_17 = arith.constant dense<0.000000e+00> : vector<8x512x1024xf32>
    %cst_18 = arith.constant dense<0.000000e+00> : vector<4xf32>
    %cst_19 = arith.constant dense<0.000000e+00> : vector<4x128xf32>
    %cst_20 = arith.constant dense<0xFF800000> : vector<4xf32>
    %cst_21 = arith.constant dense<0.000000e+00> : vector<8x4x1024xf32>
    %c7_i32 = arith.constant 7 : i32
    %c6_i32 = arith.constant 6 : i32
    %c5_i32 = arith.constant 5 : i32
    %c7 = arith.constant 7 : index
    %c6 = arith.constant 6 : index
    %c5 = arith.constant 5 : index
    %c3 = arith.constant 3 : index
    %c2_i32 = arith.constant 2 : i32
    %c4_i32 = arith.constant 4 : i32
    %c3_i32 = arith.constant 3 : i32
    %c4 = arith.constant 4 : index
    %c1024_i32 = arith.constant 1024 : i32
    %c8_i32 = arith.constant 8 : i32
    %c128_i32 = arith.constant 128 : i32
    %c0_i32 = arith.constant 0 : i32
    %c1_i32 = arith.constant 1 : i32
    %c2 = arith.constant 2 : index
    %c1 = arith.constant 1 : index
    %c0 = arith.constant 0 : index
    %0 = tpu.erase_memref_layout %arg1 : memref<128xi32, #tpu.tiled<(128),[1]>, #tpu.memory_space<smem>> -> memref<128xi32, #tpu.memory_space<smem>>
    %1 = tpu.erase_memref_layout %arg2 : memref<2048xi32, #tpu.tiled<(1024),[1]>, #tpu.memory_space<smem>> -> memref<2048xi32, #tpu.memory_space<smem>>
    %2 = tpu.erase_memref_layout %arg3 : memref<128xi32, #tpu.tiled<(128),[1]>, #tpu.memory_space<smem>> -> memref<128xi32, #tpu.memory_space<smem>>
    %3 = tpu.erase_memref_layout %arg4 : memref<128xi32, #tpu.tiled<(128),[1]>, #tpu.memory_space<smem>> -> memref<128xi32, #tpu.memory_space<smem>>
    %4 = tpu.erase_memref_layout %arg6 : memref<128xi32, #tpu.tiled<(128),[1]>, #tpu.memory_space<smem>> -> memref<128xi32, #tpu.memory_space<smem>>
    %5 = tpu.erase_memref_layout %arg7 : memref<128xi32, #tpu.tiled<(128),[1]>, #tpu.memory_space<smem>> -> memref<128xi32, #tpu.memory_space<smem>>
    %6 = tpu.erase_memref_layout %arg8 : memref<128xi32, #tpu.tiled<(128),[1]>, #tpu.memory_space<smem>> -> memref<128xi32, #tpu.memory_space<smem>>
    %7 = tpu.erase_memref_layout %arg9 : memref<128xi32, #tpu.tiled<(128),[1]>, #tpu.memory_space<smem>> -> memref<128xi32, #tpu.memory_space<smem>>
    %8 = tpu.reinterpret_cast %arg20 : memref<8x512x128xf32, #tpu.tiled<(8,128),[64,1,1]>, #tpu.memory_space<vmem>> -> memref<8x512x128xf32, #tpu.tiled<(1,128),[512,1,1]>, #tpu.memory_space<vmem>>
    %9 = tpu.erase_memref_layout %8 : memref<8x512x128xf32, #tpu.tiled<(1,128),[512,1,1]>, #tpu.memory_space<vmem>> -> memref<8x512x128xf32, #tpu.memory_space<vmem>>
    %10 = tpu.reinterpret_cast %arg21 : memref<8x512x128xf32, #tpu.tiled<(8,128),[64,1,1]>, #tpu.memory_space<vmem>> -> memref<8x512x128xf32, #tpu.tiled<(1,128),[512,1,1]>, #tpu.memory_space<vmem>>
    %11 = tpu.erase_memref_layout %10 : memref<8x512x128xf32, #tpu.tiled<(1,128),[512,1,1]>, #tpu.memory_space<vmem>> -> memref<8x512x128xf32, #tpu.memory_space<vmem>>
    %12 = tpu.reinterpret_cast %arg22 : memref<8x512x128xf32, #tpu.tiled<(8,128),[64,1,1]>, #tpu.memory_space<vmem>> -> memref<8x512x128xf32, #tpu.tiled<(1,128),[512,1,1]>, #tpu.memory_space<vmem>>
    %13 = tpu.erase_memref_layout %12 : memref<8x512x128xf32, #tpu.tiled<(1,128),[512,1,1]>, #tpu.memory_space<vmem>> -> memref<8x512x128xf32, #tpu.memory_space<vmem>>
    %14 = tpu.iteration_bound 0 : i32
    %15 = memref.load %4[%c0] : memref<128xi32, #tpu.memory_space<smem>>
    %16 = memref.load %4[%c1] : memref<128xi32, #tpu.memory_space<smem>>
    %17 = memref.load %4[%c2] : memref<128xi32, #tpu.memory_space<smem>>
    %18 = arith.index_cast %arg0 : i32 to index
    %19 = memref.load %2[%18] : memref<128xi32, #tpu.memory_space<smem>>
    %20 = arith.addi %arg0, %c1_i32 : i32
    %21 = arith.index_cast %20 : i32 to index
    %22 = memref.load %2[%21] : memref<128xi32, #tpu.memory_space<smem>>
    %23 = arith.subi %22, %19 : i32
    %24 = memref.load %0[%18] : memref<128xi32, #tpu.memory_space<smem>>
    %25 = arith.cmpi eq, %arg0, %c0_i32 : i32
    scf.if %25 {
      %35 = memref.load %2[%c0] : memref<128xi32, #tpu.memory_space<smem>>
      %36 = memref.load %2[%c1] : memref<128xi32, #tpu.memory_space<smem>>
      %37 = arith.subi %36, %35 : i32
      %38 = arith.minsi %37, %c128_i32 : i32
      %39 = tpu.memref_slice %arg10[%c0_i32, %35, %c0_i32, %c0_i32, %c0_i32] <%38> : memref<8x8192x2x2x128xbf16, #tpu.tiled<(2,128)(2,1),[16384,2,1,1,1]>, #tpu.memory_space<vmem>> -> memref<8x?x2x2x128xbf16, #tpu.tiled<(2,128)(2,1),[16384,2,1,1,1]>, #tpu.memory_space<vmem>>
      %40 = tpu.erase_memref_layout %39 : memref<8x?x2x2x128xbf16, #tpu.tiled<(2,128)(2,1),[16384,2,1,1,1]>, #tpu.memory_space<vmem>> -> memref<8x?x2x2x128xbf16, strided<[4194304, 512, 256, 128, 1], offset: ?>, #tpu.memory_space<vmem>>
      %41 = tpu.memref_slice %arg17[%c0_i32, %c0_i32, %c0_i32, %c0_i32, %c0_i32, %c0_i32] : memref<2x8x128x2x2x128xbf16, #tpu.tiled<(2,128)(2,1),[2048,256,2,1,1,1]>, #tpu.memory_space<vmem>> -> memref<1x8x128x2x2x128xbf16, #tpu.tiled<(2,128)(2,1),[2048,256,2,1,1,1]>, #tpu.memory_space<vmem>>
      %42 = tpu.memref_squeeze %41 : memref<1x8x128x2x2x128xbf16, #tpu.tiled<(2,128)(2,1),[2048,256,2,1,1,1]>, #tpu.memory_space<vmem>> -> memref<8x128x2x2x128xbf16, #tpu.tiled<(2,128)(2,1),[256,2,1,1,1]>, #tpu.memory_space<vmem>>
      %43 = tpu.memref_slice %42[%c0_i32, %c0_i32, %c0_i32, %c0_i32, %c0_i32] <%38> : memref<8x128x2x2x128xbf16, #tpu.tiled<(2,128)(2,1),[256,2,1,1,1]>, #tpu.memory_space<vmem>> -> memref<8x?x2x2x128xbf16, #tpu.tiled<(2,128)(2,1),[256,2,1,1,1]>, #tpu.memory_space<vmem>>
      %44 = tpu.erase_memref_layout %43 : memref<8x?x2x2x128xbf16, #tpu.tiled<(2,128)(2,1),[256,2,1,1,1]>, #tpu.memory_space<vmem>> -> memref<8x?x2x2x128xbf16, strided<[65536, 512, 256, 128, 1]>, #tpu.memory_space<vmem>>
      %45 = tpu.memref_slice %arg19[%c1_i32, %c0_i32] : memref<5x2x!tpu.dma_semaphore, #tpu.tiled<,[2,1]>, #tpu.memory_space<semaphore_mem>> -> memref<1x1x!tpu.dma_semaphore, #tpu.tiled<,[2,1]>, #tpu.memory_space<semaphore_mem>>
      %46 = tpu.memref_squeeze %45 : memref<1x1x!tpu.dma_semaphore, #tpu.tiled<,[2,1]>, #tpu.memory_space<semaphore_mem>> -> memref<!tpu.dma_semaphore, #tpu.tiled<,[]>, #tpu.memory_space<semaphore_mem>>
      %47 = tpu.erase_memref_layout %46 : memref<!tpu.dma_semaphore, #tpu.tiled<,[]>, #tpu.memory_space<semaphore_mem>> -> memref<!tpu.dma_semaphore, strided<[], offset: 2>, #tpu.memory_space<semaphore_mem>>
      tpu.enqueue_dma source(%40 : memref<8x?x2x2x128xbf16, strided<[4194304, 512, 256, 128, 1], offset: ?>, #tpu.memory_space<vmem>>) target(%44 : memref<8x?x2x2x128xbf16, strided<[65536, 512, 256, 128, 1]>, #tpu.memory_space<vmem>>) target_semaphore(%47 : memref<!tpu.dma_semaphore, strided<[], offset: 2>, #tpu.memory_space<semaphore_mem>>)
      %48 = memref.load %0[%c0] : memref<128xi32, #tpu.memory_space<smem>>
      %49 = memref.load %2[%c0] : memref<128xi32, #tpu.memory_space<smem>>
      %50 = memref.load %2[%c1] : memref<128xi32, #tpu.memory_space<smem>>
      %51 = arith.subi %50, %49 : i32
      %52 = arith.subi %48, %51 : i32
      %53 = arith.maxsi %52, %c0_i32 : i32
      %54 = arith.subi %48, %53 : i32
      %55 = arith.addi %53, %c127_i32 : i32
      %56 = arith.divsi %55, %c128_i32 : i32
      %57 = arith.cmpi sgt, %55, %c0_i32 : i32
      %58 = arith.extui %57 : i1 to i32
      %59 = arith.cmpi slt, %55, %c0_i32 : i32
      %60 = arith.extui %59 : i1 to i32
      %61 = arith.subi %58, %60 : i32
      %62 = arith.cmpi ne, %61, %c1_i32 : i32
      %63 = arith.remsi %55, %c128_i32 : i32
      %64 = arith.cmpi ne, %63, %c0_i32 : i32
      %65 = arith.andi %62, %64 : i1
      %66 = arith.subi %56, %c1_i32 : i32
      %67 = arith.select %65, %66, %56 : i32
      %68 = arith.minsi %67, %c8_i32 : i32
      %69 = arith.subi %c1024_i32, %53 : i32
      %70 = arith.maxsi %69, %c0_i32 : i32
      %71 = arith.minsi %70, %54 : i32
      %72 = memref.load %3[%c0] : memref<128xi32, #tpu.memory_space<smem>>
      %73 = arith.addi %72, %c127_i32 : i32
      %74 = arith.divsi %73, %c128_i32 : i32
      %75 = arith.cmpi sgt, %73, %c0_i32 : i32
      %76 = arith.extui %75 : i1 to i32
      %77 = arith.cmpi slt, %73, %c0_i32 : i32
      %78 = arith.extui %77 : i1 to i32
      %79 = arith.subi %76, %78 : i32
      %80 = arith.cmpi ne, %79, %c1_i32 : i32
      %81 = arith.remsi %73, %c128_i32 : i32
      %82 = arith.cmpi ne, %81, %c0_i32 : i32
      %83 = arith.andi %80, %82 : i1
      %84 = arith.subi %74, %c1_i32 : i32
      %85 = arith.select %83, %84, %74 : i32
      %86 = memref.load %7[%c4] : memref<128xi32, #tpu.memory_space<smem>>
      %87 = arith.cmpi sgt, %86, %c0_i32 : i32
      scf.if %87 {
        %90 = memref.load %7[%c0] : memref<128xi32, #tpu.memory_space<smem>>
        %91 = memref.load %7[%c2] : memref<128xi32, #tpu.memory_space<smem>>
        memref.store %c0_i32, %7[%c4] : memref<128xi32, #tpu.memory_space<smem>>
        %92 = arith.divsi %91, %c1024_i32 : i32
        %93 = arith.cmpi sgt, %91, %c0_i32 : i32
        %94 = arith.extui %93 : i1 to i32
        %95 = arith.cmpi slt, %91, %c0_i32 : i32
        %96 = arith.extui %95 : i1 to i32
        %97 = arith.subi %94, %96 : i32
        %98 = arith.cmpi ne, %97, %c1_i32 : i32
        %99 = arith.remsi %91, %c1024_i32 : i32
        %100 = arith.cmpi ne, %99, %c0_i32 : i32
        %101 = arith.andi %98, %100 : i1
        %102 = arith.subi %92, %c1_i32 : i32
        %103 = arith.select %101, %102, %92 : i32
        %104 = arith.divsi %91, %c128_i32 : i32
        %105 = arith.remsi %91, %c128_i32 : i32
        %106 = arith.cmpi ne, %105, %c0_i32 : i32
        %107 = arith.andi %98, %106 : i1
        %108 = arith.subi %104, %c1_i32 : i32
        %109 = arith.select %107, %108, %104 : i32
        %110 = arith.addi %91, %86 : i32
        %111 = arith.addi %110, %c127_i32 : i32
        %112 = arith.divsi %111, %c128_i32 : i32
        %113 = arith.cmpi sgt, %111, %c0_i32 : i32
        %114 = arith.extui %113 : i1 to i32
        %115 = arith.cmpi slt, %111, %c0_i32 : i32
        %116 = arith.extui %115 : i1 to i32
        %117 = arith.subi %114, %116 : i32
        %118 = arith.cmpi ne, %117, %c1_i32 : i32
        %119 = arith.remsi %111, %c128_i32 : i32
        %120 = arith.cmpi ne, %119, %c0_i32 : i32
        %121 = arith.andi %118, %120 : i1
        %122 = arith.subi %112, %c1_i32 : i32
        %123 = arith.select %121, %122, %112 : i32
        %124 = arith.cmpi slt, %105, %c0_i32 : i32
        %125 = arith.andi %124, %106 : i1
        %126 = arith.addi %105, %c128_i32 : i32
        %127 = arith.select %125, %126, %105 : i32
        %128 = arith.muli %103, %c8_i32 : i32
        %129 = arith.subi %109, %128 : i32
        %130 = arith.index_cast %90 : i32 to index
        %131 = memref.load %3[%130] : memref<128xi32, #tpu.memory_space<smem>>
        %132 = arith.addi %131, %c127_i32 : i32
        %133 = arith.divsi %132, %c128_i32 : i32
        %134 = arith.cmpi sgt, %132, %c0_i32 : i32
        %135 = arith.extui %134 : i1 to i32
        %136 = arith.cmpi slt, %132, %c0_i32 : i32
        %137 = arith.extui %136 : i1 to i32
        %138 = arith.subi %135, %137 : i32
        %139 = arith.cmpi ne, %138, %c1_i32 : i32
        %140 = arith.remsi %132, %c128_i32 : i32
        %141 = arith.cmpi ne, %140, %c0_i32 : i32
        %142 = arith.andi %139, %141 : i1
        %143 = arith.subi %133, %c1_i32 : i32
        %144 = arith.select %142, %143, %133 : i32
        %145 = arith.addi %144, %109 : i32
        %146 = arith.subi %123, %109 : i32
        %147:2 = scf.for %arg23 = %c0_i32 to %146 step %c1_i32 iter_args(%arg24 = %86, %arg25 = %127) -> (i32, i32)  : i32 {
          %148 = arith.subi %c128_i32, %arg25 : i32
          %149 = arith.minsi %148, %arg24 : i32
          %150 = arith.addi %129, %arg23 : i32
          %151 = arith.muli %150, %c128_i32 : i32
          %152 = arith.addi %151, %arg25 : i32
          %153 = arith.addi %145, %arg23 : i32
          %154 = arith.index_cast %153 : i32 to index
          %155 = memref.load %1[%154] : memref<2048xi32, #tpu.memory_space<smem>>
          %156 = arith.muli %155, %c128_i32 : i32
          %157 = arith.addi %156, %arg25 : i32
          %158 = tpu.memref_slice %arg16[%c0_i32, %c0_i32, %c0_i32, %c0_i32, %c0_i32] : memref<2x1024x8x2x128xbf16, #tpu.tiled<(2,128)(2,1),[8192,8,1,1,1]>, #tpu.memory_space<vmem>> -> memref<1x1024x8x2x128xbf16, #tpu.tiled<(2,128)(2,1),[8192,8,1,1,1]>, #tpu.memory_space<vmem>>
          %159 = tpu.memref_squeeze %158 : memref<1x1024x8x2x128xbf16, #tpu.tiled<(2,128)(2,1),[8192,8,1,1,1]>, #tpu.memory_space<vmem>> -> memref<1024x8x2x128xbf16, #tpu.tiled<(2,128)(2,1),[8,1,1,1]>, #tpu.memory_space<vmem>>
          %160 = tpu.memref_slice %159[%152, %c0_i32, %c0_i32, %c0_i32] <%149> : memref<1024x8x2x128xbf16, #tpu.tiled<(2,128)(2,1),[8,1,1,1]>, #tpu.memory_space<vmem>> -> memref<?x8x2x128xbf16, #tpu.tiled<(2,128)(2,1),[8,1,1,1]>, #tpu.memory_space<vmem>>
          %161 = tpu.erase_memref_layout %160 : memref<?x8x2x128xbf16, #tpu.tiled<(2,128)(2,1),[8,1,1,1]>, #tpu.memory_space<vmem>> -> memref<?x8x2x128xbf16, strided<[2048, 256, 128, 1], offset: ?>, #tpu.memory_space<vmem>>
          %162 = tpu.memref_reshape %arg15 : memref<4688x128x8x2x128xbf16, #tpu.tiled<(2,128)(2,1),[1024,8,1,1,1]>, #tpu.memory_space<hbm>> -> memref<600064x8x2x128xbf16, #tpu.tiled<(2,128)(2,1),[8,1,1,1]>, #tpu.memory_space<hbm>>
          %163 = tpu.memref_slice %162[%157, %c0_i32, %c0_i32, %c0_i32] <%149> : memref<600064x8x2x128xbf16, #tpu.tiled<(2,128)(2,1),[8,1,1,1]>, #tpu.memory_space<hbm>> -> memref<?x8x2x128xbf16, #tpu.tiled<(2,128)(2,1),[8,1,1,1]>, #tpu.memory_space<hbm>>
          %164 = tpu.erase_memref_layout %163 : memref<?x8x2x128xbf16, #tpu.tiled<(2,128)(2,1),[8,1,1,1]>, #tpu.memory_space<hbm>> -> memref<?x8x2x128xbf16, strided<[2048, 256, 128, 1], offset: ?>, #tpu.memory_space<hbm>>
          %165 = tpu.memref_slice %arg19[%c3_i32, %c0_i32] : memref<5x2x!tpu.dma_semaphore, #tpu.tiled<,[2,1]>, #tpu.memory_space<semaphore_mem>> -> memref<1x1x!tpu.dma_semaphore, #tpu.tiled<,[2,1]>, #tpu.memory_space<semaphore_mem>>
          %166 = tpu.memref_squeeze %165 : memref<1x1x!tpu.dma_semaphore, #tpu.tiled<,[2,1]>, #tpu.memory_space<semaphore_mem>> -> memref<!tpu.dma_semaphore, #tpu.tiled<,[]>, #tpu.memory_space<semaphore_mem>>
          %167 = tpu.erase_memref_layout %166 : memref<!tpu.dma_semaphore, #tpu.tiled<,[]>, #tpu.memory_space<semaphore_mem>> -> memref<!tpu.dma_semaphore, strided<[], offset: 6>, #tpu.memory_space<semaphore_mem>>
          tpu.wait_dma2 semaphore(%167 : memref<!tpu.dma_semaphore, strided<[], offset: 6>, #tpu.memory_space<semaphore_mem>>) src(%161 : memref<?x8x2x128xbf16, strided<[2048, 256, 128, 1], offset: ?>, #tpu.memory_space<vmem>>) dst(%164 : memref<?x8x2x128xbf16, strided<[2048, 256, 128, 1], offset: ?>, #tpu.memory_space<hbm>>)
          %168 = arith.subi %arg24, %149 : i32
          scf.yield %168, %c0_i32 : i32, i32
        }
      }
      %88 = scf.for %arg23 = %c0_i32 to %68 step %c1_i32 iter_args(%arg24 = %c0_i32) -> (i32)  : i32 {
        %90 = arith.muli %arg23, %c128_i32 : i32
        %91 = arith.subi %53, %90 : i32
        %92 = arith.minsi %91, %c128_i32 : i32
        %93 = arith.addi %85, %arg23 : i32
        %94 = arith.index_cast %93 : i32 to index
        %95 = memref.load %1[%94] : memref<2048xi32, #tpu.memory_space<smem>>
        %96 = arith.muli %95, %c128_i32 : i32
        %97 = tpu.memref_reshape %arg12 : memref<4688x128x8x2x128xbf16, #tpu.tiled<(2,128)(2,1),[1024,8,1,1,1]>, #tpu.memory_space<hbm>> -> memref<600064x8x2x128xbf16, #tpu.tiled<(2,128)(2,1),[8,1,1,1]>, #tpu.memory_space<hbm>>
        %98 = tpu.memref_slice %97[%96, %c0_i32, %c0_i32, %c0_i32] <%92> : memref<600064x8x2x128xbf16, #tpu.tiled<(2,128)(2,1),[8,1,1,1]>, #tpu.memory_space<hbm>> -> memref<?x8x2x128xbf16, #tpu.tiled<(2,128)(2,1),[8,1,1,1]>, #tpu.memory_space<hbm>>
        %99 = tpu.erase_memref_layout %98 : memref<?x8x2x128xbf16, #tpu.tiled<(2,128)(2,1),[8,1,1,1]>, #tpu.memory_space<hbm>> -> memref<?x8x2x128xbf16, strided<[2048, 256, 128, 1], offset: ?>, #tpu.memory_space<hbm>>
        %100 = tpu.memref_slice %arg16[%c0_i32, %c0_i32, %c0_i32, %c0_i32, %c0_i32] : memref<2x1024x8x2x128xbf16, #tpu.tiled<(2,128)(2,1),[8192,8,1,1,1]>, #tpu.memory_space<vmem>> -> memref<1x1024x8x2x128xbf16, #tpu.tiled<(2,128)(2,1),[8192,8,1,1,1]>, #tpu.memory_space<vmem>>
        %101 = tpu.memref_squeeze %100 : memref<1x1024x8x2x128xbf16, #tpu.tiled<(2,128)(2,1),[8192,8,1,1,1]>, #tpu.memory_space<vmem>> -> memref<1024x8x2x128xbf16, #tpu.tiled<(2,128)(2,1),[8,1,1,1]>, #tpu.memory_space<vmem>>
        %102 = tpu.memref_slice %101[%90, %c0_i32, %c0_i32, %c0_i32] <%92> : memref<1024x8x2x128xbf16, #tpu.tiled<(2,128)(2,1),[8,1,1,1]>, #tpu.memory_space<vmem>> -> memref<?x8x2x128xbf16, #tpu.tiled<(2,128)(2,1),[8,1,1,1]>, #tpu.memory_space<vmem>>
        %103 = tpu.erase_memref_layout %102 : memref<?x8x2x128xbf16, #tpu.tiled<(2,128)(2,1),[8,1,1,1]>, #tpu.memory_space<vmem>> -> memref<?x8x2x128xbf16, strided<[2048, 256, 128, 1], offset: ?>, #tpu.memory_space<vmem>>
        %104 = tpu.memref_slice %arg19[%c0_i32, %c0_i32] : memref<5x2x!tpu.dma_semaphore, #tpu.tiled<,[2,1]>, #tpu.memory_space<semaphore_mem>> -> memref<1x1x!tpu.dma_semaphore, #tpu.tiled<,[2,1]>, #tpu.memory_space<semaphore_mem>>
        %105 = tpu.memref_squeeze %104 : memref<1x1x!tpu.dma_semaphore, #tpu.tiled<,[2,1]>, #tpu.memory_space<semaphore_mem>> -> memref<!tpu.dma_semaphore, #tpu.tiled<,[]>, #tpu.memory_space<semaphore_mem>>
        %106 = tpu.erase_memref_layout %105 : memref<!tpu.dma_semaphore, #tpu.tiled<,[]>, #tpu.memory_space<semaphore_mem>> -> memref<!tpu.dma_semaphore, strided<[]>, #tpu.memory_space<semaphore_mem>>
        tpu.enqueue_dma source(%99 : memref<?x8x2x128xbf16, strided<[2048, 256, 128, 1], offset: ?>, #tpu.memory_space<hbm>>) target(%103 : memref<?x8x2x128xbf16, strided<[2048, 256, 128, 1], offset: ?>, #tpu.memory_space<vmem>>) target_semaphore(%106 : memref<!tpu.dma_semaphore, strided<[]>, #tpu.memory_space<semaphore_mem>>)
        %107 = arith.addi %arg24, %92 : i32
        scf.yield %107 : i32
      }
      %89 = arith.cmpi sgt, %71, %c0_i32 : i32
      scf.if %89 {
        %90 = arith.subi %50, %54 : i32
        %91 = tpu.memref_slice %arg11[%90, %c0_i32, %c0_i32, %c0_i32] <%71> : memref<8192x8x2x128xbf16, #tpu.tiled<(2,128)(2,1),[8,1,1,1]>, #tpu.memory_space<hbm>> -> memref<?x8x2x128xbf16, #tpu.tiled<(2,128)(2,1),[8,1,1,1]>, #tpu.memory_space<hbm>>
        %92 = tpu.erase_memref_layout %91 : memref<?x8x2x128xbf16, #tpu.tiled<(2,128)(2,1),[8,1,1,1]>, #tpu.memory_space<hbm>> -> memref<?x8x2x128xbf16, strided<[2048, 256, 128, 1], offset: ?>, #tpu.memory_space<hbm>>
        %93 = tpu.memref_slice %arg16[%c0_i32, %c0_i32, %c0_i32, %c0_i32, %c0_i32] : memref<2x1024x8x2x128xbf16, #tpu.tiled<(2,128)(2,1),[8192,8,1,1,1]>, #tpu.memory_space<vmem>> -> memref<1x1024x8x2x128xbf16, #tpu.tiled<(2,128)(2,1),[8192,8,1,1,1]>, #tpu.memory_space<vmem>>
        %94 = tpu.memref_squeeze %93 : memref<1x1024x8x2x128xbf16, #tpu.tiled<(2,128)(2,1),[8192,8,1,1,1]>, #tpu.memory_space<vmem>> -> memref<1024x8x2x128xbf16, #tpu.tiled<(2,128)(2,1),[8,1,1,1]>, #tpu.memory_space<vmem>>
        %95 = tpu.memref_slice %94[%88, %c0_i32, %c0_i32, %c0_i32] <%71> : memref<1024x8x2x128xbf16, #tpu.tiled<(2,128)(2,1),[8,1,1,1]>, #tpu.memory_space<vmem>> -> memref<?x8x2x128xbf16, #tpu.tiled<(2,128)(2,1),[8,1,1,1]>, #tpu.memory_space<vmem>>
        %96 = tpu.erase_memref_layout %95 : memref<?x8x2x128xbf16, #tpu.tiled<(2,128)(2,1),[8,1,1,1]>, #tpu.memory_space<vmem>> -> memref<?x8x2x128xbf16, strided<[2048, 256, 128, 1], offset: ?>, #tpu.memory_space<vmem>>
        %97 = tpu.memref_slice %arg19[%c0_i32, %c0_i32] : memref<5x2x!tpu.dma_semaphore, #tpu.tiled<,[2,1]>, #tpu.memory_space<semaphore_mem>> -> memref<1x1x!tpu.dma_semaphore, #tpu.tiled<,[2,1]>, #tpu.memory_space<semaphore_mem>>
        %98 = tpu.memref_squeeze %97 : memref<1x1x!tpu.dma_semaphore, #tpu.tiled<,[2,1]>, #tpu.memory_space<semaphore_mem>> -> memref<!tpu.dma_semaphore, #tpu.tiled<,[]>, #tpu.memory_space<semaphore_mem>>
        %99 = tpu.erase_memref_layout %98 : memref<!tpu.dma_semaphore, #tpu.tiled<,[]>, #tpu.memory_space<semaphore_mem>> -> memref<!tpu.dma_semaphore, strided<[]>, #tpu.memory_space<semaphore_mem>>
        tpu.enqueue_dma source(%92 : memref<?x8x2x128xbf16, strided<[2048, 256, 128, 1], offset: ?>, #tpu.memory_space<hbm>>) target(%96 : memref<?x8x2x128xbf16, strided<[2048, 256, 128, 1], offset: ?>, #tpu.memory_space<vmem>>) target_semaphore(%99 : memref<!tpu.dma_semaphore, strided<[]>, #tpu.memory_space<semaphore_mem>>)
      }
    }
    %26 = arith.cmpi slt, %arg0, %15 : i32
    scf.if %26 {
      %35 = arith.addi %24, %c1023_i32 : i32
      %36 = arith.divsi %35, %c1024_i32 : i32
      %37 = arith.cmpi sgt, %35, %c0_i32 : i32
      %38 = arith.extui %37 : i1 to i32
      %39 = arith.cmpi slt, %35, %c0_i32 : i32
      %40 = arith.extui %39 : i1 to i32
      %41 = arith.subi %38, %40 : i32
      %42 = arith.cmpi ne, %41, %c1_i32 : i32
      %43 = arith.remsi %35, %c1024_i32 : i32
      %44 = arith.cmpi ne, %43, %c0_i32 : i32
      %45 = arith.andi %42, %44 : i1
      %46 = arith.subi %36, %c1_i32 : i32
      %47 = arith.select %45, %46, %36 : i32
      %48 = memref.load %5[%c0] : memref<128xi32, #tpu.memory_space<smem>>
      %49 = arith.cmpi eq, %48, %c0_i32 : i32
      %50 = arith.extui %49 : i1 to i32
      %51 = arith.cmpi slt, %20, %14 : i32
      scf.if %51 {
        memref.store %50, %5[%c0] : memref<128xi32, #tpu.memory_space<smem>>
        %85 = memref.load %2[%21] : memref<128xi32, #tpu.memory_space<smem>>
        %86 = arith.addi %arg0, %c2_i32 : i32
        %87 = arith.index_cast %86 : i32 to index
        %88 = memref.load %2[%87] : memref<128xi32, #tpu.memory_space<smem>>
        %89 = arith.subi %88, %85 : i32
        %90 = arith.minsi %89, %c128_i32 : i32
        %91 = tpu.memref_slice %arg10[%c0_i32, %85, %c0_i32, %c0_i32, %c0_i32] <%90> : memref<8x8192x2x2x128xbf16, #tpu.tiled<(2,128)(2,1),[16384,2,1,1,1]>, #tpu.memory_space<vmem>> -> memref<8x?x2x2x128xbf16, #tpu.tiled<(2,128)(2,1),[16384,2,1,1,1]>, #tpu.memory_space<vmem>>
        %92 = tpu.erase_memref_layout %91 : memref<8x?x2x2x128xbf16, #tpu.tiled<(2,128)(2,1),[16384,2,1,1,1]>, #tpu.memory_space<vmem>> -> memref<8x?x2x2x128xbf16, strided<[4194304, 512, 256, 128, 1], offset: ?>, #tpu.memory_space<vmem>>
        %93 = tpu.memref_slice %arg17[%50, %c0_i32, %c0_i32, %c0_i32, %c0_i32, %c0_i32] : memref<2x8x128x2x2x128xbf16, #tpu.tiled<(2,128)(2,1),[2048,256,2,1,1,1]>, #tpu.memory_space<vmem>> -> memref<1x8x128x2x2x128xbf16, #tpu.tiled<(2,128)(2,1),[2048,256,2,1,1,1]>, #tpu.memory_space<vmem>>
        %94 = tpu.memref_squeeze %93 : memref<1x8x128x2x2x128xbf16, #tpu.tiled<(2,128)(2,1),[2048,256,2,1,1,1]>, #tpu.memory_space<vmem>> -> memref<8x128x2x2x128xbf16, #tpu.tiled<(2,128)(2,1),[256,2,1,1,1]>, #tpu.memory_space<vmem>>
        %95 = tpu.memref_slice %94[%c0_i32, %c0_i32, %c0_i32, %c0_i32, %c0_i32] <%90> : memref<8x128x2x2x128xbf16, #tpu.tiled<(2,128)(2,1),[256,2,1,1,1]>, #tpu.memory_space<vmem>> -> memref<8x?x2x2x128xbf16, #tpu.tiled<(2,128)(2,1),[256,2,1,1,1]>, #tpu.memory_space<vmem>>
        %96 = tpu.erase_memref_layout %95 : memref<8x?x2x2x128xbf16, #tpu.tiled<(2,128)(2,1),[256,2,1,1,1]>, #tpu.memory_space<vmem>> -> memref<8x?x2x2x128xbf16, strided<[65536, 512, 256, 128, 1], offset: ?>, #tpu.memory_space<vmem>>
        %97 = tpu.memref_slice %arg19[%c1_i32, %50] : memref<5x2x!tpu.dma_semaphore, #tpu.tiled<,[2,1]>, #tpu.memory_space<semaphore_mem>> -> memref<1x1x!tpu.dma_semaphore, #tpu.tiled<,[2,1]>, #tpu.memory_space<semaphore_mem>>
        %98 = tpu.memref_squeeze %97 : memref<1x1x!tpu.dma_semaphore, #tpu.tiled<,[2,1]>, #tpu.memory_space<semaphore_mem>> -> memref<!tpu.dma_semaphore, #tpu.tiled<,[]>, #tpu.memory_space<semaphore_mem>>
        %99 = tpu.erase_memref_layout %98 : memref<!tpu.dma_semaphore, #tpu.tiled<,[]>, #tpu.memory_space<semaphore_mem>> -> memref<!tpu.dma_semaphore, strided<[], offset: ?>, #tpu.memory_space<semaphore_mem>>
        tpu.enqueue_dma source(%92 : memref<8x?x2x2x128xbf16, strided<[4194304, 512, 256, 128, 1], offset: ?>, #tpu.memory_space<vmem>>) target(%96 : memref<8x?x2x2x128xbf16, strided<[65536, 512, 256, 128, 1], offset: ?>, #tpu.memory_space<vmem>>) target_semaphore(%99 : memref<!tpu.dma_semaphore, strided<[], offset: ?>, #tpu.memory_space<semaphore_mem>>)
      }
      scf.for %arg23 = %c0_i32 to %47 step %c1_i32  : i32 {
        %85 = arith.muli %arg23, %c1024_i32 : i32
        %86 = arith.subi %24, %85 : i32
        %87 = arith.minsi %86, %c1024_i32 : i32
        %88 = tpu.iota {dimensions = array<i32: 0>} : vector<1024x128xi32>
        %89 = vector.broadcast %87 : i32 to vector<1024x128xi32>
        %90 = arith.cmpi slt, %88, %89 : vector<1024x128xi32>
        %91 = arith.select %90, %cst_13, %cst_12 : vector<1024x128xi1>, vector<1024x128xi32>
        %92 = arith.trunci %91 : vector<1024x128xi32> to vector<1024x128xi16>
        %93 = tpu.bitcast %92 : vector<1024x128xi16> -> vector<512x128xi32>
        %94 = memref.load %5[%c1] : memref<128xi32, #tpu.memory_space<smem>>
        %95 = arith.addi %arg23, %c1_i32 : i32
        %96 = arith.cmpi eq, %95, %47 : i32
        %97 = arith.select %96, %c0_i32, %95 : i32
        %98 = arith.extui %96 : i1 to i32
        %99 = arith.cmpi eq, %98, %c1_i32 : i32
        %100 = arith.select %99, %20, %arg0 : i32
        %101 = arith.cmpi eq, %94, %c0_i32 : i32
        %102 = arith.extui %101 : i1 to i32
        %103 = arith.cmpi slt, %100, %14 : i32
        scf.if %103 {
          memref.store %102, %5[%c1] : memref<128xi32, #tpu.memory_space<smem>>
          %590 = arith.index_cast %100 : i32 to index
          %591 = memref.load %0[%590] : memref<128xi32, #tpu.memory_space<smem>>
          %592 = arith.muli %97, %c1024_i32 : i32
          %593 = arith.muli %97, %c8_i32 : i32
          %594 = memref.load %2[%590] : memref<128xi32, #tpu.memory_space<smem>>
          %595 = arith.addi %100, %c1_i32 : i32
          %596 = arith.index_cast %595 : i32 to index
          %597 = memref.load %2[%596] : memref<128xi32, #tpu.memory_space<smem>>
          %598 = arith.subi %597, %594 : i32
          %599 = arith.subi %591, %592 : i32
          %600 = arith.subi %599, %598 : i32
          %601 = arith.maxsi %600, %c0_i32 : i32
          %602 = arith.subi %599, %601 : i32
          %603 = arith.addi %601, %c127_i32 : i32
          %604 = arith.divsi %603, %c128_i32 : i32
          %605 = arith.cmpi sgt, %603, %c0_i32 : i32
          %606 = arith.extui %605 : i1 to i32
          %607 = arith.cmpi slt, %603, %c0_i32 : i32
          %608 = arith.extui %607 : i1 to i32
          %609 = arith.subi %606, %608 : i32
          %610 = arith.cmpi ne, %609, %c1_i32 : i32
          %611 = arith.remsi %603, %c128_i32 : i32
          %612 = arith.cmpi ne, %611, %c0_i32 : i32
          %613 = arith.andi %610, %612 : i1
          %614 = arith.subi %604, %c1_i32 : i32
          %615 = arith.select %613, %614, %604 : i32
          %616 = arith.minsi %615, %c8_i32 : i32
          %617 = arith.subi %c1024_i32, %601 : i32
          %618 = arith.maxsi %617, %c0_i32 : i32
          %619 = arith.minsi %618, %602 : i32
          %620 = memref.load %3[%590] : memref<128xi32, #tpu.memory_space<smem>>
          %621 = arith.addi %620, %c127_i32 : i32
          %622 = arith.divsi %621, %c128_i32 : i32
          %623 = arith.cmpi sgt, %621, %c0_i32 : i32
          %624 = arith.extui %623 : i1 to i32
          %625 = arith.cmpi slt, %621, %c0_i32 : i32
          %626 = arith.extui %625 : i1 to i32
          %627 = arith.subi %624, %626 : i32
          %628 = arith.cmpi ne, %627, %c1_i32 : i32
          %629 = arith.remsi %621, %c128_i32 : i32
          %630 = arith.cmpi ne, %629, %c0_i32 : i32
          %631 = arith.andi %628, %630 : i1
          %632 = arith.subi %622, %c1_i32 : i32
          %633 = arith.select %631, %632, %622 : i32
          %634 = arith.addi %633, %593 : i32
          %635 = arith.addi %102, %c4_i32 : i32
          %636 = arith.index_cast %635 : i32 to index
          %637 = memref.load %7[%636] : memref<128xi32, #tpu.memory_space<smem>>
          %638 = arith.cmpi sgt, %637, %c0_i32 : i32
          scf.if %638 {
            %641 = arith.index_cast %102 : i32 to index
            %642 = memref.load %7[%641] : memref<128xi32, #tpu.memory_space<smem>>
            %643 = arith.addi %102, %c2_i32 : i32
            %644 = arith.index_cast %643 : i32 to index
            %645 = memref.load %7[%644] : memref<128xi32, #tpu.memory_space<smem>>
            memref.store %c0_i32, %7[%636] : memref<128xi32, #tpu.memory_space<smem>>
            %646 = arith.divsi %645, %c1024_i32 : i32
            %647 = arith.cmpi sgt, %645, %c0_i32 : i32
            %648 = arith.extui %647 : i1 to i32
            %649 = arith.cmpi slt, %645, %c0_i32 : i32
            %650 = arith.extui %649 : i1 to i32
            %651 = arith.subi %648, %650 : i32
            %652 = arith.cmpi ne, %651, %c1_i32 : i32
            %653 = arith.remsi %645, %c1024_i32 : i32
            %654 = arith.cmpi ne, %653, %c0_i32 : i32
            %655 = arith.andi %652, %654 : i1
            %656 = arith.subi %646, %c1_i32 : i32
            %657 = arith.select %655, %656, %646 : i32
            %658 = arith.divsi %645, %c128_i32 : i32
            %659 = arith.remsi %645, %c128_i32 : i32
            %660 = arith.cmpi ne, %659, %c0_i32 : i32
            %661 = arith.andi %652, %660 : i1
            %662 = arith.subi %658, %c1_i32 : i32
            %663 = arith.select %661, %662, %658 : i32
            %664 = arith.addi %645, %637 : i32
            %665 = arith.addi %664, %c127_i32 : i32
            %666 = arith.divsi %665, %c128_i32 : i32
            %667 = arith.cmpi sgt, %665, %c0_i32 : i32
            %668 = arith.extui %667 : i1 to i32
            %669 = arith.cmpi slt, %665, %c0_i32 : i32
            %670 = arith.extui %669 : i1 to i32
            %671 = arith.subi %668, %670 : i32
            %672 = arith.cmpi ne, %671, %c1_i32 : i32
            %673 = arith.remsi %665, %c128_i32 : i32
            %674 = arith.cmpi ne, %673, %c0_i32 : i32
            %675 = arith.andi %672, %674 : i1
            %676 = arith.subi %666, %c1_i32 : i32
            %677 = arith.select %675, %676, %666 : i32
            %678 = arith.cmpi slt, %659, %c0_i32 : i32
            %679 = arith.andi %678, %660 : i1
            %680 = arith.addi %659, %c128_i32 : i32
            %681 = arith.select %679, %680, %659 : i32
            %682 = arith.muli %657, %c8_i32 : i32
            %683 = arith.subi %663, %682 : i32
            %684 = arith.index_cast %642 : i32 to index
            %685 = memref.load %3[%684] : memref<128xi32, #tpu.memory_space<smem>>
            %686 = arith.addi %685, %c127_i32 : i32
            %687 = arith.divsi %686, %c128_i32 : i32
            %688 = arith.cmpi sgt, %686, %c0_i32 : i32
            %689 = arith.extui %688 : i1 to i32
            %690 = arith.cmpi slt, %686, %c0_i32 : i32
            %691 = arith.extui %690 : i1 to i32
            %692 = arith.subi %689, %691 : i32
            %693 = arith.cmpi ne, %692, %c1_i32 : i32
            %694 = arith.remsi %686, %c128_i32 : i32
            %695 = arith.cmpi ne, %694, %c0_i32 : i32
            %696 = arith.andi %693, %695 : i1
            %697 = arith.subi %687, %c1_i32 : i32
            %698 = arith.select %696, %697, %687 : i32
            %699 = arith.addi %698, %663 : i32
            %700 = arith.subi %677, %663 : i32
            %701:2 = scf.for %arg24 = %c0_i32 to %700 step %c1_i32 iter_args(%arg25 = %637, %arg26 = %681) -> (i32, i32)  : i32 {
              %702 = arith.subi %c128_i32, %arg26 : i32
              %703 = arith.minsi %702, %arg25 : i32
              %704 = arith.addi %683, %arg24 : i32
              %705 = arith.muli %704, %c128_i32 : i32
              %706 = arith.addi %705, %arg26 : i32
              %707 = arith.addi %699, %arg24 : i32
              %708 = arith.index_cast %707 : i32 to index
              %709 = memref.load %1[%708] : memref<2048xi32, #tpu.memory_space<smem>>
              %710 = arith.muli %709, %c128_i32 : i32
              %711 = arith.addi %710, %arg26 : i32
              %712 = tpu.memref_slice %arg16[%102, %c0_i32, %c0_i32, %c0_i32, %c0_i32] : memref<2x1024x8x2x128xbf16, #tpu.tiled<(2,128)(2,1),[8192,8,1,1,1]>, #tpu.memory_space<vmem>> -> memref<1x1024x8x2x128xbf16, #tpu.tiled<(2,128)(2,1),[8192,8,1,1,1]>, #tpu.memory_space<vmem>>
              %713 = tpu.memref_squeeze %712 : memref<1x1024x8x2x128xbf16, #tpu.tiled<(2,128)(2,1),[8192,8,1,1,1]>, #tpu.memory_space<vmem>> -> memref<1024x8x2x128xbf16, #tpu.tiled<(2,128)(2,1),[8,1,1,1]>, #tpu.memory_space<vmem>>
              %714 = tpu.memref_slice %713[%706, %c0_i32, %c0_i32, %c0_i32] <%703> : memref<1024x8x2x128xbf16, #tpu.tiled<(2,128)(2,1),[8,1,1,1]>, #tpu.memory_space<vmem>> -> memref<?x8x2x128xbf16, #tpu.tiled<(2,128)(2,1),[8,1,1,1]>, #tpu.memory_space<vmem>>
              %715 = tpu.erase_memref_layout %714 : memref<?x8x2x128xbf16, #tpu.tiled<(2,128)(2,1),[8,1,1,1]>, #tpu.memory_space<vmem>> -> memref<?x8x2x128xbf16, strided<[2048, 256, 128, 1], offset: ?>, #tpu.memory_space<vmem>>
              %716 = tpu.memref_reshape %arg15 : memref<4688x128x8x2x128xbf16, #tpu.tiled<(2,128)(2,1),[1024,8,1,1,1]>, #tpu.memory_space<hbm>> -> memref<600064x8x2x128xbf16, #tpu.tiled<(2,128)(2,1),[8,1,1,1]>, #tpu.memory_space<hbm>>
              %717 = tpu.memref_slice %716[%711, %c0_i32, %c0_i32, %c0_i32] <%703> : memref<600064x8x2x128xbf16, #tpu.tiled<(2,128)(2,1),[8,1,1,1]>, #tpu.memory_space<hbm>> -> memref<?x8x2x128xbf16, #tpu.tiled<(2,128)(2,1),[8,1,1,1]>, #tpu.memory_space<hbm>>
              %718 = tpu.erase_memref_layout %717 : memref<?x8x2x128xbf16, #tpu.tiled<(2,128)(2,1),[8,1,1,1]>, #tpu.memory_space<hbm>> -> memref<?x8x2x128xbf16, strided<[2048, 256, 128, 1], offset: ?>, #tpu.memory_space<hbm>>
              %719 = tpu.memref_slice %arg19[%c3_i32, %102] : memref<5x2x!tpu.dma_semaphore, #tpu.tiled<,[2,1]>, #tpu.memory_space<semaphore_mem>> -> memref<1x1x!tpu.dma_semaphore, #tpu.tiled<,[2,1]>, #tpu.memory_space<semaphore_mem>>
              %720 = tpu.memref_squeeze %719 : memref<1x1x!tpu.dma_semaphore, #tpu.tiled<,[2,1]>, #tpu.memory_space<semaphore_mem>> -> memref<!tpu.dma_semaphore, #tpu.tiled<,[]>, #tpu.memory_space<semaphore_mem>>
              %721 = tpu.erase_memref_layout %720 : memref<!tpu.dma_semaphore, #tpu.tiled<,[]>, #tpu.memory_space<semaphore_mem>> -> memref<!tpu.dma_semaphore, strided<[], offset: ?>, #tpu.memory_space<semaphore_mem>>
              tpu.wait_dma2 semaphore(%721 : memref<!tpu.dma_semaphore, strided<[], offset: ?>, #tpu.memory_space<semaphore_mem>>) src(%715 : memref<?x8x2x128xbf16, strided<[2048, 256, 128, 1], offset: ?>, #tpu.memory_space<vmem>>) dst(%718 : memref<?x8x2x128xbf16, strided<[2048, 256, 128, 1], offset: ?>, #tpu.memory_space<hbm>>)
              %722 = arith.subi %arg25, %703 : i32
              scf.yield %722, %c0_i32 : i32, i32
            }
          }
          %639 = scf.for %arg24 = %c0_i32 to %616 step %c1_i32 iter_args(%arg25 = %c0_i32) -> (i32)  : i32 {
            %641 = arith.muli %arg24, %c128_i32 : i32
            %642 = arith.subi %601, %641 : i32
            %643 = arith.minsi %642, %c128_i32 : i32
            %644 = arith.addi %634, %arg24 : i32
            %645 = arith.index_cast %644 : i32 to index
            %646 = memref.load %1[%645] : memref<2048xi32, #tpu.memory_space<smem>>
            %647 = arith.muli %646, %c128_i32 : i32
            %648 = tpu.memref_reshape %arg12 : memref<4688x128x8x2x128xbf16, #tpu.tiled<(2,128)(2,1),[1024,8,1,1,1]>, #tpu.memory_space<hbm>> -> memref<600064x8x2x128xbf16, #tpu.tiled<(2,128)(2,1),[8,1,1,1]>, #tpu.memory_space<hbm>>
            %649 = tpu.memref_slice %648[%647, %c0_i32, %c0_i32, %c0_i32] <%643> : memref<600064x8x2x128xbf16, #tpu.tiled<(2,128)(2,1),[8,1,1,1]>, #tpu.memory_space<hbm>> -> memref<?x8x2x128xbf16, #tpu.tiled<(2,128)(2,1),[8,1,1,1]>, #tpu.memory_space<hbm>>
            %650 = tpu.erase_memref_layout %649 : memref<?x8x2x128xbf16, #tpu.tiled<(2,128)(2,1),[8,1,1,1]>, #tpu.memory_space<hbm>> -> memref<?x8x2x128xbf16, strided<[2048, 256, 128, 1], offset: ?>, #tpu.memory_space<hbm>>
            %651 = tpu.memref_slice %arg16[%102, %c0_i32, %c0_i32, %c0_i32, %c0_i32] : memref<2x1024x8x2x128xbf16, #tpu.tiled<(2,128)(2,1),[8192,8,1,1,1]>, #tpu.memory_space<vmem>> -> memref<1x1024x8x2x128xbf16, #tpu.tiled<(2,128)(2,1),[8192,8,1,1,1]>, #tpu.memory_space<vmem>>
            %652 = tpu.memref_squeeze %651 : memref<1x1024x8x2x128xbf16, #tpu.tiled<(2,128)(2,1),[8192,8,1,1,1]>, #tpu.memory_space<vmem>> -> memref<1024x8x2x128xbf16, #tpu.tiled<(2,128)(2,1),[8,1,1,1]>, #tpu.memory_space<vmem>>
            %653 = tpu.memref_slice %652[%641, %c0_i32, %c0_i32, %c0_i32] <%643> : memref<1024x8x2x128xbf16, #tpu.tiled<(2,128)(2,1),[8,1,1,1]>, #tpu.memory_space<vmem>> -> memref<?x8x2x128xbf16, #tpu.tiled<(2,128)(2,1),[8,1,1,1]>, #tpu.memory_space<vmem>>
            %654 = tpu.erase_memref_layout %653 : memref<?x8x2x128xbf16, #tpu.tiled<(2,128)(2,1),[8,1,1,1]>, #tpu.memory_space<vmem>> -> memref<?x8x2x128xbf16, strided<[2048, 256, 128, 1], offset: ?>, #tpu.memory_space<vmem>>
            %655 = tpu.memref_slice %arg19[%c0_i32, %102] : memref<5x2x!tpu.dma_semaphore, #tpu.tiled<,[2,1]>, #tpu.memory_space<semaphore_mem>> -> memref<1x1x!tpu.dma_semaphore, #tpu.tiled<,[2,1]>, #tpu.memory_space<semaphore_mem>>
            %656 = tpu.memref_squeeze %655 : memref<1x1x!tpu.dma_semaphore, #tpu.tiled<,[2,1]>, #tpu.memory_space<semaphore_mem>> -> memref<!tpu.dma_semaphore, #tpu.tiled<,[]>, #tpu.memory_space<semaphore_mem>>
            %657 = tpu.erase_memref_layout %656 : memref<!tpu.dma_semaphore, #tpu.tiled<,[]>, #tpu.memory_space<semaphore_mem>> -> memref<!tpu.dma_semaphore, strided<[], offset: ?>, #tpu.memory_space<semaphore_mem>>
            tpu.enqueue_dma source(%650 : memref<?x8x2x128xbf16, strided<[2048, 256, 128, 1], offset: ?>, #tpu.memory_space<hbm>>) target(%654 : memref<?x8x2x128xbf16, strided<[2048, 256, 128, 1], offset: ?>, #tpu.memory_space<vmem>>) target_semaphore(%657 : memref<!tpu.dma_semaphore, strided<[], offset: ?>, #tpu.memory_space<semaphore_mem>>)
            %658 = arith.addi %arg25, %643 : i32
            scf.yield %658 : i32
          }
          %640 = arith.cmpi sgt, %619, %c0_i32 : i32
          scf.if %640 {
            %641 = arith.subi %597, %602 : i32
            %642 = tpu.memref_slice %arg11[%641, %c0_i32, %c0_i32, %c0_i32] <%619> : memref<8192x8x2x128xbf16, #tpu.tiled<(2,128)(2,1),[8,1,1,1]>, #tpu.memory_space<hbm>> -> memref<?x8x2x128xbf16, #tpu.tiled<(2,128)(2,1),[8,1,1,1]>, #tpu.memory_space<hbm>>
            %643 = tpu.erase_memref_layout %642 : memref<?x8x2x128xbf16, #tpu.tiled<(2,128)(2,1),[8,1,1,1]>, #tpu.memory_space<hbm>> -> memref<?x8x2x128xbf16, strided<[2048, 256, 128, 1], offset: ?>, #tpu.memory_space<hbm>>
            %644 = tpu.memref_slice %arg16[%102, %c0_i32, %c0_i32, %c0_i32, %c0_i32] : memref<2x1024x8x2x128xbf16, #tpu.tiled<(2,128)(2,1),[8192,8,1,1,1]>, #tpu.memory_space<vmem>> -> memref<1x1024x8x2x128xbf16, #tpu.tiled<(2,128)(2,1),[8192,8,1,1,1]>, #tpu.memory_space<vmem>>
            %645 = tpu.memref_squeeze %644 : memref<1x1024x8x2x128xbf16, #tpu.tiled<(2,128)(2,1),[8192,8,1,1,1]>, #tpu.memory_space<vmem>> -> memref<1024x8x2x128xbf16, #tpu.tiled<(2,128)(2,1),[8,1,1,1]>, #tpu.memory_space<vmem>>
            %646 = tpu.memref_slice %645[%639, %c0_i32, %c0_i32, %c0_i32] <%619> : memref<1024x8x2x128xbf16, #tpu.tiled<(2,128)(2,1),[8,1,1,1]>, #tpu.memory_space<vmem>> -> memref<?x8x2x128xbf16, #tpu.tiled<(2,128)(2,1),[8,1,1,1]>, #tpu.memory_space<vmem>>
            %647 = tpu.erase_memref_layout %646 : memref<?x8x2x128xbf16, #tpu.tiled<(2,128)(2,1),[8,1,1,1]>, #tpu.memory_space<vmem>> -> memref<?x8x2x128xbf16, strided<[2048, 256, 128, 1], offset: ?>, #tpu.memory_space<vmem>>
            %648 = tpu.memref_slice %arg19[%c0_i32, %102] : memref<5x2x!tpu.dma_semaphore, #tpu.tiled<,[2,1]>, #tpu.memory_space<semaphore_mem>> -> memref<1x1x!tpu.dma_semaphore, #tpu.tiled<,[2,1]>, #tpu.memory_space<semaphore_mem>>
            %649 = tpu.memref_squeeze %648 : memref<1x1x!tpu.dma_semaphore, #tpu.tiled<,[2,1]>, #tpu.memory_space<semaphore_mem>> -> memref<!tpu.dma_semaphore, #tpu.tiled<,[]>, #tpu.memory_space<semaphore_mem>>
            %650 = tpu.erase_memref_layout %649 : memref<!tpu.dma_semaphore, #tpu.tiled<,[]>, #tpu.memory_space<semaphore_mem>> -> memref<!tpu.dma_semaphore, strided<[], offset: ?>, #tpu.memory_space<semaphore_mem>>
            tpu.enqueue_dma source(%643 : memref<?x8x2x128xbf16, strided<[2048, 256, 128, 1], offset: ?>, #tpu.memory_space<hbm>>) target(%647 : memref<?x8x2x128xbf16, strided<[2048, 256, 128, 1], offset: ?>, #tpu.memory_space<vmem>>) target_semaphore(%650 : memref<!tpu.dma_semaphore, strided<[], offset: ?>, #tpu.memory_space<semaphore_mem>>)
          }
        }
        %104 = arith.cmpi eq, %arg23, %c0_i32 : i32
        scf.if %104 {
          %590 = memref.load %2[%18] : memref<128xi32, #tpu.memory_space<smem>>
          %591 = memref.load %2[%21] : memref<128xi32, #tpu.memory_space<smem>>
          %592 = arith.subi %591, %590 : i32
          %593 = arith.minsi %592, %c128_i32 : i32
          %594 = tpu.memref_slice %arg10[%c0_i32, %590, %c0_i32, %c0_i32, %c0_i32] <%593> : memref<8x8192x2x2x128xbf16, #tpu.tiled<(2,128)(2,1),[16384,2,1,1,1]>, #tpu.memory_space<vmem>> -> memref<8x?x2x2x128xbf16, #tpu.tiled<(2,128)(2,1),[16384,2,1,1,1]>, #tpu.memory_space<vmem>>
          %595 = tpu.erase_memref_layout %594 : memref<8x?x2x2x128xbf16, #tpu.tiled<(2,128)(2,1),[16384,2,1,1,1]>, #tpu.memory_space<vmem>> -> memref<8x?x2x2x128xbf16, strided<[4194304, 512, 256, 128, 1], offset: ?>, #tpu.memory_space<vmem>>
          %596 = tpu.memref_slice %arg17[%48, %c0_i32, %c0_i32, %c0_i32, %c0_i32, %c0_i32] : memref<2x8x128x2x2x128xbf16, #tpu.tiled<(2,128)(2,1),[2048,256,2,1,1,1]>, #tpu.memory_space<vmem>> -> memref<1x8x128x2x2x128xbf16, #tpu.tiled<(2,128)(2,1),[2048,256,2,1,1,1]>, #tpu.memory_space<vmem>>
          %597 = tpu.memref_squeeze %596 : memref<1x8x128x2x2x128xbf16, #tpu.tiled<(2,128)(2,1),[2048,256,2,1,1,1]>, #tpu.memory_space<vmem>> -> memref<8x128x2x2x128xbf16, #tpu.tiled<(2,128)(2,1),[256,2,1,1,1]>, #tpu.memory_space<vmem>>
          %598 = tpu.memref_slice %597[%c0_i32, %c0_i32, %c0_i32, %c0_i32, %c0_i32] <%593> : memref<8x128x2x2x128xbf16, #tpu.tiled<(2,128)(2,1),[256,2,1,1,1]>, #tpu.memory_space<vmem>> -> memref<8x?x2x2x128xbf16, #tpu.tiled<(2,128)(2,1),[256,2,1,1,1]>, #tpu.memory_space<vmem>>
          %599 = tpu.erase_memref_layout %598 : memref<8x?x2x2x128xbf16, #tpu.tiled<(2,128)(2,1),[256,2,1,1,1]>, #tpu.memory_space<vmem>> -> memref<8x?x2x2x128xbf16, strided<[65536, 512, 256, 128, 1], offset: ?>, #tpu.memory_space<vmem>>
          %600 = tpu.memref_slice %arg19[%c1_i32, %48] : memref<5x2x!tpu.dma_semaphore, #tpu.tiled<,[2,1]>, #tpu.memory_space<semaphore_mem>> -> memref<1x1x!tpu.dma_semaphore, #tpu.tiled<,[2,1]>, #tpu.memory_space<semaphore_mem>>
          %601 = tpu.memref_squeeze %600 : memref<1x1x!tpu.dma_semaphore, #tpu.tiled<,[2,1]>, #tpu.memory_space<semaphore_mem>> -> memref<!tpu.dma_semaphore, #tpu.tiled<,[]>, #tpu.memory_space<semaphore_mem>>
          %602 = tpu.erase_memref_layout %601 : memref<!tpu.dma_semaphore, #tpu.tiled<,[]>, #tpu.memory_space<semaphore_mem>> -> memref<!tpu.dma_semaphore, strided<[], offset: ?>, #tpu.memory_space<semaphore_mem>>
          tpu.wait_dma2 semaphore(%602 : memref<!tpu.dma_semaphore, strided<[], offset: ?>, #tpu.memory_space<semaphore_mem>>) src(%595 : memref<8x?x2x2x128xbf16, strided<[4194304, 512, 256, 128, 1], offset: ?>, #tpu.memory_space<vmem>>) dst(%599 : memref<8x?x2x2x128xbf16, strided<[65536, 512, 256, 128, 1], offset: ?>, #tpu.memory_space<vmem>>)
        }
        %105 = memref.load %0[%18] : memref<128xi32, #tpu.memory_space<smem>>
        %106 = arith.muli %arg23, %c8_i32 : i32
        %107 = memref.load %2[%18] : memref<128xi32, #tpu.memory_space<smem>>
        %108 = memref.load %2[%21] : memref<128xi32, #tpu.memory_space<smem>>
        %109 = arith.subi %108, %107 : i32
        %110 = arith.subi %105, %85 : i32
        %111 = arith.subi %110, %109 : i32
        %112 = arith.maxsi %111, %c0_i32 : i32
        %113 = arith.subi %110, %112 : i32
        %114 = arith.addi %112, %c127_i32 : i32
        %115 = arith.divsi %114, %c128_i32 : i32
        %116 = arith.cmpi sgt, %114, %c0_i32 : i32
        %117 = arith.extui %116 : i1 to i32
        %118 = arith.cmpi slt, %114, %c0_i32 : i32
        %119 = arith.extui %118 : i1 to i32
        %120 = arith.subi %117, %119 : i32
        %121 = arith.cmpi ne, %120, %c1_i32 : i32
        %122 = arith.remsi %114, %c128_i32 : i32
        %123 = arith.cmpi ne, %122, %c0_i32 : i32
        %124 = arith.andi %121, %123 : i1
        %125 = arith.subi %115, %c1_i32 : i32
        %126 = arith.select %124, %125, %115 : i32
        %127 = arith.minsi %126, %c8_i32 : i32
        %128 = arith.subi %c1024_i32, %112 : i32
        %129 = arith.maxsi %128, %c0_i32 : i32
        %130 = arith.minsi %129, %113 : i32
        %131 = memref.load %3[%18] : memref<128xi32, #tpu.memory_space<smem>>
        %132 = arith.addi %131, %c127_i32 : i32
        %133 = arith.divsi %132, %c128_i32 : i32
        %134 = arith.cmpi sgt, %132, %c0_i32 : i32
        %135 = arith.extui %134 : i1 to i32
        %136 = arith.cmpi slt, %132, %c0_i32 : i32
        %137 = arith.extui %136 : i1 to i32
        %138 = arith.subi %135, %137 : i32
        %139 = arith.cmpi ne, %138, %c1_i32 : i32
        %140 = arith.remsi %132, %c128_i32 : i32
        %141 = arith.cmpi ne, %140, %c0_i32 : i32
        %142 = arith.andi %139, %141 : i1
        %143 = arith.subi %133, %c1_i32 : i32
        %144 = arith.select %142, %143, %133 : i32
        %145 = arith.addi %144, %106 : i32
        %146 = arith.addi %94, %c4_i32 : i32
        %147 = arith.index_cast %146 : i32 to index
        %148 = memref.load %7[%147] : memref<128xi32, #tpu.memory_space<smem>>
        %149 = arith.cmpi sgt, %148, %c0_i32 : i32
        scf.if %149 {
          %590 = arith.index_cast %94 : i32 to index
          %591 = memref.load %7[%590] : memref<128xi32, #tpu.memory_space<smem>>
          %592 = arith.addi %94, %c2_i32 : i32
          %593 = arith.index_cast %592 : i32 to index
          %594 = memref.load %7[%593] : memref<128xi32, #tpu.memory_space<smem>>
          memref.store %c0_i32, %7[%147] : memref<128xi32, #tpu.memory_space<smem>>
          %595 = arith.divsi %594, %c1024_i32 : i32
          %596 = arith.cmpi sgt, %594, %c0_i32 : i32
          %597 = arith.extui %596 : i1 to i32
          %598 = arith.cmpi slt, %594, %c0_i32 : i32
          %599 = arith.extui %598 : i1 to i32
          %600 = arith.subi %597, %599 : i32
          %601 = arith.cmpi ne, %600, %c1_i32 : i32
          %602 = arith.remsi %594, %c1024_i32 : i32
          %603 = arith.cmpi ne, %602, %c0_i32 : i32
          %604 = arith.andi %601, %603 : i1
          %605 = arith.subi %595, %c1_i32 : i32
          %606 = arith.select %604, %605, %595 : i32
          %607 = arith.divsi %594, %c128_i32 : i32
          %608 = arith.remsi %594, %c128_i32 : i32
          %609 = arith.cmpi ne, %608, %c0_i32 : i32
          %610 = arith.andi %601, %609 : i1
          %611 = arith.subi %607, %c1_i32 : i32
          %612 = arith.select %610, %611, %607 : i32
          %613 = arith.addi %594, %148 : i32
          %614 = arith.addi %613, %c127_i32 : i32
          %615 = arith.divsi %614, %c128_i32 : i32
          %616 = arith.cmpi sgt, %614, %c0_i32 : i32
          %617 = arith.extui %616 : i1 to i32
          %618 = arith.cmpi slt, %614, %c0_i32 : i32
          %619 = arith.extui %618 : i1 to i32
          %620 = arith.subi %617, %619 : i32
          %621 = arith.cmpi ne, %620, %c1_i32 : i32
          %622 = arith.remsi %614, %c128_i32 : i32
          %623 = arith.cmpi ne, %622, %c0_i32 : i32
          %624 = arith.andi %621, %623 : i1
          %625 = arith.subi %615, %c1_i32 : i32
          %626 = arith.select %624, %625, %615 : i32
          %627 = arith.cmpi slt, %608, %c0_i32 : i32
          %628 = arith.andi %627, %609 : i1
          %629 = arith.addi %608, %c128_i32 : i32
          %630 = arith.select %628, %629, %608 : i32
          %631 = arith.muli %606, %c8_i32 : i32
          %632 = arith.subi %612, %631 : i32
          %633 = arith.index_cast %591 : i32 to index
          %634 = memref.load %3[%633] : memref<128xi32, #tpu.memory_space<smem>>
          %635 = arith.addi %634, %c127_i32 : i32
          %636 = arith.divsi %635, %c128_i32 : i32
          %637 = arith.cmpi sgt, %635, %c0_i32 : i32
          %638 = arith.extui %637 : i1 to i32
          %639 = arith.cmpi slt, %635, %c0_i32 : i32
          %640 = arith.extui %639 : i1 to i32
          %641 = arith.subi %638, %640 : i32
          %642 = arith.cmpi ne, %641, %c1_i32 : i32
          %643 = arith.remsi %635, %c128_i32 : i32
          %644 = arith.cmpi ne, %643, %c0_i32 : i32
          %645 = arith.andi %642, %644 : i1
          %646 = arith.subi %636, %c1_i32 : i32
          %647 = arith.select %645, %646, %636 : i32
          %648 = arith.addi %647, %612 : i32
          %649 = arith.subi %626, %612 : i32
          %650:2 = scf.for %arg24 = %c0_i32 to %649 step %c1_i32 iter_args(%arg25 = %148, %arg26 = %630) -> (i32, i32)  : i32 {
            %651 = arith.subi %c128_i32, %arg26 : i32
            %652 = arith.minsi %651, %arg25 : i32
            %653 = arith.addi %632, %arg24 : i32
            %654 = arith.muli %653, %c128_i32 : i32
            %655 = arith.addi %654, %arg26 : i32
            %656 = arith.addi %648, %arg24 : i32
            %657 = arith.index_cast %656 : i32 to index
            %658 = memref.load %1[%657] : memref<2048xi32, #tpu.memory_space<smem>>
            %659 = arith.muli %658, %c128_i32 : i32
            %660 = arith.addi %659, %arg26 : i32
            %661 = tpu.memref_slice %arg16[%94, %c0_i32, %c0_i32, %c0_i32, %c0_i32] : memref<2x1024x8x2x128xbf16, #tpu.tiled<(2,128)(2,1),[8192,8,1,1,1]>, #tpu.memory_space<vmem>> -> memref<1x1024x8x2x128xbf16, #tpu.tiled<(2,128)(2,1),[8192,8,1,1,1]>, #tpu.memory_space<vmem>>
            %662 = tpu.memref_squeeze %661 : memref<1x1024x8x2x128xbf16, #tpu.tiled<(2,128)(2,1),[8192,8,1,1,1]>, #tpu.memory_space<vmem>> -> memref<1024x8x2x128xbf16, #tpu.tiled<(2,128)(2,1),[8,1,1,1]>, #tpu.memory_space<vmem>>
            %663 = tpu.memref_slice %662[%655, %c0_i32, %c0_i32, %c0_i32] <%652> : memref<1024x8x2x128xbf16, #tpu.tiled<(2,128)(2,1),[8,1,1,1]>, #tpu.memory_space<vmem>> -> memref<?x8x2x128xbf16, #tpu.tiled<(2,128)(2,1),[8,1,1,1]>, #tpu.memory_space<vmem>>
            %664 = tpu.erase_memref_layout %663 : memref<?x8x2x128xbf16, #tpu.tiled<(2,128)(2,1),[8,1,1,1]>, #tpu.memory_space<vmem>> -> memref<?x8x2x128xbf16, strided<[2048, 256, 128, 1], offset: ?>, #tpu.memory_space<vmem>>
            %665 = tpu.memref_reshape %arg15 : memref<4688x128x8x2x128xbf16, #tpu.tiled<(2,128)(2,1),[1024,8,1,1,1]>, #tpu.memory_space<hbm>> -> memref<600064x8x2x128xbf16, #tpu.tiled<(2,128)(2,1),[8,1,1,1]>, #tpu.memory_space<hbm>>
            %666 = tpu.memref_slice %665[%660, %c0_i32, %c0_i32, %c0_i32] <%652> : memref<600064x8x2x128xbf16, #tpu.tiled<(2,128)(2,1),[8,1,1,1]>, #tpu.memory_space<hbm>> -> memref<?x8x2x128xbf16, #tpu.tiled<(2,128)(2,1),[8,1,1,1]>, #tpu.memory_space<hbm>>
            %667 = tpu.erase_memref_layout %666 : memref<?x8x2x128xbf16, #tpu.tiled<(2,128)(2,1),[8,1,1,1]>, #tpu.memory_space<hbm>> -> memref<?x8x2x128xbf16, strided<[2048, 256, 128, 1], offset: ?>, #tpu.memory_space<hbm>>
            %668 = tpu.memref_slice %arg19[%c3_i32, %94] : memref<5x2x!tpu.dma_semaphore, #tpu.tiled<,[2,1]>, #tpu.memory_space<semaphore_mem>> -> memref<1x1x!tpu.dma_semaphore, #tpu.tiled<,[2,1]>, #tpu.memory_space<semaphore_mem>>
            %669 = tpu.memref_squeeze %668 : memref<1x1x!tpu.dma_semaphore, #tpu.tiled<,[2,1]>, #tpu.memory_space<semaphore_mem>> -> memref<!tpu.dma_semaphore, #tpu.tiled<,[]>, #tpu.memory_space<semaphore_mem>>
            %670 = tpu.erase_memref_layout %669 : memref<!tpu.dma_semaphore, #tpu.tiled<,[]>, #tpu.memory_space<semaphore_mem>> -> memref<!tpu.dma_semaphore, strided<[], offset: ?>, #tpu.memory_space<semaphore_mem>>
            tpu.wait_dma2 semaphore(%670 : memref<!tpu.dma_semaphore, strided<[], offset: ?>, #tpu.memory_space<semaphore_mem>>) src(%664 : memref<?x8x2x128xbf16, strided<[2048, 256, 128, 1], offset: ?>, #tpu.memory_space<vmem>>) dst(%667 : memref<?x8x2x128xbf16, strided<[2048, 256, 128, 1], offset: ?>, #tpu.memory_space<hbm>>)
            %671 = arith.subi %arg25, %652 : i32
            scf.yield %671, %c0_i32 : i32, i32
          }
        }
        %150 = scf.for %arg24 = %c0_i32 to %127 step %c1_i32 iter_args(%arg25 = %c0_i32) -> (i32)  : i32 {
          %590 = arith.muli %arg24, %c128_i32 : i32
          %591 = arith.subi %112, %590 : i32
          %592 = arith.minsi %591, %c128_i32 : i32
          %593 = arith.addi %145, %arg24 : i32
          %594 = arith.index_cast %593 : i32 to index
          %595 = memref.load %1[%594] : memref<2048xi32, #tpu.memory_space<smem>>
          %596 = arith.muli %595, %c128_i32 : i32
          %597 = tpu.memref_reshape %arg12 : memref<4688x128x8x2x128xbf16, #tpu.tiled<(2,128)(2,1),[1024,8,1,1,1]>, #tpu.memory_space<hbm>> -> memref<600064x8x2x128xbf16, #tpu.tiled<(2,128)(2,1),[8,1,1,1]>, #tpu.memory_space<hbm>>
          %598 = tpu.memref_slice %597[%596, %c0_i32, %c0_i32, %c0_i32] <%592> : memref<600064x8x2x128xbf16, #tpu.tiled<(2,128)(2,1),[8,1,1,1]>, #tpu.memory_space<hbm>> -> memref<?x8x2x128xbf16, #tpu.tiled<(2,128)(2,1),[8,1,1,1]>, #tpu.memory_space<hbm>>
          %599 = tpu.erase_memref_layout %598 : memref<?x8x2x128xbf16, #tpu.tiled<(2,128)(2,1),[8,1,1,1]>, #tpu.memory_space<hbm>> -> memref<?x8x2x128xbf16, strided<[2048, 256, 128, 1], offset: ?>, #tpu.memory_space<hbm>>
          %600 = tpu.memref_slice %arg16[%94, %c0_i32, %c0_i32, %c0_i32, %c0_i32] : memref<2x1024x8x2x128xbf16, #tpu.tiled<(2,128)(2,1),[8192,8,1,1,1]>, #tpu.memory_space<vmem>> -> memref<1x1024x8x2x128xbf16, #tpu.tiled<(2,128)(2,1),[8192,8,1,1,1]>, #tpu.memory_space<vmem>>
          %601 = tpu.memref_squeeze %600 : memref<1x1024x8x2x128xbf16, #tpu.tiled<(2,128)(2,1),[8192,8,1,1,1]>, #tpu.memory_space<vmem>> -> memref<1024x8x2x128xbf16, #tpu.tiled<(2,128)(2,1),[8,1,1,1]>, #tpu.memory_space<vmem>>
          %602 = tpu.memref_slice %601[%590, %c0_i32, %c0_i32, %c0_i32] <%592> : memref<1024x8x2x128xbf16, #tpu.tiled<(2,128)(2,1),[8,1,1,1]>, #tpu.memory_space<vmem>> -> memref<?x8x2x128xbf16, #tpu.tiled<(2,128)(2,1),[8,1,1,1]>, #tpu.memory_space<vmem>>
          %603 = tpu.erase_memref_layout %602 : memref<?x8x2x128xbf16, #tpu.tiled<(2,128)(2,1),[8,1,1,1]>, #tpu.memory_space<vmem>> -> memref<?x8x2x128xbf16, strided<[2048, 256, 128, 1], offset: ?>, #tpu.memory_space<vmem>>
          %604 = tpu.memref_slice %arg19[%c0_i32, %94] : memref<5x2x!tpu.dma_semaphore, #tpu.tiled<,[2,1]>, #tpu.memory_space<semaphore_mem>> -> memref<1x1x!tpu.dma_semaphore, #tpu.tiled<,[2,1]>, #tpu.memory_space<semaphore_mem>>
          %605 = tpu.memref_squeeze %604 : memref<1x1x!tpu.dma_semaphore, #tpu.tiled<,[2,1]>, #tpu.memory_space<semaphore_mem>> -> memref<!tpu.dma_semaphore, #tpu.tiled<,[]>, #tpu.memory_space<semaphore_mem>>
          %606 = tpu.erase_memref_layout %605 : memref<!tpu.dma_semaphore, #tpu.tiled<,[]>, #tpu.memory_space<semaphore_mem>> -> memref<!tpu.dma_semaphore, strided<[], offset: ?>, #tpu.memory_space<semaphore_mem>>
          tpu.wait_dma2 semaphore(%606 : memref<!tpu.dma_semaphore, strided<[], offset: ?>, #tpu.memory_space<semaphore_mem>>) src(%599 : memref<?x8x2x128xbf16, strided<[2048, 256, 128, 1], offset: ?>, #tpu.memory_space<hbm>>) dst(%603 : memref<?x8x2x128xbf16, strided<[2048, 256, 128, 1], offset: ?>, #tpu.memory_space<vmem>>)
          %607 = arith.addi %arg25, %592 : i32
          scf.yield %607 : i32
        }
        %151 = arith.cmpi sgt, %130, %c0_i32 : i32
        scf.if %151 {
          %590 = arith.subi %108, %113 : i32
          %591 = tpu.memref_slice %arg11[%590, %c0_i32, %c0_i32, %c0_i32] <%130> : memref<8192x8x2x128xbf16, #tpu.tiled<(2,128)(2,1),[8,1,1,1]>, #tpu.memory_space<hbm>> -> memref<?x8x2x128xbf16, #tpu.tiled<(2,128)(2,1),[8,1,1,1]>, #tpu.memory_space<hbm>>
          %592 = tpu.erase_memref_layout %591 : memref<?x8x2x128xbf16, #tpu.tiled<(2,128)(2,1),[8,1,1,1]>, #tpu.memory_space<hbm>> -> memref<?x8x2x128xbf16, strided<[2048, 256, 128, 1], offset: ?>, #tpu.memory_space<hbm>>
          %593 = tpu.memref_slice %arg16[%94, %c0_i32, %c0_i32, %c0_i32, %c0_i32] : memref<2x1024x8x2x128xbf16, #tpu.tiled<(2,128)(2,1),[8192,8,1,1,1]>, #tpu.memory_space<vmem>> -> memref<1x1024x8x2x128xbf16, #tpu.tiled<(2,128)(2,1),[8192,8,1,1,1]>, #tpu.memory_space<vmem>>
          %594 = tpu.memref_squeeze %593 : memref<1x1024x8x2x128xbf16, #tpu.tiled<(2,128)(2,1),[8192,8,1,1,1]>, #tpu.memory_space<vmem>> -> memref<1024x8x2x128xbf16, #tpu.tiled<(2,128)(2,1),[8,1,1,1]>, #tpu.memory_space<vmem>>
          %595 = tpu.memref_slice %594[%150, %c0_i32, %c0_i32, %c0_i32] <%130> : memref<1024x8x2x128xbf16, #tpu.tiled<(2,128)(2,1),[8,1,1,1]>, #tpu.memory_space<vmem>> -> memref<?x8x2x128xbf16, #tpu.tiled<(2,128)(2,1),[8,1,1,1]>, #tpu.memory_space<vmem>>
          %596 = tpu.erase_memref_layout %595 : memref<?x8x2x128xbf16, #tpu.tiled<(2,128)(2,1),[8,1,1,1]>, #tpu.memory_space<vmem>> -> memref<?x8x2x128xbf16, strided<[2048, 256, 128, 1], offset: ?>, #tpu.memory_space<vmem>>
          %597 = tpu.memref_slice %arg19[%c0_i32, %94] : memref<5x2x!tpu.dma_semaphore, #tpu.tiled<,[2,1]>, #tpu.memory_space<semaphore_mem>> -> memref<1x1x!tpu.dma_semaphore, #tpu.tiled<,[2,1]>, #tpu.memory_space<semaphore_mem>>
          %598 = tpu.memref_squeeze %597 : memref<1x1x!tpu.dma_semaphore, #tpu.tiled<,[2,1]>, #tpu.memory_space<semaphore_mem>> -> memref<!tpu.dma_semaphore, #tpu.tiled<,[]>, #tpu.memory_space<semaphore_mem>>
          %599 = tpu.erase_memref_layout %598 : memref<!tpu.dma_semaphore, #tpu.tiled<,[]>, #tpu.memory_space<semaphore_mem>> -> memref<!tpu.dma_semaphore, strided<[], offset: ?>, #tpu.memory_space<semaphore_mem>>
          tpu.wait_dma2 semaphore(%599 : memref<!tpu.dma_semaphore, strided<[], offset: ?>, #tpu.memory_space<semaphore_mem>>) src(%592 : memref<?x8x2x128xbf16, strided<[2048, 256, 128, 1], offset: ?>, #tpu.memory_space<hbm>>) dst(%596 : memref<?x8x2x128xbf16, strided<[2048, 256, 128, 1], offset: ?>, #tpu.memory_space<vmem>>)
        }
        %152 = arith.addi %85, %150 : i32
        scf.if %151 {
          %590 = arith.index_cast %94 : i32 to index
          memref.store %arg0, %7[%590] : memref<128xi32, #tpu.memory_space<smem>>
          %591 = arith.addi %94, %c2_i32 : i32
          %592 = arith.index_cast %591 : i32 to index
          memref.store %152, %7[%592] : memref<128xi32, #tpu.memory_space<smem>>
          memref.store %130, %7[%147] : memref<128xi32, #tpu.memory_space<smem>>
          %593 = arith.divsi %152, %c1024_i32 : i32
          %594 = arith.cmpi sgt, %152, %c0_i32 : i32
          %595 = arith.extui %594 : i1 to i32
          %596 = arith.cmpi slt, %152, %c0_i32 : i32
          %597 = arith.extui %596 : i1 to i32
          %598 = arith.subi %595, %597 : i32
          %599 = arith.cmpi ne, %598, %c1_i32 : i32
          %600 = arith.remsi %152, %c1024_i32 : i32
          %601 = arith.cmpi ne, %600, %c0_i32 : i32
          %602 = arith.andi %599, %601 : i1
          %603 = arith.subi %593, %c1_i32 : i32
          %604 = arith.select %602, %603, %593 : i32
          %605 = arith.divsi %152, %c128_i32 : i32
          %606 = arith.remsi %152, %c128_i32 : i32
          %607 = arith.cmpi ne, %606, %c0_i32 : i32
          %608 = arith.andi %599, %607 : i1
          %609 = arith.subi %605, %c1_i32 : i32
          %610 = arith.select %608, %609, %605 : i32
          %611 = arith.addi %152, %130 : i32
          %612 = arith.addi %611, %c127_i32 : i32
          %613 = arith.divsi %612, %c128_i32 : i32
          %614 = arith.cmpi sgt, %612, %c0_i32 : i32
          %615 = arith.extui %614 : i1 to i32
          %616 = arith.cmpi slt, %612, %c0_i32 : i32
          %617 = arith.extui %616 : i1 to i32
          %618 = arith.subi %615, %617 : i32
          %619 = arith.cmpi ne, %618, %c1_i32 : i32
          %620 = arith.remsi %612, %c128_i32 : i32
          %621 = arith.cmpi ne, %620, %c0_i32 : i32
          %622 = arith.andi %619, %621 : i1
          %623 = arith.subi %613, %c1_i32 : i32
          %624 = arith.select %622, %623, %613 : i32
          %625 = arith.cmpi slt, %606, %c0_i32 : i32
          %626 = arith.andi %625, %607 : i1
          %627 = arith.addi %606, %c128_i32 : i32
          %628 = arith.select %626, %627, %606 : i32
          %629 = arith.muli %604, %c8_i32 : i32
          %630 = arith.subi %610, %629 : i32
          %631 = memref.load %3[%18] : memref<128xi32, #tpu.memory_space<smem>>
          %632 = arith.addi %631, %c127_i32 : i32
          %633 = arith.divsi %632, %c128_i32 : i32
          %634 = arith.cmpi sgt, %632, %c0_i32 : i32
          %635 = arith.extui %634 : i1 to i32
          %636 = arith.cmpi slt, %632, %c0_i32 : i32
          %637 = arith.extui %636 : i1 to i32
          %638 = arith.subi %635, %637 : i32
          %639 = arith.cmpi ne, %638, %c1_i32 : i32
          %640 = arith.remsi %632, %c128_i32 : i32
          %641 = arith.cmpi ne, %640, %c0_i32 : i32
          %642 = arith.andi %639, %641 : i1
          %643 = arith.subi %633, %c1_i32 : i32
          %644 = arith.select %642, %643, %633 : i32
          %645 = arith.addi %644, %610 : i32
          %646 = arith.subi %624, %610 : i32
          %647:2 = scf.for %arg24 = %c0_i32 to %646 step %c1_i32 iter_args(%arg25 = %130, %arg26 = %628) -> (i32, i32)  : i32 {
            %648 = arith.subi %c128_i32, %arg26 : i32
            %649 = arith.minsi %648, %arg25 : i32
            %650 = arith.addi %630, %arg24 : i32
            %651 = arith.muli %650, %c128_i32 : i32
            %652 = arith.addi %651, %arg26 : i32
            %653 = arith.addi %645, %arg24 : i32
            %654 = arith.index_cast %653 : i32 to index
            %655 = memref.load %1[%654] : memref<2048xi32, #tpu.memory_space<smem>>
            %656 = arith.muli %655, %c128_i32 : i32
            %657 = arith.addi %656, %arg26 : i32
            %658 = tpu.memref_slice %arg16[%94, %c0_i32, %c0_i32, %c0_i32, %c0_i32] : memref<2x1024x8x2x128xbf16, #tpu.tiled<(2,128)(2,1),[8192,8,1,1,1]>, #tpu.memory_space<vmem>> -> memref<1x1024x8x2x128xbf16, #tpu.tiled<(2,128)(2,1),[8192,8,1,1,1]>, #tpu.memory_space<vmem>>
            %659 = tpu.memref_squeeze %658 : memref<1x1024x8x2x128xbf16, #tpu.tiled<(2,128)(2,1),[8192,8,1,1,1]>, #tpu.memory_space<vmem>> -> memref<1024x8x2x128xbf16, #tpu.tiled<(2,128)(2,1),[8,1,1,1]>, #tpu.memory_space<vmem>>
            %660 = tpu.memref_slice %659[%652, %c0_i32, %c0_i32, %c0_i32] <%649> : memref<1024x8x2x128xbf16, #tpu.tiled<(2,128)(2,1),[8,1,1,1]>, #tpu.memory_space<vmem>> -> memref<?x8x2x128xbf16, #tpu.tiled<(2,128)(2,1),[8,1,1,1]>, #tpu.memory_space<vmem>>
            %661 = tpu.erase_memref_layout %660 : memref<?x8x2x128xbf16, #tpu.tiled<(2,128)(2,1),[8,1,1,1]>, #tpu.memory_space<vmem>> -> memref<?x8x2x128xbf16, strided<[2048, 256, 128, 1], offset: ?>, #tpu.memory_space<vmem>>
            %662 = tpu.memref_reshape %arg15 : memref<4688x128x8x2x128xbf16, #tpu.tiled<(2,128)(2,1),[1024,8,1,1,1]>, #tpu.memory_space<hbm>> -> memref<600064x8x2x128xbf16, #tpu.tiled<(2,128)(2,1),[8,1,1,1]>, #tpu.memory_space<hbm>>
            %663 = tpu.memref_slice %662[%657, %c0_i32, %c0_i32, %c0_i32] <%649> : memref<600064x8x2x128xbf16, #tpu.tiled<(2,128)(2,1),[8,1,1,1]>, #tpu.memory_space<hbm>> -> memref<?x8x2x128xbf16, #tpu.tiled<(2,128)(2,1),[8,1,1,1]>, #tpu.memory_space<hbm>>
            %664 = tpu.erase_memref_layout %663 : memref<?x8x2x128xbf16, #tpu.tiled<(2,128)(2,1),[8,1,1,1]>, #tpu.memory_space<hbm>> -> memref<?x8x2x128xbf16, strided<[2048, 256, 128, 1], offset: ?>, #tpu.memory_space<hbm>>
            %665 = tpu.memref_slice %arg19[%c3_i32, %94] : memref<5x2x!tpu.dma_semaphore, #tpu.tiled<,[2,1]>, #tpu.memory_space<semaphore_mem>> -> memref<1x1x!tpu.dma_semaphore, #tpu.tiled<,[2,1]>, #tpu.memory_space<semaphore_mem>>
            %666 = tpu.memref_squeeze %665 : memref<1x1x!tpu.dma_semaphore, #tpu.tiled<,[2,1]>, #tpu.memory_space<semaphore_mem>> -> memref<!tpu.dma_semaphore, #tpu.tiled<,[]>, #tpu.memory_space<semaphore_mem>>
            %667 = tpu.erase_memref_layout %666 : memref<!tpu.dma_semaphore, #tpu.tiled<,[]>, #tpu.memory_space<semaphore_mem>> -> memref<!tpu.dma_semaphore, strided<[], offset: ?>, #tpu.memory_space<semaphore_mem>>
            tpu.enqueue_dma source(%661 : memref<?x8x2x128xbf16, strided<[2048, 256, 128, 1], offset: ?>, #tpu.memory_space<vmem>>) target(%664 : memref<?x8x2x128xbf16, strided<[2048, 256, 128, 1], offset: ?>, #tpu.memory_space<hbm>>) target_semaphore(%667 : memref<!tpu.dma_semaphore, strided<[], offset: ?>, #tpu.memory_space<semaphore_mem>>)
            %668 = arith.subi %arg25, %649 : i32
            scf.yield %668, %c0_i32 : i32, i32
          }
        }
        %153 = tpu.memref_bitcast %arg16 : memref<2x1024x8x2x128xbf16, #tpu.tiled<(2,128)(2,1),[8192,8,1,1,1]>, #tpu.memory_space<vmem>> -> memref<2x1024x8x1x128xi32, #tpu.tiled<(1,128),[8192,8,1,1,1]>, #tpu.memory_space<vmem>>
        %154 = tpu.memref_slice %153[%94, %c0_i32, %c0_i32, %c0_i32, %c0_i32] : memref<2x1024x8x1x128xi32, #tpu.tiled<(1,128),[8192,8,1,1,1]>, #tpu.memory_space<vmem>> -> memref<1x1024x8x1x128xi32, #tpu.tiled<(1,128),[8192,8,1,1,1]>, #tpu.memory_space<vmem>>
        %155 = tpu.memref_squeeze %154 : memref<1x1024x8x1x128xi32, #tpu.tiled<(1,128),[8192,8,1,1,1]>, #tpu.memory_space<vmem>> -> memref<1024x8x1x128xi32, #tpu.tiled<(1,128),[8,1,1,1]>, #tpu.memory_space<vmem>>
        %156 = tpu.memref_reshape %155 : memref<1024x8x1x128xi32, #tpu.tiled<(1,128),[8,1,1,1]>, #tpu.memory_space<vmem>> -> memref<8192x128xi32, #tpu.tiled<(1,128),[1,1]>, #tpu.memory_space<vmem>>
        %157 = tpu.memref_reshape %156 : memref<8192x128xi32, #tpu.tiled<(1,128),[1,1]>, #tpu.memory_space<vmem>> -> memref<8192x128xi32, #tpu.tiled<(1,128),[1,1]>, #tpu.memory_space<vmem>>
        %158 = tpu.erase_memref_layout %157 : memref<8192x128xi32, #tpu.tiled<(1,128),[1,1]>, #tpu.memory_space<vmem>> -> memref<8192x128xi32, #tpu.memory_space<vmem>>
        %159 = tpu.strided_load %158[%c0, %c0] {strides = array<i32: 8, 1>} : memref<8192x128xi32, #tpu.memory_space<vmem>>, vector<1024x128xi32>
        %160 = arith.trunci %159 : vector<1024x128xi32> to vector<1024x128xi16>
        %161 = arith.shrui %159, %cst_11 : vector<1024x128xi32>
        %162 = arith.trunci %161 : vector<1024x128xi32> to vector<1024x128xi16>
        %163 = tpu.bitcast %160 : vector<1024x128xi16> -> vector<512x128xi32>
        %164 = tpu.bitcast %162 : vector<1024x128xi16> -> vector<512x128xi32>
        %165 = arith.andi %163, %93 : vector<512x128xi32>
        %166 = arith.andi %164, %93 : vector<512x128xi32>
        %167 = tpu.bitcast %165 : vector<512x128xi32> -> vector<1024x128xbf16>
        %168 = tpu.bitcast %166 : vector<512x128xi32> -> vector<1024x128xbf16>
        %169 = tpu.strided_load %158[%c1, %c0] {strides = array<i32: 8, 1>} : memref<8192x128xi32, #tpu.memory_space<vmem>>, vector<1024x128xi32>
        %170 = arith.trunci %169 : vector<1024x128xi32> to vector<1024x128xi16>
        %171 = arith.shrui %169, %cst_11 : vector<1024x128xi32>
        %172 = arith.trunci %171 : vector<1024x128xi32> to vector<1024x128xi16>
        %173 = tpu.bitcast %170 : vector<1024x128xi16> -> vector<512x128xi32>
        %174 = tpu.bitcast %172 : vector<1024x128xi16> -> vector<512x128xi32>
        %175 = arith.andi %173, %93 : vector<512x128xi32>
        %176 = arith.andi %174, %93 : vector<512x128xi32>
        %177 = tpu.bitcast %175 : vector<512x128xi32> -> vector<1024x128xbf16>
        %178 = tpu.bitcast %176 : vector<512x128xi32> -> vector<1024x128xbf16>
        %179 = tpu.strided_load %158[%c2, %c0] {strides = array<i32: 8, 1>} : memref<8192x128xi32, #tpu.memory_space<vmem>>, vector<1024x128xi32>
        %180 = arith.trunci %179 : vector<1024x128xi32> to vector<1024x128xi16>
        %181 = arith.shrui %179, %cst_11 : vector<1024x128xi32>
        %182 = arith.trunci %181 : vector<1024x128xi32> to vector<1024x128xi16>
        %183 = tpu.bitcast %180 : vector<1024x128xi16> -> vector<512x128xi32>
        %184 = tpu.bitcast %182 : vector<1024x128xi16> -> vector<512x128xi32>
        %185 = arith.andi %183, %93 : vector<512x128xi32>
        %186 = arith.andi %184, %93 : vector<512x128xi32>
        %187 = tpu.bitcast %185 : vector<512x128xi32> -> vector<1024x128xbf16>
        %188 = tpu.bitcast %186 : vector<512x128xi32> -> vector<1024x128xbf16>
        %189 = tpu.strided_load %158[%c3, %c0] {strides = array<i32: 8, 1>} : memref<8192x128xi32, #tpu.memory_space<vmem>>, vector<1024x128xi32>
        %190 = arith.trunci %189 : vector<1024x128xi32> to vector<1024x128xi16>
        %191 = arith.shrui %189, %cst_11 : vector<1024x128xi32>
        %192 = arith.trunci %191 : vector<1024x128xi32> to vector<1024x128xi16>
        %193 = tpu.bitcast %190 : vector<1024x128xi16> -> vector<512x128xi32>
        %194 = tpu.bitcast %192 : vector<1024x128xi16> -> vector<512x128xi32>
        %195 = arith.andi %193, %93 : vector<512x128xi32>
        %196 = arith.andi %194, %93 : vector<512x128xi32>
        %197 = tpu.bitcast %195 : vector<512x128xi32> -> vector<1024x128xbf16>
        %198 = tpu.bitcast %196 : vector<512x128xi32> -> vector<1024x128xbf16>
        %199 = tpu.strided_load %158[%c4, %c0] {strides = array<i32: 8, 1>} : memref<8192x128xi32, #tpu.memory_space<vmem>>, vector<1024x128xi32>
        %200 = arith.trunci %199 : vector<1024x128xi32> to vector<1024x128xi16>
        %201 = arith.shrui %199, %cst_11 : vector<1024x128xi32>
        %202 = arith.trunci %201 : vector<1024x128xi32> to vector<1024x128xi16>
        %203 = tpu.bitcast %200 : vector<1024x128xi16> -> vector<512x128xi32>
        %204 = tpu.bitcast %202 : vector<1024x128xi16> -> vector<512x128xi32>
        %205 = arith.andi %203, %93 : vector<512x128xi32>
        %206 = arith.andi %204, %93 : vector<512x128xi32>
        %207 = tpu.bitcast %205 : vector<512x128xi32> -> vector<1024x128xbf16>
        %208 = tpu.bitcast %206 : vector<512x128xi32> -> vector<1024x128xbf16>
        %209 = tpu.strided_load %158[%c5, %c0] {strides = array<i32: 8, 1>} : memref<8192x128xi32, #tpu.memory_space<vmem>>, vector<1024x128xi32>
        %210 = arith.trunci %209 : vector<1024x128xi32> to vector<1024x128xi16>
        %211 = arith.shrui %209, %cst_11 : vector<1024x128xi32>
        %212 = arith.trunci %211 : vector<1024x128xi32> to vector<1024x128xi16>
        %213 = tpu.bitcast %210 : vector<1024x128xi16> -> vector<512x128xi32>
        %214 = tpu.bitcast %212 : vector<1024x128xi16> -> vector<512x128xi32>
        %215 = arith.andi %213, %93 : vector<512x128xi32>
        %216 = arith.andi %214, %93 : vector<512x128xi32>
        %217 = tpu.bitcast %215 : vector<512x128xi32> -> vector<1024x128xbf16>
        %218 = tpu.bitcast %216 : vector<512x128xi32> -> vector<1024x128xbf16>
        %219 = tpu.strided_load %158[%c6, %c0] {strides = array<i32: 8, 1>} : memref<8192x128xi32, #tpu.memory_space<vmem>>, vector<1024x128xi32>
        %220 = arith.trunci %219 : vector<1024x128xi32> to vector<1024x128xi16>
        %221 = arith.shrui %219, %cst_11 : vector<1024x128xi32>
        %222 = arith.trunci %221 : vector<1024x128xi32> to vector<1024x128xi16>
        %223 = tpu.bitcast %220 : vector<1024x128xi16> -> vector<512x128xi32>
        %224 = tpu.bitcast %222 : vector<1024x128xi16> -> vector<512x128xi32>
        %225 = arith.andi %223, %93 : vector<512x128xi32>
        %226 = arith.andi %224, %93 : vector<512x128xi32>
        %227 = tpu.bitcast %225 : vector<512x128xi32> -> vector<1024x128xbf16>
        %228 = tpu.bitcast %226 : vector<512x128xi32> -> vector<1024x128xbf16>
        %229 = tpu.strided_load %158[%c7, %c0] {strides = array<i32: 8, 1>} : memref<8192x128xi32, #tpu.memory_space<vmem>>, vector<1024x128xi32>
        %230 = arith.trunci %229 : vector<1024x128xi32> to vector<1024x128xi16>
        %231 = arith.shrui %229, %cst_11 : vector<1024x128xi32>
        %232 = arith.trunci %231 : vector<1024x128xi32> to vector<1024x128xi16>
        %233 = tpu.bitcast %230 : vector<1024x128xi16> -> vector<512x128xi32>
        %234 = tpu.bitcast %232 : vector<1024x128xi16> -> vector<512x128xi32>
        %235 = arith.andi %233, %93 : vector<512x128xi32>
        %236 = arith.andi %234, %93 : vector<512x128xi32>
        %237 = tpu.bitcast %235 : vector<512x128xi32> -> vector<1024x128xbf16>
        %238 = tpu.bitcast %236 : vector<512x128xi32> -> vector<1024x128xbf16>
        %239 = vector.shape_cast %167 : vector<1024x128xbf16> to vector<1x1024x128xbf16>
        %240 = vector.shape_cast %177 : vector<1024x128xbf16> to vector<1x1024x128xbf16>
        %241 = vector.shape_cast %187 : vector<1024x128xbf16> to vector<1x1024x128xbf16>
        %242 = vector.shape_cast %197 : vector<1024x128xbf16> to vector<1x1024x128xbf16>
        %243 = vector.shape_cast %207 : vector<1024x128xbf16> to vector<1x1024x128xbf16>
        %244 = vector.shape_cast %217 : vector<1024x128xbf16> to vector<1x1024x128xbf16>
        %245 = vector.shape_cast %227 : vector<1024x128xbf16> to vector<1x1024x128xbf16>
        %246 = vector.shape_cast %237 : vector<1024x128xbf16> to vector<1x1024x128xbf16>
        %247 = tpu.concatenate %239, %240, %241, %242, %243, %244, %245, %246 in 0 : vector<1x1024x128xbf16>, vector<1x1024x128xbf16>, vector<1x1024x128xbf16>, vector<1x1024x128xbf16>, vector<1x1024x128xbf16>, vector<1x1024x128xbf16>, vector<1x1024x128xbf16>, vector<1x1024x128xbf16> -> vector<8x1024x128xbf16>
        %248 = vector.shape_cast %168 : vector<1024x128xbf16> to vector<1x1024x128xbf16>
        %249 = vector.shape_cast %178 : vector<1024x128xbf16> to vector<1x1024x128xbf16>
        %250 = vector.shape_cast %188 : vector<1024x128xbf16> to vector<1x1024x128xbf16>
        %251 = vector.shape_cast %198 : vector<1024x128xbf16> to vector<1x1024x128xbf16>
        %252 = vector.shape_cast %208 : vector<1024x128xbf16> to vector<1x1024x128xbf16>
        %253 = vector.shape_cast %218 : vector<1024x128xbf16> to vector<1x1024x128xbf16>
        %254 = vector.shape_cast %228 : vector<1024x128xbf16> to vector<1x1024x128xbf16>
        %255 = vector.shape_cast %238 : vector<1024x128xbf16> to vector<1x1024x128xbf16>
        %256 = tpu.concatenate %248, %249, %250, %251, %252, %253, %254, %255 in 0 : vector<1x1024x128xbf16>, vector<1x1024x128xbf16>, vector<1x1024x128xbf16>, vector<1x1024x128xbf16>, vector<1x1024x128xbf16>, vector<1x1024x128xbf16>, vector<1x1024x128xbf16>, vector<1x1024x128xbf16> -> vector<8x1024x128xbf16>
        %257 = tpu.memref_bitcast %arg17 : memref<2x8x128x2x2x128xbf16, #tpu.tiled<(2,128)(2,1),[2048,256,2,1,1,1]>, #tpu.memory_space<vmem>> -> memref<2x8x128x2x1x128xi32, #tpu.tiled<(1,128),[2048,256,2,1,1,1]>, #tpu.memory_space<vmem>>
        %258 = tpu.memref_slice %257[%48, %c0_i32, %c0_i32, %c0_i32, %c0_i32, %c0_i32] : memref<2x8x128x2x1x128xi32, #tpu.tiled<(1,128),[2048,256,2,1,1,1]>, #tpu.memory_space<vmem>> -> memref<1x1x128x2x1x128xi32, #tpu.tiled<(1,128),[2048,256,2,1,1,1]>, #tpu.memory_space<vmem>>
        %259 = tpu.memref_squeeze %258 : memref<1x1x128x2x1x128xi32, #tpu.tiled<(1,128),[2048,256,2,1,1,1]>, #tpu.memory_space<vmem>> -> memref<128x2x1x128xi32, #tpu.tiled<(1,128),[2,1,1,1]>, #tpu.memory_space<vmem>>
        %260 = tpu.memref_reshape %259 : memref<128x2x1x128xi32, #tpu.tiled<(1,128),[2,1,1,1]>, #tpu.memory_space<vmem>> -> memref<256x128xi32, #tpu.tiled<(1,128),[1,1]>, #tpu.memory_space<vmem>>
        %261 = tpu.erase_memref_layout %260 : memref<256x128xi32, #tpu.tiled<(1,128),[1,1]>, #tpu.memory_space<vmem>> -> memref<256x128xi32, #tpu.memory_space<vmem>>
        %262 = vector.load %261[%c0, %c0] : memref<256x128xi32, #tpu.memory_space<vmem>>, vector<2x128xi32>
        %263 = tpu.bitcast %262 : vector<2x128xi32> -> vector<4x128xbf16>
        %264 = tpu.memref_slice %257[%48, %c1_i32, %c0_i32, %c0_i32, %c0_i32, %c0_i32] : memref<2x8x128x2x1x128xi32, #tpu.tiled<(1,128),[2048,256,2,1,1,1]>, #tpu.memory_space<vmem>> -> memref<1x1x128x2x1x128xi32, #tpu.tiled<(1,128),[2048,256,2,1,1,1]>, #tpu.memory_space<vmem>>
        %265 = tpu.memref_squeeze %264 : memref<1x1x128x2x1x128xi32, #tpu.tiled<(1,128),[2048,256,2,1,1,1]>, #tpu.memory_space<vmem>> -> memref<128x2x1x128xi32, #tpu.tiled<(1,128),[2,1,1,1]>, #tpu.memory_space<vmem>>
        %266 = tpu.memref_reshape %265 : memref<128x2x1x128xi32, #tpu.tiled<(1,128),[2,1,1,1]>, #tpu.memory_space<vmem>> -> memref<256x128xi32, #tpu.tiled<(1,128),[1,1]>, #tpu.memory_space<vmem>>
        %267 = tpu.erase_memref_layout %266 : memref<256x128xi32, #tpu.tiled<(1,128),[1,1]>, #tpu.memory_space<vmem>> -> memref<256x128xi32, #tpu.memory_space<vmem>>
        %268 = vector.load %267[%c0, %c0] : memref<256x128xi32, #tpu.memory_space<vmem>>, vector<2x128xi32>
        %269 = tpu.bitcast %268 : vector<2x128xi32> -> vector<4x128xbf16>
        %270 = tpu.memref_slice %257[%48, %c2_i32, %c0_i32, %c0_i32, %c0_i32, %c0_i32] : memref<2x8x128x2x1x128xi32, #tpu.tiled<(1,128),[2048,256,2,1,1,1]>, #tpu.memory_space<vmem>> -> memref<1x1x128x2x1x128xi32, #tpu.tiled<(1,128),[2048,256,2,1,1,1]>, #tpu.memory_space<vmem>>
        %271 = tpu.memref_squeeze %270 : memref<1x1x128x2x1x128xi32, #tpu.tiled<(1,128),[2048,256,2,1,1,1]>, #tpu.memory_space<vmem>> -> memref<128x2x1x128xi32, #tpu.tiled<(1,128),[2,1,1,1]>, #tpu.memory_space<vmem>>
        %272 = tpu.memref_reshape %271 : memref<128x2x1x128xi32, #tpu.tiled<(1,128),[2,1,1,1]>, #tpu.memory_space<vmem>> -> memref<256x128xi32, #tpu.tiled<(1,128),[1,1]>, #tpu.memory_space<vmem>>
        %273 = tpu.erase_memref_layout %272 : memref<256x128xi32, #tpu.tiled<(1,128),[1,1]>, #tpu.memory_space<vmem>> -> memref<256x128xi32, #tpu.memory_space<vmem>>
        %274 = vector.load %273[%c0, %c0] : memref<256x128xi32, #tpu.memory_space<vmem>>, vector<2x128xi32>
        %275 = tpu.bitcast %274 : vector<2x128xi32> -> vector<4x128xbf16>
        %276 = tpu.memref_slice %257[%48, %c3_i32, %c0_i32, %c0_i32, %c0_i32, %c0_i32] : memref<2x8x128x2x1x128xi32, #tpu.tiled<(1,128),[2048,256,2,1,1,1]>, #tpu.memory_space<vmem>> -> memref<1x1x128x2x1x128xi32, #tpu.tiled<(1,128),[2048,256,2,1,1,1]>, #tpu.memory_space<vmem>>
        %277 = tpu.memref_squeeze %276 : memref<1x1x128x2x1x128xi32, #tpu.tiled<(1,128),[2048,256,2,1,1,1]>, #tpu.memory_space<vmem>> -> memref<128x2x1x128xi32, #tpu.tiled<(1,128),[2,1,1,1]>, #tpu.memory_space<vmem>>
        %278 = tpu.memref_reshape %277 : memref<128x2x1x128xi32, #tpu.tiled<(1,128),[2,1,1,1]>, #tpu.memory_space<vmem>> -> memref<256x128xi32, #tpu.tiled<(1,128),[1,1]>, #tpu.memory_space<vmem>>
        %279 = tpu.erase_memref_layout %278 : memref<256x128xi32, #tpu.tiled<(1,128),[1,1]>, #tpu.memory_space<vmem>> -> memref<256x128xi32, #tpu.memory_space<vmem>>
        %280 = vector.load %279[%c0, %c0] : memref<256x128xi32, #tpu.memory_space<vmem>>, vector<2x128xi32>
        %281 = tpu.bitcast %280 : vector<2x128xi32> -> vector<4x128xbf16>
        %282 = tpu.memref_slice %257[%48, %c4_i32, %c0_i32, %c0_i32, %c0_i32, %c0_i32] : memref<2x8x128x2x1x128xi32, #tpu.tiled<(1,128),[2048,256,2,1,1,1]>, #tpu.memory_space<vmem>> -> memref<1x1x128x2x1x128xi32, #tpu.tiled<(1,128),[2048,256,2,1,1,1]>, #tpu.memory_space<vmem>>
        %283 = tpu.memref_squeeze %282 : memref<1x1x128x2x1x128xi32, #tpu.tiled<(1,128),[2048,256,2,1,1,1]>, #tpu.memory_space<vmem>> -> memref<128x2x1x128xi32, #tpu.tiled<(1,128),[2,1,1,1]>, #tpu.memory_space<vmem>>
        %284 = tpu.memref_reshape %283 : memref<128x2x1x128xi32, #tpu.tiled<(1,128),[2,1,1,1]>, #tpu.memory_space<vmem>> -> memref<256x128xi32, #tpu.tiled<(1,128),[1,1]>, #tpu.memory_space<vmem>>
        %285 = tpu.erase_memref_layout %284 : memref<256x128xi32, #tpu.tiled<(1,128),[1,1]>, #tpu.memory_space<vmem>> -> memref<256x128xi32, #tpu.memory_space<vmem>>
        %286 = vector.load %285[%c0, %c0] : memref<256x128xi32, #tpu.memory_space<vmem>>, vector<2x128xi32>
        %287 = tpu.bitcast %286 : vector<2x128xi32> -> vector<4x128xbf16>
        %288 = tpu.memref_slice %257[%48, %c5_i32, %c0_i32, %c0_i32, %c0_i32, %c0_i32] : memref<2x8x128x2x1x128xi32, #tpu.tiled<(1,128),[2048,256,2,1,1,1]>, #tpu.memory_space<vmem>> -> memref<1x1x128x2x1x128xi32, #tpu.tiled<(1,128),[2048,256,2,1,1,1]>, #tpu.memory_space<vmem>>
        %289 = tpu.memref_squeeze %288 : memref<1x1x128x2x1x128xi32, #tpu.tiled<(1,128),[2048,256,2,1,1,1]>, #tpu.memory_space<vmem>> -> memref<128x2x1x128xi32, #tpu.tiled<(1,128),[2,1,1,1]>, #tpu.memory_space<vmem>>
        %290 = tpu.memref_reshape %289 : memref<128x2x1x128xi32, #tpu.tiled<(1,128),[2,1,1,1]>, #tpu.memory_space<vmem>> -> memref<256x128xi32, #tpu.tiled<(1,128),[1,1]>, #tpu.memory_space<vmem>>
        %291 = tpu.erase_memref_layout %290 : memref<256x128xi32, #tpu.tiled<(1,128),[1,1]>, #tpu.memory_space<vmem>> -> memref<256x128xi32, #tpu.memory_space<vmem>>
        %292 = vector.load %291[%c0, %c0] : memref<256x128xi32, #tpu.memory_space<vmem>>, vector<2x128xi32>
        %293 = tpu.bitcast %292 : vector<2x128xi32> -> vector<4x128xbf16>
        %294 = tpu.memref_slice %257[%48, %c6_i32, %c0_i32, %c0_i32, %c0_i32, %c0_i32] : memref<2x8x128x2x1x128xi32, #tpu.tiled<(1,128),[2048,256,2,1,1,1]>, #tpu.memory_space<vmem>> -> memref<1x1x128x2x1x128xi32, #tpu.tiled<(1,128),[2048,256,2,1,1,1]>, #tpu.memory_space<vmem>>
        %295 = tpu.memref_squeeze %294 : memref<1x1x128x2x1x128xi32, #tpu.tiled<(1,128),[2048,256,2,1,1,1]>, #tpu.memory_space<vmem>> -> memref<128x2x1x128xi32, #tpu.tiled<(1,128),[2,1,1,1]>, #tpu.memory_space<vmem>>
        %296 = tpu.memref_reshape %295 : memref<128x2x1x128xi32, #tpu.tiled<(1,128),[2,1,1,1]>, #tpu.memory_space<vmem>> -> memref<256x128xi32, #tpu.tiled<(1,128),[1,1]>, #tpu.memory_space<vmem>>
        %297 = tpu.erase_memref_layout %296 : memref<256x128xi32, #tpu.tiled<(1,128),[1,1]>, #tpu.memory_space<vmem>> -> memref<256x128xi32, #tpu.memory_space<vmem>>
        %298 = vector.load %297[%c0, %c0] : memref<256x128xi32, #tpu.memory_space<vmem>>, vector<2x128xi32>
        %299 = tpu.bitcast %298 : vector<2x128xi32> -> vector<4x128xbf16>
        %300 = tpu.memref_slice %257[%48, %c7_i32, %c0_i32, %c0_i32, %c0_i32, %c0_i32] : memref<2x8x128x2x1x128xi32, #tpu.tiled<(1,128),[2048,256,2,1,1,1]>, #tpu.memory_space<vmem>> -> memref<1x1x128x2x1x128xi32, #tpu.tiled<(1,128),[2048,256,2,1,1,1]>, #tpu.memory_space<vmem>>
        %301 = tpu.memref_squeeze %300 : memref<1x1x128x2x1x128xi32, #tpu.tiled<(1,128),[2048,256,2,1,1,1]>, #tpu.memory_space<vmem>> -> memref<128x2x1x128xi32, #tpu.tiled<(1,128),[2,1,1,1]>, #tpu.memory_space<vmem>>
        %302 = tpu.memref_reshape %301 : memref<128x2x1x128xi32, #tpu.tiled<(1,128),[2,1,1,1]>, #tpu.memory_space<vmem>> -> memref<256x128xi32, #tpu.tiled<(1,128),[1,1]>, #tpu.memory_space<vmem>>
        %303 = tpu.erase_memref_layout %302 : memref<256x128xi32, #tpu.tiled<(1,128),[1,1]>, #tpu.memory_space<vmem>> -> memref<256x128xi32, #tpu.memory_space<vmem>>
        %304 = vector.load %303[%c0, %c0] : memref<256x128xi32, #tpu.memory_space<vmem>>, vector<2x128xi32>
        %305 = tpu.bitcast %304 : vector<2x128xi32> -> vector<4x128xbf16>
        %306 = vector.shape_cast %263 : vector<4x128xbf16> to vector<1x4x128xbf16>
        %307 = vector.shape_cast %269 : vector<4x128xbf16> to vector<1x4x128xbf16>
        %308 = vector.shape_cast %275 : vector<4x128xbf16> to vector<1x4x128xbf16>
        %309 = vector.shape_cast %281 : vector<4x128xbf16> to vector<1x4x128xbf16>
        %310 = vector.shape_cast %287 : vector<4x128xbf16> to vector<1x4x128xbf16>
        %311 = vector.shape_cast %293 : vector<4x128xbf16> to vector<1x4x128xbf16>
        %312 = vector.shape_cast %299 : vector<4x128xbf16> to vector<1x4x128xbf16>
        %313 = vector.shape_cast %305 : vector<4x128xbf16> to vector<1x4x128xbf16>
        %314 = tpu.concatenate %306, %307, %308, %309, %310, %311, %312, %313 in 0 : vector<1x4x128xbf16>, vector<1x4x128xbf16>, vector<1x4x128xbf16>, vector<1x4x128xbf16>, vector<1x4x128xbf16>, vector<1x4x128xbf16>, vector<1x4x128xbf16>, vector<1x4x128xbf16> -> vector<8x4x128xbf16>
        %315 = arith.extf %314 : vector<8x4x128xbf16> to vector<8x4x128xf32>
        %316 = arith.extf %247 : vector<8x1024x128xbf16> to vector<8x1024x128xf32>
        %317 = arith.extf %256 : vector<8x1024x128xbf16> to vector<8x1024x128xf32>
        "tpu.trace_start"() <{level = 10 : i32, message = "hqd,hkd->hqk"}> : () -> ()
        %318 = tpu.matmul %315, %316, %cst_21 {dimension_numbers = #tpu.dot_dimension_numbers<[2], [2], [1], [1], [0, 0, 0, 1, 1, 1], [0], [0]>} : vector<8x4x128xf32>, vector<8x1024x128xf32>, vector<8x4x1024xf32> -> vector<8x4x1024xf32>
        "tpu.trace_stop"() : () -> ()
        %319 = arith.mulf %318, %cst_10 : vector<8x4x1024xf32>
        %320 = arith.subi %24, %23 : i32
        %321 = tpu.iota {dimensions = array<i32: 1>} : vector<8x4x1024xi32>
        %322 = arith.divsi %321, %cst_9 : vector<8x4x1024xi32>
        %323 = arith.cmpi sgt, %321, %cst_8 : vector<8x4x1024xi32>
        %324 = arith.extui %323 : vector<8x4x1024xi1> to vector<8x4x1024xi32>
        %325 = arith.cmpi slt, %321, %cst_8 : vector<8x4x1024xi32>
        %326 = arith.extui %325 : vector<8x4x1024xi1> to vector<8x4x1024xi32>
        %327 = arith.subi %324, %326 : vector<8x4x1024xi32>
        %328 = arith.cmpi ne, %327, %cst_7 : vector<8x4x1024xi32>
        %329 = arith.remsi %321, %cst_9 : vector<8x4x1024xi32>
        %330 = arith.cmpi ne, %329, %cst_8 : vector<8x4x1024xi32>
        %331 = arith.andi %328, %330 : vector<8x4x1024xi1>
        %332 = arith.subi %322, %cst_7 : vector<8x4x1024xi32>
        %333 = arith.select %331, %332, %322 : vector<8x4x1024xi1>, vector<8x4x1024xi32>
        %334 = vector.broadcast %320 : i32 to vector<8x4x1024xi32>
        %335 = arith.addi %334, %333 : vector<8x4x1024xi32>
        %336 = tpu.iota {dimensions = array<i32: 2>} : vector<8x4x1024xi32>
        %337 = vector.broadcast %85 : i32 to vector<8x4x1024xi32>
        %338 = arith.addi %337, %336 : vector<8x4x1024xi32>
        %339 = arith.cmpi slt, %335, %338 : vector<8x4x1024xi32>
        %340 = arith.select %339, %cst_6, %cst_21 : vector<8x4x1024xi1>, vector<8x4x1024xf32>
        %341 = arith.addf %319, %340 : vector<8x4x1024xf32>
        %342 = vector.extract %341[0] : vector<4x1024xf32> from vector<8x4x1024xf32>
        %343 = vector.multi_reduction <maximumf>, %342, %cst_20 [1] : vector<4x1024xf32> to vector<4xf32>
        %344 = vector.shape_cast %343 : vector<4xf32> to vector<4x1xf32>
        %345 = vector.load %11[%c0, %c0, %c0] : memref<8x512x128xf32, #tpu.memory_space<vmem>>, vector<1x4x128xf32>
        %346 = vector.shape_cast %345 : vector<1x4x128xf32> to vector<4x128xf32>
        %347 = arith.select %104, %cst_5, %346 : vector<4x128xf32>
        %348 = vector.broadcast %344 : vector<4x1xf32> to vector<4x128xf32>
        %349 = arith.maximumf %347, %348 : vector<4x128xf32>
        %350 = vector.shape_cast %349 : vector<4x128xf32> to vector<1x4x128xf32>
        tpu.vector_store %11[%c0, %c0, %c0], %350 {strides = array<i32>} : memref<8x512x128xf32, #tpu.memory_space<vmem>>, vector<1x4x128xf32>, 
        %351 = tpu.concatenate %349, %349, %349, %349, %349, %349, %349, %349 in 1 : vector<4x128xf32>, vector<4x128xf32>, vector<4x128xf32>, vector<4x128xf32>, vector<4x128xf32>, vector<4x128xf32>, vector<4x128xf32>, vector<4x128xf32> -> vector<4x1024xf32>
        %352 = arith.subf %342, %351 : vector<4x1024xf32>
        %353 = math.exp %352 : vector<4x1024xf32>
        %354 = vector.extract %317[0] : vector<1024x128xf32> from vector<8x1024x128xf32>
        "tpu.trace_start"() <{level = 10 : i32, message = "qk,kd->qd"}> : () -> ()
        %355 = tpu.matmul %353, %354, %cst_19 {dimension_numbers = #tpu.dot_dimension_numbers<[1], [0], [0], [1], [0, 0, 1, 1], [], []>} : vector<4x1024xf32>, vector<1024x128xf32>, vector<4x128xf32> -> vector<4x128xf32>
        "tpu.trace_stop"() : () -> ()
        %356 = vector.multi_reduction <add>, %353, %cst_18 [1] : vector<4x1024xf32> to vector<4xf32>
        %357 = vector.shape_cast %356 : vector<4xf32> to vector<4x1xf32>
        %358 = arith.subf %347, %349 : vector<4x128xf32>
        %359 = math.exp %358 : vector<4x128xf32>
        %360 = vector.load %9[%c0, %c0, %c0] : memref<8x512x128xf32, #tpu.memory_space<vmem>>, vector<1x4x128xf32>
        %361 = vector.shape_cast %360 : vector<1x4x128xf32> to vector<4x128xf32>
        %362 = arith.select %104, %cst_19, %361 : vector<4x128xf32>
        %363 = arith.mulf %359, %362 : vector<4x128xf32>
        %364 = vector.broadcast %357 : vector<4x1xf32> to vector<4x128xf32>
        %365 = arith.addf %363, %364 : vector<4x128xf32>
        %366 = vector.shape_cast %365 : vector<4x128xf32> to vector<1x4x128xf32>
        tpu.vector_store %9[%c0, %c0, %c0], %366 {strides = array<i32>} : memref<8x512x128xf32, #tpu.memory_space<vmem>>, vector<1x4x128xf32>, 
        %367 = vector.load %13[%c0, %c0, %c0] : memref<8x512x128xf32, #tpu.memory_space<vmem>>, vector<1x4x128xf32>
        %368 = vector.shape_cast %367 : vector<1x4x128xf32> to vector<4x128xf32>
        %369 = arith.select %104, %cst_19, %368 : vector<4x128xf32>
        %370 = arith.mulf %359, %369 : vector<4x128xf32>
        %371 = arith.addf %370, %355 : vector<4x128xf32>
        %372 = vector.shape_cast %371 : vector<4x128xf32> to vector<1x4x128xf32>
        tpu.vector_store %13[%c0, %c0, %c0], %372 {strides = array<i32>} : memref<8x512x128xf32, #tpu.memory_space<vmem>>, vector<1x4x128xf32>, 
        %373 = vector.extract %341[1] : vector<4x1024xf32> from vector<8x4x1024xf32>
        %374 = vector.multi_reduction <maximumf>, %373, %cst_20 [1] : vector<4x1024xf32> to vector<4xf32>
        %375 = vector.shape_cast %374 : vector<4xf32> to vector<4x1xf32>
        %376 = vector.load %11[%c1, %c0, %c0] : memref<8x512x128xf32, #tpu.memory_space<vmem>>, vector<1x4x128xf32>
        %377 = vector.shape_cast %376 : vector<1x4x128xf32> to vector<4x128xf32>
        %378 = arith.select %104, %cst_5, %377 : vector<4x128xf32>
        %379 = vector.broadcast %375 : vector<4x1xf32> to vector<4x128xf32>
        %380 = arith.maximumf %378, %379 : vector<4x128xf32>
        %381 = vector.shape_cast %380 : vector<4x128xf32> to vector<1x4x128xf32>
        tpu.vector_store %11[%c1, %c0, %c0], %381 {strides = array<i32>} : memref<8x512x128xf32, #tpu.memory_space<vmem>>, vector<1x4x128xf32>, 
        %382 = tpu.concatenate %380, %380, %380, %380, %380, %380, %380, %380 in 1 : vector<4x128xf32>, vector<4x128xf32>, vector<4x128xf32>, vector<4x128xf32>, vector<4x128xf32>, vector<4x128xf32>, vector<4x128xf32>, vector<4x128xf32> -> vector<4x1024xf32>
        %383 = arith.subf %373, %382 : vector<4x1024xf32>
        %384 = math.exp %383 : vector<4x1024xf32>
        %385 = vector.extract %317[1] : vector<1024x128xf32> from vector<8x1024x128xf32>
        "tpu.trace_start"() <{level = 10 : i32, message = "qk,kd->qd"}> : () -> ()
        %386 = tpu.matmul %384, %385, %cst_19 {dimension_numbers = #tpu.dot_dimension_numbers<[1], [0], [0], [1], [0, 0, 1, 1], [], []>} : vector<4x1024xf32>, vector<1024x128xf32>, vector<4x128xf32> -> vector<4x128xf32>
        "tpu.trace_stop"() : () -> ()
        %387 = vector.multi_reduction <add>, %384, %cst_18 [1] : vector<4x1024xf32> to vector<4xf32>
        %388 = vector.shape_cast %387 : vector<4xf32> to vector<4x1xf32>
        %389 = arith.subf %378, %380 : vector<4x128xf32>
        %390 = math.exp %389 : vector<4x128xf32>
        %391 = vector.load %9[%c1, %c0, %c0] : memref<8x512x128xf32, #tpu.memory_space<vmem>>, vector<1x4x128xf32>
        %392 = vector.shape_cast %391 : vector<1x4x128xf32> to vector<4x128xf32>
        %393 = arith.select %104, %cst_19, %392 : vector<4x128xf32>
        %394 = arith.mulf %390, %393 : vector<4x128xf32>
        %395 = vector.broadcast %388 : vector<4x1xf32> to vector<4x128xf32>
        %396 = arith.addf %394, %395 : vector<4x128xf32>
        %397 = vector.shape_cast %396 : vector<4x128xf32> to vector<1x4x128xf32>
        tpu.vector_store %9[%c1, %c0, %c0], %397 {strides = array<i32>} : memref<8x512x128xf32, #tpu.memory_space<vmem>>, vector<1x4x128xf32>, 
        %398 = vector.load %13[%c1, %c0, %c0] : memref<8x512x128xf32, #tpu.memory_space<vmem>>, vector<1x4x128xf32>
        %399 = vector.shape_cast %398 : vector<1x4x128xf32> to vector<4x128xf32>
        %400 = arith.select %104, %cst_19, %399 : vector<4x128xf32>
        %401 = arith.mulf %390, %400 : vector<4x128xf32>
        %402 = arith.addf %401, %386 : vector<4x128xf32>
        %403 = vector.shape_cast %402 : vector<4x128xf32> to vector<1x4x128xf32>
        tpu.vector_store %13[%c1, %c0, %c0], %403 {strides = array<i32>} : memref<8x512x128xf32, #tpu.memory_space<vmem>>, vector<1x4x128xf32>, 
        %404 = vector.extract %341[2] : vector<4x1024xf32> from vector<8x4x1024xf32>
        %405 = vector.multi_reduction <maximumf>, %404, %cst_20 [1] : vector<4x1024xf32> to vector<4xf32>
        %406 = vector.shape_cast %405 : vector<4xf32> to vector<4x1xf32>
        %407 = vector.load %11[%c2, %c0, %c0] : memref<8x512x128xf32, #tpu.memory_space<vmem>>, vector<1x4x128xf32>
        %408 = vector.shape_cast %407 : vector<1x4x128xf32> to vector<4x128xf32>
        %409 = arith.select %104, %cst_5, %408 : vector<4x128xf32>
        %410 = vector.broadcast %406 : vector<4x1xf32> to vector<4x128xf32>
        %411 = arith.maximumf %409, %410 : vector<4x128xf32>
        %412 = vector.shape_cast %411 : vector<4x128xf32> to vector<1x4x128xf32>
        tpu.vector_store %11[%c2, %c0, %c0], %412 {strides = array<i32>} : memref<8x512x128xf32, #tpu.memory_space<vmem>>, vector<1x4x128xf32>, 
        %413 = tpu.concatenate %411, %411, %411, %411, %411, %411, %411, %411 in 1 : vector<4x128xf32>, vector<4x128xf32>, vector<4x128xf32>, vector<4x128xf32>, vector<4x128xf32>, vector<4x128xf32>, vector<4x128xf32>, vector<4x128xf32> -> vector<4x1024xf32>
        %414 = arith.subf %404, %413 : vector<4x1024xf32>
        %415 = math.exp %414 : vector<4x1024xf32>
        %416 = vector.extract %317[2] : vector<1024x128xf32> from vector<8x1024x128xf32>
        "tpu.trace_start"() <{level = 10 : i32, message = "qk,kd->qd"}> : () -> ()
        %417 = tpu.matmul %415, %416, %cst_19 {dimension_numbers = #tpu.dot_dimension_numbers<[1], [0], [0], [1], [0, 0, 1, 1], [], []>} : vector<4x1024xf32>, vector<1024x128xf32>, vector<4x128xf32> -> vector<4x128xf32>
        "tpu.trace_stop"() : () -> ()
        %418 = vector.multi_reduction <add>, %415, %cst_18 [1] : vector<4x1024xf32> to vector<4xf32>
        %419 = vector.shape_cast %418 : vector<4xf32> to vector<4x1xf32>
        %420 = arith.subf %409, %411 : vector<4x128xf32>
        %421 = math.exp %420 : vector<4x128xf32>
        %422 = vector.load %9[%c2, %c0, %c0] : memref<8x512x128xf32, #tpu.memory_space<vmem>>, vector<1x4x128xf32>
        %423 = vector.shape_cast %422 : vector<1x4x128xf32> to vector<4x128xf32>
        %424 = arith.select %104, %cst_19, %423 : vector<4x128xf32>
        %425 = arith.mulf %421, %424 : vector<4x128xf32>
        %426 = vector.broadcast %419 : vector<4x1xf32> to vector<4x128xf32>
        %427 = arith.addf %425, %426 : vector<4x128xf32>
        %428 = vector.shape_cast %427 : vector<4x128xf32> to vector<1x4x128xf32>
        tpu.vector_store %9[%c2, %c0, %c0], %428 {strides = array<i32>} : memref<8x512x128xf32, #tpu.memory_space<vmem>>, vector<1x4x128xf32>, 
        %429 = vector.load %13[%c2, %c0, %c0] : memref<8x512x128xf32, #tpu.memory_space<vmem>>, vector<1x4x128xf32>
        %430 = vector.shape_cast %429 : vector<1x4x128xf32> to vector<4x128xf32>
        %431 = arith.select %104, %cst_19, %430 : vector<4x128xf32>
        %432 = arith.mulf %421, %431 : vector<4x128xf32>
        %433 = arith.addf %432, %417 : vector<4x128xf32>
        %434 = vector.shape_cast %433 : vector<4x128xf32> to vector<1x4x128xf32>
        tpu.vector_store %13[%c2, %c0, %c0], %434 {strides = array<i32>} : memref<8x512x128xf32, #tpu.memory_space<vmem>>, vector<1x4x128xf32>, 
        %435 = vector.extract %341[3] : vector<4x1024xf32> from vector<8x4x1024xf32>
        %436 = vector.multi_reduction <maximumf>, %435, %cst_20 [1] : vector<4x1024xf32> to vector<4xf32>
        %437 = vector.shape_cast %436 : vector<4xf32> to vector<4x1xf32>
        %438 = vector.load %11[%c3, %c0, %c0] : memref<8x512x128xf32, #tpu.memory_space<vmem>>, vector<1x4x128xf32>
        %439 = vector.shape_cast %438 : vector<1x4x128xf32> to vector<4x128xf32>
        %440 = arith.select %104, %cst_5, %439 : vector<4x128xf32>
        %441 = vector.broadcast %437 : vector<4x1xf32> to vector<4x128xf32>
        %442 = arith.maximumf %440, %441 : vector<4x128xf32>
        %443 = vector.shape_cast %442 : vector<4x128xf32> to vector<1x4x128xf32>
        tpu.vector_store %11[%c3, %c0, %c0], %443 {strides = array<i32>} : memref<8x512x128xf32, #tpu.memory_space<vmem>>, vector<1x4x128xf32>, 
        %444 = tpu.concatenate %442, %442, %442, %442, %442, %442, %442, %442 in 1 : vector<4x128xf32>, vector<4x128xf32>, vector<4x128xf32>, vector<4x128xf32>, vector<4x128xf32>, vector<4x128xf32>, vector<4x128xf32>, vector<4x128xf32> -> vector<4x1024xf32>
        %445 = arith.subf %435, %444 : vector<4x1024xf32>
        %446 = math.exp %445 : vector<4x1024xf32>
        %447 = vector.extract %317[3] : vector<1024x128xf32> from vector<8x1024x128xf32>
        "tpu.trace_start"() <{level = 10 : i32, message = "qk,kd->qd"}> : () -> ()
        %448 = tpu.matmul %446, %447, %cst_19 {dimension_numbers = #tpu.dot_dimension_numbers<[1], [0], [0], [1], [0, 0, 1, 1], [], []>} : vector<4x1024xf32>, vector<1024x128xf32>, vector<4x128xf32> -> vector<4x128xf32>
        "tpu.trace_stop"() : () -> ()
        %449 = vector.multi_reduction <add>, %446, %cst_18 [1] : vector<4x1024xf32> to vector<4xf32>
        %450 = vector.shape_cast %449 : vector<4xf32> to vector<4x1xf32>
        %451 = arith.subf %440, %442 : vector<4x128xf32>
        %452 = math.exp %451 : vector<4x128xf32>
        %453 = vector.load %9[%c3, %c0, %c0] : memref<8x512x128xf32, #tpu.memory_space<vmem>>, vector<1x4x128xf32>
        %454 = vector.shape_cast %453 : vector<1x4x128xf32> to vector<4x128xf32>
        %455 = arith.select %104, %cst_19, %454 : vector<4x128xf32>
        %456 = arith.mulf %452, %455 : vector<4x128xf32>
        %457 = vector.broadcast %450 : vector<4x1xf32> to vector<4x128xf32>
        %458 = arith.addf %456, %457 : vector<4x128xf32>
        %459 = vector.shape_cast %458 : vector<4x128xf32> to vector<1x4x128xf32>
        tpu.vector_store %9[%c3, %c0, %c0], %459 {strides = array<i32>} : memref<8x512x128xf32, #tpu.memory_space<vmem>>, vector<1x4x128xf32>, 
        %460 = vector.load %13[%c3, %c0, %c0] : memref<8x512x128xf32, #tpu.memory_space<vmem>>, vector<1x4x128xf32>
        %461 = vector.shape_cast %460 : vector<1x4x128xf32> to vector<4x128xf32>
        %462 = arith.select %104, %cst_19, %461 : vector<4x128xf32>
        %463 = arith.mulf %452, %462 : vector<4x128xf32>
        %464 = arith.addf %463, %448 : vector<4x128xf32>
        %465 = vector.shape_cast %464 : vector<4x128xf32> to vector<1x4x128xf32>
        tpu.vector_store %13[%c3, %c0, %c0], %465 {strides = array<i32>} : memref<8x512x128xf32, #tpu.memory_space<vmem>>, vector<1x4x128xf32>, 
        %466 = vector.extract %341[4] : vector<4x1024xf32> from vector<8x4x1024xf32>
        %467 = vector.multi_reduction <maximumf>, %466, %cst_20 [1] : vector<4x1024xf32> to vector<4xf32>
        %468 = vector.shape_cast %467 : vector<4xf32> to vector<4x1xf32>
        %469 = vector.load %11[%c4, %c0, %c0] : memref<8x512x128xf32, #tpu.memory_space<vmem>>, vector<1x4x128xf32>
        %470 = vector.shape_cast %469 : vector<1x4x128xf32> to vector<4x128xf32>
        %471 = arith.select %104, %cst_5, %470 : vector<4x128xf32>
        %472 = vector.broadcast %468 : vector<4x1xf32> to vector<4x128xf32>
        %473 = arith.maximumf %471, %472 : vector<4x128xf32>
        %474 = vector.shape_cast %473 : vector<4x128xf32> to vector<1x4x128xf32>
        tpu.vector_store %11[%c4, %c0, %c0], %474 {strides = array<i32>} : memref<8x512x128xf32, #tpu.memory_space<vmem>>, vector<1x4x128xf32>, 
        %475 = tpu.concatenate %473, %473, %473, %473, %473, %473, %473, %473 in 1 : vector<4x128xf32>, vector<4x128xf32>, vector<4x128xf32>, vector<4x128xf32>, vector<4x128xf32>, vector<4x128xf32>, vector<4x128xf32>, vector<4x128xf32> -> vector<4x1024xf32>
        %476 = arith.subf %466, %475 : vector<4x1024xf32>
        %477 = math.exp %476 : vector<4x1024xf32>
        %478 = vector.extract %317[4] : vector<1024x128xf32> from vector<8x1024x128xf32>
        "tpu.trace_start"() <{level = 10 : i32, message = "qk,kd->qd"}> : () -> ()
        %479 = tpu.matmul %477, %478, %cst_19 {dimension_numbers = #tpu.dot_dimension_numbers<[1], [0], [0], [1], [0, 0, 1, 1], [], []>} : vector<4x1024xf32>, vector<1024x128xf32>, vector<4x128xf32> -> vector<4x128xf32>
        "tpu.trace_stop"() : () -> ()
        %480 = vector.multi_reduction <add>, %477, %cst_18 [1] : vector<4x1024xf32> to vector<4xf32>
        %481 = vector.shape_cast %480 : vector<4xf32> to vector<4x1xf32>
        %482 = arith.subf %471, %473 : vector<4x128xf32>
        %483 = math.exp %482 : vector<4x128xf32>
        %484 = vector.load %9[%c4, %c0, %c0] : memref<8x512x128xf32, #tpu.memory_space<vmem>>, vector<1x4x128xf32>
        %485 = vector.shape_cast %484 : vector<1x4x128xf32> to vector<4x128xf32>
        %486 = arith.select %104, %cst_19, %485 : vector<4x128xf32>
        %487 = arith.mulf %483, %486 : vector<4x128xf32>
        %488 = vector.broadcast %481 : vector<4x1xf32> to vector<4x128xf32>
        %489 = arith.addf %487, %488 : vector<4x128xf32>
        %490 = vector.shape_cast %489 : vector<4x128xf32> to vector<1x4x128xf32>
        tpu.vector_store %9[%c4, %c0, %c0], %490 {strides = array<i32>} : memref<8x512x128xf32, #tpu.memory_space<vmem>>, vector<1x4x128xf32>, 
        %491 = vector.load %13[%c4, %c0, %c0] : memref<8x512x128xf32, #tpu.memory_space<vmem>>, vector<1x4x128xf32>
        %492 = vector.shape_cast %491 : vector<1x4x128xf32> to vector<4x128xf32>
        %493 = arith.select %104, %cst_19, %492 : vector<4x128xf32>
        %494 = arith.mulf %483, %493 : vector<4x128xf32>
        %495 = arith.addf %494, %479 : vector<4x128xf32>
        %496 = vector.shape_cast %495 : vector<4x128xf32> to vector<1x4x128xf32>
        tpu.vector_store %13[%c4, %c0, %c0], %496 {strides = array<i32>} : memref<8x512x128xf32, #tpu.memory_space<vmem>>, vector<1x4x128xf32>, 
        %497 = vector.extract %341[5] : vector<4x1024xf32> from vector<8x4x1024xf32>
        %498 = vector.multi_reduction <maximumf>, %497, %cst_20 [1] : vector<4x1024xf32> to vector<4xf32>
        %499 = vector.shape_cast %498 : vector<4xf32> to vector<4x1xf32>
        %500 = vector.load %11[%c5, %c0, %c0] : memref<8x512x128xf32, #tpu.memory_space<vmem>>, vector<1x4x128xf32>
        %501 = vector.shape_cast %500 : vector<1x4x128xf32> to vector<4x128xf32>
        %502 = arith.select %104, %cst_5, %501 : vector<4x128xf32>
        %503 = vector.broadcast %499 : vector<4x1xf32> to vector<4x128xf32>
        %504 = arith.maximumf %502, %503 : vector<4x128xf32>
        %505 = vector.shape_cast %504 : vector<4x128xf32> to vector<1x4x128xf32>
        tpu.vector_store %11[%c5, %c0, %c0], %505 {strides = array<i32>} : memref<8x512x128xf32, #tpu.memory_space<vmem>>, vector<1x4x128xf32>, 
        %506 = tpu.concatenate %504, %504, %504, %504, %504, %504, %504, %504 in 1 : vector<4x128xf32>, vector<4x128xf32>, vector<4x128xf32>, vector<4x128xf32>, vector<4x128xf32>, vector<4x128xf32>, vector<4x128xf32>, vector<4x128xf32> -> vector<4x1024xf32>
        %507 = arith.subf %497, %506 : vector<4x1024xf32>
        %508 = math.exp %507 : vector<4x1024xf32>
        %509 = vector.extract %317[5] : vector<1024x128xf32> from vector<8x1024x128xf32>
        "tpu.trace_start"() <{level = 10 : i32, message = "qk,kd->qd"}> : () -> ()
        %510 = tpu.matmul %508, %509, %cst_19 {dimension_numbers = #tpu.dot_dimension_numbers<[1], [0], [0], [1], [0, 0, 1, 1], [], []>} : vector<4x1024xf32>, vector<1024x128xf32>, vector<4x128xf32> -> vector<4x128xf32>
        "tpu.trace_stop"() : () -> ()
        %511 = vector.multi_reduction <add>, %508, %cst_18 [1] : vector<4x1024xf32> to vector<4xf32>
        %512 = vector.shape_cast %511 : vector<4xf32> to vector<4x1xf32>
        %513 = arith.subf %502, %504 : vector<4x128xf32>
        %514 = math.exp %513 : vector<4x128xf32>
        %515 = vector.load %9[%c5, %c0, %c0] : memref<8x512x128xf32, #tpu.memory_space<vmem>>, vector<1x4x128xf32>
        %516 = vector.shape_cast %515 : vector<1x4x128xf32> to vector<4x128xf32>
        %517 = arith.select %104, %cst_19, %516 : vector<4x128xf32>
        %518 = arith.mulf %514, %517 : vector<4x128xf32>
        %519 = vector.broadcast %512 : vector<4x1xf32> to vector<4x128xf32>
        %520 = arith.addf %518, %519 : vector<4x128xf32>
        %521 = vector.shape_cast %520 : vector<4x128xf32> to vector<1x4x128xf32>
        tpu.vector_store %9[%c5, %c0, %c0], %521 {strides = array<i32>} : memref<8x512x128xf32, #tpu.memory_space<vmem>>, vector<1x4x128xf32>, 
        %522 = vector.load %13[%c5, %c0, %c0] : memref<8x512x128xf32, #tpu.memory_space<vmem>>, vector<1x4x128xf32>
        %523 = vector.shape_cast %522 : vector<1x4x128xf32> to vector<4x128xf32>
        %524 = arith.select %104, %cst_19, %523 : vector<4x128xf32>
        %525 = arith.mulf %514, %524 : vector<4x128xf32>
        %526 = arith.addf %525, %510 : vector<4x128xf32>
        %527 = vector.shape_cast %526 : vector<4x128xf32> to vector<1x4x128xf32>
        tpu.vector_store %13[%c5, %c0, %c0], %527 {strides = array<i32>} : memref<8x512x128xf32, #tpu.memory_space<vmem>>, vector<1x4x128xf32>, 
        %528 = vector.extract %341[6] : vector<4x1024xf32> from vector<8x4x1024xf32>
        %529 = vector.multi_reduction <maximumf>, %528, %cst_20 [1] : vector<4x1024xf32> to vector<4xf32>
        %530 = vector.shape_cast %529 : vector<4xf32> to vector<4x1xf32>
        %531 = vector.load %11[%c6, %c0, %c0] : memref<8x512x128xf32, #tpu.memory_space<vmem>>, vector<1x4x128xf32>
        %532 = vector.shape_cast %531 : vector<1x4x128xf32> to vector<4x128xf32>
        %533 = arith.select %104, %cst_5, %532 : vector<4x128xf32>
        %534 = vector.broadcast %530 : vector<4x1xf32> to vector<4x128xf32>
        %535 = arith.maximumf %533, %534 : vector<4x128xf32>
        %536 = vector.shape_cast %535 : vector<4x128xf32> to vector<1x4x128xf32>
        tpu.vector_store %11[%c6, %c0, %c0], %536 {strides = array<i32>} : memref<8x512x128xf32, #tpu.memory_space<vmem>>, vector<1x4x128xf32>, 
        %537 = tpu.concatenate %535, %535, %535, %535, %535, %535, %535, %535 in 1 : vector<4x128xf32>, vector<4x128xf32>, vector<4x128xf32>, vector<4x128xf32>, vector<4x128xf32>, vector<4x128xf32>, vector<4x128xf32>, vector<4x128xf32> -> vector<4x1024xf32>
        %538 = arith.subf %528, %537 : vector<4x1024xf32>
        %539 = math.exp %538 : vector<4x1024xf32>
        %540 = vector.extract %317[6] : vector<1024x128xf32> from vector<8x1024x128xf32>
        "tpu.trace_start"() <{level = 10 : i32, message = "qk,kd->qd"}> : () -> ()
        %541 = tpu.matmul %539, %540, %cst_19 {dimension_numbers = #tpu.dot_dimension_numbers<[1], [0], [0], [1], [0, 0, 1, 1], [], []>} : vector<4x1024xf32>, vector<1024x128xf32>, vector<4x128xf32> -> vector<4x128xf32>
        "tpu.trace_stop"() : () -> ()
        %542 = vector.multi_reduction <add>, %539, %cst_18 [1] : vector<4x1024xf32> to vector<4xf32>
        %543 = vector.shape_cast %542 : vector<4xf32> to vector<4x1xf32>
        %544 = arith.subf %533, %535 : vector<4x128xf32>
        %545 = math.exp %544 : vector<4x128xf32>
        %546 = vector.load %9[%c6, %c0, %c0] : memref<8x512x128xf32, #tpu.memory_space<vmem>>, vector<1x4x128xf32>
        %547 = vector.shape_cast %546 : vector<1x4x128xf32> to vector<4x128xf32>
        %548 = arith.select %104, %cst_19, %547 : vector<4x128xf32>
        %549 = arith.mulf %545, %548 : vector<4x128xf32>
        %550 = vector.broadcast %543 : vector<4x1xf32> to vector<4x128xf32>
        %551 = arith.addf %549, %550 : vector<4x128xf32>
        %552 = vector.shape_cast %551 : vector<4x128xf32> to vector<1x4x128xf32>
        tpu.vector_store %9[%c6, %c0, %c0], %552 {strides = array<i32>} : memref<8x512x128xf32, #tpu.memory_space<vmem>>, vector<1x4x128xf32>, 
        %553 = vector.load %13[%c6, %c0, %c0] : memref<8x512x128xf32, #tpu.memory_space<vmem>>, vector<1x4x128xf32>
        %554 = vector.shape_cast %553 : vector<1x4x128xf32> to vector<4x128xf32>
        %555 = arith.select %104, %cst_19, %554 : vector<4x128xf32>
        %556 = arith.mulf %545, %555 : vector<4x128xf32>
        %557 = arith.addf %556, %541 : vector<4x128xf32>
        %558 = vector.shape_cast %557 : vector<4x128xf32> to vector<1x4x128xf32>
        tpu.vector_store %13[%c6, %c0, %c0], %558 {strides = array<i32>} : memref<8x512x128xf32, #tpu.memory_space<vmem>>, vector<1x4x128xf32>, 
        %559 = vector.extract %341[7] : vector<4x1024xf32> from vector<8x4x1024xf32>
        %560 = vector.multi_reduction <maximumf>, %559, %cst_20 [1] : vector<4x1024xf32> to vector<4xf32>
        %561 = vector.shape_cast %560 : vector<4xf32> to vector<4x1xf32>
        %562 = vector.load %11[%c7, %c0, %c0] : memref<8x512x128xf32, #tpu.memory_space<vmem>>, vector<1x4x128xf32>
        %563 = vector.shape_cast %562 : vector<1x4x128xf32> to vector<4x128xf32>
        %564 = arith.select %104, %cst_5, %563 : vector<4x128xf32>
        %565 = vector.broadcast %561 : vector<4x1xf32> to vector<4x128xf32>
        %566 = arith.maximumf %564, %565 : vector<4x128xf32>
        %567 = vector.shape_cast %566 : vector<4x128xf32> to vector<1x4x128xf32>
        tpu.vector_store %11[%c7, %c0, %c0], %567 {strides = array<i32>} : memref<8x512x128xf32, #tpu.memory_space<vmem>>, vector<1x4x128xf32>, 
        %568 = tpu.concatenate %566, %566, %566, %566, %566, %566, %566, %566 in 1 : vector<4x128xf32>, vector<4x128xf32>, vector<4x128xf32>, vector<4x128xf32>, vector<4x128xf32>, vector<4x128xf32>, vector<4x128xf32>, vector<4x128xf32> -> vector<4x1024xf32>
        %569 = arith.subf %559, %568 : vector<4x1024xf32>
        %570 = math.exp %569 : vector<4x1024xf32>
        %571 = vector.extract %317[7] : vector<1024x128xf32> from vector<8x1024x128xf32>
        "tpu.trace_start"() <{level = 10 : i32, message = "qk,kd->qd"}> : () -> ()
        %572 = tpu.matmul %570, %571, %cst_19 {dimension_numbers = #tpu.dot_dimension_numbers<[1], [0], [0], [1], [0, 0, 1, 1], [], []>} : vector<4x1024xf32>, vector<1024x128xf32>, vector<4x128xf32> -> vector<4x128xf32>
        "tpu.trace_stop"() : () -> ()
        %573 = vector.multi_reduction <add>, %570, %cst_18 [1] : vector<4x1024xf32> to vector<4xf32>
        %574 = vector.shape_cast %573 : vector<4xf32> to vector<4x1xf32>
        %575 = arith.subf %564, %566 : vector<4x128xf32>
        %576 = math.exp %575 : vector<4x128xf32>
        %577 = vector.load %9[%c7, %c0, %c0] : memref<8x512x128xf32, #tpu.memory_space<vmem>>, vector<1x4x128xf32>
        %578 = vector.shape_cast %577 : vector<1x4x128xf32> to vector<4x128xf32>
        %579 = arith.select %104, %cst_19, %578 : vector<4x128xf32>
        %580 = arith.mulf %576, %579 : vector<4x128xf32>
        %581 = vector.broadcast %574 : vector<4x1xf32> to vector<4x128xf32>
        %582 = arith.addf %580, %581 : vector<4x128xf32>
        %583 = vector.shape_cast %582 : vector<4x128xf32> to vector<1x4x128xf32>
        tpu.vector_store %9[%c7, %c0, %c0], %583 {strides = array<i32>} : memref<8x512x128xf32, #tpu.memory_space<vmem>>, vector<1x4x128xf32>, 
        %584 = vector.load %13[%c7, %c0, %c0] : memref<8x512x128xf32, #tpu.memory_space<vmem>>, vector<1x4x128xf32>
        %585 = vector.shape_cast %584 : vector<1x4x128xf32> to vector<4x128xf32>
        %586 = arith.select %104, %cst_19, %585 : vector<4x128xf32>
        %587 = arith.mulf %576, %586 : vector<4x128xf32>
        %588 = arith.addf %587, %572 : vector<4x128xf32>
        %589 = vector.shape_cast %588 : vector<4x128xf32> to vector<1x4x128xf32>
        tpu.vector_store %13[%c7, %c0, %c0], %589 {strides = array<i32>} : memref<8x512x128xf32, #tpu.memory_space<vmem>>, vector<1x4x128xf32>, 
      }
      %52 = vector.load %13[%c0, %c0, %c0] : memref<8x512x128xf32, #tpu.memory_space<vmem>>, vector<8x512x128xf32>
      %53 = vector.load %9[%c0, %c0, %c0] : memref<8x512x128xf32, #tpu.memory_space<vmem>>, vector<8x512x128xf32>
      %54 = tpu.reciprocal %53 {approx = true} : vector<8x512x128xf32> -> vector<8x512x128xf32>
      %55 = arith.mulf %52, %54 : vector<8x512x128xf32>
      %56 = arith.truncf %55 : vector<8x512x128xf32> to vector<8x512x128xbf16>
      %57 = memref.load %5[%c2] : memref<128xi32, #tpu.memory_space<smem>>
      %58 = arith.cmpi eq, %57, %c0_i32 : i32
      %59 = arith.extui %58 : i1 to i32
      memref.store %59, %5[%c2] : memref<128xi32, #tpu.memory_space<smem>>
      %60 = arith.index_cast %57 : i32 to index
      %61 = memref.load %6[%60] : memref<128xi32, #tpu.memory_space<smem>>
      %62 = arith.addi %57, %c2_i32 : i32
      %63 = arith.index_cast %62 : i32 to index
      %64 = memref.load %6[%63] : memref<128xi32, #tpu.memory_space<smem>>
      %65 = arith.cmpi sge, %61, %c0_i32 : i32
      %66 = arith.cmpi sle, %61, %arg0 : i32
      %67 = arith.andi %65, %66 : i1
      scf.if %67 {
        %85 = arith.index_cast %61 : i32 to index
        %86 = memref.load %2[%85] : memref<128xi32, #tpu.memory_space<smem>>
        %87 = arith.muli %64, %c128_i32 : i32
        %88 = arith.addi %86, %87 : i32
        %89 = arith.addi %61, %c1_i32 : i32
        %90 = arith.index_cast %89 : i32 to index
        %91 = memref.load %2[%90] : memref<128xi32, #tpu.memory_space<smem>>
        %92 = arith.subi %91, %88 : i32
        %93 = arith.minsi %92, %c128_i32 : i32
        %94 = tpu.memref_slice %arg18[%57, %c0_i32, %c0_i32, %c0_i32, %c0_i32, %c0_i32] : memref<2x8x128x2x2x128xbf16, #tpu.tiled<(2,128)(2,1),[2048,256,2,1,1,1]>, #tpu.memory_space<vmem>> -> memref<1x8x128x2x2x128xbf16, #tpu.tiled<(2,128)(2,1),[2048,256,2,1,1,1]>, #tpu.memory_space<vmem>>
        %95 = tpu.memref_squeeze %94 : memref<1x8x128x2x2x128xbf16, #tpu.tiled<(2,128)(2,1),[2048,256,2,1,1,1]>, #tpu.memory_space<vmem>> -> memref<8x128x2x2x128xbf16, #tpu.tiled<(2,128)(2,1),[256,2,1,1,1]>, #tpu.memory_space<vmem>>
        %96 = tpu.memref_slice %95[%c0_i32, %c0_i32, %c0_i32, %c0_i32, %c0_i32] <%93> : memref<8x128x2x2x128xbf16, #tpu.tiled<(2,128)(2,1),[256,2,1,1,1]>, #tpu.memory_space<vmem>> -> memref<8x?x2x2x128xbf16, #tpu.tiled<(2,128)(2,1),[256,2,1,1,1]>, #tpu.memory_space<vmem>>
        %97 = tpu.erase_memref_layout %96 : memref<8x?x2x2x128xbf16, #tpu.tiled<(2,128)(2,1),[256,2,1,1,1]>, #tpu.memory_space<vmem>> -> memref<8x?x2x2x128xbf16, strided<[65536, 512, 256, 128, 1], offset: ?>, #tpu.memory_space<vmem>>
        %98 = tpu.memref_slice %arg14[%c0_i32, %88, %c0_i32, %c0_i32, %c0_i32] <%93> : memref<8x8192x2x2x128xbf16, #tpu.tiled<(2,128)(2,1),[16384,2,1,1,1]>, #tpu.memory_space<vmem>> -> memref<8x?x2x2x128xbf16, #tpu.tiled<(2,128)(2,1),[16384,2,1,1,1]>, #tpu.memory_space<vmem>>
        %99 = tpu.erase_memref_layout %98 : memref<8x?x2x2x128xbf16, #tpu.tiled<(2,128)(2,1),[16384,2,1,1,1]>, #tpu.memory_space<vmem>> -> memref<8x?x2x2x128xbf16, strided<[4194304, 512, 256, 128, 1], offset: ?>, #tpu.memory_space<vmem>>
        %100 = tpu.memref_slice %arg19[%c2_i32, %57] : memref<5x2x!tpu.dma_semaphore, #tpu.tiled<,[2,1]>, #tpu.memory_space<semaphore_mem>> -> memref<1x1x!tpu.dma_semaphore, #tpu.tiled<,[2,1]>, #tpu.memory_space<semaphore_mem>>
        %101 = tpu.memref_squeeze %100 : memref<1x1x!tpu.dma_semaphore, #tpu.tiled<,[2,1]>, #tpu.memory_space<semaphore_mem>> -> memref<!tpu.dma_semaphore, #tpu.tiled<,[]>, #tpu.memory_space<semaphore_mem>>
        %102 = tpu.erase_memref_layout %101 : memref<!tpu.dma_semaphore, #tpu.tiled<,[]>, #tpu.memory_space<semaphore_mem>> -> memref<!tpu.dma_semaphore, strided<[], offset: ?>, #tpu.memory_space<semaphore_mem>>
        tpu.wait_dma2 semaphore(%102 : memref<!tpu.dma_semaphore, strided<[], offset: ?>, #tpu.memory_space<semaphore_mem>>) src(%97 : memref<8x?x2x2x128xbf16, strided<[65536, 512, 256, 128, 1], offset: ?>, #tpu.memory_space<vmem>>) dst(%99 : memref<8x?x2x2x128xbf16, strided<[4194304, 512, 256, 128, 1], offset: ?>, #tpu.memory_space<vmem>>)
      }
      %68 = tpu.bitcast %56 : vector<8x512x128xbf16> -> vector<8x256x128xi32>
      %69 = tpu.memref_slice %arg18[%57, %c0_i32, %c0_i32, %c0_i32, %c0_i32, %c0_i32] : memref<2x8x128x2x2x128xbf16, #tpu.tiled<(2,128)(2,1),[2048,256,2,1,1,1]>, #tpu.memory_space<vmem>> -> memref<1x8x128x2x2x128xbf16, #tpu.tiled<(2,128)(2,1),[2048,256,2,1,1,1]>, #tpu.memory_space<vmem>>
      %70 = tpu.memref_squeeze %69 : memref<1x8x128x2x2x128xbf16, #tpu.tiled<(2,128)(2,1),[2048,256,2,1,1,1]>, #tpu.memory_space<vmem>> -> memref<8x128x2x2x128xbf16, #tpu.tiled<(2,128)(2,1),[256,2,1,1,1]>, #tpu.memory_space<vmem>>
      %71 = tpu.memref_bitcast %70 : memref<8x128x2x2x128xbf16, #tpu.tiled<(2,128)(2,1),[256,2,1,1,1]>, #tpu.memory_space<vmem>> -> memref<8x128x2x1x128xi32, #tpu.tiled<(1,128),[256,2,1,1,1]>, #tpu.memory_space<vmem>>
      %72 = tpu.memref_reshape %71 : memref<8x128x2x1x128xi32, #tpu.tiled<(1,128),[256,2,1,1,1]>, #tpu.memory_space<vmem>> -> memref<8x256x128xi32, #tpu.tiled<(1,128),[256,1,1]>, #tpu.memory_space<vmem>>
      %73 = tpu.erase_memref_layout %72 : memref<8x256x128xi32, #tpu.tiled<(1,128),[256,1,1]>, #tpu.memory_space<vmem>> -> memref<8x256x128xi32, #tpu.memory_space<vmem>>
      tpu.vector_store %73[%c0, %c0, %c0], %68 {strides = array<i32>} : memref<8x256x128xi32, #tpu.memory_space<vmem>>, vector<8x256x128xi32>, 
      memref.store %arg0, %6[%60] : memref<128xi32, #tpu.memory_space<smem>>
      memref.store %c0_i32, %6[%63] : memref<128xi32, #tpu.memory_space<smem>>
      %74 = memref.load %2[%18] : memref<128xi32, #tpu.memory_space<smem>>
      %75 = memref.load %2[%21] : memref<128xi32, #tpu.memory_space<smem>>
      %76 = arith.subi %75, %74 : i32
      %77 = arith.minsi %76, %c128_i32 : i32
      %78 = tpu.memref_slice %70[%c0_i32, %c0_i32, %c0_i32, %c0_i32, %c0_i32] <%77> : memref<8x128x2x2x128xbf16, #tpu.tiled<(2,128)(2,1),[256,2,1,1,1]>, #tpu.memory_space<vmem>> -> memref<8x?x2x2x128xbf16, #tpu.tiled<(2,128)(2,1),[256,2,1,1,1]>, #tpu.memory_space<vmem>>
      %79 = tpu.erase_memref_layout %78 : memref<8x?x2x2x128xbf16, #tpu.tiled<(2,128)(2,1),[256,2,1,1,1]>, #tpu.memory_space<vmem>> -> memref<8x?x2x2x128xbf16, strided<[65536, 512, 256, 128, 1], offset: ?>, #tpu.memory_space<vmem>>
      %80 = tpu.memref_slice %arg14[%c0_i32, %74, %c0_i32, %c0_i32, %c0_i32] <%77> : memref<8x8192x2x2x128xbf16, #tpu.tiled<(2,128)(2,1),[16384,2,1,1,1]>, #tpu.memory_space<vmem>> -> memref<8x?x2x2x128xbf16, #tpu.tiled<(2,128)(2,1),[16384,2,1,1,1]>, #tpu.memory_space<vmem>>
      %81 = tpu.erase_memref_layout %80 : memref<8x?x2x2x128xbf16, #tpu.tiled<(2,128)(2,1),[16384,2,1,1,1]>, #tpu.memory_space<vmem>> -> memref<8x?x2x2x128xbf16, strided<[4194304, 512, 256, 128, 1], offset: ?>, #tpu.memory_space<vmem>>
      %82 = tpu.memref_slice %arg19[%c2_i32, %57] : memref<5x2x!tpu.dma_semaphore, #tpu.tiled<,[2,1]>, #tpu.memory_space<semaphore_mem>> -> memref<1x1x!tpu.dma_semaphore, #tpu.tiled<,[2,1]>, #tpu.memory_space<semaphore_mem>>
      %83 = tpu.memref_squeeze %82 : memref<1x1x!tpu.dma_semaphore, #tpu.tiled<,[2,1]>, #tpu.memory_space<semaphore_mem>> -> memref<!tpu.dma_semaphore, #tpu.tiled<,[]>, #tpu.memory_space<semaphore_mem>>
      %84 = tpu.erase_memref_layout %83 : memref<!tpu.dma_semaphore, #tpu.tiled<,[]>, #tpu.memory_space<semaphore_mem>> -> memref<!tpu.dma_semaphore, strided<[], offset: ?>, #tpu.memory_space<semaphore_mem>>
      tpu.enqueue_dma source(%79 : memref<8x?x2x2x128xbf16, strided<[65536, 512, 256, 128, 1], offset: ?>, #tpu.memory_space<vmem>>) target(%81 : memref<8x?x2x2x128xbf16, strided<[4194304, 512, 256, 128, 1], offset: ?>, #tpu.memory_space<vmem>>) target_semaphore(%84 : memref<!tpu.dma_semaphore, strided<[], offset: ?>, #tpu.memory_space<semaphore_mem>>)
    }
    %27 = arith.cmpi sle, %15, %arg0 : i32
    %28 = arith.cmpi slt, %arg0, %16 : i32
    %29 = arith.andi %27, %28 : i1
    scf.if %29 {
      %35 = arith.addi %24, %c1023_i32 : i32
      %36 = arith.divsi %35, %c1024_i32 : i32
      %37 = arith.cmpi sgt, %35, %c0_i32 : i32
      %38 = arith.extui %37 : i1 to i32
      %39 = arith.cmpi slt, %35, %c0_i32 : i32
      %40 = arith.extui %39 : i1 to i32
      %41 = arith.subi %38, %40 : i32
      %42 = arith.cmpi ne, %41, %c1_i32 : i32
      %43 = arith.remsi %35, %c1024_i32 : i32
      %44 = arith.cmpi ne, %43, %c0_i32 : i32
      %45 = arith.andi %42, %44 : i1
      %46 = arith.subi %36, %c1_i32 : i32
      %47 = arith.select %45, %46, %36 : i32
      %48 = arith.addi %23, %c127_i32 : i32
      %49 = arith.divsi %48, %c128_i32 : i32
      %50 = arith.cmpi sgt, %48, %c0_i32 : i32
      %51 = arith.extui %50 : i1 to i32
      %52 = arith.cmpi slt, %48, %c0_i32 : i32
      %53 = arith.extui %52 : i1 to i32
      %54 = arith.subi %51, %53 : i32
      %55 = arith.cmpi ne, %54, %c1_i32 : i32
      %56 = arith.remsi %48, %c128_i32 : i32
      %57 = arith.cmpi ne, %56, %c0_i32 : i32
      %58 = arith.andi %55, %57 : i1
      %59 = arith.subi %49, %c1_i32 : i32
      %60 = arith.select %58, %59, %49 : i32
      scf.for %arg23 = %c0_i32 to %60 step %c1_i32  : i32 {
        %61 = memref.load %5[%c0] : memref<128xi32, #tpu.memory_space<smem>>
        %62 = arith.addi %arg23, %c1_i32 : i32
        %63 = arith.cmpi eq, %62, %60 : i32
        %64 = arith.select %63, %c0_i32, %62 : i32
        %65 = arith.select %63, %20, %arg0 : i32
        %66 = arith.cmpi eq, %61, %c0_i32 : i32
        %67 = arith.extui %66 : i1 to i32
        %68 = arith.cmpi slt, %65, %14 : i32
        scf.if %68 {
          memref.store %67, %5[%c0] : memref<128xi32, #tpu.memory_space<smem>>
          %104 = arith.index_cast %65 : i32 to index
          %105 = memref.load %2[%104] : memref<128xi32, #tpu.memory_space<smem>>
          %106 = arith.muli %64, %c128_i32 : i32
          %107 = arith.addi %105, %106 : i32
          %108 = arith.addi %65, %c1_i32 : i32
          %109 = arith.index_cast %108 : i32 to index
          %110 = memref.load %2[%109] : memref<128xi32, #tpu.memory_space<smem>>
          %111 = arith.subi %110, %107 : i32
          %112 = arith.minsi %111, %c128_i32 : i32
          %113 = tpu.memref_slice %arg10[%c0_i32, %107, %c0_i32, %c0_i32, %c0_i32] <%112> : memref<8x8192x2x2x128xbf16, #tpu.tiled<(2,128)(2,1),[16384,2,1,1,1]>, #tpu.memory_space<vmem>> -> memref<8x?x2x2x128xbf16, #tpu.tiled<(2,128)(2,1),[16384,2,1,1,1]>, #tpu.memory_space<vmem>>
          %114 = tpu.erase_memref_layout %113 : memref<8x?x2x2x128xbf16, #tpu.tiled<(2,128)(2,1),[16384,2,1,1,1]>, #tpu.memory_space<vmem>> -> memref<8x?x2x2x128xbf16, strided<[4194304, 512, 256, 128, 1], offset: ?>, #tpu.memory_space<vmem>>
          %115 = tpu.memref_slice %arg17[%67, %c0_i32, %c0_i32, %c0_i32, %c0_i32, %c0_i32] : memref<2x8x128x2x2x128xbf16, #tpu.tiled<(2,128)(2,1),[2048,256,2,1,1,1]>, #tpu.memory_space<vmem>> -> memref<1x8x128x2x2x128xbf16, #tpu.tiled<(2,128)(2,1),[2048,256,2,1,1,1]>, #tpu.memory_space<vmem>>
          %116 = tpu.memref_squeeze %115 : memref<1x8x128x2x2x128xbf16, #tpu.tiled<(2,128)(2,1),[2048,256,2,1,1,1]>, #tpu.memory_space<vmem>> -> memref<8x128x2x2x128xbf16, #tpu.tiled<(2,128)(2,1),[256,2,1,1,1]>, #tpu.memory_space<vmem>>
          %117 = tpu.memref_slice %116[%c0_i32, %c0_i32, %c0_i32, %c0_i32, %c0_i32] <%112> : memref<8x128x2x2x128xbf16, #tpu.tiled<(2,128)(2,1),[256,2,1,1,1]>, #tpu.memory_space<vmem>> -> memref<8x?x2x2x128xbf16, #tpu.tiled<(2,128)(2,1),[256,2,1,1,1]>, #tpu.memory_space<vmem>>
          %118 = tpu.erase_memref_layout %117 : memref<8x?x2x2x128xbf16, #tpu.tiled<(2,128)(2,1),[256,2,1,1,1]>, #tpu.memory_space<vmem>> -> memref<8x?x2x2x128xbf16, strided<[65536, 512, 256, 128, 1], offset: ?>, #tpu.memory_space<vmem>>
          %119 = tpu.memref_slice %arg19[%c1_i32, %67] : memref<5x2x!tpu.dma_semaphore, #tpu.tiled<,[2,1]>, #tpu.memory_space<semaphore_mem>> -> memref<1x1x!tpu.dma_semaphore, #tpu.tiled<,[2,1]>, #tpu.memory_space<semaphore_mem>>
          %120 = tpu.memref_squeeze %119 : memref<1x1x!tpu.dma_semaphore, #tpu.tiled<,[2,1]>, #tpu.memory_space<semaphore_mem>> -> memref<!tpu.dma_semaphore, #tpu.tiled<,[]>, #tpu.memory_space<semaphore_mem>>
          %121 = tpu.erase_memref_layout %120 : memref<!tpu.dma_semaphore, #tpu.tiled<,[]>, #tpu.memory_space<semaphore_mem>> -> memref<!tpu.dma_semaphore, strided<[], offset: ?>, #tpu.memory_space<semaphore_mem>>
          tpu.enqueue_dma source(%114 : memref<8x?x2x2x128xbf16, strided<[4194304, 512, 256, 128, 1], offset: ?>, #tpu.memory_space<vmem>>) target(%118 : memref<8x?x2x2x128xbf16, strided<[65536, 512, 256, 128, 1], offset: ?>, #tpu.memory_space<vmem>>) target_semaphore(%121 : memref<!tpu.dma_semaphore, strided<[], offset: ?>, #tpu.memory_space<semaphore_mem>>)
        }
        scf.for %arg24 = %c0_i32 to %47 step %c1_i32  : i32 {
          %104 = arith.muli %arg24, %c1024_i32 : i32
          %105 = arith.subi %24, %104 : i32
          %106 = arith.minsi %105, %c1024_i32 : i32
          %107 = tpu.iota {dimensions = array<i32: 0>} : vector<1024x128xi32>
          %108 = vector.broadcast %106 : i32 to vector<1024x128xi32>
          %109 = arith.cmpi slt, %107, %108 : vector<1024x128xi32>
          %110 = arith.select %109, %cst_13, %cst_12 : vector<1024x128xi1>, vector<1024x128xi32>
          %111 = arith.trunci %110 : vector<1024x128xi32> to vector<1024x128xi16>
          %112 = tpu.bitcast %111 : vector<1024x128xi16> -> vector<512x128xi32>
          %113 = memref.load %5[%c1] : memref<128xi32, #tpu.memory_space<smem>>
          %114 = arith.addi %arg24, %c1_i32 : i32
          %115 = arith.cmpi eq, %114, %47 : i32
          %116 = arith.select %115, %c0_i32, %114 : i32
          %117 = arith.select %115, %62, %arg23 : i32
          %118 = arith.cmpi eq, %117, %60 : i32
          %119 = arith.select %118, %20, %arg0 : i32
          %120 = arith.cmpi eq, %113, %c0_i32 : i32
          %121 = arith.extui %120 : i1 to i32
          %122 = arith.cmpi slt, %119, %14 : i32
          scf.if %122 {
            memref.store %121, %5[%c1] : memref<128xi32, #tpu.memory_space<smem>>
            %613 = arith.index_cast %119 : i32 to index
            %614 = memref.load %0[%613] : memref<128xi32, #tpu.memory_space<smem>>
            %615 = arith.muli %116, %c1024_i32 : i32
            %616 = arith.muli %116, %c8_i32 : i32
            %617 = memref.load %2[%613] : memref<128xi32, #tpu.memory_space<smem>>
            %618 = arith.addi %119, %c1_i32 : i32
            %619 = arith.index_cast %618 : i32 to index
            %620 = memref.load %2[%619] : memref<128xi32, #tpu.memory_space<smem>>
            %621 = arith.subi %620, %617 : i32
            %622 = arith.subi %614, %615 : i32
            %623 = arith.subi %622, %621 : i32
            %624 = arith.maxsi %623, %c0_i32 : i32
            %625 = arith.subi %622, %624 : i32
            %626 = arith.addi %624, %c127_i32 : i32
            %627 = arith.divsi %626, %c128_i32 : i32
            %628 = arith.cmpi sgt, %626, %c0_i32 : i32
            %629 = arith.extui %628 : i1 to i32
            %630 = arith.cmpi slt, %626, %c0_i32 : i32
            %631 = arith.extui %630 : i1 to i32
            %632 = arith.subi %629, %631 : i32
            %633 = arith.cmpi ne, %632, %c1_i32 : i32
            %634 = arith.remsi %626, %c128_i32 : i32
            %635 = arith.cmpi ne, %634, %c0_i32 : i32
            %636 = arith.andi %633, %635 : i1
            %637 = arith.subi %627, %c1_i32 : i32
            %638 = arith.select %636, %637, %627 : i32
            %639 = arith.minsi %638, %c8_i32 : i32
            %640 = arith.subi %c1024_i32, %624 : i32
            %641 = arith.maxsi %640, %c0_i32 : i32
            %642 = arith.minsi %641, %625 : i32
            %643 = memref.load %3[%613] : memref<128xi32, #tpu.memory_space<smem>>
            %644 = arith.addi %643, %c127_i32 : i32
            %645 = arith.divsi %644, %c128_i32 : i32
            %646 = arith.cmpi sgt, %644, %c0_i32 : i32
            %647 = arith.extui %646 : i1 to i32
            %648 = arith.cmpi slt, %644, %c0_i32 : i32
            %649 = arith.extui %648 : i1 to i32
            %650 = arith.subi %647, %649 : i32
            %651 = arith.cmpi ne, %650, %c1_i32 : i32
            %652 = arith.remsi %644, %c128_i32 : i32
            %653 = arith.cmpi ne, %652, %c0_i32 : i32
            %654 = arith.andi %651, %653 : i1
            %655 = arith.subi %645, %c1_i32 : i32
            %656 = arith.select %654, %655, %645 : i32
            %657 = arith.addi %656, %616 : i32
            %658 = arith.addi %121, %c4_i32 : i32
            %659 = arith.index_cast %658 : i32 to index
            %660 = memref.load %7[%659] : memref<128xi32, #tpu.memory_space<smem>>
            %661 = arith.cmpi sgt, %660, %c0_i32 : i32
            scf.if %661 {
              %664 = arith.index_cast %121 : i32 to index
              %665 = memref.load %7[%664] : memref<128xi32, #tpu.memory_space<smem>>
              %666 = arith.addi %121, %c2_i32 : i32
              %667 = arith.index_cast %666 : i32 to index
              %668 = memref.load %7[%667] : memref<128xi32, #tpu.memory_space<smem>>
              memref.store %c0_i32, %7[%659] : memref<128xi32, #tpu.memory_space<smem>>
              %669 = arith.divsi %668, %c1024_i32 : i32
              %670 = arith.cmpi sgt, %668, %c0_i32 : i32
              %671 = arith.extui %670 : i1 to i32
              %672 = arith.cmpi slt, %668, %c0_i32 : i32
              %673 = arith.extui %672 : i1 to i32
              %674 = arith.subi %671, %673 : i32
              %675 = arith.cmpi ne, %674, %c1_i32 : i32
              %676 = arith.remsi %668, %c1024_i32 : i32
              %677 = arith.cmpi ne, %676, %c0_i32 : i32
              %678 = arith.andi %675, %677 : i1
              %679 = arith.subi %669, %c1_i32 : i32
              %680 = arith.select %678, %679, %669 : i32
              %681 = arith.divsi %668, %c128_i32 : i32
              %682 = arith.remsi %668, %c128_i32 : i32
              %683 = arith.cmpi ne, %682, %c0_i32 : i32
              %684 = arith.andi %675, %683 : i1
              %685 = arith.subi %681, %c1_i32 : i32
              %686 = arith.select %684, %685, %681 : i32
              %687 = arith.addi %668, %660 : i32
              %688 = arith.addi %687, %c127_i32 : i32
              %689 = arith.divsi %688, %c128_i32 : i32
              %690 = arith.cmpi sgt, %688, %c0_i32 : i32
              %691 = arith.extui %690 : i1 to i32
              %692 = arith.cmpi slt, %688, %c0_i32 : i32
              %693 = arith.extui %692 : i1 to i32
              %694 = arith.subi %691, %693 : i32
              %695 = arith.cmpi ne, %694, %c1_i32 : i32
              %696 = arith.remsi %688, %c128_i32 : i32
              %697 = arith.cmpi ne, %696, %c0_i32 : i32
              %698 = arith.andi %695, %697 : i1
              %699 = arith.subi %689, %c1_i32 : i32
              %700 = arith.select %698, %699, %689 : i32
              %701 = arith.cmpi slt, %682, %c0_i32 : i32
              %702 = arith.andi %701, %683 : i1
              %703 = arith.addi %682, %c128_i32 : i32
              %704 = arith.select %702, %703, %682 : i32
              %705 = arith.muli %680, %c8_i32 : i32
              %706 = arith.subi %686, %705 : i32
              %707 = arith.index_cast %665 : i32 to index
              %708 = memref.load %3[%707] : memref<128xi32, #tpu.memory_space<smem>>
              %709 = arith.addi %708, %c127_i32 : i32
              %710 = arith.divsi %709, %c128_i32 : i32
              %711 = arith.cmpi sgt, %709, %c0_i32 : i32
              %712 = arith.extui %711 : i1 to i32
              %713 = arith.cmpi slt, %709, %c0_i32 : i32
              %714 = arith.extui %713 : i1 to i32
              %715 = arith.subi %712, %714 : i32
              %716 = arith.cmpi ne, %715, %c1_i32 : i32
              %717 = arith.remsi %709, %c128_i32 : i32
              %718 = arith.cmpi ne, %717, %c0_i32 : i32
              %719 = arith.andi %716, %718 : i1
              %720 = arith.subi %710, %c1_i32 : i32
              %721 = arith.select %719, %720, %710 : i32
              %722 = arith.addi %721, %686 : i32
              %723 = arith.subi %700, %686 : i32
              %724:2 = scf.for %arg25 = %c0_i32 to %723 step %c1_i32 iter_args(%arg26 = %660, %arg27 = %704) -> (i32, i32)  : i32 {
                %725 = arith.subi %c128_i32, %arg27 : i32
                %726 = arith.minsi %725, %arg26 : i32
                %727 = arith.addi %706, %arg25 : i32
                %728 = arith.muli %727, %c128_i32 : i32
                %729 = arith.addi %728, %arg27 : i32
                %730 = arith.addi %722, %arg25 : i32
                %731 = arith.index_cast %730 : i32 to index
                %732 = memref.load %1[%731] : memref<2048xi32, #tpu.memory_space<smem>>
                %733 = arith.muli %732, %c128_i32 : i32
                %734 = arith.addi %733, %arg27 : i32
                %735 = tpu.memref_slice %arg16[%121, %c0_i32, %c0_i32, %c0_i32, %c0_i32] : memref<2x1024x8x2x128xbf16, #tpu.tiled<(2,128)(2,1),[8192,8,1,1,1]>, #tpu.memory_space<vmem>> -> memref<1x1024x8x2x128xbf16, #tpu.tiled<(2,128)(2,1),[8192,8,1,1,1]>, #tpu.memory_space<vmem>>
                %736 = tpu.memref_squeeze %735 : memref<1x1024x8x2x128xbf16, #tpu.tiled<(2,128)(2,1),[8192,8,1,1,1]>, #tpu.memory_space<vmem>> -> memref<1024x8x2x128xbf16, #tpu.tiled<(2,128)(2,1),[8,1,1,1]>, #tpu.memory_space<vmem>>
                %737 = tpu.memref_slice %736[%729, %c0_i32, %c0_i32, %c0_i32] <%726> : memref<1024x8x2x128xbf16, #tpu.tiled<(2,128)(2,1),[8,1,1,1]>, #tpu.memory_space<vmem>> -> memref<?x8x2x128xbf16, #tpu.tiled<(2,128)(2,1),[8,1,1,1]>, #tpu.memory_space<vmem>>
                %738 = tpu.erase_memref_layout %737 : memref<?x8x2x128xbf16, #tpu.tiled<(2,128)(2,1),[8,1,1,1]>, #tpu.memory_space<vmem>> -> memref<?x8x2x128xbf16, strided<[2048, 256, 128, 1], offset: ?>, #tpu.memory_space<vmem>>
                %739 = tpu.memref_reshape %arg15 : memref<4688x128x8x2x128xbf16, #tpu.tiled<(2,128)(2,1),[1024,8,1,1,1]>, #tpu.memory_space<hbm>> -> memref<600064x8x2x128xbf16, #tpu.tiled<(2,128)(2,1),[8,1,1,1]>, #tpu.memory_space<hbm>>
                %740 = tpu.memref_slice %739[%734, %c0_i32, %c0_i32, %c0_i32] <%726> : memref<600064x8x2x128xbf16, #tpu.tiled<(2,128)(2,1),[8,1,1,1]>, #tpu.memory_space<hbm>> -> memref<?x8x2x128xbf16, #tpu.tiled<(2,128)(2,1),[8,1,1,1]>, #tpu.memory_space<hbm>>
                %741 = tpu.erase_memref_layout %740 : memref<?x8x2x128xbf16, #tpu.tiled<(2,128)(2,1),[8,1,1,1]>, #tpu.memory_space<hbm>> -> memref<?x8x2x128xbf16, strided<[2048, 256, 128, 1], offset: ?>, #tpu.memory_space<hbm>>
                %742 = tpu.memref_slice %arg19[%c3_i32, %121] : memref<5x2x!tpu.dma_semaphore, #tpu.tiled<,[2,1]>, #tpu.memory_space<semaphore_mem>> -> memref<1x1x!tpu.dma_semaphore, #tpu.tiled<,[2,1]>, #tpu.memory_space<semaphore_mem>>
                %743 = tpu.memref_squeeze %742 : memref<1x1x!tpu.dma_semaphore, #tpu.tiled<,[2,1]>, #tpu.memory_space<semaphore_mem>> -> memref<!tpu.dma_semaphore, #tpu.tiled<,[]>, #tpu.memory_space<semaphore_mem>>
                %744 = tpu.erase_memref_layout %743 : memref<!tpu.dma_semaphore, #tpu.tiled<,[]>, #tpu.memory_space<semaphore_mem>> -> memref<!tpu.dma_semaphore, strided<[], offset: ?>, #tpu.memory_space<semaphore_mem>>
                tpu.wait_dma2 semaphore(%744 : memref<!tpu.dma_semaphore, strided<[], offset: ?>, #tpu.memory_space<semaphore_mem>>) src(%738 : memref<?x8x2x128xbf16, strided<[2048, 256, 128, 1], offset: ?>, #tpu.memory_space<vmem>>) dst(%741 : memref<?x8x2x128xbf16, strided<[2048, 256, 128, 1], offset: ?>, #tpu.memory_space<hbm>>)
                %745 = arith.subi %arg26, %726 : i32
                scf.yield %745, %c0_i32 : i32, i32
              }
            }
            %662 = scf.for %arg25 = %c0_i32 to %639 step %c1_i32 iter_args(%arg26 = %c0_i32) -> (i32)  : i32 {
              %664 = arith.muli %arg25, %c128_i32 : i32
              %665 = arith.subi %624, %664 : i32
              %666 = arith.minsi %665, %c128_i32 : i32
              %667 = arith.addi %657, %arg25 : i32
              %668 = arith.index_cast %667 : i32 to index
              %669 = memref.load %1[%668] : memref<2048xi32, #tpu.memory_space<smem>>
              %670 = arith.muli %669, %c128_i32 : i32
              %671 = tpu.memref_reshape %arg12 : memref<4688x128x8x2x128xbf16, #tpu.tiled<(2,128)(2,1),[1024,8,1,1,1]>, #tpu.memory_space<hbm>> -> memref<600064x8x2x128xbf16, #tpu.tiled<(2,128)(2,1),[8,1,1,1]>, #tpu.memory_space<hbm>>
              %672 = tpu.memref_slice %671[%670, %c0_i32, %c0_i32, %c0_i32] <%666> : memref<600064x8x2x128xbf16, #tpu.tiled<(2,128)(2,1),[8,1,1,1]>, #tpu.memory_space<hbm>> -> memref<?x8x2x128xbf16, #tpu.tiled<(2,128)(2,1),[8,1,1,1]>, #tpu.memory_space<hbm>>
              %673 = tpu.erase_memref_layout %672 : memref<?x8x2x128xbf16, #tpu.tiled<(2,128)(2,1),[8,1,1,1]>, #tpu.memory_space<hbm>> -> memref<?x8x2x128xbf16, strided<[2048, 256, 128, 1], offset: ?>, #tpu.memory_space<hbm>>
              %674 = tpu.memref_slice %arg16[%121, %c0_i32, %c0_i32, %c0_i32, %c0_i32] : memref<2x1024x8x2x128xbf16, #tpu.tiled<(2,128)(2,1),[8192,8,1,1,1]>, #tpu.memory_space<vmem>> -> memref<1x1024x8x2x128xbf16, #tpu.tiled<(2,128)(2,1),[8192,8,1,1,1]>, #tpu.memory_space<vmem>>
              %675 = tpu.memref_squeeze %674 : memref<1x1024x8x2x128xbf16, #tpu.tiled<(2,128)(2,1),[8192,8,1,1,1]>, #tpu.memory_space<vmem>> -> memref<1024x8x2x128xbf16, #tpu.tiled<(2,128)(2,1),[8,1,1,1]>, #tpu.memory_space<vmem>>
              %676 = tpu.memref_slice %675[%664, %c0_i32, %c0_i32, %c0_i32] <%666> : memref<1024x8x2x128xbf16, #tpu.tiled<(2,128)(2,1),[8,1,1,1]>, #tpu.memory_space<vmem>> -> memref<?x8x2x128xbf16, #tpu.tiled<(2,128)(2,1),[8,1,1,1]>, #tpu.memory_space<vmem>>
              %677 = tpu.erase_memref_layout %676 : memref<?x8x2x128xbf16, #tpu.tiled<(2,128)(2,1),[8,1,1,1]>, #tpu.memory_space<vmem>> -> memref<?x8x2x128xbf16, strided<[2048, 256, 128, 1], offset: ?>, #tpu.memory_space<vmem>>
              %678 = tpu.memref_slice %arg19[%c0_i32, %121] : memref<5x2x!tpu.dma_semaphore, #tpu.tiled<,[2,1]>, #tpu.memory_space<semaphore_mem>> -> memref<1x1x!tpu.dma_semaphore, #tpu.tiled<,[2,1]>, #tpu.memory_space<semaphore_mem>>
              %679 = tpu.memref_squeeze %678 : memref<1x1x!tpu.dma_semaphore, #tpu.tiled<,[2,1]>, #tpu.memory_space<semaphore_mem>> -> memref<!tpu.dma_semaphore, #tpu.tiled<,[]>, #tpu.memory_space<semaphore_mem>>
              %680 = tpu.erase_memref_layout %679 : memref<!tpu.dma_semaphore, #tpu.tiled<,[]>, #tpu.memory_space<semaphore_mem>> -> memref<!tpu.dma_semaphore, strided<[], offset: ?>, #tpu.memory_space<semaphore_mem>>
              tpu.enqueue_dma source(%673 : memref<?x8x2x128xbf16, strided<[2048, 256, 128, 1], offset: ?>, #tpu.memory_space<hbm>>) target(%677 : memref<?x8x2x128xbf16, strided<[2048, 256, 128, 1], offset: ?>, #tpu.memory_space<vmem>>) target_semaphore(%680 : memref<!tpu.dma_semaphore, strided<[], offset: ?>, #tpu.memory_space<semaphore_mem>>)
              %681 = arith.addi %arg26, %666 : i32
              scf.yield %681 : i32
            }
            %663 = arith.cmpi sgt, %642, %c0_i32 : i32
            scf.if %663 {
              %664 = arith.subi %620, %625 : i32
              %665 = tpu.memref_slice %arg11[%664, %c0_i32, %c0_i32, %c0_i32] <%642> : memref<8192x8x2x128xbf16, #tpu.tiled<(2,128)(2,1),[8,1,1,1]>, #tpu.memory_space<hbm>> -> memref<?x8x2x128xbf16, #tpu.tiled<(2,128)(2,1),[8,1,1,1]>, #tpu.memory_space<hbm>>
              %666 = tpu.erase_memref_layout %665 : memref<?x8x2x128xbf16, #tpu.tiled<(2,128)(2,1),[8,1,1,1]>, #tpu.memory_space<hbm>> -> memref<?x8x2x128xbf16, strided<[2048, 256, 128, 1], offset: ?>, #tpu.memory_space<hbm>>
              %667 = tpu.memref_slice %arg16[%121, %c0_i32, %c0_i32, %c0_i32, %c0_i32] : memref<2x1024x8x2x128xbf16, #tpu.tiled<(2,128)(2,1),[8192,8,1,1,1]>, #tpu.memory_space<vmem>> -> memref<1x1024x8x2x128xbf16, #tpu.tiled<(2,128)(2,1),[8192,8,1,1,1]>, #tpu.memory_space<vmem>>
              %668 = tpu.memref_squeeze %667 : memref<1x1024x8x2x128xbf16, #tpu.tiled<(2,128)(2,1),[8192,8,1,1,1]>, #tpu.memory_space<vmem>> -> memref<1024x8x2x128xbf16, #tpu.tiled<(2,128)(2,1),[8,1,1,1]>, #tpu.memory_space<vmem>>
              %669 = tpu.memref_slice %668[%662, %c0_i32, %c0_i32, %c0_i32] <%642> : memref<1024x8x2x128xbf16, #tpu.tiled<(2,128)(2,1),[8,1,1,1]>, #tpu.memory_space<vmem>> -> memref<?x8x2x128xbf16, #tpu.tiled<(2,128)(2,1),[8,1,1,1]>, #tpu.memory_space<vmem>>
              %670 = tpu.erase_memref_layout %669 : memref<?x8x2x128xbf16, #tpu.tiled<(2,128)(2,1),[8,1,1,1]>, #tpu.memory_space<vmem>> -> memref<?x8x2x128xbf16, strided<[2048, 256, 128, 1], offset: ?>, #tpu.memory_space<vmem>>
              %671 = tpu.memref_slice %arg19[%c0_i32, %121] : memref<5x2x!tpu.dma_semaphore, #tpu.tiled<,[2,1]>, #tpu.memory_space<semaphore_mem>> -> memref<1x1x!tpu.dma_semaphore, #tpu.tiled<,[2,1]>, #tpu.memory_space<semaphore_mem>>
              %672 = tpu.memref_squeeze %671 : memref<1x1x!tpu.dma_semaphore, #tpu.tiled<,[2,1]>, #tpu.memory_space<semaphore_mem>> -> memref<!tpu.dma_semaphore, #tpu.tiled<,[]>, #tpu.memory_space<semaphore_mem>>
              %673 = tpu.erase_memref_layout %672 : memref<!tpu.dma_semaphore, #tpu.tiled<,[]>, #tpu.memory_space<semaphore_mem>> -> memref<!tpu.dma_semaphore, strided<[], offset: ?>, #tpu.memory_space<semaphore_mem>>
              tpu.enqueue_dma source(%666 : memref<?x8x2x128xbf16, strided<[2048, 256, 128, 1], offset: ?>, #tpu.memory_space<hbm>>) target(%670 : memref<?x8x2x128xbf16, strided<[2048, 256, 128, 1], offset: ?>, #tpu.memory_space<vmem>>) target_semaphore(%673 : memref<!tpu.dma_semaphore, strided<[], offset: ?>, #tpu.memory_space<semaphore_mem>>)
            }
          }
          %123 = arith.cmpi eq, %arg24, %c0_i32 : i32
          scf.if %123 {
            %613 = memref.load %2[%18] : memref<128xi32, #tpu.memory_space<smem>>
            %614 = arith.muli %arg23, %c128_i32 : i32
            %615 = arith.addi %613, %614 : i32
            %616 = memref.load %2[%21] : memref<128xi32, #tpu.memory_space<smem>>
            %617 = arith.subi %616, %615 : i32
            %618 = arith.minsi %617, %c128_i32 : i32
            %619 = tpu.memref_slice %arg10[%c0_i32, %615, %c0_i32, %c0_i32, %c0_i32] <%618> : memref<8x8192x2x2x128xbf16, #tpu.tiled<(2,128)(2,1),[16384,2,1,1,1]>, #tpu.memory_space<vmem>> -> memref<8x?x2x2x128xbf16, #tpu.tiled<(2,128)(2,1),[16384,2,1,1,1]>, #tpu.memory_space<vmem>>
            %620 = tpu.erase_memref_layout %619 : memref<8x?x2x2x128xbf16, #tpu.tiled<(2,128)(2,1),[16384,2,1,1,1]>, #tpu.memory_space<vmem>> -> memref<8x?x2x2x128xbf16, strided<[4194304, 512, 256, 128, 1], offset: ?>, #tpu.memory_space<vmem>>
            %621 = tpu.memref_slice %arg17[%61, %c0_i32, %c0_i32, %c0_i32, %c0_i32, %c0_i32] : memref<2x8x128x2x2x128xbf16, #tpu.tiled<(2,128)(2,1),[2048,256,2,1,1,1]>, #tpu.memory_space<vmem>> -> memref<1x8x128x2x2x128xbf16, #tpu.tiled<(2,128)(2,1),[2048,256,2,1,1,1]>, #tpu.memory_space<vmem>>
            %622 = tpu.memref_squeeze %621 : memref<1x8x128x2x2x128xbf16, #tpu.tiled<(2,128)(2,1),[2048,256,2,1,1,1]>, #tpu.memory_space<vmem>> -> memref<8x128x2x2x128xbf16, #tpu.tiled<(2,128)(2,1),[256,2,1,1,1]>, #tpu.memory_space<vmem>>
            %623 = tpu.memref_slice %622[%c0_i32, %c0_i32, %c0_i32, %c0_i32, %c0_i32] <%618> : memref<8x128x2x2x128xbf16, #tpu.tiled<(2,128)(2,1),[256,2,1,1,1]>, #tpu.memory_space<vmem>> -> memref<8x?x2x2x128xbf16, #tpu.tiled<(2,128)(2,1),[256,2,1,1,1]>, #tpu.memory_space<vmem>>
            %624 = tpu.erase_memref_layout %623 : memref<8x?x2x2x128xbf16, #tpu.tiled<(2,128)(2,1),[256,2,1,1,1]>, #tpu.memory_space<vmem>> -> memref<8x?x2x2x128xbf16, strided<[65536, 512, 256, 128, 1], offset: ?>, #tpu.memory_space<vmem>>
            %625 = tpu.memref_slice %arg19[%c1_i32, %61] : memref<5x2x!tpu.dma_semaphore, #tpu.tiled<,[2,1]>, #tpu.memory_space<semaphore_mem>> -> memref<1x1x!tpu.dma_semaphore, #tpu.tiled<,[2,1]>, #tpu.memory_space<semaphore_mem>>
            %626 = tpu.memref_squeeze %625 : memref<1x1x!tpu.dma_semaphore, #tpu.tiled<,[2,1]>, #tpu.memory_space<semaphore_mem>> -> memref<!tpu.dma_semaphore, #tpu.tiled<,[]>, #tpu.memory_space<semaphore_mem>>
            %627 = tpu.erase_memref_layout %626 : memref<!tpu.dma_semaphore, #tpu.tiled<,[]>, #tpu.memory_space<semaphore_mem>> -> memref<!tpu.dma_semaphore, strided<[], offset: ?>, #tpu.memory_space<semaphore_mem>>
            tpu.wait_dma2 semaphore(%627 : memref<!tpu.dma_semaphore, strided<[], offset: ?>, #tpu.memory_space<semaphore_mem>>) src(%620 : memref<8x?x2x2x128xbf16, strided<[4194304, 512, 256, 128, 1], offset: ?>, #tpu.memory_space<vmem>>) dst(%624 : memref<8x?x2x2x128xbf16, strided<[65536, 512, 256, 128, 1], offset: ?>, #tpu.memory_space<vmem>>)
          }
          %124 = memref.load %0[%18] : memref<128xi32, #tpu.memory_space<smem>>
          %125 = arith.muli %arg24, %c8_i32 : i32
          %126 = memref.load %2[%18] : memref<128xi32, #tpu.memory_space<smem>>
          %127 = memref.load %2[%21] : memref<128xi32, #tpu.memory_space<smem>>
          %128 = arith.subi %127, %126 : i32
          %129 = arith.subi %124, %104 : i32
          %130 = arith.subi %129, %128 : i32
          %131 = arith.maxsi %130, %c0_i32 : i32
          %132 = arith.subi %129, %131 : i32
…
          %409 = tpu.matmul %407, %408, %cst_15 {dimension_numbers = #tpu.dot_dimension_numbers<[1], [0], [0], [1], [0, 0, 1, 1], [], []>} : vector<512x1024xf32>, vector<1024x128xf32>, vector<512x128xf32> -> vector<512x128xf32>
          "tpu.trace_stop"() : () -> ()
          %410 = vector.multi_reduction <add>, %407, %cst_14 [1] : vector<512x1024xf32> to vector<512xf32>
          %411 = vector.shape_cast %410 : vector<512xf32> to vector<512x1xf32>
          %412 = arith.subf %401, %403 : vector<512x128xf32>
          %413 = math.exp %412 : vector<512x128xf32>
          %414 = vector.load %9[%c1, %c0, %c0] : memref<8x512x128xf32, #tpu.memory_space<vmem>>, vector<1x512x128xf32>
          %415 = vector.shape_cast %414 : vector<1x512x128xf32> to vector<512x128xf32>
          %416 = arith.select %123, %cst_15, %415 : vector<512x128xf32>
          %417 = arith.mulf %413, %416 : vector<512x128xf32>
          %418 = vector.broadcast %411 : vector<512x1xf32> to vector<512x128xf32>
          %419 = arith.addf %417, %418 : vector<512x128xf32>
          %420 = vector.shape_cast %419 : vector<512x128xf32> to vector<1x512x128xf32>
          tpu.vector_store %9[%c1, %c0, %c0], %420 {strides = array<i32>} : memref<8x512x128xf32, #tpu.memory_space<vmem>>, vector<1x512x128xf32>, 
          %421 = vector.load %13[%c1, %c0, %c0] : memref<8x512x128xf32, #tpu.memory_space<vmem>>, vector<1x512x128xf32>
          %422 = vector.shape_cast %421 : vector<1x512x128xf32> to vector<512x128xf32>
          %423 = arith.select %123, %cst_15, %422 : vector<512x128xf32>
          %424 = arith.mulf %413, %423 : vector<512x128xf32>
          %425 = arith.addf %424, %409 : vector<512x128xf32>
          %426 = vector.shape_cast %425 : vector<512x128xf32> to vector<1x512x128xf32>
          tpu.vector_store %13[%c1, %c0, %c0], %426 {strides = array<i32>} : memref<8x512x128xf32, #tpu.memory_space<vmem>>, vector<1x512x128xf32>, 
          %427 = vector.extract %364[2] : vector<512x1024xf32> from vector<8x512x1024xf32>
          %428 = vector.multi_reduction <maximumf>, %427, %cst_16 [1] : vector<512x1024xf32> to vector<512xf32>
          %429 = vector.shape_cast %428 : vector<512xf32> to vector<512x1xf32>
          %430 = vector.load %11[%c2, %c0, %c0] : memref<8x512x128xf32, #tpu.memory_space<vmem>>, vector<1x512x128xf32>
          %431 = vector.shape_cast %430 : vector<1x512x128xf32> to vector<512x128xf32>
          %432 = arith.select %123, %cst, %431 : vector<512x128xf32>
          %433 = vector.broadcast %429 : vector<512x1xf32> to vector<512x128xf32>
          %434 = arith.maximumf %432, %433 : vector<512x128xf32>
          %435 = vector.shape_cast %434 : vector<512x128xf32> to vector<1x512x128xf32>
          tpu.vector_store %11[%c2, %c0, %c0], %435 {strides = array<i32>} : memref<8x512x128xf32, #tpu.memory_space<vmem>>, vector<1x512x128xf32>, 
          %436 = tpu.concatenate %434, %434, %434, %434, %434, %434, %434, %434 in 1 : vector<512x128xf32>, vector<512x128xf32>, vector<512x128xf32>, vector<512x128xf32>, vector<512x128xf32>, vector<512x128xf32>, vector<512x128xf32>, vector<512x128xf32> -> vector<512x1024xf32>
          %437 = arith.subf %427, %436 : vector<512x1024xf32>
          %438 = math.exp %437 : vector<512x1024xf32>
          %439 = vector.extract %338[2] : vector<1024x128xf32> from vector<8x1024x128xf32>
          "tpu.trace_start"() <{level = 10 : i32, message = "qk,kd->qd"}> : () -> ()
          %440 = tpu.matmul %438, %439, %cst_15 {dimension_numbers = #tpu.dot_dimension_numbers<[1], [0], [0], [1], [0, 0, 1, 1], [], []>} : vector<512x1024xf32>, vector<1024x128xf32>, vector<512x128xf32> -> vector<512x128xf32>
          "tpu.trace_stop"() : () -> ()
          %441 = vector.multi_reduction <add>, %438, %cst_14 [1] : vector<512x1024xf32> to vector<512xf32>
          %442 = vector.shape_cast %441 : vector<512xf32> to vector<512x1xf32>
          %443 = arith.subf %432, %434 : vector<512x128xf32>
          %444 = math.exp %443 : vector<512x128xf32>
          %445 = vector.load %9[%c2, %c0, %c0] : memref<8x512x128xf32, #tpu.memory_space<vmem>>, vector<1x512x128xf32>
          %446 = vector.shape_cast %445 : vector<1x512x128xf32> to vector<512x128xf32>
          %447 = arith.select %123, %cst_15, %446 : vector<512x128xf32>
          %448 = arith.mulf %444, %447 : vector<512x128xf32>
          %449 = vector.broadcast %442 : vector<512x1xf32> to vector<512x128xf32>
          %450 = arith.addf %448, %449 : vector<512x128xf32>
          %451 = vector.shape_cast %450 : vector<512x128xf32> to vector<1x512x128xf32>
          tpu.vector_store %9[%c2, %c0, %c0], %451 {strides = array<i32>} : memref<8x512x128xf32, #tpu.memory_space<vmem>>, vector<1x512x128xf32>, 
          %452 = vector.load %13[%c2, %c0, %c0] : memref<8x512x128xf32, #tpu.memory_space<vmem>>, vector<1x512x128xf32>
          %453 = vector.shape_cast %452 : vector<1x512x128xf32> to vector<512x128xf32>
          %454 = arith.select %123, %cst_15, %453 : vector<512x128xf32>
          %455 = arith.mulf %444, %454 : vector<512x128xf32>
          %456 = arith.addf %455, %440 : vector<512x128xf32>
          %457 = vector.shape_cast %456 : vector<512x128xf32> to vector<1x512x128xf32>
          tpu.vector_store %13[%c2, %c0, %c0], %457 {strides = array<i32>} : memref<8x512x128xf32, #tpu.memory_space<vmem>>, vector<1x512x128xf32>, 
          %458 = vector.extract %364[3] : vector<512x1024xf32> from vector<8x512x1024xf32>
          %459 = vector.multi_reduction <maximumf>, %458, %cst_16 [1] : vector<512x1024xf32> to vector<512xf32>
          %460 = vector.shape_cast %459 : vector<512xf32> to vector<512x1xf32>
          %461 = vector.load %11[%c3, %c0, %c0] : memref<8x512x128xf32, #tpu.memory_space<vmem>>, vector<1x512x128xf32>
          %462 = vector.shape_cast %461 : vector<1x512x128xf32> to vector<512x128xf32>
          %463 = arith.select %123, %cst, %462 : vector<512x128xf32>
          %464 = vector.broadcast %460 : vector<512x1xf32> to vector<512x128xf32>
          %465 = arith.maximumf %463, %464 : vector<512x128xf32>
          %466 = vector.shape_cast %465 : vector<512x128xf32> to vector<1x512x128xf32>
          tpu.vector_store %11[%c3, %c0, %c0], %466 {strides = array<i32>} : memref<8x512x128xf32, #tpu.memory_space<vmem>>, vector<1x512x128xf32>, 
          %467 = tpu.concatenate %465, %465, %465, %465, %465, %465, %465, %465 in 1 : vector<512x128xf32>, vector<512x128xf32>, vector<512x128xf32>, vector<512x128xf32>, vector<512x128xf32>, vector<512x128xf32>, vector<512x128xf32>, vector<512x128xf32> -> vector<512x1024xf32>
          %468 = arith.subf %458, %467 : vector<512x1024xf32>
          %469 = math.exp %468 : vector<512x1024xf32>
          %470 = vector.extract %338[3] : vector<1024x128xf32> from vector<8x1024x128xf32>
          "tpu.trace_start"() <{level = 10 : i32, message = "qk,kd->qd"}> : () -> ()
          %471 = tpu.matmul %469, %470, %cst_15 {dimension_numbers = #tpu.dot_dimension_numbers<[1], [0], [0], [1], [0, 0, 1, 1], [], []>} : vector<512x1024xf32>, vector<1024x128xf32>, vector<512x128xf32> -> vector<512x128xf32>
          "tpu.trace_stop"() : () -> ()
          %472 = vector.multi_reduction <add>, %469, %cst_14 [1] : vector<512x1024xf32> to vector<512xf32>
          %473 = vector.shape_cast %472 : vector<512xf32> to vector<512x1xf32>
          %474 = arith.subf %463, %465 : vector<512x128xf32>
          %475 = math.exp %474 : vector<512x128xf32>
          %476 = vector.load %9[%c3, %c0, %c0] : memref<8x512x128xf32, #tpu.memory_space<vmem>>, vector<1x512x128xf32>
          %477 = vector.shape_cast %476 : vector<1x512x128xf32> to vector<512x128xf32>
          %478 = arith.select %123, %cst_15, %477 : vector<512x128xf32>
          %479 = arith.mulf %475, %478 : vector<512x128xf32>
          %480 = vector.broadcast %473 : vector<512x1xf32> to vector<512x128xf32>
          %481 = arith.addf %479, %480 : vector<512x128xf32>
          %482 = vector.shape_cast %481 : vector<512x128xf32> to vector<1x512x128xf32>
          tpu.vector_store %9[%c3, %c0, %c0], %482 {strides = array<i32>} : memref<8x512x128xf32, #tpu.memory_space<vmem>>, vector<1x512x128xf32>, 
          %483 = vector.load %13[%c3, %c0, %c0] : memref<8x512x128xf32, #tpu.memory_space<vmem>>, vector<1x512x128xf32>
          %484 = vector.shape_cast %483 : vector<1x512x128xf32> to vector<512x128xf32>
          %485 = arith.select %123, %cst_15, %484 : vector<512x128xf32>
          %486 = arith.mulf %475, %485 : vector<512x128xf32>
          %487 = arith.addf %486, %471 : vector<512x128xf32>
          %488 = vector.shape_cast %487 : vector<512x128xf32> to vector<1x512x128xf32>
          tpu.vector_store %13[%c3, %c0, %c0], %488 {strides = array<i32>} : memref<8x512x128xf32, #tpu.memory_space<vmem>>, vector<1x512x128xf32>, 
          %489 = vector.extract %364[4] : vector<512x1024xf32> from vector<8x512x1024xf32>
          %490 = vector.multi_reduction <maximumf>, %489, %cst_16 [1] : vector<512x1024xf32> to vector<512xf32>
          %491 = vector.shape_cast %490 : vector<512xf32> to vector<512x1xf32>
          %492 = vector.load %11[%c4, %c0, %c0] : memref<8x512x128xf32, #tpu.memory_space<vmem>>, vector<1x512x128xf32>
          %493 = vector.shape_cast %492 : vector<1x512x128xf32> to vector<512x128xf32>
          %494 = arith.select %123, %cst, %493 : vector<512x128xf32>
          %495 = vector.broadcast %491 : vector<512x1xf32> to vector<512x128xf32>
          %496 = arith.maximumf %494, %495 : vector<512x128xf32>
          %497 = vector.shape_cast %496 : vector<512x128xf32> to vector<1x512x128xf32>
          tpu.vector_store %11[%c4, %c0, %c0], %497 {strides = array<i32>} : memref<8x512x128xf32, #tpu.memory_space<vmem>>, vector<1x512x128xf32>, 
          %498 = tpu.concatenate %496, %496, %496, %496, %496, %496, %496, %496 in 1 : vector<512x128xf32>, vector<512x128xf32>, vector<512x128xf32>, vector<512x128xf32>, vector<512x128xf32>, vector<512x128xf32>, vector<512x128xf32>, vector<512x128xf32> -> vector<512x1024xf32>
          %499 = arith.subf %489, %498 : vector<512x1024xf32>
          %500 = math.exp %499 : vector<512x1024xf32>
          %501 = vector.extract %338[4] : vector<1024x128xf32> from vector<8x1024x128xf32>
          "tpu.trace_start"() <{level = 10 : i32, message = "qk,kd->qd"}> : () -> ()
          %502 = tpu.matmul %500, %501, %cst_15 {dimension_numbers = #tpu.dot_dimension_numbers<[1], [0], [0], [1], [0, 0, 1, 1], [], []>} : vector<512x1024xf32>, vector<1024x128xf32>, vector<512x128xf32> -> vector<512x128xf32>
          "tpu.trace_stop"() : () -> ()
          %503 = vector.multi_reduction <add>, %500, %cst_14 [1] : vector<512x1024xf32> to vector<512xf32>
          %504 = vector.shape_cast %503 : vector<512xf32> to vector<512x1xf32>
          %505 = arith.subf %494, %496 : vector<512x128xf32>
          %506 = math.exp %505 : vector<512x128xf32>
          %507 = vector.load %9[%c4, %c0, %c0] : memref<8x512x128xf32, #tpu.memory_space<vmem>>, vector<1x512x128xf32>
          %508 = vector.shape_cast %507 : vector<1x512x128xf32> to vector<512x128xf32>
          %509 = arith.select %123, %cst_15, %508 : vector<512x128xf32>
          %510 = arith.mulf %506, %509 : vector<512x128xf32>
          %511 = vector.broadcast %504 : vector<512x1xf32> to vector<512x128xf32>
          %512 = arith.addf %510, %511 : vector<512x128xf32>
          %513 = vector.shape_cast %512 : vector<512x128xf32> to vector<1x512x128xf32>
          tpu.vector_store %9[%c4, %c0, %c0], %513 {strides = array<i32>} : memref<8x512x128xf32, #tpu.memory_space<vmem>>, vector<1x512x128xf32>, 
          %514 = vector.load %13[%c4, %c0, %c0] : memref<8x512x128xf32, #tpu.memory_space<vmem>>, vector<1x512x128xf32>
          %515 = vector.shape_cast %514 : vector<1x512x128xf32> to vector<512x128xf32>
          %516 = arith.select %123, %cst_15, %515 : vector<512x128xf32>
          %517 = arith.mulf %506, %516 : vector<512x128xf32>
          %518 = arith.addf %517, %502 : vector<512x128xf32>
          %519 = vector.shape_cast %518 : vector<512x128xf32> to vector<1x512x128xf32>
          tpu.vector_store %13[%c4, %c0, %c0], %519 {strides = array<i32>} : memref<8x512x128xf32, #tpu.memory_space<vmem>>, vector<1x512x128xf32>, 
          %520 = vector.extract %364[5] : vector<512x1024xf32> from vector<8x512x1024xf32>
          %521 = vector.multi_reduction <maximumf>, %520, %cst_16 [1] : vector<512x1024xf32> to vector<512xf32>
          %522 = vector.shape_cast %521 : vector<512xf32> to vector<512x1xf32>
          %523 = vector.load %11[%c5, %c0, %c0] : memref<8x512x128xf32, #tpu.memory_space<vmem>>, vector<1x512x128xf32>
          %524 = vector.shape_cast %523 : vector<1x512x128xf32> to vector<512x128xf32>
          %525 = arith.select %123, %cst, %524 : vector<512x128xf32>
          %526 = vector.broadcast %522 : vector<512x1xf32> to vector<512x128xf32>
          %527 = arith.maximumf %525, %526 : vector<512x128xf32>
          %528 = vector.shape_cast %527 : vector<512x128xf32> to vector<1x512x128xf32>
          tpu.vector_store %11[%c5, %c0, %c0], %528 {strides = array<i32>} : memref<8x512x128xf32, #tpu.memory_space<vmem>>, vector<1x512x128xf32>, 
          %529 = tpu.concatenate %527, %527, %527, %527, %527, %527, %527, %527 in 1 : vector<512x128xf32>, vector<512x128xf32>, vector<512x128xf32>, vector<512x128xf32>, vector<512x128xf32>, vector<512x128xf32>, vector<512x128xf32>, vector<512x128xf32> -> vector<512x1024xf32>
          %530 = arith.subf %520, %529 : vector<512x1024xf32>
          %531 = math.exp %530 : vector<512x1024xf32>
          %532 = vector.extract %338[5] : vector<1024x128xf32> from vector<8x1024x128xf32>
          "tpu.trace_start"() <{level = 10 : i32, message = "qk,kd->qd"}> : () -> ()
          %533 = tpu.matmul %531, %532, %cst_15 {dimension_numbers = #tpu.dot_dimension_numbers<[1], [0], [0], [1], [0, 0, 1, 1], [], []>} : vector<512x1024xf32>, vector<1024x128xf32>, vector<512x128xf32> -> vector<512x128xf32>
          "tpu.trace_stop"() : () -> ()
          %534 = vector.multi_reduction <add>, %531, %cst_14 [1] : vector<512x1024xf32> to vector<512xf32>
          %535 = vector.shape_cast %534 : vector<512xf32> to vector<512x1xf32>
          %536 = arith.subf %525, %527 : vector<512x128xf32>
          %537 = math.exp %536 : vector<512x128xf32>
          %538 = vector.load %9[%c5, %c0, %c0] : memref<8x512x128xf32, #tpu.memory_space<vmem>>, vector<1x512x128xf32>
          %539 = vector.shape_cast %538 : vector<1x512x128xf32> to vector<512x128xf32>
          %540 = arith.select %123, %cst_15, %539 : vector<512x128xf32>
          %541 = arith.mulf %537, %540 : vector<512x128xf32>
          %542 = vector.broadcast %535 : vector<512x1xf32> to vector<512x128xf32>
          %543 = arith.addf %541, %542 : vector<512x128xf32>
          %544 = vector.shape_cast %543 : vector<512x128xf32> to vector<1x512x128xf32>
          tpu.vector_store %9[%c5, %c0, %c0], %544 {strides = array<i32>} : memref<8x512x128xf32, #tpu.memory_space<vmem>>, vector<1x512x128xf32>, 
          %545 = vector.load %13[%c5, %c0, %c0] : memref<8x512x128xf32, #tpu.memory_space<vmem>>, vector<1x512x128xf32>
          %546 = vector.shape_cast %545 : vector<1x512x128xf32> to vector<512x128xf32>
          %547 = arith.select %123, %cst_15, %546 : vector<512x128xf32>
          %548 = arith.mulf %537, %547 : vector<512x128xf32>
          %549 = arith.addf %548, %533 : vector<512x128xf32>
          %550 = vector.shape_cast %549 : vector<512x128xf32> to vector<1x512x128xf32>
          tpu.vector_store %13[%c5, %c0, %c0], %550 {strides = array<i32>} : memref<8x512x128xf32, #tpu.memory_space<vmem>>, vector<1x512x128xf32>, 
          %551 = vector.extract %364[6] : vector<512x1024xf32> from vector<8x512x1024xf32>
          %552 = vector.multi_reduction <maximumf>, %551, %cst_16 [1] : vector<512x1024xf32> to vector<512xf32>
          %553 = vector.shape_cast %552 : vector<512xf32> to vector<512x1xf32>
          %554 = vector.load %11[%c6, %c0, %c0] : memref<8x512x128xf32, #tpu.memory_space<vmem>>, vector<1x512x128xf32>
          %555 = vector.shape_cast %554 : vector<1x512x128xf32> to vector<512x128xf32>
          %556 = arith.select %123, %cst, %555 : vector<512x128xf32>
          %557 = vector.broadcast %553 : vector<512x1xf32> to vector<512x128xf32>
          %558 = arith.maximumf %556, %557 : vector<512x128xf32>
          %559 = vector.shape_cast %558 : vector<512x128xf32> to vector<1x512x128xf32>
          tpu.vector_store %11[%c6, %c0, %c0], %559 {strides = array<i32>} : memref<8x512x128xf32, #tpu.memory_space<vmem>>, vector<1x512x128xf32>, 
          %560 = tpu.concatenate %558, %558, %558, %558, %558, %558, %558, %558 in 1 : vector<512x128xf32>, vector<512x128xf32>, vector<512x128xf32>, vector<512x128xf32>, vector<512x128xf32>, vector<512x128xf32>, vector<512x128xf32>, vector<512x128xf32> -> vector<512x1024xf32>
          %561 = arith.subf %551, %560 : vector<512x1024xf32>
          %562 = math.exp %561 : vector<512x1024xf32>
          %563 = vector.extract %338[6] : vector<1024x128xf32> from vector<8x1024x128xf32>
          "tpu.trace_start"() <{level = 10 : i32, message = "qk,kd->qd"}> : () -> ()
          %564 = tpu.matmul %562, %563, %cst_15 {dimension_numbers = #tpu.dot_dimension_numbers<[1], [0], [0], [1], [0, 0, 1, 1], [], []>} : vector<512x1024xf32>, vector<1024x128xf32>, vector<512x128xf32> -> vector<512x128xf32>
          "tpu.trace_stop"() : () -> ()
          %565 = vector.multi_reduction <add>, %562, %cst_14 [1] : vector<512x1024xf32> to vector<512xf32>
          %566 = vector.shape_cast %565 : vector<512xf32> to vector<512x1xf32>
          %567 = arith.subf %556, %558 : vector<512x128xf32>
          %568 = math.exp %567 : vector<512x128xf32>
          %569 = vector.load %9[%c6, %c0, %c0] : memref<8x512x128xf32, #tpu.memory_space<vmem>>, vector<1x512x128xf32>
          %570 = vector.shape_cast %569 : vector<1x512x128xf32> to vector<512x128xf32>
          %571 = arith.select %123, %cst_15, %570 : vector<512x128xf32>
          %572 = arith.mulf %568, %571 : vector<512x128xf32>
          %573 = vector.broadcast %566 : vector<512x1xf32> to vector<512x128xf32>
          %574 = arith.addf %572, %573 : vector<512x128xf32>
          %575 = vector.shape_cast %574 : vector<512x128xf32> to vector<1x512x128xf32>
          tpu.vector_store %9[%c6, %c0, %c0], %575 {strides = array<i32>} : memref<8x512x128xf32, #tpu.memory_space<vmem>>, vector<1x512x128xf32>, 
          %576 = vector.load %13[%c6, %c0, %c0] : memref<8x512x128xf32, #tpu.memory_space<vmem>>, vector<1x512x128xf32>
          %577 = vector.shape_cast %576 : vector<1x512x128xf32> to vector<512x128xf32>
          %578 = arith.select %123, %cst_15, %577 : vector<512x128xf32>
          %579 = arith.mulf %568, %578 : vector<512x128xf32>
          %580 = arith.addf %579, %564 : vector<512x128xf32>
          %581 = vector.shape_cast %580 : vector<512x128xf32> to vector<1x512x128xf32>
          tpu.vector_store %13[%c6, %c0, %c0], %581 {strides = array<i32>} : memref<8x512x128xf32, #tpu.memory_space<vmem>>, vector<1x512x128xf32>, 
          %582 = vector.extract %364[7] : vector<512x1024xf32> from vector<8x512x1024xf32>
          %583 = vector.multi_reduction <maximumf>, %582, %cst_16 [1] : vector<512x1024xf32> to vector<512xf32>
          %584 = vector.shape_cast %583 : vector<512xf32> to vector<512x1xf32>
          %585 = vector.load %11[%c7, %c0, %c0] : memref<8x512x128xf32, #tpu.memory_space<vmem>>, vector<1x512x128xf32>
          %586 = vector.shape_cast %585 : vector<1x512x128xf32> to vector<512x128xf32>
          %587 = arith.select %123, %cst, %586 : vector<512x128xf32>
          %588 = vector.broadcast %584 : vector<512x1xf32> to vector<512x128xf32>
          %589 = arith.maximumf %587, %588 : vector<512x128xf32>
          %590 = vector.shape_cast %589 : vector<512x128xf32> to vector<1x512x128xf32>
          tpu.vector_store %11[%c7, %c0, %c0], %590 {strides = array<i32>} : memref<8x512x128xf32, #tpu.memory_space<vmem>>, vector<1x512x128xf32>, 
          %591 = tpu.concatenate %589, %589, %589, %589, %589, %589, %589, %589 in 1 : vector<512x128xf32>, vector<512x128xf32>, vector<512x128xf32>, vector<512x128xf32>, vector<512x128xf32>, vector<512x128xf32>, vector<512x128xf32>, vector<512x128xf32> -> vector<512x1024xf32>
          %592 = arith.subf %582, %591 : vector<512x1024xf32>
          %593 = math.exp %592 : vector<512x1024xf32>
          %594 = vector.extract %338[7] : vector<1024x128xf32> from vector<8x1024x128xf32>
          "tpu.trace_start"() <{level = 10 : i32, message = "qk,kd->qd"}> : () -> ()
          %595 = tpu.matmul %593, %594, %cst_15 {dimension_numbers = #tpu.dot_dimension_numbers<[1], [0], [0], [1], [0, 0, 1, 1], [], []>} : vector<512x1024xf32>, vector<1024x128xf32>, vector<512x128xf32> -> vector<512x128xf32>
          "tpu.trace_stop"() : () -> ()
          %596 = vector.multi_reduction <add>, %593, %cst_14 [1] : vector<512x1024xf32> to vector<512xf32>
          %597 = vector.shape_cast %596 : vector<512xf32> to vector<512x1xf32>
          %598 = arith.subf %587, %589 : vector<512x128xf32>
          %599 = math.exp %598 : vector<512x128xf32>
          %600 = vector.load %9[%c7, %c0, %c0] : memref<8x512x128xf32, #tpu.memory_space<vmem>>, vector<1x512x128xf32>
          %601 = vector.shape_cast %600 : vector<1x512x128xf32> to vector<512x128xf32>
          %602 = arith.select %123, %cst_15, %601 : vector<512x128xf32>
          %603 = arith.mulf %599, %602 : vector<512x128xf32>
          %604 = vector.broadcast %597 : vector<512x1xf32> to vector<512x128xf32>
          %605 = arith.addf %603, %604 : vector<512x128xf32>
          %606 = vector.shape_cast %605 : vector<512x128xf32> to vector<1x512x128xf32>
          tpu.vector_store %9[%c7, %c0, %c0], %606 {strides = array<i32>} : memref<8x512x128xf32, #tpu.memory_space<vmem>>, vector<1x512x128xf32>, 
          %607 = vector.load %13[%c7, %c0, %c0] : memref<8x512x128xf32, #tpu.memory_space<vmem>>, vector<1x512x128xf32>
          %608 = vector.shape_cast %607 : vector<1x512x128xf32> to vector<512x128xf32>
          %609 = arith.select %123, %cst_15, %608 : vector<512x128xf32>
          %610 = arith.mulf %599, %609 : vector<512x128xf32>
          %611 = arith.addf %610, %595 : vector<512x128xf32>
          %612 = vector.shape_cast %611 : vector<512x128xf32> to vector<1x512x128xf32>
          tpu.vector_store %13[%c7, %c0, %c0], %612 {strides = array<i32>} : memref<8x512x128xf32, #tpu.memory_space<vmem>>, vector<1x512x128xf32>, 
        }
        %69 = vector.load %13[%c0, %c0, %c0] : memref<8x512x128xf32, #tpu.memory_space<vmem>>, vector<8x512x128xf32>
        %70 = vector.load %9[%c0, %c0, %c0] : memref<8x512x128xf32, #tpu.memory_space<vmem>>, vector<8x512x128xf32>
        %71 = tpu.reciprocal %70 {approx = true} : vector<8x512x128xf32> -> vector<8x512x128xf32>
        %72 = arith.mulf %69, %71 : vector<8x512x128xf32>
        %73 = arith.truncf %72 : vector<8x512x128xf32> to vector<8x512x128xbf16>
        %74 = memref.load %5[%c2] : memref<128xi32, #tpu.memory_space<smem>>
        %75 = arith.cmpi eq, %74, %c0_i32 : i32
        %76 = arith.extui %75 : i1 to i32
        memref.store %76, %5[%c2] : memref<128xi32, #tpu.memory_space<smem>>
        %77 = arith.index_cast %74 : i32 to index
        %78 = memref.load %6[%77] : memref<128xi32, #tpu.memory_space<smem>>
        %79 = arith.addi %74, %c2_i32 : i32
        %80 = arith.index_cast %79 : i32 to index
        %81 = memref.load %6[%80] : memref<128xi32, #tpu.memory_space<smem>>
        %82 = arith.cmpi sge, %78, %c0_i32 : i32
        %83 = arith.cmpi sle, %78, %arg0 : i32
        %84 = arith.andi %82, %83 : i1
        scf.if %84 {
          %104 = arith.index_cast %78 : i32 to index
          %105 = memref.load %2[%104] : memref<128xi32, #tpu.memory_space<smem>>
          %106 = arith.muli %81, %c128_i32 : i32
          %107 = arith.addi %105, %106 : i32
          %108 = arith.addi %78, %c1_i32 : i32
          %109 = arith.index_cast %108 : i32 to index
          %110 = memref.load %2[%109] : memref<128xi32, #tpu.memory_space<smem>>
          %111 = arith.subi %110, %107 : i32
          %112 = arith.minsi %111, %c128_i32 : i32
          %113 = tpu.memref_slice %arg18[%74, %c0_i32, %c0_i32, %c0_i32, %c0_i32, %c0_i32] : memref<2x8x128x2x2x128xbf16, #tpu.tiled<(2,128)(2,1),[2048,256,2,1,1,1]>, #tpu.memory_space<vmem>> -> memref<1x8x128x2x2x128xbf16, #tpu.tiled<(2,128)(2,1),[2048,256,2,1,1,1]>, #tpu.memory_space<vmem>>
          %114 = tpu.memref_squeeze %113 : memref<1x8x128x2x2x128xbf16, #tpu.tiled<(2,128)(2,1),[2048,256,2,1,1,1]>, #tpu.memory_space<vmem>> -> memref<8x128x2x2x128xbf16, #tpu.tiled<(2,128)(2,1),[256,2,1,1,1]>, #tpu.memory_space<vmem>>
          %115 = tpu.memref_slice %114[%c0_i32, %c0_i32, %c0_i32, %c0_i32, %c0_i32] <%112> : memref<8x128x2x2x128xbf16, #tpu.tiled<(2,128)(2,1),[256,2,1,1,1]>, #tpu.memory_space<vmem>> -> memref<8x?x2x2x128xbf16, #tpu.tiled<(2,128)(2,1),[256,2,1,1,1]>, #tpu.memory_space<vmem>>
          %116 = tpu.erase_memref_layout %115 : memref<8x?x2x2x128xbf16, #tpu.tiled<(2,128)(2,1),[256,2,1,1,1]>, #tpu.memory_space<vmem>> -> memref<8x?x2x2x128xbf16, strided<[65536, 512, 256, 128, 1], offset: ?>, #tpu.memory_space<vmem>>
          %117 = tpu.memref_slice %arg14[%c0_i32, %107, %c0_i32, %c0_i32, %c0_i32] <%112> : memref<8x8192x2x2x128xbf16, #tpu.tiled<(2,128)(2,1),[16384,2,1,1,1]>, #tpu.memory_space<vmem>> -> memref<8x?x2x2x128xbf16, #tpu.tiled<(2,128)(2,1),[16384,2,1,1,1]>, #tpu.memory_space<vmem>>
          %118 = tpu.erase_memref_layout %117 : memref<8x?x2x2x128xbf16, #tpu.tiled<(2,128)(2,1),[16384,2,1,1,1]>, #tpu.memory_space<vmem>> -> memref<8x?x2x2x128xbf16, strided<[4194304, 512, 256, 128, 1], offset: ?>, #tpu.memory_space<vmem>>
          %119 = tpu.memref_slice %arg19[%c2_i32, %74] : memref<5x2x!tpu.dma_semaphore, #tpu.tiled<,[2,1]>, #tpu.memory_space<semaphore_mem>> -> memref<1x1x!tpu.dma_semaphore, #tpu.tiled<,[2,1]>, #tpu.memory_space<semaphore_mem>>
          %120 = tpu.memref_squeeze %119 : memref<1x1x!tpu.dma_semaphore, #tpu.tiled<,[2,1]>, #tpu.memory_space<semaphore_mem>> -> memref<!tpu.dma_semaphore, #tpu.tiled<,[]>, #tpu.memory_space<semaphore_mem>>
          %121 = tpu.erase_memref_layout %120 : memref<!tpu.dma_semaphore, #tpu.tiled<,[]>, #tpu.memory_space<semaphore_mem>> -> memref<!tpu.dma_semaphore, strided<[], offset: ?>, #tpu.memory_space<semaphore_mem>>
          tpu.wait_dma2 semaphore(%121 : memref<!tpu.dma_semaphore, strided<[], offset: ?>, #tpu.memory_space<semaphore_mem>>) src(%116 : memref<8x?x2x2x128xbf16, strided<[65536, 512, 256, 128, 1], offset: ?>, #tpu.memory_space<vmem>>) dst(%118 : memref<8x?x2x2x128xbf16, strided<[4194304, 512, 256, 128, 1], offset: ?>, #tpu.memory_space<vmem>>)
        }
        %85 = tpu.bitcast %73 : vector<8x512x128xbf16> -> vector<8x256x128xi32>
        %86 = tpu.memref_slice %arg18[%74, %c0_i32, %c0_i32, %c0_i32, %c0_i32, %c0_i32] : memref<2x8x128x2x2x128xbf16, #tpu.tiled<(2,128)(2,1),[2048,256,2,1,1,1]>, #tpu.memory_space<vmem>> -> memref<1x8x128x2x2x128xbf16, #tpu.tiled<(2,128)(2,1),[2048,256,2,1,1,1]>, #tpu.memory_space<vmem>>
        %87 = tpu.memref_squeeze %86 : memref<1x8x128x2x2x128xbf16, #tpu.tiled<(2,128)(2,1),[2048,256,2,1,1,1]>, #tpu.memory_space<vmem>> -> memref<8x128x2x2x128xbf16, #tpu.tiled<(2,128)(2,1),[256,2,1,1,1]>, #tpu.memory_space<vmem>>
        %88 = tpu.memref_bitcast %87 : memref<8x128x2x2x128xbf16, #tpu.tiled<(2,128)(2,1),[256,2,1,1,1]>, #tpu.memory_space<vmem>> -> memref<8x128x2x1x128xi32, #tpu.tiled<(1,128),[256,2,1,1,1]>, #tpu.memory_space<vmem>>
        %89 = tpu.memref_reshape %88 : memref<8x128x2x1x128xi32, #tpu.tiled<(1,128),[256,2,1,1,1]>, #tpu.memory_space<vmem>> -> memref<8x256x128xi32, #tpu.tiled<(1,128),[256,1,1]>, #tpu.memory_space<vmem>>
        %90 = tpu.erase_memref_layout %89 : memref<8x256x128xi32, #tpu.tiled<(1,128),[256,1,1]>, #tpu.memory_space<vmem>> -> memref<8x256x128xi32, #tpu.memory_space<vmem>>
        tpu.vector_store %90[%c0, %c0, %c0], %85 {strides = array<i32>} : memref<8x256x128xi32, #tpu.memory_space<vmem>>, vector<8x256x128xi32>, 
        memref.store %arg0, %6[%77] : memref<128xi32, #tpu.memory_space<smem>>
        memref.store %arg23, %6[%80] : memref<128xi32, #tpu.memory_space<smem>>
        %91 = memref.load %2[%18] : memref<128xi32, #tpu.memory_space<smem>>
        %92 = arith.muli %arg23, %c128_i32 : i32
        %93 = arith.addi %91, %92 : i32
        %94 = memref.load %2[%21] : memref<128xi32, #tpu.memory_space<smem>>
        %95 = arith.subi %94, %93 : i32
        %96 = arith.minsi %95, %c128_i32 : i32
        %97 = tpu.memref_slice %87[%c0_i32, %c0_i32, %c0_i32, %c0_i32, %c0_i32] <%96> : memref<8x128x2x2x128xbf16, #tpu.tiled<(2,128)(2,1),[256,2,1,1,1]>, #tpu.memory_space<vmem>> -> memref<8x?x2x2x128xbf16, #tpu.tiled<(2,128)(2,1),[256,2,1,1,1]>, #tpu.memory_space<vmem>>
        %98 = tpu.erase_memref_layout %97 : memref<8x?x2x2x128xbf16, #tpu.tiled<(2,128)(2,1),[256,2,1,1,1]>, #tpu.memory_space<vmem>> -> memref<8x?x2x2x128xbf16, strided<[65536, 512, 256, 128, 1], offset: ?>, #tpu.memory_space<vmem>>
        %99 = tpu.memref_slice %arg14[%c0_i32, %93, %c0_i32, %c0_i32, %c0_i32] <%96> : memref<8x8192x2x2x128xbf16, #tpu.tiled<(2,128)(2,1),[16384,2,1,1,1]>, #tpu.memory_space<vmem>> -> memref<8x?x2x2x128xbf16, #tpu.tiled<(2,128)(2,1),[16384,2,1,1,1]>, #tpu.memory_space<vmem>>
        %100 = tpu.erase_memref_layout %99 : memref<8x?x2x2x128xbf16, #tpu.tiled<(2,128)(2,1),[16384,2,1,1,1]>, #tpu.memory_space<vmem>> -> memref<8x?x2x2x128xbf16, strided<[4194304, 512, 256, 128, 1], offset: ?>, #tpu.memory_space<vmem>>
        %101 = tpu.memref_slice %arg19[%c2_i32, %74] : memref<5x2x!tpu.dma_semaphore, #tpu.tiled<,[2,1]>, #tpu.memory_space<semaphore_mem>> -> memref<1x1x!tpu.dma_semaphore, #tpu.tiled<,[2,1]>, #tpu.memory_space<semaphore_mem>>
        %102 = tpu.memref_squeeze %101 : memref<1x1x!tpu.dma_semaphore, #tpu.tiled<,[2,1]>, #tpu.memory_space<semaphore_mem>> -> memref<!tpu.dma_semaphore, #tpu.tiled<,[]>, #tpu.memory_space<semaphore_mem>>
        %103 = tpu.erase_memref_layout %102 : memref<!tpu.dma_semaphore, #tpu.tiled<,[]>, #tpu.memory_space<semaphore_mem>> -> memref<!tpu.dma_semaphore, strided<[], offset: ?>, #tpu.memory_space<semaphore_mem>>
        tpu.enqueue_dma source(%98 : memref<8x?x2x2x128xbf16, strided<[65536, 512, 256, 128, 1], offset: ?>, #tpu.memory_space<vmem>>) target(%100 : memref<8x?x2x2x128xbf16, strided<[4194304, 512, 256, 128, 1], offset: ?>, #tpu.memory_space<vmem>>) target_semaphore(%103 : memref<!tpu.dma_semaphore, strided<[], offset: ?>, #tpu.memory_space<semaphore_mem>>)
      }
    }
    %33 = arith.subi %14, %c1_i32 : i32
    %34 = arith.cmpi eq, %arg0, %33 : i32
    scf.if %34 {
      %35 = memref.load %6[%c0] : memref<128xi32, #tpu.memory_space<smem>>
      %36 = memref.load %6[%c2] : memref<128xi32, #tpu.memory_space<smem>>
      %37 = arith.cmpi sge, %35, %c0_i32 : i32
      %38 = arith.cmpi sle, %35, %arg0 : i32
      %39 = arith.andi %37, %38 : i1
      scf.if %39 {
        %49 = arith.index_cast %35 : i32 to index
        %50 = memref.load %2[%49] : memref<128xi32, #tpu.memory_space<smem>>
        %51 = arith.muli %36, %c128_i32 : i32
        %52 = arith.addi %50, %51 : i32
        %53 = arith.addi %35, %c1_i32 : i32
        %54 = arith.index_cast %53 : i32 to index
        %55 = memref.load %2[%54] : memref<128xi32, #tpu.memory_space<smem>>
        %56 = arith.subi %55, %52 : i32
        %57 = arith.minsi %56, %c128_i32 : i32
        %58 = tpu.memref_slice %arg18[%c0_i32, %c0_i32, %c0_i32, %c0_i32, %c0_i32, %c0_i32] : memref<2x8x128x2x2x128xbf16, #tpu.tiled<(2,128)(2,1),[2048,256,2,1,1,1]>, #tpu.memory_space<vmem>> -> memref<1x8x128x2x2x128xbf16, #tpu.tiled<(2,128)(2,1),[2048,256,2,1,1,1]>, #tpu.memory_space<vmem>>
        %59 = tpu.memref_squeeze %58 : memref<1x8x128x2x2x128xbf16, #tpu.tiled<(2,128)(2,1),[2048,256,2,1,1,1]>, #tpu.memory_space<vmem>> -> memref<8x128x2x2x128xbf16, #tpu.tiled<(2,128)(2,1),[256,2,1,1,1]>, #tpu.memory_space<vmem>>
        %60 = tpu.memref_slice %59[%c0_i32, %c0_i32, %c0_i32, %c0_i32, %c0_i32] <%57> : memref<8x128x2x2x128xbf16, #tpu.tiled<(2,128)(2,1),[256,2,1,1,1]>, #tpu.memory_space<vmem>> -> memref<8x?x2x2x128xbf16, #tpu.tiled<(2,128)(2,1),[256,2,1,1,1]>, #tpu.memory_space<vmem>>
        %61 = tpu.erase_memref_layout %60 : memref<8x?x2x2x128xbf16, #tpu.tiled<(2,128)(2,1),[256,2,1,1,1]>, #tpu.memory_space<vmem>> -> memref<8x?x2x2x128xbf16, strided<[65536, 512, 256, 128, 1]>, #tpu.memory_space<vmem>>
        %62 = tpu.memref_slice %arg14[%c0_i32, %52, %c0_i32, %c0_i32, %c0_i32] <%57> : memref<8x8192x2x2x128xbf16, #tpu.tiled<(2,128)(2,1),[16384,2,1,1,1]>, #tpu.memory_space<vmem>> -> memref<8x?x2x2x128xbf16, #tpu.tiled<(2,128)(2,1),[16384,2,1,1,1]>, #tpu.memory_space<vmem>>
        %63 = tpu.erase_memref_layout %62 : memref<8x?x2x2x128xbf16, #tpu.tiled<(2,128)(2,1),[16384,2,1,1,1]>, #tpu.memory_space<vmem>> -> memref<8x?x2x2x128xbf16, strided<[4194304, 512, 256, 128, 1], offset: ?>, #tpu.memory_space<vmem>>
        %64 = tpu.memref_slice %arg19[%c2_i32, %c0_i32] : memref<5x2x!tpu.dma_semaphore, #tpu.tiled<,[2,1]>, #tpu.memory_space<semaphore_mem>> -> memref<1x1x!tpu.dma_semaphore, #tpu.tiled<,[2,1]>, #tpu.memory_space<semaphore_mem>>
        %65 = tpu.memref_squeeze %64 : memref<1x1x!tpu.dma_semaphore, #tpu.tiled<,[2,1]>, #tpu.memory_space<semaphore_mem>> -> memref<!tpu.dma_semaphore, #tpu.tiled<,[]>, #tpu.memory_space<semaphore_mem>>
        %66 = tpu.erase_memref_layout %65 : memref<!tpu.dma_semaphore, #tpu.tiled<,[]>, #tpu.memory_space<semaphore_mem>> -> memref<!tpu.dma_semaphore, strided<[], offset: 4>, #tpu.memory_space<semaphore_mem>>
        tpu.wait_dma2 semaphore(%66 : memref<!tpu.dma_semaphore, strided<[], offset: 4>, #tpu.memory_space<semaphore_mem>>) src(%61 : memref<8x?x2x2x128xbf16, strided<[65536, 512, 256, 128, 1]>, #tpu.memory_space<vmem>>) dst(%63 : memref<8x?x2x2x128xbf16, strided<[4194304, 512, 256, 128, 1], offset: ?>, #tpu.memory_space<vmem>>)
      }
      %40 = memref.load %7[%c4] : memref<128xi32, #tpu.memory_space<smem>>
      %41 = arith.cmpi sgt, %40, %c0_i32 : i32
      scf.if %41 {
        %49 = memref.load %7[%c0] : memref<128xi32, #tpu.memory_space<smem>>
        %50 = memref.load %7[%c2] : memref<128xi32, #tpu.memory_space<smem>>
        memref.store %c0_i32, %7[%c4] : memref<128xi32, #tpu.memory_space<smem>>
        %51 = arith.divsi %50, %c1024_i32 : i32
        %52 = arith.cmpi sgt, %50, %c0_i32 : i32
        %53 = arith.extui %52 : i1 to i32
        %54 = arith.cmpi slt, %50, %c0_i32 : i32
        %55 = arith.extui %54 : i1 to i32
        %56 = arith.subi %53, %55 : i32
        %57 = arith.cmpi ne, %56, %c1_i32 : i32
        %58 = arith.remsi %50, %c1024_i32 : i32
        %59 = arith.cmpi ne, %58, %c0_i32 : i32
        %60 = arith.andi %57, %59 : i1
        %61 = arith.subi %51, %c1_i32 : i32
        %62 = arith.select %60, %61, %51 : i32
        %63 = arith.divsi %50, %c128_i32 : i32
        %64 = arith.remsi %50, %c128_i32 : i32
        %65 = arith.cmpi ne, %64, %c0_i32 : i32
        %66 = arith.andi %57, %65 : i1
        %67 = arith.subi %63, %c1_i32 : i32
        %68 = arith.select %66, %67, %63 : i32
        %69 = arith.addi %50, %40 : i32
        %70 = arith.addi %69, %c127_i32 : i32
        %71 = arith.divsi %70, %c128_i32 : i32
        %72 = arith.cmpi sgt, %70, %c0_i32 : i32
        %73 = arith.extui %72 : i1 to i32
        %74 = arith.cmpi slt, %70, %c0_i32 : i32
        %75 = arith.extui %74 : i1 to i32
        %76 = arith.subi %73, %75 : i32
        %77 = arith.cmpi ne, %76, %c1_i32 : i32
        %78 = arith.remsi %70, %c128_i32 : i32
        %79 = arith.cmpi ne, %78, %c0_i32 : i32
        %80 = arith.andi %77, %79 : i1
        %81 = arith.subi %71, %c1_i32 : i32
        %82 = arith.select %80, %81, %71 : i32
        %83 = arith.cmpi slt, %64, %c0_i32 : i32
        %84 = arith.andi %83, %65 : i1
        %85 = arith.addi %64, %c128_i32 : i32
        %86 = arith.select %84, %85, %64 : i32
        %87 = arith.muli %62, %c8_i32 : i32
        %88 = arith.subi %68, %87 : i32
        %89 = arith.index_cast %49 : i32 to index
        %90 = memref.load %3[%89] : memref<128xi32, #tpu.memory_space<smem>>
        %91 = arith.addi %90, %c127_i32 : i32
        %92 = arith.divsi %91, %c128_i32 : i32
        %93 = arith.cmpi sgt, %91, %c0_i32 : i32
        %94 = arith.extui %93 : i1 to i32
        %95 = arith.cmpi slt, %91, %c0_i32 : i32
        %96 = arith.extui %95 : i1 to i32
        %97 = arith.subi %94, %96 : i32
        %98 = arith.cmpi ne, %97, %c1_i32 : i32
        %99 = arith.remsi %91, %c128_i32 : i32
        %100 = arith.cmpi ne, %99, %c0_i32 : i32
        %101 = arith.andi %98, %100 : i1
        %102 = arith.subi %92, %c1_i32 : i32
        %103 = arith.select %101, %102, %92 : i32
        %104 = arith.addi %103, %68 : i32
        %105 = arith.subi %82, %68 : i32
        %106:2 = scf.for %arg23 = %c0_i32 to %105 step %c1_i32 iter_args(%arg24 = %40, %arg25 = %86) -> (i32, i32)  : i32 {
          %107 = arith.subi %c128_i32, %arg25 : i32
          %108 = arith.minsi %107, %arg24 : i32
          %109 = arith.addi %88, %arg23 : i32
          %110 = arith.muli %109, %c128_i32 : i32
          %111 = arith.addi %110, %arg25 : i32
          %112 = arith.addi %104, %arg23 : i32
          %113 = arith.index_cast %112 : i32 to index
          %114 = memref.load %1[%113] : memref<2048xi32, #tpu.memory_space<smem>>
          %115 = arith.muli %114, %c128_i32 : i32
          %116 = arith.addi %115, %arg25 : i32
          %117 = tpu.memref_slice %arg16[%c0_i32, %c0_i32, %c0_i32, %c0_i32, %c0_i32] : memref<2x1024x8x2x128xbf16, #tpu.tiled<(2,128)(2,1),[8192,8,1,1,1]>, #tpu.memory_space<vmem>> -> memref<1x1024x8x2x128xbf16, #tpu.tiled<(2,128)(2,1),[8192,8,1,1,1]>, #tpu.memory_space<vmem>>
          %118 = tpu.memref_squeeze %117 : memref<1x1024x8x2x128xbf16, #tpu.tiled<(2,128)(2,1),[8192,8,1,1,1]>, #tpu.memory_space<vmem>> -> memref<1024x8x2x128xbf16, #tpu.tiled<(2,128)(2,1),[8,1,1,1]>, #tpu.memory_space<vmem>>
          %119 = tpu.memref_slice %118[%111, %c0_i32, %c0_i32, %c0_i32] <%108> : memref<1024x8x2x128xbf16, #tpu.tiled<(2,128)(2,1),[8,1,1,1]>, #tpu.memory_space<vmem>> -> memref<?x8x2x128xbf16, #tpu.tiled<(2,128)(2,1),[8,1,1,1]>, #tpu.memory_space<vmem>>
          %120 = tpu.erase_memref_layout %119 : memref<?x8x2x128xbf16, #tpu.tiled<(2,128)(2,1),[8,1,1,1]>, #tpu.memory_space<vmem>> -> memref<?x8x2x128xbf16, strided<[2048, 256, 128, 1], offset: ?>, #tpu.memory_space<vmem>>
          %121 = tpu.memref_reshape %arg15 : memref<4688x128x8x2x128xbf16, #tpu.tiled<(2,128)(2,1),[1024,8,1,1,1]>, #tpu.memory_space<hbm>> -> memref<600064x8x2x128xbf16, #tpu.tiled<(2,128)(2,1),[8,1,1,1]>, #tpu.memory_space<hbm>>
          %122 = tpu.memref_slice %121[%116, %c0_i32, %c0_i32, %c0_i32] <%108> : memref<600064x8x2x128xbf16, #tpu.tiled<(2,128)(2,1),[8,1,1,1]>, #tpu.memory_space<hbm>> -> memref<?x8x2x128xbf16, #tpu.tiled<(2,128)(2,1),[8,1,1,1]>, #tpu.memory_space<hbm>>
          %123 = tpu.erase_memref_layout %122 : memref<?x8x2x128xbf16, #tpu.tiled<(2,128)(2,1),[8,1,1,1]>, #tpu.memory_space<hbm>> -> memref<?x8x2x128xbf16, strided<[2048, 256, 128, 1], offset: ?>, #tpu.memory_space<hbm>>
          %124 = tpu.memref_slice %arg19[%c3_i32, %c0_i32] : memref<5x2x!tpu.dma_semaphore, #tpu.tiled<,[2,1]>, #tpu.memory_space<semaphore_mem>> -> memref<1x1x!tpu.dma_semaphore, #tpu.tiled<,[2,1]>, #tpu.memory_space<semaphore_mem>>
          %125 = tpu.memref_squeeze %124 : memref<1x1x!tpu.dma_semaphore, #tpu.tiled<,[2,1]>, #tpu.memory_space<semaphore_mem>> -> memref<!tpu.dma_semaphore, #tpu.tiled<,[]>, #tpu.memory_space<semaphore_mem>>
          %126 = tpu.erase_memref_layout %125 : memref<!tpu.dma_semaphore, #tpu.tiled<,[]>, #tpu.memory_space<semaphore_mem>> -> memref<!tpu.dma_semaphore, strided<[], offset: 6>, #tpu.memory_space<semaphore_mem>>
          tpu.wait_dma2 semaphore(%126 : memref<!tpu.dma_semaphore, strided<[], offset: 6>, #tpu.memory_space<semaphore_mem>>) src(%120 : memref<?x8x2x128xbf16, strided<[2048, 256, 128, 1], offset: ?>, #tpu.memory_space<vmem>>) dst(%123 : memref<?x8x2x128xbf16, strided<[2048, 256, 128, 1], offset: ?>, #tpu.memory_space<hbm>>)
          %127 = arith.subi %arg24, %108 : i32
          scf.yield %127, %c0_i32 : i32, i32
        }
      }
      %42 = memref.load %6[%c1] : memref<128xi32, #tpu.memory_space<smem>>
      %43 = memref.load %6[%c3] : memref<128xi32, #tpu.memory_space<smem>>
      %44 = arith.cmpi sge, %42, %c0_i32 : i32
      %45 = arith.cmpi sle, %42, %arg0 : i32
      %46 = arith.andi %44, %45 : i1
      scf.if %46 {
        %49 = arith.index_cast %42 : i32 to index
        %50 = memref.load %2[%49] : memref<128xi32, #tpu.memory_space<smem>>
        %51 = arith.muli %43, %c128_i32 : i32
        %52 = arith.addi %50, %51 : i32
        %53 = arith.addi %42, %c1_i32 : i32
        %54 = arith.index_cast %53 : i32 to index
        %55 = memref.load %2[%54] : memref<128xi32, #tpu.memory_space<smem>>
        %56 = arith.subi %55, %52 : i32
        %57 = arith.minsi %56, %c128_i32 : i32
        %58 = tpu.memref_slice %arg18[%c1_i32, %c0_i32, %c0_i32, %c0_i32, %c0_i32, %c0_i32] : memref<2x8x128x2x2x128xbf16, #tpu.tiled<(2,128)(2,1),[2048,256,2,1,1,1]>, #tpu.memory_space<vmem>> -> memref<1x8x128x2x2x128xbf16, #tpu.tiled<(2,128)(2,1),[2048,256,2,1,1,1]>, #tpu.memory_space<vmem>>
        %59 = tpu.memref_squeeze %58 : memref<1x8x128x2x2x128xbf16, #tpu.tiled<(2,128)(2,1),[2048,256,2,1,1,1]>, #tpu.memory_space<vmem>> -> memref<8x128x2x2x128xbf16, #tpu.tiled<(2,128)(2,1),[256,2,1,1,1]>, #tpu.memory_space<vmem>>
        %60 = tpu.memref_slice %59[%c0_i32, %c0_i32, %c0_i32, %c0_i32, %c0_i32] <%57> : memref<8x128x2x2x128xbf16, #tpu.tiled<(2,128)(2,1),[256,2,1,1,1]>, #tpu.memory_space<vmem>> -> memref<8x?x2x2x128xbf16, #tpu.tiled<(2,128)(2,1),[256,2,1,1,1]>, #tpu.memory_space<vmem>>
        %61 = tpu.erase_memref_layout %60 : memref<8x?x2x2x128xbf16, #tpu.tiled<(2,128)(2,1),[256,2,1,1,1]>, #tpu.memory_space<vmem>> -> memref<8x?x2x2x128xbf16, strided<[65536, 512, 256, 128, 1], offset: 524288>, #tpu.memory_space<vmem>>
        %62 = tpu.memref_slice %arg14[%c0_i32, %52, %c0_i32, %c0_i32, %c0_i32] <%57> : memref<8x8192x2x2x128xbf16, #tpu.tiled<(2,128)(2,1),[16384,2,1,1,1]>, #tpu.memory_space<vmem>> -> memref<8x?x2x2x128xbf16, #tpu.tiled<(2,128)(2,1),[16384,2,1,1,1]>, #tpu.memory_space<vmem>>
        %63 = tpu.erase_memref_layout %62 : memref<8x?x2x2x128xbf16, #tpu.tiled<(2,128)(2,1),[16384,2,1,1,1]>, #tpu.memory_space<vmem>> -> memref<8x?x2x2x128xbf16, strided<[4194304, 512, 256, 128, 1], offset: ?>, #tpu.memory_space<vmem>>
        %64 = tpu.memref_slice %arg19[%c2_i32, %c1_i32] : memref<5x2x!tpu.dma_semaphore, #tpu.tiled<,[2,1]>, #tpu.memory_space<semaphore_mem>> -> memref<1x1x!tpu.dma_semaphore, #tpu.tiled<,[2,1]>, #tpu.memory_space<semaphore_mem>>
        %65 = tpu.memref_squeeze %64 : memref<1x1x!tpu.dma_semaphore, #tpu.tiled<,[2,1]>, #tpu.memory_space<semaphore_mem>> -> memref<!tpu.dma_semaphore, #tpu.tiled<,[]>, #tpu.memory_space<semaphore_mem>>
        %66 = tpu.erase_memref_layout %65 : memref<!tpu.dma_semaphore, #tpu.tiled<,[]>, #tpu.memory_space<semaphore_mem>> -> memref<!tpu.dma_semaphore, strided<[], offset: 5>, #tpu.memory_space<semaphore_mem>>
        tpu.wait_dma2 semaphore(%66 : memref<!tpu.dma_semaphore, strided<[], offset: 5>, #tpu.memory_space<semaphore_mem>>) src(%61 : memref<8x?x2x2x128xbf16, strided<[65536, 512, 256, 128, 1], offset: 524288>, #tpu.memory_space<vmem>>) dst(%63 : memref<8x?x2x2x128xbf16, strided<[4194304, 512, 256, 128, 1], offset: ?>, #tpu.memory_space<vmem>>)
      }
      %47 = memref.load %7[%c5] : memref<128xi32, #tpu.memory_space<smem>>
      %48 = arith.cmpi sgt, %47, %c0_i32 : i32
      scf.if %48 {
        %49 = memref.load %7[%c1] : memref<128xi32, #tpu.memory_space<smem>>
        %50 = memref.load %7[%c3] : memref<128xi32, #tpu.memory_space<smem>>
        memref.store %c0_i32, %7[%c5] : memref<128xi32, #tpu.memory_space<smem>>
        %51 = arith.divsi %50, %c1024_i32 : i32
        %52 = arith.cmpi sgt, %50, %c0_i32 : i32
        %53 = arith.extui %52 : i1 to i32
        %54 = arith.cmpi slt, %50, %c0_i32 : i32
        %55 = arith.extui %54 : i1 to i32
        %56 = arith.subi %53, %55 : i32
        %57 = arith.cmpi ne, %56, %c1_i32 : i32
        %58 = arith.remsi %50, %c1024_i32 : i32
        %59 = arith.cmpi ne, %58, %c0_i32 : i32
        %60 = arith.andi %57, %59 : i1
        %61 = arith.subi %51, %c1_i32 : i32
        %62 = arith.select %60, %61, %51 : i32
        %63 = arith.divsi %50, %c128_i32 : i32
        %64 = arith.remsi %50, %c128_i32 : i32
        %65 = arith.cmpi ne, %64, %c0_i32 : i32
        %66 = arith.andi %57, %65 : i1
        %67 = arith.subi %63, %c1_i32 : i32
        %68 = arith.select %66, %67, %63 : i32
        %69 = arith.addi %50, %47 : i32
        %70 = arith.addi %69, %c127_i32 : i32
        %71 = arith.divsi %70, %c128_i32 : i32
        %72 = arith.cmpi sgt, %70, %c0_i32 : i32
        %73 = arith.extui %72 : i1 to i32
        %74 = arith.cmpi slt, %70, %c0_i32 : i32
        %75 = arith.extui %74 : i1 to i32
        %76 = arith.subi %73, %75 : i32
        %77 = arith.cmpi ne, %76, %c1_i32 : i32
        %78 = arith.remsi %70, %c128_i32 : i32
        %79 = arith.cmpi ne, %78, %c0_i32 : i32
        %80 = arith.andi %77, %79 : i1
        %81 = arith.subi %71, %c1_i32 : i32
        %82 = arith.select %80, %81, %71 : i32
        %83 = arith.cmpi slt, %64, %c0_i32 : i32
        %84 = arith.andi %83, %65 : i1
        %85 = arith.addi %64, %c128_i32 : i32
        %86 = arith.select %84, %85, %64 : i32
        %87 = arith.muli %62, %c8_i32 : i32
        %88 = arith.subi %68, %87 : i32
        %89 = arith.index_cast %49 : i32 to index
        %90 = memref.load %3[%89] : memref<128xi32, #tpu.memory_space<smem>>
        %91 = arith.addi %90, %c127_i32 : i32
        %92 = arith.divsi %91, %c128_i32 : i32
        %93 = arith.cmpi sgt, %91, %c0_i32 : i32
        %94 = arith.extui %93 : i1 to i32
        %95 = arith.cmpi slt, %91, %c0_i32 : i32
        %96 = arith.extui %95 : i1 to i32
        %97 = arith.subi %94, %96 : i32
        %98 = arith.cmpi ne, %97, %c1_i32 : i32
        %99 = arith.remsi %91, %c128_i32 : i32
        %100 = arith.cmpi ne, %99, %c0_i32 : i32
        %101 = arith.andi %98, %100 : i1
        %102 = arith.subi %92, %c1_i32 : i32
        %103 = arith.select %101, %102, %92 : i32
        %104 = arith.addi %103, %68 : i32
        %105 = arith.subi %82, %68 : i32
        %106:2 = scf.for %arg23 = %c0_i32 to %105 step %c1_i32 iter_args(%arg24 = %47, %arg25 = %86) -> (i32, i32)  : i32 {
          %107 = arith.subi %c128_i32, %arg25 : i32
          %108 = arith.minsi %107, %arg24 : i32
          %109 = arith.addi %88, %arg23 : i32
          %110 = arith.muli %109, %c128_i32 : i32
          %111 = arith.addi %110, %arg25 : i32
          %112 = arith.addi %104, %arg23 : i32
          %113 = arith.index_cast %112 : i32 to index
          %114 = memref.load %1[%113] : memref<2048xi32, #tpu.memory_space<smem>>
          %115 = arith.muli %114, %c128_i32 : i32
          %116 = arith.addi %115, %arg25 : i32
          %117 = tpu.memref_slice %arg16[%c1_i32, %c0_i32, %c0_i32, %c0_i32, %c0_i32] : memref<2x1024x8x2x128xbf16, #tpu.tiled<(2,128)(2,1),[8192,8,1,1,1]>, #tpu.memory_space<vmem>> -> memref<1x1024x8x2x128xbf16, #tpu.tiled<(2,128)(2,1),[8192,8,1,1,1]>, #tpu.memory_space<vmem>>
          %118 = tpu.memref_squeeze %117 : memref<1x1024x8x2x128xbf16, #tpu.tiled<(2,128)(2,1),[8192,8,1,1,1]>, #tpu.memory_space<vmem>> -> memref<1024x8x2x128xbf16, #tpu.tiled<(2,128)(2,1),[8,1,1,1]>, #tpu.memory_space<vmem>>
          %119 = tpu.memref_slice %118[%111, %c0_i32, %c0_i32, %c0_i32] <%108> : memref<1024x8x2x128xbf16, #tpu.tiled<(2,128)(2,1),[8,1,1,1]>, #tpu.memory_space<vmem>> -> memref<?x8x2x128xbf16, #tpu.tiled<(2,128)(2,1),[8,1,1,1]>, #tpu.memory_space<vmem>>
          %120 = tpu.erase_memref_layout %119 : memref<?x8x2x128xbf16, #tpu.tiled<(2,128)(2,1),[8,1,1,1]>, #tpu.memory_space<vmem>> -> memref<?x8x2x128xbf16, strided<[2048, 256, 128, 1], offset: ?>, #tpu.memory_space<vmem>>
          %121 = tpu.memref_reshape %arg15 : memref<4688x128x8x2x128xbf16, #tpu.tiled<(2,128)(2,1),[1024,8,1,1,1]>, #tpu.memory_space<hbm>> -> memref<600064x8x2x128xbf16, #tpu.tiled<(2,128)(2,1),[8,1,1,1]>, #tpu.memory_space<hbm>>
          %122 = tpu.memref_slice %121[%116, %c0_i32, %c0_i32, %c0_i32] <%108> : memref<600064x8x2x128xbf16, #tpu.tiled<(2,128)(2,1),[8,1,1,1]>, #tpu.memory_space<hbm>> -> memref<?x8x2x128xbf16, #tpu.tiled<(2,128)(2,1),[8,1,1,1]>, #tpu.memory_space<hbm>>
          %123 = tpu.erase_memref_layout %122 : memref<?x8x2x128xbf16, #tpu.tiled<(2,128)(2,1),[8,1,1,1]>, #tpu.memory_space<hbm>> -> memref<?x8x2x128xbf16, strided<[2048, 256, 128, 1], offset: ?>, #tpu.memory_space<hbm>>
          %124 = tpu.memref_slice %arg19[%c3_i32, %c1_i32] : memref<5x2x!tpu.dma_semaphore, #tpu.tiled<,[2,1]>, #tpu.memory_space<semaphore_mem>> -> memref<1x1x!tpu.dma_semaphore, #tpu.tiled<,[2,1]>, #tpu.memory_space<semaphore_mem>>
          %125 = tpu.memref_squeeze %124 : memref<1x1x!tpu.dma_semaphore, #tpu.tiled<,[2,1]>, #tpu.memory_space<semaphore_mem>> -> memref<!tpu.dma_semaphore, #tpu.tiled<,[]>, #tpu.memory_space<semaphore_mem>>
          %126 = tpu.erase_memref_layout %125 : memref<!tpu.dma_semaphore, #tpu.tiled<,[]>, #tpu.memory_space<semaphore_mem>> -> memref<!tpu.dma_semaphore, strided<[], offset: 7>, #tpu.memory_space<semaphore_mem>>
          tpu.wait_dma2 semaphore(%126 : memref<!tpu.dma_semaphore, strided<[], offset: 7>, #tpu.memory_space<semaphore_mem>>) src(%120 : memref<?x8x2x128xbf16, strided<[2048, 256, 128, 1], offset: ?>, #tpu.memory_space<vmem>>) dst(%123 : memref<?x8x2x128xbf16, strided<[2048, 256, 128, 1], offset: ?>, #tpu.memory_space<hbm>>)
          %127 = arith.subi %arg24, %108 : i32
          scf.yield %127, %c0_i32 : i32, i32
        }
      }
    }
    return
  }
}
