module @"RPA-bq_128-bkvp_8-p_128" attributes {stable_mosaic.version = 9 : i64} {
  func.func @main(%arg0: i32, %arg1: memref<128xi32, #tpu.tiled<(128),[1]>, #tpu.memory_space<smem>>, %arg2: memref<2048xi32, #tpu.tiled<(1024),[1]>, #tpu.memory_space<smem>>, %arg3: memref<128xi32, #tpu.tiled<(128),[1]>, #tpu.memory_space<smem>>, %arg4: memref<128xi32, #tpu.tiled<(128),[1]>, #tpu.memory_space<smem>>, %arg5: memref<128xi32, #tpu.tiled<(128),[1]>, #tpu.memory_space<smem>>, %arg6: memref<128xi32, #tpu.tiled<(128),[1]>, #tpu.memory_space<smem>>, %arg7: memref<128xi32, #tpu.tiled<(128),[1]>, #tpu.memory_space<smem>>, %arg8: memref<128xi32, #tpu.tiled<(128),[1]>, #tpu.memory_space<smem>>, %arg9: memref<128xi32, #tpu.tiled<(128),[1]>, #tpu.memory_space<smem>>, %arg10: memref<8x8192x2x2x128xbf16, #tpu.tiled<(2,128)(2,1),[16384,2,1,1,1]>, #tpu.memory_space<any>>, %arg11: memref<8192x8x2x128xbf16, #tpu.tiled<(2,128)(2,1),[8,1,1,1]>, #tpu.memory_space<any>>, %arg12: memref<4688x128x8x2x128xbf16, #tpu.tiled<(2,128)(2,1),[1024,8,1,1,1]>, #tpu.memory_space<any>>, %arg13: memref<1024x128xi32, #tpu.tiled<(8,128),[1,1]>, #tpu.memory_space<any>>, %arg14: memref<8x8192x2x2x128xbf16, #tpu.tiled<(2,128)(2,1),[16384,2,1,1,1]>, #tpu.memory_space<any>>, %arg15: memref<4688x128x8x2x128xbf16, #tpu.tiled<(2,128)(2,1),[1024,8,1,1,1]>, #tpu.memory_space<any>>, %arg16: memref<2x1024x8x2x128xbf16, #tpu.tiled<(2,128)(2,1),[8192,8,1,1,1]>, #tpu.memory_space<vmem>>, %arg17: memref<2x8x128x2x2x128xbf16, #tpu.tiled<(2,128)(2,1),[2048,256,2,1,1,1]>, #tpu.memory_space<vmem>>, %arg18: memref<2x8x128x2x2x128xbf16, #tpu.tiled<(2,128)(2,1),[2048,256,2,1,1,1]>, #tpu.memory_space<vmem>>, %arg19: memref<5x2x!tpu.dma_semaphore, #tpu.tiled<,[2,1]>, #tpu.memory_space<semaphore_mem>>, %arg20: memref<8x512x128xf32, #tpu.tiled<(8,128),[64,1,1]>, #tpu.memory_space<vmem>>, %arg21: memref<8x512x128xf32, #tpu.tiled<(8,128),[64,1,1]>, #tpu.memory_space<vmem>>, %arg22: memref<8x512x128xf32, #tpu.tiled<(8,128),[64,1,1]>, #tpu.memory_space<vmem>>) attributes {dimension_semantics = [#tpu.dimension_semantics<arbitrary>], iteration_bounds = array<i64: -9223372036854775808>, scalar_prefetch = 9 : i64, scratch_operands = 7 : i64, window_params = [{}, {}, {}, {}, {}, {}]} {
    %0 = tpu.erase_memref_layout %arg1 : memref<128xi32, #tpu.tiled<(128),[1]>, #tpu.memory_space<smem>> -> memref<128xi32, #tpu.memory_space<smem>>
    %1 = tpu.erase_memref_layout %arg2 : memref<2048xi32, #tpu.tiled<(1024),[1]>, #tpu.memory_space<smem>> -> memref<2048xi32, #tpu.memory_space<smem>>
    %2 = tpu.erase_memref_layout %arg3 : memref<128xi32, #tpu.tiled<(128),[1]>, #tpu.memory_space<smem>> -> memref<128xi32, #tpu.memory_space<smem>>
    %3 = tpu.erase_memref_layout %arg4 : memref<128xi32, #tpu.tiled<(128),[1]>, #tpu.memory_space<smem>> -> memref<128xi32, #tpu.memory_space<smem>>
    %4 = tpu.erase_memref_layout %arg5 : memref<128xi32, #tpu.tiled<(128),[1]>, #tpu.memory_space<smem>> -> memref<128xi32, #tpu.memory_space<smem>>
    %5 = tpu.erase_memref_layout %arg6 : memref<128xi32, #tpu.tiled<(128),[1]>, #tpu.memory_space<smem>> -> memref<128xi32, #tpu.memory_space<smem>>
    %6 = tpu.erase_memref_layout %arg7 : memref<128xi32, #tpu.tiled<(128),[1]>, #tpu.memory_space<smem>> -> memref<128xi32, #tpu.memory_space<smem>>
    %7 = tpu.erase_memref_layout %arg8 : memref<128xi32, #tpu.tiled<(128),[1]>, #tpu.memory_space<smem>> -> memref<128xi32, #tpu.memory_space<smem>>
    %8 = tpu.erase_memref_layout %arg9 : memref<128xi32, #tpu.tiled<(128),[1]>, #tpu.memory_space<smem>> -> memref<128xi32, #tpu.memory_space<smem>>
    %9 = tpu.erase_memref_layout %arg10 : memref<8x8192x2x2x128xbf16, #tpu.tiled<(2,128)(2,1),[16384,2,1,1,1]>, #tpu.memory_space<any>> -> memref<8x8192x2x2x128xbf16, #tpu.memory_space<any>>
    %10 = tpu.erase_memref_layout %arg11 : memref<8192x8x2x128xbf16, #tpu.tiled<(2,128)(2,1),[8,1,1,1]>, #tpu.memory_space<any>> -> memref<8192x8x2x128xbf16, #tpu.memory_space<any>>
    %11 = tpu.erase_memref_layout %arg12 : memref<4688x128x8x2x128xbf16, #tpu.tiled<(2,128)(2,1),[1024,8,1,1,1]>, #tpu.memory_space<any>> -> memref<4688x128x8x2x128xbf16, #tpu.memory_space<any>>
    %12 = tpu.reinterpret_cast %arg13 : memref<1024x128xi32, #tpu.tiled<(8,128),[1,1]>, #tpu.memory_space<any>> -> memref<1024x128xi32, #tpu.tiled<(1,128),[1,1]>, #tpu.memory_space<any>>
    %13 = tpu.erase_memref_layout %12 : memref<1024x128xi32, #tpu.tiled<(1,128),[1,1]>, #tpu.memory_space<any>> -> memref<1024x128xi32, #tpu.memory_space<any>>
    %14 = tpu.erase_memref_layout %arg14 : memref<8x8192x2x2x128xbf16, #tpu.tiled<(2,128)(2,1),[16384,2,1,1,1]>, #tpu.memory_space<any>> -> memref<8x8192x2x2x128xbf16, #tpu.memory_space<any>>
    %15 = tpu.erase_memref_layout %arg15 : memref<4688x128x8x2x128xbf16, #tpu.tiled<(2,128)(2,1),[1024,8,1,1,1]>, #tpu.memory_space<any>> -> memref<4688x128x8x2x128xbf16, #tpu.memory_space<any>>
    %16 = tpu.erase_memref_layout %arg16 : memref<2x1024x8x2x128xbf16, #tpu.tiled<(2,128)(2,1),[8192,8,1,1,1]>, #tpu.memory_space<vmem>> -> memref<2x1024x8x2x128xbf16, #tpu.memory_space<vmem>>
    %17 = tpu.erase_memref_layout %arg17 : memref<2x8x128x2x2x128xbf16, #tpu.tiled<(2,128)(2,1),[2048,256,2,1,1,1]>, #tpu.memory_space<vmem>> -> memref<2x8x128x2x2x128xbf16, #tpu.memory_space<vmem>>
    %18 = tpu.erase_memref_layout %arg18 : memref<2x8x128x2x2x128xbf16, #tpu.tiled<(2,128)(2,1),[2048,256,2,1,1,1]>, #tpu.memory_space<vmem>> -> memref<2x8x128x2x2x128xbf16, #tpu.memory_space<vmem>>
    %19 = tpu.erase_memref_layout %arg19 : memref<5x2x!tpu.dma_semaphore, #tpu.tiled<,[2,1]>, #tpu.memory_space<semaphore_mem>> -> memref<5x2x!tpu.dma_semaphore, #tpu.memory_space<semaphore_mem>>
    %20 = tpu.reinterpret_cast %arg20 : memref<8x512x128xf32, #tpu.tiled<(8,128),[64,1,1]>, #tpu.memory_space<vmem>> -> memref<8x512x128xf32, #tpu.tiled<(1,128),[512,1,1]>, #tpu.memory_space<vmem>>
    %21 = tpu.erase_memref_layout %20 : memref<8x512x128xf32, #tpu.tiled<(1,128),[512,1,1]>, #tpu.memory_space<vmem>> -> memref<8x512x128xf32, #tpu.memory_space<vmem>>
    %22 = tpu.reinterpret_cast %arg21 : memref<8x512x128xf32, #tpu.tiled<(8,128),[64,1,1]>, #tpu.memory_space<vmem>> -> memref<8x512x128xf32, #tpu.tiled<(1,128),[512,1,1]>, #tpu.memory_space<vmem>>
    %23 = tpu.erase_memref_layout %22 : memref<8x512x128xf32, #tpu.tiled<(1,128),[512,1,1]>, #tpu.memory_space<vmem>> -> memref<8x512x128xf32, #tpu.memory_space<vmem>>
    %24 = tpu.reinterpret_cast %arg22 : memref<8x512x128xf32, #tpu.tiled<(8,128),[64,1,1]>, #tpu.memory_space<vmem>> -> memref<8x512x128xf32, #tpu.tiled<(1,128),[512,1,1]>, #tpu.memory_space<vmem>>
    %25 = tpu.erase_memref_layout %24 : memref<8x512x128xf32, #tpu.tiled<(1,128),[512,1,1]>, #tpu.memory_space<vmem>> -> memref<8x512x128xf32, #tpu.memory_space<vmem>>
    %26 = tpu.iteration_bound 0 : i32
    %c0 = arith.constant 0 : index
    %27 = memref.load %5[%c0] : memref<128xi32, #tpu.memory_space<smem>>
    %c1 = arith.constant 1 : index
    %28 = memref.load %5[%c1] : memref<128xi32, #tpu.memory_space<smem>>
    %c2 = arith.constant 2 : index
    %29 = memref.load %5[%c2] : memref<128xi32, #tpu.memory_space<smem>>
    %30 = arith.index_cast %arg0 : i32 to index
    %31 = memref.load %2[%30] : memref<128xi32, #tpu.memory_space<smem>>
    %c1_i32 = arith.constant 1 : i32
    %32 = arith.addi %arg0, %c1_i32 : i32
    %33 = arith.index_cast %32 : i32 to index
    %34 = memref.load %2[%33] : memref<128xi32, #tpu.memory_space<smem>>
    %35 = arith.subi %34, %31 : i32
    %36 = arith.index_cast %arg0 : i32 to index
    %37 = memref.load %0[%36] : memref<128xi32, #tpu.memory_space<smem>>
    %c0_i32 = arith.constant 0 : i32
    %38 = arith.cmpi eq, %arg0, %c0_i32 : i32
    %39 = arith.extui %38 : i1 to i32
    %c0_i32_0 = arith.constant 0 : i32
    %40 = arith.cmpi ne, %39, %c0_i32_0 : i32
    scf.if %40 {
      %c0_6 = arith.constant 0 : index
      %58 = memref.load %2[%c0_6] : memref<128xi32, #tpu.memory_space<smem>>
      %c0_i32_7 = arith.constant 0 : i32
      %59 = arith.addi %58, %c0_i32_7 : i32
      %c1_8 = arith.constant 1 : index
      %60 = memref.load %2[%c1_8] : memref<128xi32, #tpu.memory_space<smem>>
      %61 = arith.subi %60, %59 : i32
      %c128_i32 = arith.constant 128 : i32
      %62 = arith.minsi %c128_i32, %61 : i32
      %c0_i32_9 = arith.constant 0 : i32
      %c1_i32_10 = arith.constant 1 : i32
      %c0_i32_11 = arith.constant 0 : i32
      %c0_i32_12 = arith.constant 0 : i32
      %c0_i32_13 = arith.constant 0 : i32
      %c0_i32_14 = arith.constant 0 : i32
      %c0_i32_15 = arith.constant 0 : i32
      %63 = tpu.memref_slice %9[%c0_i32_12, %59, %c0_i32_13, %c0_i32_14, %c0_i32_15] <%62> : memref<8x8192x2x2x128xbf16, #tpu.memory_space<any>> -> memref<8x?x2x2x128xbf16, strided<[4194304, 512, 256, 128, 1], offset: ?>, #tpu.memory_space<any>>
      %c0_i32_16 = arith.constant 0 : i32
      %c0_i32_17 = arith.constant 0 : i32
      %c0_i32_18 = arith.constant 0 : i32
      %c0_i32_19 = arith.constant 0 : i32
      %c0_i32_20 = arith.constant 0 : i32
      %64 = tpu.memref_slice %17[%c0_i32_9, %c0_i32_16, %c0_i32_17, %c0_i32_18, %c0_i32_19, %c0_i32_20] : memref<2x8x128x2x2x128xbf16, #tpu.memory_space<vmem>> -> memref<1x8x128x2x2x128xbf16, strided<[524288, 65536, 512, 256, 128, 1]>, #tpu.memory_space<vmem>>
      %65 = tpu.memref_squeeze %64 : memref<1x8x128x2x2x128xbf16, strided<[524288, 65536, 512, 256, 128, 1]>, #tpu.memory_space<vmem>> -> memref<8x128x2x2x128xbf16, strided<[65536, 512, 256, 128, 1]>, #tpu.memory_space<vmem>>
      %c0_i32_21 = arith.constant 0 : i32
      %c0_i32_22 = arith.constant 0 : i32
      %c0_i32_23 = arith.constant 0 : i32
      %c0_i32_24 = arith.constant 0 : i32
      %c0_i32_25 = arith.constant 0 : i32
      %66 = tpu.memref_slice %65[%c0_i32_21, %c0_i32_22, %c0_i32_23, %c0_i32_24, %c0_i32_25] <%62> : memref<8x128x2x2x128xbf16, strided<[65536, 512, 256, 128, 1]>, #tpu.memory_space<vmem>> -> memref<8x?x2x2x128xbf16, strided<[65536, 512, 256, 128, 1]>, #tpu.memory_space<vmem>>
      %67 = tpu.memref_slice %19[%c1_i32_10, %c0_i32_11] : memref<5x2x!tpu.dma_semaphore, #tpu.memory_space<semaphore_mem>> -> memref<1x1x!tpu.dma_semaphore, strided<[2, 1], offset: 2>, #tpu.memory_space<semaphore_mem>>
      %68 = tpu.memref_squeeze %67 : memref<1x1x!tpu.dma_semaphore, strided<[2, 1], offset: 2>, #tpu.memory_space<semaphore_mem>> -> memref<!tpu.dma_semaphore, strided<[], offset: 2>, #tpu.memory_space<semaphore_mem>>
      tpu.enqueue_dma source(%63 : memref<8x?x2x2x128xbf16, strided<[4194304, 512, 256, 128, 1], offset: ?>, #tpu.memory_space<any>>) target(%66 : memref<8x?x2x2x128xbf16, strided<[65536, 512, 256, 128, 1]>, #tpu.memory_space<vmem>>) target_semaphore(%68 : memref<!tpu.dma_semaphore, strided<[], offset: 2>, #tpu.memory_space<semaphore_mem>>)
      %c0_26 = arith.constant 0 : index
      %69 = memref.load %0[%c0_26] : memref<128xi32, #tpu.memory_space<smem>>
      %c0_27 = arith.constant 0 : index
      %70 = memref.load %2[%c0_27] : memref<128xi32, #tpu.memory_space<smem>>
      %c1_28 = arith.constant 1 : index
      %71 = memref.load %2[%c1_28] : memref<128xi32, #tpu.memory_space<smem>>
      %72 = arith.subi %71, %70 : i32
      %c0_i32_29 = arith.constant 0 : i32
      %73 = arith.subi %69, %c0_i32_29 : i32
      %74 = arith.subi %73, %72 : i32
      %c0_i32_30 = arith.constant 0 : i32
      %75 = arith.maxsi %74, %c0_i32_30 : i32
      %76 = arith.subi %73, %75 : i32
      %c128_i32_31 = arith.constant 128 : i32
      %77 = arith.addi %75, %c128_i32_31 : i32
      %c1_i32_32 = arith.constant 1 : i32
      %78 = arith.subi %77, %c1_i32_32 : i32
      %c128_i32_33 = arith.constant 128 : i32
      %79 = arith.divsi %78, %c128_i32_33 : i32
      %c0_i32_34 = arith.constant 0 : i32
      %80 = arith.cmpi sgt, %78, %c0_i32_34 : i32
      %81 = arith.extui %80 : i1 to i32
      %c0_i32_35 = arith.constant 0 : i32
      %82 = arith.cmpi slt, %78, %c0_i32_35 : i32
      %83 = arith.extui %82 : i1 to i32
      %84 = arith.subi %81, %83 : i32
      %c0_i32_36 = arith.constant 0 : i32
      %85 = arith.cmpi sgt, %c128_i32_33, %c0_i32_36 : i32
      %86 = arith.extui %85 : i1 to i32
      %c0_i32_37 = arith.constant 0 : i32
      %87 = arith.cmpi slt, %c128_i32_33, %c0_i32_37 : i32
      %88 = arith.extui %87 : i1 to i32
      %89 = arith.subi %86, %88 : i32
      %90 = arith.cmpi ne, %84, %89 : i32
      %91 = arith.remsi %78, %c128_i32_33 : i32
      %c0_i32_38 = arith.constant 0 : i32
      %92 = arith.cmpi ne, %91, %c0_i32_38 : i32
      %93 = arith.andi %90, %92 : i1
      %c1_i32_39 = arith.constant 1 : i32
      %94 = arith.subi %79, %c1_i32_39 : i32
      %95 = arith.select %93, %94, %79 : i32
      %c8_i32 = arith.constant 8 : i32
      %96 = arith.minsi %95, %c8_i32 : i32
      %c1024_i32 = arith.constant 1024 : i32
      %97 = arith.subi %c1024_i32, %75 : i32
      %c0_i32_40 = arith.constant 0 : i32
      %98 = arith.maxsi %97, %c0_i32_40 : i32
      %99 = arith.minsi %98, %76 : i32
      %c0_41 = arith.constant 0 : index
      %100 = memref.load %3[%c0_41] : memref<128xi32, #tpu.memory_space<smem>>
      %c128_i32_42 = arith.constant 128 : i32
      %101 = arith.addi %100, %c128_i32_42 : i32
      %c1_i32_43 = arith.constant 1 : i32
      %102 = arith.subi %101, %c1_i32_43 : i32
      %c128_i32_44 = arith.constant 128 : i32
      %103 = arith.divsi %102, %c128_i32_44 : i32
      %c0_i32_45 = arith.constant 0 : i32
      %104 = arith.cmpi sgt, %102, %c0_i32_45 : i32
      %105 = arith.extui %104 : i1 to i32
      %c0_i32_46 = arith.constant 0 : i32
      %106 = arith.cmpi slt, %102, %c0_i32_46 : i32
      %107 = arith.extui %106 : i1 to i32
      %108 = arith.subi %105, %107 : i32
      %c0_i32_47 = arith.constant 0 : i32
      %109 = arith.cmpi sgt, %c128_i32_44, %c0_i32_47 : i32
      %110 = arith.extui %109 : i1 to i32
      %c0_i32_48 = arith.constant 0 : i32
      %111 = arith.cmpi slt, %c128_i32_44, %c0_i32_48 : i32
      %112 = arith.extui %111 : i1 to i32
      %113 = arith.subi %110, %112 : i32
      %114 = arith.cmpi ne, %108, %113 : i32
      %115 = arith.remsi %102, %c128_i32_44 : i32
      %c0_i32_49 = arith.constant 0 : i32
      %116 = arith.cmpi ne, %115, %c0_i32_49 : i32
      %117 = arith.andi %114, %116 : i1
      %c1_i32_50 = arith.constant 1 : i32
      %118 = arith.subi %103, %c1_i32_50 : i32
      %119 = arith.select %117, %118, %103 : i32
      %c0_i32_51 = arith.constant 0 : i32
      %120 = arith.addi %119, %c0_i32_51 : i32
      %c4 = arith.constant 4 : index
      %121 = memref.load %8[%c4] : memref<128xi32, #tpu.memory_space<smem>>
      %c0_i32_52 = arith.constant 0 : i32
      %122 = arith.cmpi sgt, %121, %c0_i32_52 : i32
      %123 = arith.extui %122 : i1 to i32
      %c0_i32_53 = arith.constant 0 : i32
      %124 = arith.cmpi ne, %123, %c0_i32_53 : i32
      scf.if %124 {
        %c0_66 = arith.constant 0 : index
        %132 = memref.load %8[%c0_66] : memref<128xi32, #tpu.memory_space<smem>>
        %c2_67 = arith.constant 2 : index
        %133 = memref.load %8[%c2_67] : memref<128xi32, #tpu.memory_space<smem>>
        %c0_i32_68 = arith.constant 0 : i32
        %c4_69 = arith.constant 4 : index
        %134 = memref.load %8[%c4_69] : memref<128xi32, #tpu.memory_space<smem>>
        memref.store %c0_i32_68, %8[%c4_69] : memref<128xi32, #tpu.memory_space<smem>>
        %c1024_i32_70 = arith.constant 1024 : i32
        %135 = arith.divsi %133, %c1024_i32_70 : i32
        %c0_i32_71 = arith.constant 0 : i32
        %136 = arith.cmpi sgt, %133, %c0_i32_71 : i32
        %137 = arith.extui %136 : i1 to i32
        %c0_i32_72 = arith.constant 0 : i32
        %138 = arith.cmpi slt, %133, %c0_i32_72 : i32
        %139 = arith.extui %138 : i1 to i32
        %140 = arith.subi %137, %139 : i32
        %c0_i32_73 = arith.constant 0 : i32
        %141 = arith.cmpi sgt, %c1024_i32_70, %c0_i32_73 : i32
        %142 = arith.extui %141 : i1 to i32
        %c0_i32_74 = arith.constant 0 : i32
        %143 = arith.cmpi slt, %c1024_i32_70, %c0_i32_74 : i32
        %144 = arith.extui %143 : i1 to i32
        %145 = arith.subi %142, %144 : i32
        %146 = arith.cmpi ne, %140, %145 : i32
        %147 = arith.remsi %133, %c1024_i32_70 : i32
        %c0_i32_75 = arith.constant 0 : i32
        %148 = arith.cmpi ne, %147, %c0_i32_75 : i32
        %149 = arith.andi %146, %148 : i1
        %c1_i32_76 = arith.constant 1 : i32
        %150 = arith.subi %135, %c1_i32_76 : i32
        %151 = arith.select %149, %150, %135 : i32
        %c128_i32_77 = arith.constant 128 : i32
        %152 = arith.divsi %133, %c128_i32_77 : i32
        %c0_i32_78 = arith.constant 0 : i32
        %153 = arith.cmpi sgt, %133, %c0_i32_78 : i32
        %154 = arith.extui %153 : i1 to i32
        %c0_i32_79 = arith.constant 0 : i32
        %155 = arith.cmpi slt, %133, %c0_i32_79 : i32
        %156 = arith.extui %155 : i1 to i32
        %157 = arith.subi %154, %156 : i32
        %c0_i32_80 = arith.constant 0 : i32
        %158 = arith.cmpi sgt, %c128_i32_77, %c0_i32_80 : i32
        %159 = arith.extui %158 : i1 to i32
        %c0_i32_81 = arith.constant 0 : i32
        %160 = arith.cmpi slt, %c128_i32_77, %c0_i32_81 : i32
        %161 = arith.extui %160 : i1 to i32
        %162 = arith.subi %159, %161 : i32
        %163 = arith.cmpi ne, %157, %162 : i32
        %164 = arith.remsi %133, %c128_i32_77 : i32
        %c0_i32_82 = arith.constant 0 : i32
        %165 = arith.cmpi ne, %164, %c0_i32_82 : i32
        %166 = arith.andi %163, %165 : i1
        %c1_i32_83 = arith.constant 1 : i32
        %167 = arith.subi %152, %c1_i32_83 : i32
        %168 = arith.select %166, %167, %152 : i32
        %169 = arith.addi %133, %121 : i32
        %c128_i32_84 = arith.constant 128 : i32
        %170 = arith.addi %169, %c128_i32_84 : i32
        %c1_i32_85 = arith.constant 1 : i32
        %171 = arith.subi %170, %c1_i32_85 : i32
        %c128_i32_86 = arith.constant 128 : i32
        %172 = arith.divsi %171, %c128_i32_86 : i32
        %c0_i32_87 = arith.constant 0 : i32
        %173 = arith.cmpi sgt, %171, %c0_i32_87 : i32
        %174 = arith.extui %173 : i1 to i32
        %c0_i32_88 = arith.constant 0 : i32
        %175 = arith.cmpi slt, %171, %c0_i32_88 : i32
        %176 = arith.extui %175 : i1 to i32
        %177 = arith.subi %174, %176 : i32
        %c0_i32_89 = arith.constant 0 : i32
        %178 = arith.cmpi sgt, %c128_i32_86, %c0_i32_89 : i32
        %179 = arith.extui %178 : i1 to i32
        %c0_i32_90 = arith.constant 0 : i32
        %180 = arith.cmpi slt, %c128_i32_86, %c0_i32_90 : i32
        %181 = arith.extui %180 : i1 to i32
        %182 = arith.subi %179, %181 : i32
        %183 = arith.cmpi ne, %177, %182 : i32
        %184 = arith.remsi %171, %c128_i32_86 : i32
        %c0_i32_91 = arith.constant 0 : i32
        %185 = arith.cmpi ne, %184, %c0_i32_91 : i32
        %186 = arith.andi %183, %185 : i1
        %c1_i32_92 = arith.constant 1 : i32
        %187 = arith.subi %172, %c1_i32_92 : i32
        %188 = arith.select %186, %187, %172 : i32
        %c128_i32_93 = arith.constant 128 : i32
        %c0_i32_94 = arith.constant 0 : i32
        %189 = arith.cmpi eq, %c128_i32_93, %c0_i32_94 : i32
        %c1_i32_95 = arith.constant 1 : i32
        %190 = arith.select %189, %c1_i32_95, %c128_i32_93 : i32
        %191 = arith.remsi %133, %190 : i32
        %c0_i32_96 = arith.constant 0 : i32
        %192 = arith.cmpi ne, %191, %c0_i32_96 : i32
        %c0_i32_97 = arith.constant 0 : i32
        %193 = arith.cmpi slt, %191, %c0_i32_97 : i32
        %c0_i32_98 = arith.constant 0 : i32
        %194 = arith.cmpi slt, %190, %c0_i32_98 : i32
        %195 = arith.xori %193, %194 : i1
        %196 = arith.andi %195, %192 : i1
        %197 = arith.addi %191, %190 : i32
        %198 = arith.select %196, %197, %191 : i32
        %c8_i32_99 = arith.constant 8 : i32
        %199 = arith.muli %151, %c8_i32_99 : i32
        %200 = arith.subi %168, %199 : i32
        %201 = arith.index_cast %132 : i32 to index
        %202 = memref.load %3[%201] : memref<128xi32, #tpu.memory_space<smem>>
        %c128_i32_100 = arith.constant 128 : i32
        %203 = arith.addi %202, %c128_i32_100 : i32
        %c1_i32_101 = arith.constant 1 : i32
        %204 = arith.subi %203, %c1_i32_101 : i32
        %c128_i32_102 = arith.constant 128 : i32
        %205 = arith.divsi %204, %c128_i32_102 : i32
        %c0_i32_103 = arith.constant 0 : i32
        %206 = arith.cmpi sgt, %204, %c0_i32_103 : i32
        %207 = arith.extui %206 : i1 to i32
        %c0_i32_104 = arith.constant 0 : i32
        %208 = arith.cmpi slt, %204, %c0_i32_104 : i32
        %209 = arith.extui %208 : i1 to i32
        %210 = arith.subi %207, %209 : i32
        %c0_i32_105 = arith.constant 0 : i32
        %211 = arith.cmpi sgt, %c128_i32_102, %c0_i32_105 : i32
        %212 = arith.extui %211 : i1 to i32
        %c0_i32_106 = arith.constant 0 : i32
        %213 = arith.cmpi slt, %c128_i32_102, %c0_i32_106 : i32
        %214 = arith.extui %213 : i1 to i32
        %215 = arith.subi %212, %214 : i32
        %216 = arith.cmpi ne, %210, %215 : i32
        %217 = arith.remsi %204, %c128_i32_102 : i32
        %c0_i32_107 = arith.constant 0 : i32
        %218 = arith.cmpi ne, %217, %c0_i32_107 : i32
        %219 = arith.andi %216, %218 : i1
        %c1_i32_108 = arith.constant 1 : i32
        %220 = arith.subi %205, %c1_i32_108 : i32
        %221 = arith.select %219, %220, %205 : i32
        %222 = arith.addi %221, %168 : i32
        %223 = arith.subi %188, %168 : i32
        %c0_i32_109 = arith.constant 0 : i32
        %c3_i32 = arith.constant 3 : i32
        %c0_i32_110 = arith.constant 0 : i32
        %c0_i32_111 = arith.constant 0 : i32
        %224 = arith.subi %223, %c0_i32_111 : i32
        %225 = arith.addi %c0_i32_111, %224 : i32
        %c1_i32_112 = arith.constant 1 : i32
        %226:2 = scf.for %arg23 = %c0_i32_111 to %225 step %c1_i32_112 iter_args(%arg24 = %121, %arg25 = %198) -> (i32, i32)  : i32 {
          %c128_i32_113 = arith.constant 128 : i32
          %227 = arith.subi %c128_i32_113, %arg25 : i32
          %228 = arith.minsi %227, %arg24 : i32
          %229 = arith.addi %200, %arg23 : i32
          %c128_i32_114 = arith.constant 128 : i32
          %230 = arith.muli %229, %c128_i32_114 : i32
          %231 = arith.addi %230, %arg25 : i32
          %232 = arith.addi %222, %arg23 : i32
          %233 = arith.index_cast %232 : i32 to index
          %234 = memref.load %1[%233] : memref<2048xi32, #tpu.memory_space<smem>>
          %c128_i32_115 = arith.constant 128 : i32
          %235 = arith.muli %234, %c128_i32_115 : i32
          %236 = arith.addi %235, %arg25 : i32
          %c0_i32_116 = arith.constant 0 : i32
          %c0_i32_117 = arith.constant 0 : i32
          %c0_i32_118 = arith.constant 0 : i32
          %c0_i32_119 = arith.constant 0 : i32
          %237 = tpu.memref_slice %16[%c0_i32_109, %c0_i32_116, %c0_i32_117, %c0_i32_118, %c0_i32_119] : memref<2x1024x8x2x128xbf16, #tpu.memory_space<vmem>> -> memref<1x1024x8x2x128xbf16, strided<[2097152, 2048, 256, 128, 1]>, #tpu.memory_space<vmem>>
          %238 = tpu.memref_squeeze %237 : memref<1x1024x8x2x128xbf16, strided<[2097152, 2048, 256, 128, 1]>, #tpu.memory_space<vmem>> -> memref<1024x8x2x128xbf16, strided<[2048, 256, 128, 1]>, #tpu.memory_space<vmem>>
          %c0_i32_120 = arith.constant 0 : i32
          %c0_i32_121 = arith.constant 0 : i32
          %c0_i32_122 = arith.constant 0 : i32
          %239 = tpu.memref_slice %238[%231, %c0_i32_120, %c0_i32_121, %c0_i32_122] <%228> : memref<1024x8x2x128xbf16, strided<[2048, 256, 128, 1]>, #tpu.memory_space<vmem>> -> memref<?x8x2x128xbf16, strided<[2048, 256, 128, 1], offset: ?>, #tpu.memory_space<vmem>>
          %240 = tpu.memref_reshape %15 : memref<4688x128x8x2x128xbf16, #tpu.memory_space<any>> -> memref<600064x8x2x128xbf16, #tpu.memory_space<any>>
          %c0_i32_123 = arith.constant 0 : i32
          %c0_i32_124 = arith.constant 0 : i32
          %c0_i32_125 = arith.constant 0 : i32
          %241 = tpu.memref_slice %240[%236, %c0_i32_123, %c0_i32_124, %c0_i32_125] <%228> : memref<600064x8x2x128xbf16, #tpu.memory_space<any>> -> memref<?x8x2x128xbf16, strided<[2048, 256, 128, 1], offset: ?>, #tpu.memory_space<any>>
          %242 = tpu.memref_slice %19[%c3_i32, %c0_i32_110] : memref<5x2x!tpu.dma_semaphore, #tpu.memory_space<semaphore_mem>> -> memref<1x1x!tpu.dma_semaphore, strided<[2, 1], offset: 6>, #tpu.memory_space<semaphore_mem>>
          %243 = tpu.memref_squeeze %242 : memref<1x1x!tpu.dma_semaphore, strided<[2, 1], offset: 6>, #tpu.memory_space<semaphore_mem>> -> memref<!tpu.dma_semaphore, strided<[], offset: 6>, #tpu.memory_space<semaphore_mem>>
          tpu.wait_dma2 semaphore(%243 : memref<!tpu.dma_semaphore, strided<[], offset: 6>, #tpu.memory_space<semaphore_mem>>) src(%239 : memref<?x8x2x128xbf16, strided<[2048, 256, 128, 1], offset: ?>, #tpu.memory_space<vmem>>) dst(%241 : memref<?x8x2x128xbf16, strided<[2048, 256, 128, 1], offset: ?>, #tpu.memory_space<any>>)
          %244 = arith.subi %arg24, %228 : i32
          %c0_i32_126 = arith.constant 0 : i32
          scf.yield %244, %c0_i32_126 : i32, i32
        }
      } else {
      }
      %c0_i32_54 = arith.constant 0 : i32
      %c0_i32_55 = arith.constant 0 : i32
      %c0_i32_56 = arith.constant 0 : i32
      %c0_i32_57 = arith.constant 0 : i32
      %c0_i32_58 = arith.constant 0 : i32
      %125 = arith.subi %96, %c0_i32_57 : i32
      %126 = arith.addi %c0_i32_57, %125 : i32
      %c1_i32_59 = arith.constant 1 : i32
      %127 = scf.for %arg23 = %c0_i32_57 to %126 step %c1_i32_59 iter_args(%arg24 = %c0_i32_58) -> (i32)  : i32 {
        %c128_i32_66 = arith.constant 128 : i32
        %132 = arith.muli %arg23, %c128_i32_66 : i32
        %133 = arith.subi %75, %132 : i32
        %c128_i32_67 = arith.constant 128 : i32
        %134 = arith.minsi %c128_i32_67, %133 : i32
        %135 = arith.addi %120, %arg23 : i32
        %136 = arith.index_cast %135 : i32 to index
        %137 = memref.load %1[%136] : memref<2048xi32, #tpu.memory_space<smem>>
        %c128_i32_68 = arith.constant 128 : i32
        %138 = arith.muli %137, %c128_i32_68 : i32
        %c128_i32_69 = arith.constant 128 : i32
        %139 = arith.muli %arg23, %c128_i32_69 : i32
        %140 = tpu.memref_reshape %11 : memref<4688x128x8x2x128xbf16, #tpu.memory_space<any>> -> memref<600064x8x2x128xbf16, #tpu.memory_space<any>>
        %c0_i32_70 = arith.constant 0 : i32
        %c0_i32_71 = arith.constant 0 : i32
        %c0_i32_72 = arith.constant 0 : i32
        %141 = tpu.memref_slice %140[%138, %c0_i32_70, %c0_i32_71, %c0_i32_72] <%134> : memref<600064x8x2x128xbf16, #tpu.memory_space<any>> -> memref<?x8x2x128xbf16, strided<[2048, 256, 128, 1], offset: ?>, #tpu.memory_space<any>>
        %c0_i32_73 = arith.constant 0 : i32
        %c0_i32_74 = arith.constant 0 : i32
        %c0_i32_75 = arith.constant 0 : i32
        %c0_i32_76 = arith.constant 0 : i32
        %142 = tpu.memref_slice %16[%c0_i32_54, %c0_i32_73, %c0_i32_74, %c0_i32_75, %c0_i32_76] : memref<2x1024x8x2x128xbf16, #tpu.memory_space<vmem>> -> memref<1x1024x8x2x128xbf16, strided<[2097152, 2048, 256, 128, 1]>, #tpu.memory_space<vmem>>
        %143 = tpu.memref_squeeze %142 : memref<1x1024x8x2x128xbf16, strided<[2097152, 2048, 256, 128, 1]>, #tpu.memory_space<vmem>> -> memref<1024x8x2x128xbf16, strided<[2048, 256, 128, 1]>, #tpu.memory_space<vmem>>
        %c0_i32_77 = arith.constant 0 : i32
        %c0_i32_78 = arith.constant 0 : i32
        %c0_i32_79 = arith.constant 0 : i32
        %144 = tpu.memref_slice %143[%139, %c0_i32_77, %c0_i32_78, %c0_i32_79] <%134> : memref<1024x8x2x128xbf16, strided<[2048, 256, 128, 1]>, #tpu.memory_space<vmem>> -> memref<?x8x2x128xbf16, strided<[2048, 256, 128, 1], offset: ?>, #tpu.memory_space<vmem>>
        %145 = tpu.memref_slice %19[%c0_i32_55, %c0_i32_56] : memref<5x2x!tpu.dma_semaphore, #tpu.memory_space<semaphore_mem>> -> memref<1x1x!tpu.dma_semaphore, strided<[2, 1]>, #tpu.memory_space<semaphore_mem>>
        %146 = tpu.memref_squeeze %145 : memref<1x1x!tpu.dma_semaphore, strided<[2, 1]>, #tpu.memory_space<semaphore_mem>> -> memref<!tpu.dma_semaphore, strided<[]>, #tpu.memory_space<semaphore_mem>>
        tpu.enqueue_dma source(%141 : memref<?x8x2x128xbf16, strided<[2048, 256, 128, 1], offset: ?>, #tpu.memory_space<any>>) target(%144 : memref<?x8x2x128xbf16, strided<[2048, 256, 128, 1], offset: ?>, #tpu.memory_space<vmem>>) target_semaphore(%146 : memref<!tpu.dma_semaphore, strided<[]>, #tpu.memory_space<semaphore_mem>>)
        %147 = arith.addi %arg24, %134 : i32
        scf.yield %147 : i32
      }
      %c0_i32_60 = arith.constant 0 : i32
      %128 = arith.cmpi sgt, %99, %c0_i32_60 : i32
      %129 = arith.extui %128 : i1 to i32
      %c0_i32_61 = arith.constant 0 : i32
      %c0_i32_62 = arith.constant 0 : i32
      %c0_i32_63 = arith.constant 0 : i32
      %c0_i32_64 = arith.constant 0 : i32
      %130 = arith.cmpi ne, %129, %c0_i32_64 : i32
      scf.if %130 {
        %132 = arith.subi %71, %76 : i32
        %c0_i32_66 = arith.constant 0 : i32
        %c0_i32_67 = arith.constant 0 : i32
        %c0_i32_68 = arith.constant 0 : i32
        %133 = tpu.memref_slice %10[%132, %c0_i32_66, %c0_i32_67, %c0_i32_68] <%99> : memref<8192x8x2x128xbf16, #tpu.memory_space<any>> -> memref<?x8x2x128xbf16, strided<[2048, 256, 128, 1], offset: ?>, #tpu.memory_space<any>>
        %c0_i32_69 = arith.constant 0 : i32
        %c0_i32_70 = arith.constant 0 : i32
        %c0_i32_71 = arith.constant 0 : i32
        %c0_i32_72 = arith.constant 0 : i32
        %134 = tpu.memref_slice %16[%c0_i32_61, %c0_i32_69, %c0_i32_70, %c0_i32_71, %c0_i32_72] : memref<2x1024x8x2x128xbf16, #tpu.memory_space<vmem>> -> memref<1x1024x8x2x128xbf16, strided<[2097152, 2048, 256, 128, 1]>, #tpu.memory_space<vmem>>
        %135 = tpu.memref_squeeze %134 : memref<1x1024x8x2x128xbf16, strided<[2097152, 2048, 256, 128, 1]>, #tpu.memory_space<vmem>> -> memref<1024x8x2x128xbf16, strided<[2048, 256, 128, 1]>, #tpu.memory_space<vmem>>
        %c0_i32_73 = arith.constant 0 : i32
        %c0_i32_74 = arith.constant 0 : i32
        %c0_i32_75 = arith.constant 0 : i32
        %136 = tpu.memref_slice %135[%127, %c0_i32_73, %c0_i32_74, %c0_i32_75] <%99> : memref<1024x8x2x128xbf16, strided<[2048, 256, 128, 1]>, #tpu.memory_space<vmem>> -> memref<?x8x2x128xbf16, strided<[2048, 256, 128, 1], offset: ?>, #tpu.memory_space<vmem>>
        %137 = tpu.memref_slice %19[%c0_i32_62, %c0_i32_63] : memref<5x2x!tpu.dma_semaphore, #tpu.memory_space<semaphore_mem>> -> memref<1x1x!tpu.dma_semaphore, strided<[2, 1]>, #tpu.memory_space<semaphore_mem>>
        %138 = tpu.memref_squeeze %137 : memref<1x1x!tpu.dma_semaphore, strided<[2, 1]>, #tpu.memory_space<semaphore_mem>> -> memref<!tpu.dma_semaphore, strided<[]>, #tpu.memory_space<semaphore_mem>>
        tpu.enqueue_dma source(%133 : memref<?x8x2x128xbf16, strided<[2048, 256, 128, 1], offset: ?>, #tpu.memory_space<any>>) target(%136 : memref<?x8x2x128xbf16, strided<[2048, 256, 128, 1], offset: ?>, #tpu.memory_space<vmem>>) target_semaphore(%138 : memref<!tpu.dma_semaphore, strided<[]>, #tpu.memory_space<semaphore_mem>>)
      } else {
      }
      %c0_i32_65 = arith.constant 0 : i32
      %131 = arith.addi %c0_i32_65, %127 : i32
    } else {
    }
    %41 = arith.cmpi slt, %arg0, %27 : i32
    %42 = arith.extui %41 : i1 to i32
    %c0_i32_1 = arith.constant 0 : i32
    %43 = arith.cmpi ne, %42, %c0_i32_1 : i32
    scf.if %43 {
      %c1024_i32 = arith.constant 1024 : i32
      %58 = arith.addi %37, %c1024_i32 : i32
      %c1_i32_6 = arith.constant 1 : i32
      %59 = arith.subi %58, %c1_i32_6 : i32
      %c1024_i32_7 = arith.constant 1024 : i32
      %60 = arith.divsi %59, %c1024_i32_7 : i32
      %c0_i32_8 = arith.constant 0 : i32
      %61 = arith.cmpi sgt, %59, %c0_i32_8 : i32
      %62 = arith.extui %61 : i1 to i32
      %c0_i32_9 = arith.constant 0 : i32
      %63 = arith.cmpi slt, %59, %c0_i32_9 : i32
      %64 = arith.extui %63 : i1 to i32
      %65 = arith.subi %62, %64 : i32
      %c0_i32_10 = arith.constant 0 : i32
      %66 = arith.cmpi sgt, %c1024_i32_7, %c0_i32_10 : i32
      %67 = arith.extui %66 : i1 to i32
      %c0_i32_11 = arith.constant 0 : i32
      %68 = arith.cmpi slt, %c1024_i32_7, %c0_i32_11 : i32
      %69 = arith.extui %68 : i1 to i32
      %70 = arith.subi %67, %69 : i32
      %71 = arith.cmpi ne, %65, %70 : i32
      %72 = arith.remsi %59, %c1024_i32_7 : i32
      %c0_i32_12 = arith.constant 0 : i32
      %73 = arith.cmpi ne, %72, %c0_i32_12 : i32
      %74 = arith.andi %71, %73 : i1
      %c1_i32_13 = arith.constant 1 : i32
      %75 = arith.subi %60, %c1_i32_13 : i32
      %76 = arith.select %74, %75, %60 : i32
      %c0_i32_14 = arith.constant 0 : i32
      %c0_15 = arith.constant 0 : index
      %77 = memref.load %6[%c0_15] : memref<128xi32, #tpu.memory_space<smem>>
      %c1_i32_16 = arith.constant 1 : i32
      %78 = arith.addi %c0_i32_14, %c1_i32_16 : i32
      %c1_i32_17 = arith.constant 1 : i32
      %79 = arith.cmpi eq, %78, %c1_i32_17 : i32
      %c0_i32_18 = arith.constant 0 : i32
      %80 = arith.select %79, %c0_i32_18, %78 : i32
      %c1_i32_19 = arith.constant 1 : i32
      %81 = arith.addi %arg0, %c1_i32_19 : i32
      %82 = arith.select %79, %81, %arg0 : i32
      %c0_i32_20 = arith.constant 0 : i32
      %83 = arith.cmpi eq, %77, %c0_i32_20 : i32
      %c0_i32_21 = arith.constant 0 : i32
      %c1_i32_22 = arith.constant 1 : i32
      %84 = arith.select %83, %c1_i32_22, %c0_i32_21 : i32
      %85 = arith.cmpi slt, %82, %26 : i32
      %86 = arith.extui %85 : i1 to i32
      %c0_i32_23 = arith.constant 0 : i32
      %87 = arith.cmpi ne, %86, %c0_i32_23 : i32
      scf.if %87 {
        %c0_66 = arith.constant 0 : index
        %135 = memref.load %6[%c0_66] : memref<128xi32, #tpu.memory_space<smem>>
        memref.store %84, %6[%c0_66] : memref<128xi32, #tpu.memory_space<smem>>
        %136 = arith.index_cast %82 : i32 to index
        %137 = memref.load %2[%136] : memref<128xi32, #tpu.memory_space<smem>>
        %c128_i32_67 = arith.constant 128 : i32
        %138 = arith.muli %80, %c128_i32_67 : i32
        %139 = arith.addi %137, %138 : i32
        %c1_i32_68 = arith.constant 1 : i32
        %140 = arith.addi %82, %c1_i32_68 : i32
        %141 = arith.index_cast %140 : i32 to index
        %142 = memref.load %2[%141] : memref<128xi32, #tpu.memory_space<smem>>
        %143 = arith.subi %142, %139 : i32
        %c128_i32_69 = arith.constant 128 : i32
        %144 = arith.minsi %c128_i32_69, %143 : i32
        %c1_i32_70 = arith.constant 1 : i32
        %c0_i32_71 = arith.constant 0 : i32
        %c0_i32_72 = arith.constant 0 : i32
        %c0_i32_73 = arith.constant 0 : i32
        %c0_i32_74 = arith.constant 0 : i32
        %145 = tpu.memref_slice %9[%c0_i32_71, %139, %c0_i32_72, %c0_i32_73, %c0_i32_74] <%144> : memref<8x8192x2x2x128xbf16, #tpu.memory_space<any>> -> memref<8x?x2x2x128xbf16, strided<[4194304, 512, 256, 128, 1], offset: ?>, #tpu.memory_space<any>>
        %c0_i32_75 = arith.constant 0 : i32
        %c0_i32_76 = arith.constant 0 : i32
        %c0_i32_77 = arith.constant 0 : i32
        %c0_i32_78 = arith.constant 0 : i32
        %c0_i32_79 = arith.constant 0 : i32
        %146 = tpu.memref_slice %17[%84, %c0_i32_75, %c0_i32_76, %c0_i32_77, %c0_i32_78, %c0_i32_79] : memref<2x8x128x2x2x128xbf16, #tpu.memory_space<vmem>> -> memref<1x8x128x2x2x128xbf16, strided<[524288, 65536, 512, 256, 128, 1], offset: ?>, #tpu.memory_space<vmem>>
        %147 = tpu.memref_squeeze %146 : memref<1x8x128x2x2x128xbf16, strided<[524288, 65536, 512, 256, 128, 1], offset: ?>, #tpu.memory_space<vmem>> -> memref<8x128x2x2x128xbf16, strided<[65536, 512, 256, 128, 1], offset: ?>, #tpu.memory_space<vmem>>
        %c0_i32_80 = arith.constant 0 : i32
        %c0_i32_81 = arith.constant 0 : i32
        %c0_i32_82 = arith.constant 0 : i32
        %c0_i32_83 = arith.constant 0 : i32
        %c0_i32_84 = arith.constant 0 : i32
        %148 = tpu.memref_slice %147[%c0_i32_80, %c0_i32_81, %c0_i32_82, %c0_i32_83, %c0_i32_84] <%144> : memref<8x128x2x2x128xbf16, strided<[65536, 512, 256, 128, 1], offset: ?>, #tpu.memory_space<vmem>> -> memref<8x?x2x2x128xbf16, strided<[65536, 512, 256, 128, 1], offset: ?>, #tpu.memory_space<vmem>>
        %149 = tpu.memref_slice %19[%c1_i32_70, %84] : memref<5x2x!tpu.dma_semaphore, #tpu.memory_space<semaphore_mem>> -> memref<1x1x!tpu.dma_semaphore, strided<[2, 1], offset: ?>, #tpu.memory_space<semaphore_mem>>
        %150 = tpu.memref_squeeze %149 : memref<1x1x!tpu.dma_semaphore, strided<[2, 1], offset: ?>, #tpu.memory_space<semaphore_mem>> -> memref<!tpu.dma_semaphore, strided<[], offset: ?>, #tpu.memory_space<semaphore_mem>>
        tpu.enqueue_dma source(%145 : memref<8x?x2x2x128xbf16, strided<[4194304, 512, 256, 128, 1], offset: ?>, #tpu.memory_space<any>>) target(%148 : memref<8x?x2x2x128xbf16, strided<[65536, 512, 256, 128, 1], offset: ?>, #tpu.memory_space<vmem>>) target_semaphore(%150 : memref<!tpu.dma_semaphore, strided<[], offset: ?>, #tpu.memory_space<semaphore_mem>>)
      } else {
      }
      %c0_i32_24 = arith.constant 0 : i32
      %88 = arith.subi %76, %c0_i32_24 : i32
      %89 = arith.addi %c0_i32_24, %88 : i32
      %c1_i32_25 = arith.constant 1 : i32
      scf.for %arg23 = %c0_i32_24 to %89 step %c1_i32_25  : i32 {
        %c1024_i32_66 = arith.constant 1024 : i32
        %135 = arith.muli %arg23, %c1024_i32_66 : i32
        %136 = arith.subi %37, %135 : i32
        %c1024_i32_67 = arith.constant 1024 : i32
        %137 = arith.minsi %c1024_i32_67, %136 : i32
        %138 = tpu.iota {dimensions = array<i32: 0>} : vector<1024x128xi32>
        %139 = vector.broadcast %137 : i32 to vector<1024x128xi32>
        %140 = arith.cmpi slt, %138, %139 : vector<1024x128xi32>
        %c-1_i32 = arith.constant -1 : i32
        %141 = vector.broadcast %c-1_i32 : i32 to vector<1024x128xi32>
        %c0_i32_68 = arith.constant 0 : i32
        %142 = vector.broadcast %c0_i32_68 : i32 to vector<1024x128xi32>
        %143 = arith.select %140, %141, %142 : vector<1024x128xi1>, vector<1024x128xi32>
        %144 = arith.trunci %143 : vector<1024x128xi32> to vector<1024x128xi16>
        %145 = tpu.bitcast %144 : vector<1024x128xi16> -> vector<512x128xi32>
        %c1_69 = arith.constant 1 : index
        %146 = memref.load %6[%c1_69] : memref<128xi32, #tpu.memory_space<smem>>
        %c1_i32_70 = arith.constant 1 : i32
        %147 = arith.addi %arg23, %c1_i32_70 : i32
        %148 = arith.cmpi eq, %147, %76 : i32
        %c0_i32_71 = arith.constant 0 : i32
        %149 = arith.select %148, %c0_i32_71, %147 : i32
        %c1_i32_72 = arith.constant 1 : i32
        %150 = arith.addi %c0_i32_14, %c1_i32_72 : i32
        %151 = arith.select %148, %150, %c0_i32_14 : i32
        %c1_i32_73 = arith.constant 1 : i32
        %152 = arith.cmpi eq, %151, %c1_i32_73 : i32
        %c0_i32_74 = arith.constant 0 : i32
        %153 = arith.select %152, %c0_i32_74, %151 : i32
        %c1_i32_75 = arith.constant 1 : i32
        %154 = arith.addi %arg0, %c1_i32_75 : i32
        %155 = arith.select %152, %154, %arg0 : i32
        %c0_i32_76 = arith.constant 0 : i32
        %156 = arith.cmpi eq, %146, %c0_i32_76 : i32
        %c0_i32_77 = arith.constant 0 : i32
        %c1_i32_78 = arith.constant 1 : i32
        %157 = arith.select %156, %c1_i32_78, %c0_i32_77 : i32
        %158 = arith.cmpi slt, %155, %26 : i32
        %159 = arith.extui %158 : i1 to i32
        %c0_i32_79 = arith.constant 0 : i32
        %160 = arith.cmpi ne, %159, %c0_i32_79 : i32
        scf.if %160 {
          %c1_456 = arith.constant 1 : index
          %865 = memref.load %6[%c1_456] : memref<128xi32, #tpu.memory_space<smem>>
          memref.store %157, %6[%c1_456] : memref<128xi32, #tpu.memory_space<smem>>
          %866 = arith.index_cast %155 : i32 to index
          %867 = memref.load %0[%866] : memref<128xi32, #tpu.memory_space<smem>>
          %c1024_i32_457 = arith.constant 1024 : i32
          %868 = arith.muli %149, %c1024_i32_457 : i32
          %c8_i32_458 = arith.constant 8 : i32
          %869 = arith.muli %149, %c8_i32_458 : i32
          %870 = arith.index_cast %155 : i32 to index
          %871 = memref.load %2[%870] : memref<128xi32, #tpu.memory_space<smem>>
          %c1_i32_459 = arith.constant 1 : i32
          %872 = arith.addi %155, %c1_i32_459 : i32
          %873 = arith.index_cast %872 : i32 to index
          %874 = memref.load %2[%873] : memref<128xi32, #tpu.memory_space<smem>>
          %875 = arith.subi %874, %871 : i32
          %876 = arith.subi %867, %868 : i32
          %877 = arith.subi %876, %875 : i32
          %c0_i32_460 = arith.constant 0 : i32
          %878 = arith.maxsi %877, %c0_i32_460 : i32
          %879 = arith.subi %876, %878 : i32
          %c128_i32_461 = arith.constant 128 : i32
          %880 = arith.addi %878, %c128_i32_461 : i32
          %c1_i32_462 = arith.constant 1 : i32
          %881 = arith.subi %880, %c1_i32_462 : i32
          %c128_i32_463 = arith.constant 128 : i32
          %882 = arith.divsi %881, %c128_i32_463 : i32
          %c0_i32_464 = arith.constant 0 : i32
          %883 = arith.cmpi sgt, %881, %c0_i32_464 : i32
          %884 = arith.extui %883 : i1 to i32
          %c0_i32_465 = arith.constant 0 : i32
          %885 = arith.cmpi slt, %881, %c0_i32_465 : i32
          %886 = arith.extui %885 : i1 to i32
          %887 = arith.subi %884, %886 : i32
          %c0_i32_466 = arith.constant 0 : i32
          %888 = arith.cmpi sgt, %c128_i32_463, %c0_i32_466 : i32
          %889 = arith.extui %888 : i1 to i32
          %c0_i32_467 = arith.constant 0 : i32
          %890 = arith.cmpi slt, %c128_i32_463, %c0_i32_467 : i32
          %891 = arith.extui %890 : i1 to i32
          %892 = arith.subi %889, %891 : i32
          %893 = arith.cmpi ne, %887, %892 : i32
          %894 = arith.remsi %881, %c128_i32_463 : i32
          %c0_i32_468 = arith.constant 0 : i32
          %895 = arith.cmpi ne, %894, %c0_i32_468 : i32
          %896 = arith.andi %893, %895 : i1
          %c1_i32_469 = arith.constant 1 : i32
          %897 = arith.subi %882, %c1_i32_469 : i32
          %898 = arith.select %896, %897, %882 : i32
          %c8_i32_470 = arith.constant 8 : i32
          %899 = arith.minsi %898, %c8_i32_470 : i32
          %c1024_i32_471 = arith.constant 1024 : i32
          %900 = arith.subi %c1024_i32_471, %878 : i32
          %c0_i32_472 = arith.constant 0 : i32
          %901 = arith.maxsi %900, %c0_i32_472 : i32
          %902 = arith.minsi %901, %879 : i32
          %903 = arith.index_cast %155 : i32 to index
          %904 = memref.load %3[%903] : memref<128xi32, #tpu.memory_space<smem>>
          %c128_i32_473 = arith.constant 128 : i32
          %905 = arith.addi %904, %c128_i32_473 : i32
          %c1_i32_474 = arith.constant 1 : i32
          %906 = arith.subi %905, %c1_i32_474 : i32
          %c128_i32_475 = arith.constant 128 : i32
          %907 = arith.divsi %906, %c128_i32_475 : i32
          %c0_i32_476 = arith.constant 0 : i32
          %908 = arith.cmpi sgt, %906, %c0_i32_476 : i32
          %909 = arith.extui %908 : i1 to i32
          %c0_i32_477 = arith.constant 0 : i32
          %910 = arith.cmpi slt, %906, %c0_i32_477 : i32
          %911 = arith.extui %910 : i1 to i32
          %912 = arith.subi %909, %911 : i32
          %c0_i32_478 = arith.constant 0 : i32
          %913 = arith.cmpi sgt, %c128_i32_475, %c0_i32_478 : i32
          %914 = arith.extui %913 : i1 to i32
          %c0_i32_479 = arith.constant 0 : i32
          %915 = arith.cmpi slt, %c128_i32_475, %c0_i32_479 : i32
          %916 = arith.extui %915 : i1 to i32
          %917 = arith.subi %914, %916 : i32
          %918 = arith.cmpi ne, %912, %917 : i32
          %919 = arith.remsi %906, %c128_i32_475 : i32
          %c0_i32_480 = arith.constant 0 : i32
          %920 = arith.cmpi ne, %919, %c0_i32_480 : i32
          %921 = arith.andi %918, %920 : i1
          %c1_i32_481 = arith.constant 1 : i32
          %922 = arith.subi %907, %c1_i32_481 : i32
          %923 = arith.select %921, %922, %907 : i32
          %924 = arith.addi %923, %869 : i32
          %c4_i32_482 = arith.constant 4 : i32
          %925 = arith.addi %157, %c4_i32_482 : i32
          %926 = arith.index_cast %925 : i32 to index
          %927 = memref.load %8[%926] : memref<128xi32, #tpu.memory_space<smem>>
          %c0_i32_483 = arith.constant 0 : i32
          %928 = arith.cmpi sgt, %927, %c0_i32_483 : i32
          %929 = arith.extui %928 : i1 to i32
          %c0_i32_484 = arith.constant 0 : i32
          %930 = arith.cmpi ne, %929, %c0_i32_484 : i32
          scf.if %930 {
            %938 = arith.index_cast %157 : i32 to index
            %939 = memref.load %8[%938] : memref<128xi32, #tpu.memory_space<smem>>
            %c2_i32_492 = arith.constant 2 : i32
            %940 = arith.addi %157, %c2_i32_492 : i32
            %941 = arith.index_cast %940 : i32 to index
            %942 = memref.load %8[%941] : memref<128xi32, #tpu.memory_space<smem>>
            %c4_i32_493 = arith.constant 4 : i32
            %943 = arith.addi %157, %c4_i32_493 : i32
            %c0_i32_494 = arith.constant 0 : i32
            %944 = arith.index_cast %943 : i32 to index
            %945 = memref.load %8[%944] : memref<128xi32, #tpu.memory_space<smem>>
            memref.store %c0_i32_494, %8[%944] : memref<128xi32, #tpu.memory_space<smem>>
            %c1024_i32_495 = arith.constant 1024 : i32
            %946 = arith.divsi %942, %c1024_i32_495 : i32
            %c0_i32_496 = arith.constant 0 : i32
            %947 = arith.cmpi sgt, %942, %c0_i32_496 : i32
            %948 = arith.extui %947 : i1 to i32
            %c0_i32_497 = arith.constant 0 : i32
            %949 = arith.cmpi slt, %942, %c0_i32_497 : i32
            %950 = arith.extui %949 : i1 to i32
            %951 = arith.subi %948, %950 : i32
            %c0_i32_498 = arith.constant 0 : i32
            %952 = arith.cmpi sgt, %c1024_i32_495, %c0_i32_498 : i32
            %953 = arith.extui %952 : i1 to i32
            %c0_i32_499 = arith.constant 0 : i32
            %954 = arith.cmpi slt, %c1024_i32_495, %c0_i32_499 : i32
            %955 = arith.extui %954 : i1 to i32
            %956 = arith.subi %953, %955 : i32
            %957 = arith.cmpi ne, %951, %956 : i32
            %958 = arith.remsi %942, %c1024_i32_495 : i32
            %c0_i32_500 = arith.constant 0 : i32
            %959 = arith.cmpi ne, %958, %c0_i32_500 : i32
            %960 = arith.andi %957, %959 : i1
            %c1_i32_501 = arith.constant 1 : i32
            %961 = arith.subi %946, %c1_i32_501 : i32
            %962 = arith.select %960, %961, %946 : i32
            %c128_i32_502 = arith.constant 128 : i32
            %963 = arith.divsi %942, %c128_i32_502 : i32
            %c0_i32_503 = arith.constant 0 : i32
            %964 = arith.cmpi sgt, %942, %c0_i32_503 : i32
            %965 = arith.extui %964 : i1 to i32
            %c0_i32_504 = arith.constant 0 : i32
            %966 = arith.cmpi slt, %942, %c0_i32_504 : i32
            %967 = arith.extui %966 : i1 to i32
            %968 = arith.subi %965, %967 : i32
            %c0_i32_505 = arith.constant 0 : i32
            %969 = arith.cmpi sgt, %c128_i32_502, %c0_i32_505 : i32
            %970 = arith.extui %969 : i1 to i32
            %c0_i32_506 = arith.constant 0 : i32
            %971 = arith.cmpi slt, %c128_i32_502, %c0_i32_506 : i32
            %972 = arith.extui %971 : i1 to i32
            %973 = arith.subi %970, %972 : i32
            %974 = arith.cmpi ne, %968, %973 : i32
            %975 = arith.remsi %942, %c128_i32_502 : i32
            %c0_i32_507 = arith.constant 0 : i32
            %976 = arith.cmpi ne, %975, %c0_i32_507 : i32
            %977 = arith.andi %974, %976 : i1
            %c1_i32_508 = arith.constant 1 : i32
            %978 = arith.subi %963, %c1_i32_508 : i32
            %979 = arith.select %977, %978, %963 : i32
            %980 = arith.addi %942, %927 : i32
            %c128_i32_509 = arith.constant 128 : i32
            %981 = arith.addi %980, %c128_i32_509 : i32
            %c1_i32_510 = arith.constant 1 : i32
            %982 = arith.subi %981, %c1_i32_510 : i32
            %c128_i32_511 = arith.constant 128 : i32
            %983 = arith.divsi %982, %c128_i32_511 : i32
            %c0_i32_512 = arith.constant 0 : i32
            %984 = arith.cmpi sgt, %982, %c0_i32_512 : i32
            %985 = arith.extui %984 : i1 to i32
            %c0_i32_513 = arith.constant 0 : i32
            %986 = arith.cmpi slt, %982, %c0_i32_513 : i32
            %987 = arith.extui %986 : i1 to i32
            %988 = arith.subi %985, %987 : i32
            %c0_i32_514 = arith.constant 0 : i32
            %989 = arith.cmpi sgt, %c128_i32_511, %c0_i32_514 : i32
            %990 = arith.extui %989 : i1 to i32
            %c0_i32_515 = arith.constant 0 : i32
            %991 = arith.cmpi slt, %c128_i32_511, %c0_i32_515 : i32
            %992 = arith.extui %991 : i1 to i32
            %993 = arith.subi %990, %992 : i32
            %994 = arith.cmpi ne, %988, %993 : i32
            %995 = arith.remsi %982, %c128_i32_511 : i32
            %c0_i32_516 = arith.constant 0 : i32
            %996 = arith.cmpi ne, %995, %c0_i32_516 : i32
            %997 = arith.andi %994, %996 : i1
            %c1_i32_517 = arith.constant 1 : i32
            %998 = arith.subi %983, %c1_i32_517 : i32
            %999 = arith.select %997, %998, %983 : i32
            %c128_i32_518 = arith.constant 128 : i32
            %c0_i32_519 = arith.constant 0 : i32
            %1000 = arith.cmpi eq, %c128_i32_518, %c0_i32_519 : i32
            %c1_i32_520 = arith.constant 1 : i32
            %1001 = arith.select %1000, %c1_i32_520, %c128_i32_518 : i32
            %1002 = arith.remsi %942, %1001 : i32
            %c0_i32_521 = arith.constant 0 : i32
            %1003 = arith.cmpi ne, %1002, %c0_i32_521 : i32
            %c0_i32_522 = arith.constant 0 : i32
            %1004 = arith.cmpi slt, %1002, %c0_i32_522 : i32
            %c0_i32_523 = arith.constant 0 : i32
            %1005 = arith.cmpi slt, %1001, %c0_i32_523 : i32
            %1006 = arith.xori %1004, %1005 : i1
            %1007 = arith.andi %1006, %1003 : i1
            %1008 = arith.addi %1002, %1001 : i32
            %1009 = arith.select %1007, %1008, %1002 : i32
            %c8_i32_524 = arith.constant 8 : i32
            %1010 = arith.muli %962, %c8_i32_524 : i32
            %1011 = arith.subi %979, %1010 : i32
            %1012 = arith.index_cast %939 : i32 to index
            %1013 = memref.load %3[%1012] : memref<128xi32, #tpu.memory_space<smem>>
            %c128_i32_525 = arith.constant 128 : i32
            %1014 = arith.addi %1013, %c128_i32_525 : i32
            %c1_i32_526 = arith.constant 1 : i32
            %1015 = arith.subi %1014, %c1_i32_526 : i32
            %c128_i32_527 = arith.constant 128 : i32
            %1016 = arith.divsi %1015, %c128_i32_527 : i32
            %c0_i32_528 = arith.constant 0 : i32
            %1017 = arith.cmpi sgt, %1015, %c0_i32_528 : i32
            %1018 = arith.extui %1017 : i1 to i32
            %c0_i32_529 = arith.constant 0 : i32
            %1019 = arith.cmpi slt, %1015, %c0_i32_529 : i32
            %1020 = arith.extui %1019 : i1 to i32
            %1021 = arith.subi %1018, %1020 : i32
            %c0_i32_530 = arith.constant 0 : i32
            %1022 = arith.cmpi sgt, %c128_i32_527, %c0_i32_530 : i32
            %1023 = arith.extui %1022 : i1 to i32
            %c0_i32_531 = arith.constant 0 : i32
            %1024 = arith.cmpi slt, %c128_i32_527, %c0_i32_531 : i32
            %1025 = arith.extui %1024 : i1 to i32
            %1026 = arith.subi %1023, %1025 : i32
            %1027 = arith.cmpi ne, %1021, %1026 : i32
            %1028 = arith.remsi %1015, %c128_i32_527 : i32
            %c0_i32_532 = arith.constant 0 : i32
            %1029 = arith.cmpi ne, %1028, %c0_i32_532 : i32
            %1030 = arith.andi %1027, %1029 : i1
            %c1_i32_533 = arith.constant 1 : i32
            %1031 = arith.subi %1016, %c1_i32_533 : i32
            %1032 = arith.select %1030, %1031, %1016 : i32
            %1033 = arith.addi %1032, %979 : i32
            %1034 = arith.subi %999, %979 : i32
            %c3_i32_534 = arith.constant 3 : i32
            %c0_i32_535 = arith.constant 0 : i32
            %1035 = arith.subi %1034, %c0_i32_535 : i32
            %1036 = arith.addi %c0_i32_535, %1035 : i32
            %c1_i32_536 = arith.constant 1 : i32
            %1037:2 = scf.for %arg24 = %c0_i32_535 to %1036 step %c1_i32_536 iter_args(%arg25 = %927, %arg26 = %1009) -> (i32, i32)  : i32 {
              %c128_i32_537 = arith.constant 128 : i32
              %1038 = arith.subi %c128_i32_537, %arg26 : i32
              %1039 = arith.minsi %1038, %arg25 : i32
              %1040 = arith.addi %1011, %arg24 : i32
              %c128_i32_538 = arith.constant 128 : i32
              %1041 = arith.muli %1040, %c128_i32_538 : i32
              %1042 = arith.addi %1041, %arg26 : i32
              %1043 = arith.addi %1033, %arg24 : i32
              %1044 = arith.index_cast %1043 : i32 to index
              %1045 = memref.load %1[%1044] : memref<2048xi32, #tpu.memory_space<smem>>
              %c128_i32_539 = arith.constant 128 : i32
              %1046 = arith.muli %1045, %c128_i32_539 : i32
              %1047 = arith.addi %1046, %arg26 : i32
              %c0_i32_540 = arith.constant 0 : i32
              %c0_i32_541 = arith.constant 0 : i32
              %c0_i32_542 = arith.constant 0 : i32
              %c0_i32_543 = arith.constant 0 : i32
              %1048 = tpu.memref_slice %16[%157, %c0_i32_540, %c0_i32_541, %c0_i32_542, %c0_i32_543] : memref<2x1024x8x2x128xbf16, #tpu.memory_space<vmem>> -> memref<1x1024x8x2x128xbf16, strided<[2097152, 2048, 256, 128, 1], offset: ?>, #tpu.memory_space<vmem>>
              %1049 = tpu.memref_squeeze %1048 : memref<1x1024x8x2x128xbf16, strided<[2097152, 2048, 256, 128, 1], offset: ?>, #tpu.memory_space<vmem>> -> memref<1024x8x2x128xbf16, strided<[2048, 256, 128, 1], offset: ?>, #tpu.memory_space<vmem>>
              %c0_i32_544 = arith.constant 0 : i32
              %c0_i32_545 = arith.constant 0 : i32
              %c0_i32_546 = arith.constant 0 : i32
              %1050 = tpu.memref_slice %1049[%1042, %c0_i32_544, %c0_i32_545, %c0_i32_546] <%1039> : memref<1024x8x2x128xbf16, strided<[2048, 256, 128, 1], offset: ?>, #tpu.memory_space<vmem>> -> memref<?x8x2x128xbf16, strided<[2048, 256, 128, 1], offset: ?>, #tpu.memory_space<vmem>>
              %1051 = tpu.memref_reshape %15 : memref<4688x128x8x2x128xbf16, #tpu.memory_space<any>> -> memref<600064x8x2x128xbf16, #tpu.memory_space<any>>
              %c0_i32_547 = arith.constant 0 : i32
              %c0_i32_548 = arith.constant 0 : i32
              %c0_i32_549 = arith.constant 0 : i32
              %1052 = tpu.memref_slice %1051[%1047, %c0_i32_547, %c0_i32_548, %c0_i32_549] <%1039> : memref<600064x8x2x128xbf16, #tpu.memory_space<any>> -> memref<?x8x2x128xbf16, strided<[2048, 256, 128, 1], offset: ?>, #tpu.memory_space<any>>
              %1053 = tpu.memref_slice %19[%c3_i32_534, %157] : memref<5x2x!tpu.dma_semaphore, #tpu.memory_space<semaphore_mem>> -> memref<1x1x!tpu.dma_semaphore, strided<[2, 1], offset: ?>, #tpu.memory_space<semaphore_mem>>
              %1054 = tpu.memref_squeeze %1053 : memref<1x1x!tpu.dma_semaphore, strided<[2, 1], offset: ?>, #tpu.memory_space<semaphore_mem>> -> memref<!tpu.dma_semaphore, strided<[], offset: ?>, #tpu.memory_space<semaphore_mem>>
              tpu.wait_dma2 semaphore(%1054 : memref<!tpu.dma_semaphore, strided<[], offset: ?>, #tpu.memory_space<semaphore_mem>>) src(%1050 : memref<?x8x2x128xbf16, strided<[2048, 256, 128, 1], offset: ?>, #tpu.memory_space<vmem>>) dst(%1052 : memref<?x8x2x128xbf16, strided<[2048, 256, 128, 1], offset: ?>, #tpu.memory_space<any>>)
              %1055 = arith.subi %arg25, %1039 : i32
              %c0_i32_550 = arith.constant 0 : i32
              scf.yield %1055, %c0_i32_550 : i32, i32
            }
          } else {
          }
          %c0_i32_485 = arith.constant 0 : i32
          %c0_i32_486 = arith.constant 0 : i32
          %c0_i32_487 = arith.constant 0 : i32
          %931 = arith.subi %899, %c0_i32_486 : i32
          %932 = arith.addi %c0_i32_486, %931 : i32
          %c1_i32_488 = arith.constant 1 : i32
          %933 = scf.for %arg24 = %c0_i32_486 to %932 step %c1_i32_488 iter_args(%arg25 = %c0_i32_487) -> (i32)  : i32 {
            %c128_i32_492 = arith.constant 128 : i32
            %938 = arith.muli %arg24, %c128_i32_492 : i32
            %939 = arith.subi %878, %938 : i32
            %c128_i32_493 = arith.constant 128 : i32
            %940 = arith.minsi %c128_i32_493, %939 : i32
            %941 = arith.addi %924, %arg24 : i32
            %942 = arith.index_cast %941 : i32 to index
            %943 = memref.load %1[%942] : memref<2048xi32, #tpu.memory_space<smem>>
            %c128_i32_494 = arith.constant 128 : i32
            %944 = arith.muli %943, %c128_i32_494 : i32
            %c128_i32_495 = arith.constant 128 : i32
            %945 = arith.muli %arg24, %c128_i32_495 : i32
            %946 = tpu.memref_reshape %11 : memref<4688x128x8x2x128xbf16, #tpu.memory_space<any>> -> memref<600064x8x2x128xbf16, #tpu.memory_space<any>>
            %c0_i32_496 = arith.constant 0 : i32
            %c0_i32_497 = arith.constant 0 : i32
            %c0_i32_498 = arith.constant 0 : i32
            %947 = tpu.memref_slice %946[%944, %c0_i32_496, %c0_i32_497, %c0_i32_498] <%940> : memref<600064x8x2x128xbf16, #tpu.memory_space<any>> -> memref<?x8x2x128xbf16, strided<[2048, 256, 128, 1], offset: ?>, #tpu.memory_space<any>>
            %c0_i32_499 = arith.constant 0 : i32
            %c0_i32_500 = arith.constant 0 : i32
            %c0_i32_501 = arith.constant 0 : i32
            %c0_i32_502 = arith.constant 0 : i32
            %948 = tpu.memref_slice %16[%157, %c0_i32_499, %c0_i32_500, %c0_i32_501, %c0_i32_502] : memref<2x1024x8x2x128xbf16, #tpu.memory_space<vmem>> -> memref<1x1024x8x2x128xbf16, strided<[2097152, 2048, 256, 128, 1], offset: ?>, #tpu.memory_space<vmem>>
            %949 = tpu.memref_squeeze %948 : memref<1x1024x8x2x128xbf16, strided<[2097152, 2048, 256, 128, 1], offset: ?>, #tpu.memory_space<vmem>> -> memref<1024x8x2x128xbf16, strided<[2048, 256, 128, 1], offset: ?>, #tpu.memory_space<vmem>>
            %c0_i32_503 = arith.constant 0 : i32
            %c0_i32_504 = arith.constant 0 : i32
            %c0_i32_505 = arith.constant 0 : i32
            %950 = tpu.memref_slice %949[%945, %c0_i32_503, %c0_i32_504, %c0_i32_505] <%940> : memref<1024x8x2x128xbf16, strided<[2048, 256, 128, 1], offset: ?>, #tpu.memory_space<vmem>> -> memref<?x8x2x128xbf16, strided<[2048, 256, 128, 1], offset: ?>, #tpu.memory_space<vmem>>
            %951 = tpu.memref_slice %19[%c0_i32_485, %157] : memref<5x2x!tpu.dma_semaphore, #tpu.memory_space<semaphore_mem>> -> memref<1x1x!tpu.dma_semaphore, strided<[2, 1], offset: ?>, #tpu.memory_space<semaphore_mem>>
            %952 = tpu.memref_squeeze %951 : memref<1x1x!tpu.dma_semaphore, strided<[2, 1], offset: ?>, #tpu.memory_space<semaphore_mem>> -> memref<!tpu.dma_semaphore, strided<[], offset: ?>, #tpu.memory_space<semaphore_mem>>
            tpu.enqueue_dma source(%947 : memref<?x8x2x128xbf16, strided<[2048, 256, 128, 1], offset: ?>, #tpu.memory_space<any>>) target(%950 : memref<?x8x2x128xbf16, strided<[2048, 256, 128, 1], offset: ?>, #tpu.memory_space<vmem>>) target_semaphore(%952 : memref<!tpu.dma_semaphore, strided<[], offset: ?>, #tpu.memory_space<semaphore_mem>>)
            %953 = arith.addi %arg25, %940 : i32
            scf.yield %953 : i32
          }
          %c0_i32_489 = arith.constant 0 : i32
          %934 = arith.cmpi sgt, %902, %c0_i32_489 : i32
          %935 = arith.extui %934 : i1 to i32
          %c0_i32_490 = arith.constant 0 : i32
          %c0_i32_491 = arith.constant 0 : i32
          %936 = arith.cmpi ne, %935, %c0_i32_491 : i32
          scf.if %936 {
            %938 = arith.subi %874, %879 : i32
            %c0_i32_492 = arith.constant 0 : i32
            %c0_i32_493 = arith.constant 0 : i32
            %c0_i32_494 = arith.constant 0 : i32
            %939 = tpu.memref_slice %10[%938, %c0_i32_492, %c0_i32_493, %c0_i32_494] <%902> : memref<8192x8x2x128xbf16, #tpu.memory_space<any>> -> memref<?x8x2x128xbf16, strided<[2048, 256, 128, 1], offset: ?>, #tpu.memory_space<any>>
            %c0_i32_495 = arith.constant 0 : i32
            %c0_i32_496 = arith.constant 0 : i32
            %c0_i32_497 = arith.constant 0 : i32
            %c0_i32_498 = arith.constant 0 : i32
            %940 = tpu.memref_slice %16[%157, %c0_i32_495, %c0_i32_496, %c0_i32_497, %c0_i32_498] : memref<2x1024x8x2x128xbf16, #tpu.memory_space<vmem>> -> memref<1x1024x8x2x128xbf16, strided<[2097152, 2048, 256, 128, 1], offset: ?>, #tpu.memory_space<vmem>>
            %941 = tpu.memref_squeeze %940 : memref<1x1024x8x2x128xbf16, strided<[2097152, 2048, 256, 128, 1], offset: ?>, #tpu.memory_space<vmem>> -> memref<1024x8x2x128xbf16, strided<[2048, 256, 128, 1], offset: ?>, #tpu.memory_space<vmem>>
            %c0_i32_499 = arith.constant 0 : i32
            %c0_i32_500 = arith.constant 0 : i32
            %c0_i32_501 = arith.constant 0 : i32
            %942 = tpu.memref_slice %941[%933, %c0_i32_499, %c0_i32_500, %c0_i32_501] <%902> : memref<1024x8x2x128xbf16, strided<[2048, 256, 128, 1], offset: ?>, #tpu.memory_space<vmem>> -> memref<?x8x2x128xbf16, strided<[2048, 256, 128, 1], offset: ?>, #tpu.memory_space<vmem>>
            %943 = tpu.memref_slice %19[%c0_i32_490, %157] : memref<5x2x!tpu.dma_semaphore, #tpu.memory_space<semaphore_mem>> -> memref<1x1x!tpu.dma_semaphore, strided<[2, 1], offset: ?>, #tpu.memory_space<semaphore_mem>>
            %944 = tpu.memref_squeeze %943 : memref<1x1x!tpu.dma_semaphore, strided<[2, 1], offset: ?>, #tpu.memory_space<semaphore_mem>> -> memref<!tpu.dma_semaphore, strided<[], offset: ?>, #tpu.memory_space<semaphore_mem>>
            tpu.enqueue_dma source(%939 : memref<?x8x2x128xbf16, strided<[2048, 256, 128, 1], offset: ?>, #tpu.memory_space<any>>) target(%942 : memref<?x8x2x128xbf16, strided<[2048, 256, 128, 1], offset: ?>, #tpu.memory_space<vmem>>) target_semaphore(%944 : memref<!tpu.dma_semaphore, strided<[], offset: ?>, #tpu.memory_space<semaphore_mem>>)
          } else {
          }
          %937 = arith.addi %868, %933 : i32
        } else {
        }
        %c0_i32_80 = arith.constant 0 : i32
        %161 = arith.cmpi eq, %arg23, %c0_i32_80 : i32
        %162 = arith.extui %161 : i1 to i32
        %c0_i32_81 = arith.constant 0 : i32
        %163 = arith.cmpi ne, %162, %c0_i32_81 : i32
        scf.if %163 {
          %865 = arith.index_cast %arg0 : i32 to index
          %866 = memref.load %2[%865] : memref<128xi32, #tpu.memory_space<smem>>
          %c128_i32_456 = arith.constant 128 : i32
          %867 = arith.muli %c0_i32_14, %c128_i32_456 : i32
          %868 = arith.addi %866, %867 : i32
          %c1_i32_457 = arith.constant 1 : i32
          %869 = arith.addi %arg0, %c1_i32_457 : i32
          %870 = arith.index_cast %869 : i32 to index
          %871 = memref.load %2[%870] : memref<128xi32, #tpu.memory_space<smem>>
          %872 = arith.subi %871, %868 : i32
          %c128_i32_458 = arith.constant 128 : i32
          %873 = arith.minsi %c128_i32_458, %872 : i32
          %c1_i32_459 = arith.constant 1 : i32
          %c0_i32_460 = arith.constant 0 : i32
          %c0_i32_461 = arith.constant 0 : i32
          %c0_i32_462 = arith.constant 0 : i32
          %c0_i32_463 = arith.constant 0 : i32
          %874 = tpu.memref_slice %9[%c0_i32_460, %868, %c0_i32_461, %c0_i32_462, %c0_i32_463] <%873> : memref<8x8192x2x2x128xbf16, #tpu.memory_space<any>> -> memref<8x?x2x2x128xbf16, strided<[4194304, 512, 256, 128, 1], offset: ?>, #tpu.memory_space<any>>
          %c0_i32_464 = arith.constant 0 : i32
          %c0_i32_465 = arith.constant 0 : i32
          %c0_i32_466 = arith.constant 0 : i32
          %c0_i32_467 = arith.constant 0 : i32
          %c0_i32_468 = arith.constant 0 : i32
          %875 = tpu.memref_slice %17[%77, %c0_i32_464, %c0_i32_465, %c0_i32_466, %c0_i32_467, %c0_i32_468] : memref<2x8x128x2x2x128xbf16, #tpu.memory_space<vmem>> -> memref<1x8x128x2x2x128xbf16, strided<[524288, 65536, 512, 256, 128, 1], offset: ?>, #tpu.memory_space<vmem>>
          %876 = tpu.memref_squeeze %875 : memref<1x8x128x2x2x128xbf16, strided<[524288, 65536, 512, 256, 128, 1], offset: ?>, #tpu.memory_space<vmem>> -> memref<8x128x2x2x128xbf16, strided<[65536, 512, 256, 128, 1], offset: ?>, #tpu.memory_space<vmem>>
          %c0_i32_469 = arith.constant 0 : i32
          %c0_i32_470 = arith.constant 0 : i32
          %c0_i32_471 = arith.constant 0 : i32
          %c0_i32_472 = arith.constant 0 : i32
          %c0_i32_473 = arith.constant 0 : i32
          %877 = tpu.memref_slice %876[%c0_i32_469, %c0_i32_470, %c0_i32_471, %c0_i32_472, %c0_i32_473] <%873> : memref<8x128x2x2x128xbf16, strided<[65536, 512, 256, 128, 1], offset: ?>, #tpu.memory_space<vmem>> -> memref<8x?x2x2x128xbf16, strided<[65536, 512, 256, 128, 1], offset: ?>, #tpu.memory_space<vmem>>
          %878 = tpu.memref_slice %19[%c1_i32_459, %77] : memref<5x2x!tpu.dma_semaphore, #tpu.memory_space<semaphore_mem>> -> memref<1x1x!tpu.dma_semaphore, strided<[2, 1], offset: ?>, #tpu.memory_space<semaphore_mem>>
          %879 = tpu.memref_squeeze %878 : memref<1x1x!tpu.dma_semaphore, strided<[2, 1], offset: ?>, #tpu.memory_space<semaphore_mem>> -> memref<!tpu.dma_semaphore, strided<[], offset: ?>, #tpu.memory_space<semaphore_mem>>
          tpu.wait_dma2 semaphore(%879 : memref<!tpu.dma_semaphore, strided<[], offset: ?>, #tpu.memory_space<semaphore_mem>>) src(%874 : memref<8x?x2x2x128xbf16, strided<[4194304, 512, 256, 128, 1], offset: ?>, #tpu.memory_space<any>>) dst(%877 : memref<8x?x2x2x128xbf16, strided<[65536, 512, 256, 128, 1], offset: ?>, #tpu.memory_space<vmem>>)
        } else {
        }
        %164 = arith.index_cast %arg0 : i32 to index
        %165 = memref.load %0[%164] : memref<128xi32, #tpu.memory_space<smem>>
        %c1024_i32_82 = arith.constant 1024 : i32
        %166 = arith.muli %arg23, %c1024_i32_82 : i32
        %c8_i32 = arith.constant 8 : i32
        %167 = arith.muli %arg23, %c8_i32 : i32
        %168 = arith.index_cast %arg0 : i32 to index
        %169 = memref.load %2[%168] : memref<128xi32, #tpu.memory_space<smem>>
        %c1_i32_83 = arith.constant 1 : i32
        %170 = arith.addi %arg0, %c1_i32_83 : i32
        %171 = arith.index_cast %170 : i32 to index
        %172 = memref.load %2[%171] : memref<128xi32, #tpu.memory_space<smem>>
        %173 = arith.subi %172, %169 : i32
        %174 = arith.subi %165, %166 : i32
        %175 = arith.subi %174, %173 : i32
        %c0_i32_84 = arith.constant 0 : i32
        %176 = arith.maxsi %175, %c0_i32_84 : i32
        %177 = arith.subi %174, %176 : i32
        %c128_i32_85 = arith.constant 128 : i32
        %178 = arith.addi %176, %c128_i32_85 : i32
        %c1_i32_86 = arith.constant 1 : i32
        %179 = arith.subi %178, %c1_i32_86 : i32
        %c128_i32_87 = arith.constant 128 : i32
        %180 = arith.divsi %179, %c128_i32_87 : i32
        %c0_i32_88 = arith.constant 0 : i32
        %181 = arith.cmpi sgt, %179, %c0_i32_88 : i32
        %182 = arith.extui %181 : i1 to i32
        %c0_i32_89 = arith.constant 0 : i32
        %183 = arith.cmpi slt, %179, %c0_i32_89 : i32
        %184 = arith.extui %183 : i1 to i32
        %185 = arith.subi %182, %184 : i32
        %c0_i32_90 = arith.constant 0 : i32
        %186 = arith.cmpi sgt, %c128_i32_87, %c0_i32_90 : i32
        %187 = arith.extui %186 : i1 to i32
        %c0_i32_91 = arith.constant 0 : i32
        %188 = arith.cmpi slt, %c128_i32_87, %c0_i32_91 : i32
        %189 = arith.extui %188 : i1 to i32
        %190 = arith.subi %187, %189 : i32
        %191 = arith.cmpi ne, %185, %190 : i32
        %192 = arith.remsi %179, %c128_i32_87 : i32
        %c0_i32_92 = arith.constant 0 : i32
        %193 = arith.cmpi ne, %192, %c0_i32_92 : i32
        %194 = arith.andi %191, %193 : i1
        %c1_i32_93 = arith.constant 1 : i32
        %195 = arith.subi %180, %c1_i32_93 : i32
        %196 = arith.select %194, %195, %180 : i32
        %c8_i32_94 = arith.constant 8 : i32
        %197 = arith.minsi %196, %c8_i32_94 : i32
        %c1024_i32_95 = arith.constant 1024 : i32
        %198 = arith.subi %c1024_i32_95, %176 : i32
        %c0_i32_96 = arith.constant 0 : i32
        %199 = arith.maxsi %198, %c0_i32_96 : i32
        %200 = arith.minsi %199, %177 : i32
        %201 = arith.index_cast %arg0 : i32 to index
        %202 = memref.load %3[%201] : memref<128xi32, #tpu.memory_space<smem>>
        %c128_i32_97 = arith.constant 128 : i32
        %203 = arith.addi %202, %c128_i32_97 : i32
        %c1_i32_98 = arith.constant 1 : i32
        %204 = arith.subi %203, %c1_i32_98 : i32
        %c128_i32_99 = arith.constant 128 : i32
        %205 = arith.divsi %204, %c128_i32_99 : i32
        %c0_i32_100 = arith.constant 0 : i32
        %206 = arith.cmpi sgt, %204, %c0_i32_100 : i32
        %207 = arith.extui %206 : i1 to i32
        %c0_i32_101 = arith.constant 0 : i32
        %208 = arith.cmpi slt, %204, %c0_i32_101 : i32
        %209 = arith.extui %208 : i1 to i32
        %210 = arith.subi %207, %209 : i32
        %c0_i32_102 = arith.constant 0 : i32
        %211 = arith.cmpi sgt, %c128_i32_99, %c0_i32_102 : i32
        %212 = arith.extui %211 : i1 to i32
        %c0_i32_103 = arith.constant 0 : i32
        %213 = arith.cmpi slt, %c128_i32_99, %c0_i32_103 : i32
        %214 = arith.extui %213 : i1 to i32
        %215 = arith.subi %212, %214 : i32
        %216 = arith.cmpi ne, %210, %215 : i32
        %217 = arith.remsi %204, %c128_i32_99 : i32
        %c0_i32_104 = arith.constant 0 : i32
        %218 = arith.cmpi ne, %217, %c0_i32_104 : i32
        %219 = arith.andi %216, %218 : i1
        %c1_i32_105 = arith.constant 1 : i32
        %220 = arith.subi %205, %c1_i32_105 : i32
        %221 = arith.select %219, %220, %205 : i32
        %222 = arith.addi %221, %167 : i32
        %c4_i32 = arith.constant 4 : i32
        %223 = arith.addi %146, %c4_i32 : i32
        %224 = arith.index_cast %223 : i32 to index
        %225 = memref.load %8[%224] : memref<128xi32, #tpu.memory_space<smem>>
        %c0_i32_106 = arith.constant 0 : i32
        %226 = arith.cmpi sgt, %225, %c0_i32_106 : i32
        %227 = arith.extui %226 : i1 to i32
        %c0_i32_107 = arith.constant 0 : i32
        %228 = arith.cmpi ne, %227, %c0_i32_107 : i32
        scf.if %228 {
          %865 = arith.index_cast %146 : i32 to index
          %866 = memref.load %8[%865] : memref<128xi32, #tpu.memory_space<smem>>
          %c2_i32_456 = arith.constant 2 : i32
          %867 = arith.addi %146, %c2_i32_456 : i32
          %868 = arith.index_cast %867 : i32 to index
          %869 = memref.load %8[%868] : memref<128xi32, #tpu.memory_space<smem>>
          %c4_i32_457 = arith.constant 4 : i32
          %870 = arith.addi %146, %c4_i32_457 : i32
          %c0_i32_458 = arith.constant 0 : i32
          %871 = arith.index_cast %870 : i32 to index
          %872 = memref.load %8[%871] : memref<128xi32, #tpu.memory_space<smem>>
          memref.store %c0_i32_458, %8[%871] : memref<128xi32, #tpu.memory_space<smem>>
          %c1024_i32_459 = arith.constant 1024 : i32
          %873 = arith.divsi %869, %c1024_i32_459 : i32
          %c0_i32_460 = arith.constant 0 : i32
          %874 = arith.cmpi sgt, %869, %c0_i32_460 : i32
          %875 = arith.extui %874 : i1 to i32
          %c0_i32_461 = arith.constant 0 : i32
          %876 = arith.cmpi slt, %869, %c0_i32_461 : i32
          %877 = arith.extui %876 : i1 to i32
          %878 = arith.subi %875, %877 : i32
          %c0_i32_462 = arith.constant 0 : i32
          %879 = arith.cmpi sgt, %c1024_i32_459, %c0_i32_462 : i32
          %880 = arith.extui %879 : i1 to i32
          %c0_i32_463 = arith.constant 0 : i32
          %881 = arith.cmpi slt, %c1024_i32_459, %c0_i32_463 : i32
          %882 = arith.extui %881 : i1 to i32
          %883 = arith.subi %880, %882 : i32
          %884 = arith.cmpi ne, %878, %883 : i32
          %885 = arith.remsi %869, %c1024_i32_459 : i32
          %c0_i32_464 = arith.constant 0 : i32
          %886 = arith.cmpi ne, %885, %c0_i32_464 : i32
          %887 = arith.andi %884, %886 : i1
          %c1_i32_465 = arith.constant 1 : i32
          %888 = arith.subi %873, %c1_i32_465 : i32
          %889 = arith.select %887, %888, %873 : i32
          %c128_i32_466 = arith.constant 128 : i32
          %890 = arith.divsi %869, %c128_i32_466 : i32
          %c0_i32_467 = arith.constant 0 : i32
          %891 = arith.cmpi sgt, %869, %c0_i32_467 : i32
          %892 = arith.extui %891 : i1 to i32
          %c0_i32_468 = arith.constant 0 : i32
          %893 = arith.cmpi slt, %869, %c0_i32_468 : i32
          %894 = arith.extui %893 : i1 to i32
          %895 = arith.subi %892, %894 : i32
          %c0_i32_469 = arith.constant 0 : i32
          %896 = arith.cmpi sgt, %c128_i32_466, %c0_i32_469 : i32
          %897 = arith.extui %896 : i1 to i32
          %c0_i32_470 = arith.constant 0 : i32
          %898 = arith.cmpi slt, %c128_i32_466, %c0_i32_470 : i32
          %899 = arith.extui %898 : i1 to i32
          %900 = arith.subi %897, %899 : i32
          %901 = arith.cmpi ne, %895, %900 : i32
          %902 = arith.remsi %869, %c128_i32_466 : i32
          %c0_i32_471 = arith.constant 0 : i32
          %903 = arith.cmpi ne, %902, %c0_i32_471 : i32
          %904 = arith.andi %901, %903 : i1
          %c1_i32_472 = arith.constant 1 : i32
          %905 = arith.subi %890, %c1_i32_472 : i32
          %906 = arith.select %904, %905, %890 : i32
          %907 = arith.addi %869, %225 : i32
          %c128_i32_473 = arith.constant 128 : i32
          %908 = arith.addi %907, %c128_i32_473 : i32
          %c1_i32_474 = arith.constant 1 : i32
          %909 = arith.subi %908, %c1_i32_474 : i32
          %c128_i32_475 = arith.constant 128 : i32
          %910 = arith.divsi %909, %c128_i32_475 : i32
          %c0_i32_476 = arith.constant 0 : i32
          %911 = arith.cmpi sgt, %909, %c0_i32_476 : i32
          %912 = arith.extui %911 : i1 to i32
          %c0_i32_477 = arith.constant 0 : i32
          %913 = arith.cmpi slt, %909, %c0_i32_477 : i32
          %914 = arith.extui %913 : i1 to i32
          %915 = arith.subi %912, %914 : i32
          %c0_i32_478 = arith.constant 0 : i32
          %916 = arith.cmpi sgt, %c128_i32_475, %c0_i32_478 : i32
          %917 = arith.extui %916 : i1 to i32
          %c0_i32_479 = arith.constant 0 : i32
          %918 = arith.cmpi slt, %c128_i32_475, %c0_i32_479 : i32
          %919 = arith.extui %918 : i1 to i32
          %920 = arith.subi %917, %919 : i32
          %921 = arith.cmpi ne, %915, %920 : i32
          %922 = arith.remsi %909, %c128_i32_475 : i32
          %c0_i32_480 = arith.constant 0 : i32
          %923 = arith.cmpi ne, %922, %c0_i32_480 : i32
          %924 = arith.andi %921, %923 : i1
          %c1_i32_481 = arith.constant 1 : i32
          %925 = arith.subi %910, %c1_i32_481 : i32
          %926 = arith.select %924, %925, %910 : i32
          %c128_i32_482 = arith.constant 128 : i32
          %c0_i32_483 = arith.constant 0 : i32
          %927 = arith.cmpi eq, %c128_i32_482, %c0_i32_483 : i32
          %c1_i32_484 = arith.constant 1 : i32
          %928 = arith.select %927, %c1_i32_484, %c128_i32_482 : i32
          %929 = arith.remsi %869, %928 : i32
          %c0_i32_485 = arith.constant 0 : i32
          %930 = arith.cmpi ne, %929, %c0_i32_485 : i32
          %c0_i32_486 = arith.constant 0 : i32
          %931 = arith.cmpi slt, %929, %c0_i32_486 : i32
          %c0_i32_487 = arith.constant 0 : i32
          %932 = arith.cmpi slt, %928, %c0_i32_487 : i32
          %933 = arith.xori %931, %932 : i1
          %934 = arith.andi %933, %930 : i1
          %935 = arith.addi %929, %928 : i32
          %936 = arith.select %934, %935, %929 : i32
          %c8_i32_488 = arith.constant 8 : i32
          %937 = arith.muli %889, %c8_i32_488 : i32
          %938 = arith.subi %906, %937 : i32
          %939 = arith.index_cast %866 : i32 to index
          %940 = memref.load %3[%939] : memref<128xi32, #tpu.memory_space<smem>>
          %c128_i32_489 = arith.constant 128 : i32
          %941 = arith.addi %940, %c128_i32_489 : i32
          %c1_i32_490 = arith.constant 1 : i32
          %942 = arith.subi %941, %c1_i32_490 : i32
          %c128_i32_491 = arith.constant 128 : i32
          %943 = arith.divsi %942, %c128_i32_491 : i32
          %c0_i32_492 = arith.constant 0 : i32
          %944 = arith.cmpi sgt, %942, %c0_i32_492 : i32
          %945 = arith.extui %944 : i1 to i32
          %c0_i32_493 = arith.constant 0 : i32
          %946 = arith.cmpi slt, %942, %c0_i32_493 : i32
          %947 = arith.extui %946 : i1 to i32
          %948 = arith.subi %945, %947 : i32
          %c0_i32_494 = arith.constant 0 : i32
          %949 = arith.cmpi sgt, %c128_i32_491, %c0_i32_494 : i32
          %950 = arith.extui %949 : i1 to i32
          %c0_i32_495 = arith.constant 0 : i32
          %951 = arith.cmpi slt, %c128_i32_491, %c0_i32_495 : i32
          %952 = arith.extui %951 : i1 to i32
          %953 = arith.subi %950, %952 : i32
          %954 = arith.cmpi ne, %948, %953 : i32
          %955 = arith.remsi %942, %c128_i32_491 : i32
          %c0_i32_496 = arith.constant 0 : i32
          %956 = arith.cmpi ne, %955, %c0_i32_496 : i32
          %957 = arith.andi %954, %956 : i1
          %c1_i32_497 = arith.constant 1 : i32
          %958 = arith.subi %943, %c1_i32_497 : i32
          %959 = arith.select %957, %958, %943 : i32
          %960 = arith.addi %959, %906 : i32
          %961 = arith.subi %926, %906 : i32
          %c3_i32_498 = arith.constant 3 : i32
          %c0_i32_499 = arith.constant 0 : i32
          %962 = arith.subi %961, %c0_i32_499 : i32
          %963 = arith.addi %c0_i32_499, %962 : i32
          %c1_i32_500 = arith.constant 1 : i32
          %964:2 = scf.for %arg24 = %c0_i32_499 to %963 step %c1_i32_500 iter_args(%arg25 = %225, %arg26 = %936) -> (i32, i32)  : i32 {
            %c128_i32_501 = arith.constant 128 : i32
            %965 = arith.subi %c128_i32_501, %arg26 : i32
            %966 = arith.minsi %965, %arg25 : i32
            %967 = arith.addi %938, %arg24 : i32
            %c128_i32_502 = arith.constant 128 : i32
            %968 = arith.muli %967, %c128_i32_502 : i32
            %969 = arith.addi %968, %arg26 : i32
            %970 = arith.addi %960, %arg24 : i32
            %971 = arith.index_cast %970 : i32 to index
            %972 = memref.load %1[%971] : memref<2048xi32, #tpu.memory_space<smem>>
            %c128_i32_503 = arith.constant 128 : i32
            %973 = arith.muli %972, %c128_i32_503 : i32
            %974 = arith.addi %973, %arg26 : i32
            %c0_i32_504 = arith.constant 0 : i32
            %c0_i32_505 = arith.constant 0 : i32
            %c0_i32_506 = arith.constant 0 : i32
            %c0_i32_507 = arith.constant 0 : i32
            %975 = tpu.memref_slice %16[%146, %c0_i32_504, %c0_i32_505, %c0_i32_506, %c0_i32_507] : memref<2x1024x8x2x128xbf16, #tpu.memory_space<vmem>> -> memref<1x1024x8x2x128xbf16, strided<[2097152, 2048, 256, 128, 1], offset: ?>, #tpu.memory_space<vmem>>
            %976 = tpu.memref_squeeze %975 : memref<1x1024x8x2x128xbf16, strided<[2097152, 2048, 256, 128, 1], offset: ?>, #tpu.memory_space<vmem>> -> memref<1024x8x2x128xbf16, strided<[2048, 256, 128, 1], offset: ?>, #tpu.memory_space<vmem>>
            %c0_i32_508 = arith.constant 0 : i32
            %c0_i32_509 = arith.constant 0 : i32
            %c0_i32_510 = arith.constant 0 : i32
            %977 = tpu.memref_slice %976[%969, %c0_i32_508, %c0_i32_509, %c0_i32_510] <%966> : memref<1024x8x2x128xbf16, strided<[2048, 256, 128, 1], offset: ?>, #tpu.memory_space<vmem>> -> memref<?x8x2x128xbf16, strided<[2048, 256, 128, 1], offset: ?>, #tpu.memory_space<vmem>>
            %978 = tpu.memref_reshape %15 : memref<4688x128x8x2x128xbf16, #tpu.memory_space<any>> -> memref<600064x8x2x128xbf16, #tpu.memory_space<any>>
            %c0_i32_511 = arith.constant 0 : i32
            %c0_i32_512 = arith.constant 0 : i32
            %c0_i32_513 = arith.constant 0 : i32
            %979 = tpu.memref_slice %978[%974, %c0_i32_511, %c0_i32_512, %c0_i32_513] <%966> : memref<600064x8x2x128xbf16, #tpu.memory_space<any>> -> memref<?x8x2x128xbf16, strided<[2048, 256, 128, 1], offset: ?>, #tpu.memory_space<any>>
            %980 = tpu.memref_slice %19[%c3_i32_498, %146] : memref<5x2x!tpu.dma_semaphore, #tpu.memory_space<semaphore_mem>> -> memref<1x1x!tpu.dma_semaphore, strided<[2, 1], offset: ?>, #tpu.memory_space<semaphore_mem>>
            %981 = tpu.memref_squeeze %980 : memref<1x1x!tpu.dma_semaphore, strided<[2, 1], offset: ?>, #tpu.memory_space<semaphore_mem>> -> memref<!tpu.dma_semaphore, strided<[], offset: ?>, #tpu.memory_space<semaphore_mem>>
            tpu.wait_dma2 semaphore(%981 : memref<!tpu.dma_semaphore, strided<[], offset: ?>, #tpu.memory_space<semaphore_mem>>) src(%977 : memref<?x8x2x128xbf16, strided<[2048, 256, 128, 1], offset: ?>, #tpu.memory_space<vmem>>) dst(%979 : memref<?x8x2x128xbf16, strided<[2048, 256, 128, 1], offset: ?>, #tpu.memory_space<any>>)
            %982 = arith.subi %arg25, %966 : i32
            %c0_i32_514 = arith.constant 0 : i32
            scf.yield %982, %c0_i32_514 : i32, i32
          }
        } else {
        }
        %c0_i32_108 = arith.constant 0 : i32
        %c0_i32_109 = arith.constant 0 : i32
        %c0_i32_110 = arith.constant 0 : i32
        %229 = arith.subi %197, %c0_i32_109 : i32
        %230 = arith.addi %c0_i32_109, %229 : i32
        %c1_i32_111 = arith.constant 1 : i32
        %231 = scf.for %arg24 = %c0_i32_109 to %230 step %c1_i32_111 iter_args(%arg25 = %c0_i32_110) -> (i32)  : i32 {
          %c128_i32_456 = arith.constant 128 : i32
          %865 = arith.muli %arg24, %c128_i32_456 : i32
          %866 = arith.subi %176, %865 : i32
          %c128_i32_457 = arith.constant 128 : i32
          %867 = arith.minsi %c128_i32_457, %866 : i32
          %868 = arith.addi %222, %arg24 : i32
          %869 = arith.index_cast %868 : i32 to index
          %870 = memref.load %1[%869] : memref<2048xi32, #tpu.memory_space<smem>>
          %c128_i32_458 = arith.constant 128 : i32
          %871 = arith.muli %870, %c128_i32_458 : i32
          %c128_i32_459 = arith.constant 128 : i32
          %872 = arith.muli %arg24, %c128_i32_459 : i32
          %873 = tpu.memref_reshape %11 : memref<4688x128x8x2x128xbf16, #tpu.memory_space<any>> -> memref<600064x8x2x128xbf16, #tpu.memory_space<any>>
          %c0_i32_460 = arith.constant 0 : i32
          %c0_i32_461 = arith.constant 0 : i32
          %c0_i32_462 = arith.constant 0 : i32
          %874 = tpu.memref_slice %873[%871, %c0_i32_460, %c0_i32_461, %c0_i32_462] <%867> : memref<600064x8x2x128xbf16, #tpu.memory_space<any>> -> memref<?x8x2x128xbf16, strided<[2048, 256, 128, 1], offset: ?>, #tpu.memory_space<any>>
          %c0_i32_463 = arith.constant 0 : i32
          %c0_i32_464 = arith.constant 0 : i32
          %c0_i32_465 = arith.constant 0 : i32
          %c0_i32_466 = arith.constant 0 : i32
          %875 = tpu.memref_slice %16[%146, %c0_i32_463, %c0_i32_464, %c0_i32_465, %c0_i32_466] : memref<2x1024x8x2x128xbf16, #tpu.memory_space<vmem>> -> memref<1x1024x8x2x128xbf16, strided<[2097152, 2048, 256, 128, 1], offset: ?>, #tpu.memory_space<vmem>>
          %876 = tpu.memref_squeeze %875 : memref<1x1024x8x2x128xbf16, strided<[2097152, 2048, 256, 128, 1], offset: ?>, #tpu.memory_space<vmem>> -> memref<1024x8x2x128xbf16, strided<[2048, 256, 128, 1], offset: ?>, #tpu.memory_space<vmem>>
          %c0_i32_467 = arith.constant 0 : i32
          %c0_i32_468 = arith.constant 0 : i32
          %c0_i32_469 = arith.constant 0 : i32
          %877 = tpu.memref_slice %876[%872, %c0_i32_467, %c0_i32_468, %c0_i32_469] <%867> : memref<1024x8x2x128xbf16, strided<[2048, 256, 128, 1], offset: ?>, #tpu.memory_space<vmem>> -> memref<?x8x2x128xbf16, strided<[2048, 256, 128, 1], offset: ?>, #tpu.memory_space<vmem>>
          %878 = tpu.memref_slice %19[%c0_i32_108, %146] : memref<5x2x!tpu.dma_semaphore, #tpu.memory_space<semaphore_mem>> -> memref<1x1x!tpu.dma_semaphore, strided<[2, 1], offset: ?>, #tpu.memory_space<semaphore_mem>>
          %879 = tpu.memref_squeeze %878 : memref<1x1x!tpu.dma_semaphore, strided<[2, 1], offset: ?>, #tpu.memory_space<semaphore_mem>> -> memref<!tpu.dma_semaphore, strided<[], offset: ?>, #tpu.memory_space<semaphore_mem>>
          tpu.wait_dma2 semaphore(%879 : memref<!tpu.dma_semaphore, strided<[], offset: ?>, #tpu.memory_space<semaphore_mem>>) src(%874 : memref<?x8x2x128xbf16, strided<[2048, 256, 128, 1], offset: ?>, #tpu.memory_space<any>>) dst(%877 : memref<?x8x2x128xbf16, strided<[2048, 256, 128, 1], offset: ?>, #tpu.memory_space<vmem>>)
          %880 = arith.addi %arg25, %867 : i32
          scf.yield %880 : i32
        }
        %c0_i32_112 = arith.constant 0 : i32
        %232 = arith.cmpi sgt, %200, %c0_i32_112 : i32
        %233 = arith.extui %232 : i1 to i32
        %c0_i32_113 = arith.constant 0 : i32
        %c0_i32_114 = arith.constant 0 : i32
        %234 = arith.cmpi ne, %233, %c0_i32_114 : i32
        scf.if %234 {
          %865 = arith.subi %172, %177 : i32
          %c0_i32_456 = arith.constant 0 : i32
          %c0_i32_457 = arith.constant 0 : i32
          %c0_i32_458 = arith.constant 0 : i32
          %866 = tpu.memref_slice %10[%865, %c0_i32_456, %c0_i32_457, %c0_i32_458] <%200> : memref<8192x8x2x128xbf16, #tpu.memory_space<any>> -> memref<?x8x2x128xbf16, strided<[2048, 256, 128, 1], offset: ?>, #tpu.memory_space<any>>
          %c0_i32_459 = arith.constant 0 : i32
          %c0_i32_460 = arith.constant 0 : i32
          %c0_i32_461 = arith.constant 0 : i32
          %c0_i32_462 = arith.constant 0 : i32
          %867 = tpu.memref_slice %16[%146, %c0_i32_459, %c0_i32_460, %c0_i32_461, %c0_i32_462] : memref<2x1024x8x2x128xbf16, #tpu.memory_space<vmem>> -> memref<1x1024x8x2x128xbf16, strided<[2097152, 2048, 256, 128, 1], offset: ?>, #tpu.memory_space<vmem>>
          %868 = tpu.memref_squeeze %867 : memref<1x1024x8x2x128xbf16, strided<[2097152, 2048, 256, 128, 1], offset: ?>, #tpu.memory_space<vmem>> -> memref<1024x8x2x128xbf16, strided<[2048, 256, 128, 1], offset: ?>, #tpu.memory_space<vmem>>
          %c0_i32_463 = arith.constant 0 : i32
          %c0_i32_464 = arith.constant 0 : i32
          %c0_i32_465 = arith.constant 0 : i32
          %869 = tpu.memref_slice %868[%231, %c0_i32_463, %c0_i32_464, %c0_i32_465] <%200> : memref<1024x8x2x128xbf16, strided<[2048, 256, 128, 1], offset: ?>, #tpu.memory_space<vmem>> -> memref<?x8x2x128xbf16, strided<[2048, 256, 128, 1], offset: ?>, #tpu.memory_space<vmem>>
          %870 = tpu.memref_slice %19[%c0_i32_113, %146] : memref<5x2x!tpu.dma_semaphore, #tpu.memory_space<semaphore_mem>> -> memref<1x1x!tpu.dma_semaphore, strided<[2, 1], offset: ?>, #tpu.memory_space<semaphore_mem>>
          %871 = tpu.memref_squeeze %870 : memref<1x1x!tpu.dma_semaphore, strided<[2, 1], offset: ?>, #tpu.memory_space<semaphore_mem>> -> memref<!tpu.dma_semaphore, strided<[], offset: ?>, #tpu.memory_space<semaphore_mem>>
          tpu.wait_dma2 semaphore(%871 : memref<!tpu.dma_semaphore, strided<[], offset: ?>, #tpu.memory_space<semaphore_mem>>) src(%866 : memref<?x8x2x128xbf16, strided<[2048, 256, 128, 1], offset: ?>, #tpu.memory_space<any>>) dst(%869 : memref<?x8x2x128xbf16, strided<[2048, 256, 128, 1], offset: ?>, #tpu.memory_space<vmem>>)
        } else {
        }
        %235 = arith.addi %166, %231 : i32
        %c0_i32_115 = arith.constant 0 : i32
        %236 = arith.cmpi sgt, %200, %c0_i32_115 : i32
        %c0_i32_116 = arith.constant 0 : i32
        %237 = arith.cmpi eq, %c0_i32_14, %c0_i32_116 : i32
        %238 = arith.andi %236, %237 : i1
        %239 = arith.extui %238 : i1 to i32
        %c0_i32_117 = arith.constant 0 : i32
        %240 = arith.cmpi ne, %239, %c0_i32_117 : i32
        scf.if %240 {
          %865 = arith.index_cast %146 : i32 to index
          %866 = memref.load %8[%865] : memref<128xi32, #tpu.memory_space<smem>>
          memref.store %arg0, %8[%865] : memref<128xi32, #tpu.memory_space<smem>>
          %c2_i32_456 = arith.constant 2 : i32
          %867 = arith.addi %146, %c2_i32_456 : i32
          %868 = arith.index_cast %867 : i32 to index
          %869 = memref.load %8[%868] : memref<128xi32, #tpu.memory_space<smem>>
          memref.store %235, %8[%868] : memref<128xi32, #tpu.memory_space<smem>>
          %c4_i32_457 = arith.constant 4 : i32
          %870 = arith.addi %146, %c4_i32_457 : i32
          %871 = arith.index_cast %870 : i32 to index
          %872 = memref.load %8[%871] : memref<128xi32, #tpu.memory_space<smem>>
          memref.store %200, %8[%871] : memref<128xi32, #tpu.memory_space<smem>>
          %c1024_i32_458 = arith.constant 1024 : i32
          %873 = arith.divsi %235, %c1024_i32_458 : i32
          %c0_i32_459 = arith.constant 0 : i32
          %874 = arith.cmpi sgt, %235, %c0_i32_459 : i32
          %875 = arith.extui %874 : i1 to i32
          %c0_i32_460 = arith.constant 0 : i32
          %876 = arith.cmpi slt, %235, %c0_i32_460 : i32
          %877 = arith.extui %876 : i1 to i32
          %878 = arith.subi %875, %877 : i32
          %c0_i32_461 = arith.constant 0 : i32
          %879 = arith.cmpi sgt, %c1024_i32_458, %c0_i32_461 : i32
          %880 = arith.extui %879 : i1 to i32
          %c0_i32_462 = arith.constant 0 : i32
          %881 = arith.cmpi slt, %c1024_i32_458, %c0_i32_462 : i32
          %882 = arith.extui %881 : i1 to i32
          %883 = arith.subi %880, %882 : i32
          %884 = arith.cmpi ne, %878, %883 : i32
          %885 = arith.remsi %235, %c1024_i32_458 : i32
          %c0_i32_463 = arith.constant 0 : i32
          %886 = arith.cmpi ne, %885, %c0_i32_463 : i32
          %887 = arith.andi %884, %886 : i1
          %c1_i32_464 = arith.constant 1 : i32
          %888 = arith.subi %873, %c1_i32_464 : i32
          %889 = arith.select %887, %888, %873 : i32
          %c128_i32_465 = arith.constant 128 : i32
          %890 = arith.divsi %235, %c128_i32_465 : i32
          %c0_i32_466 = arith.constant 0 : i32
          %891 = arith.cmpi sgt, %235, %c0_i32_466 : i32
          %892 = arith.extui %891 : i1 to i32
          %c0_i32_467 = arith.constant 0 : i32
          %893 = arith.cmpi slt, %235, %c0_i32_467 : i32
          %894 = arith.extui %893 : i1 to i32
          %895 = arith.subi %892, %894 : i32
          %c0_i32_468 = arith.constant 0 : i32
          %896 = arith.cmpi sgt, %c128_i32_465, %c0_i32_468 : i32
          %897 = arith.extui %896 : i1 to i32
          %c0_i32_469 = arith.constant 0 : i32
          %898 = arith.cmpi slt, %c128_i32_465, %c0_i32_469 : i32
          %899 = arith.extui %898 : i1 to i32
          %900 = arith.subi %897, %899 : i32
          %901 = arith.cmpi ne, %895, %900 : i32
          %902 = arith.remsi %235, %c128_i32_465 : i32
          %c0_i32_470 = arith.constant 0 : i32
          %903 = arith.cmpi ne, %902, %c0_i32_470 : i32
          %904 = arith.andi %901, %903 : i1
          %c1_i32_471 = arith.constant 1 : i32
          %905 = arith.subi %890, %c1_i32_471 : i32
          %906 = arith.select %904, %905, %890 : i32
          %907 = arith.addi %235, %200 : i32
          %c128_i32_472 = arith.constant 128 : i32
          %908 = arith.addi %907, %c128_i32_472 : i32
          %c1_i32_473 = arith.constant 1 : i32
          %909 = arith.subi %908, %c1_i32_473 : i32
          %c128_i32_474 = arith.constant 128 : i32
          %910 = arith.divsi %909, %c128_i32_474 : i32
          %c0_i32_475 = arith.constant 0 : i32
          %911 = arith.cmpi sgt, %909, %c0_i32_475 : i32
          %912 = arith.extui %911 : i1 to i32
          %c0_i32_476 = arith.constant 0 : i32
          %913 = arith.cmpi slt, %909, %c0_i32_476 : i32
          %914 = arith.extui %913 : i1 to i32
          %915 = arith.subi %912, %914 : i32
          %c0_i32_477 = arith.constant 0 : i32
          %916 = arith.cmpi sgt, %c128_i32_474, %c0_i32_477 : i32
          %917 = arith.extui %916 : i1 to i32
          %c0_i32_478 = arith.constant 0 : i32
          %918 = arith.cmpi slt, %c128_i32_474, %c0_i32_478 : i32
          %919 = arith.extui %918 : i1 to i32
          %920 = arith.subi %917, %919 : i32
          %921 = arith.cmpi ne, %915, %920 : i32
          %922 = arith.remsi %909, %c128_i32_474 : i32
          %c0_i32_479 = arith.constant 0 : i32
          %923 = arith.cmpi ne, %922, %c0_i32_479 : i32
          %924 = arith.andi %921, %923 : i1
          %c1_i32_480 = arith.constant 1 : i32
          %925 = arith.subi %910, %c1_i32_480 : i32
          %926 = arith.select %924, %925, %910 : i32
          %c128_i32_481 = arith.constant 128 : i32
          %c0_i32_482 = arith.constant 0 : i32
          %927 = arith.cmpi eq, %c128_i32_481, %c0_i32_482 : i32
          %c1_i32_483 = arith.constant 1 : i32
          %928 = arith.select %927, %c1_i32_483, %c128_i32_481 : i32
          %929 = arith.remsi %235, %928 : i32
          %c0_i32_484 = arith.constant 0 : i32
          %930 = arith.cmpi ne, %929, %c0_i32_484 : i32
          %c0_i32_485 = arith.constant 0 : i32
          %931 = arith.cmpi slt, %929, %c0_i32_485 : i32
          %c0_i32_486 = arith.constant 0 : i32
          %932 = arith.cmpi slt, %928, %c0_i32_486 : i32
          %933 = arith.xori %931, %932 : i1
          %934 = arith.andi %933, %930 : i1
          %935 = arith.addi %929, %928 : i32
          %936 = arith.select %934, %935, %929 : i32
          %c8_i32_487 = arith.constant 8 : i32
          %937 = arith.muli %889, %c8_i32_487 : i32
          %938 = arith.subi %906, %937 : i32
          %939 = arith.index_cast %arg0 : i32 to index
          %940 = memref.load %3[%939] : memref<128xi32, #tpu.memory_space<smem>>
          %c128_i32_488 = arith.constant 128 : i32
          %941 = arith.addi %940, %c128_i32_488 : i32
          %c1_i32_489 = arith.constant 1 : i32
          %942 = arith.subi %941, %c1_i32_489 : i32
          %c128_i32_490 = arith.constant 128 : i32
          %943 = arith.divsi %942, %c128_i32_490 : i32
          %c0_i32_491 = arith.constant 0 : i32
          %944 = arith.cmpi sgt, %942, %c0_i32_491 : i32
          %945 = arith.extui %944 : i1 to i32
          %c0_i32_492 = arith.constant 0 : i32
          %946 = arith.cmpi slt, %942, %c0_i32_492 : i32
          %947 = arith.extui %946 : i1 to i32
          %948 = arith.subi %945, %947 : i32
          %c0_i32_493 = arith.constant 0 : i32
          %949 = arith.cmpi sgt, %c128_i32_490, %c0_i32_493 : i32
          %950 = arith.extui %949 : i1 to i32
          %c0_i32_494 = arith.constant 0 : i32
          %951 = arith.cmpi slt, %c128_i32_490, %c0_i32_494 : i32
          %952 = arith.extui %951 : i1 to i32
          %953 = arith.subi %950, %952 : i32
          %954 = arith.cmpi ne, %948, %953 : i32
          %955 = arith.remsi %942, %c128_i32_490 : i32
          %c0_i32_495 = arith.constant 0 : i32
          %956 = arith.cmpi ne, %955, %c0_i32_495 : i32
          %957 = arith.andi %954, %956 : i1
          %c1_i32_496 = arith.constant 1 : i32
          %958 = arith.subi %943, %c1_i32_496 : i32
          %959 = arith.select %957, %958, %943 : i32
          %960 = arith.addi %959, %906 : i32
          %961 = arith.subi %926, %906 : i32
          %c3_i32_497 = arith.constant 3 : i32
          %c0_i32_498 = arith.constant 0 : i32
          %962 = arith.subi %961, %c0_i32_498 : i32
          %963 = arith.addi %c0_i32_498, %962 : i32
          %c1_i32_499 = arith.constant 1 : i32
          %964:2 = scf.for %arg24 = %c0_i32_498 to %963 step %c1_i32_499 iter_args(%arg25 = %200, %arg26 = %936) -> (i32, i32)  : i32 {
            %c128_i32_500 = arith.constant 128 : i32
            %965 = arith.subi %c128_i32_500, %arg26 : i32
            %966 = arith.minsi %965, %arg25 : i32
            %967 = arith.addi %938, %arg24 : i32
            %c128_i32_501 = arith.constant 128 : i32
            %968 = arith.muli %967, %c128_i32_501 : i32
            %969 = arith.addi %968, %arg26 : i32
            %970 = arith.addi %960, %arg24 : i32
            %971 = arith.index_cast %970 : i32 to index
            %972 = memref.load %1[%971] : memref<2048xi32, #tpu.memory_space<smem>>
            %c128_i32_502 = arith.constant 128 : i32
            %973 = arith.muli %972, %c128_i32_502 : i32
            %974 = arith.addi %973, %arg26 : i32
            %c0_i32_503 = arith.constant 0 : i32
            %c0_i32_504 = arith.constant 0 : i32
            %c0_i32_505 = arith.constant 0 : i32
            %c0_i32_506 = arith.constant 0 : i32
            %975 = tpu.memref_slice %16[%146, %c0_i32_503, %c0_i32_504, %c0_i32_505, %c0_i32_506] : memref<2x1024x8x2x128xbf16, #tpu.memory_space<vmem>> -> memref<1x1024x8x2x128xbf16, strided<[2097152, 2048, 256, 128, 1], offset: ?>, #tpu.memory_space<vmem>>
            %976 = tpu.memref_squeeze %975 : memref<1x1024x8x2x128xbf16, strided<[2097152, 2048, 256, 128, 1], offset: ?>, #tpu.memory_space<vmem>> -> memref<1024x8x2x128xbf16, strided<[2048, 256, 128, 1], offset: ?>, #tpu.memory_space<vmem>>
            %c0_i32_507 = arith.constant 0 : i32
            %c0_i32_508 = arith.constant 0 : i32
            %c0_i32_509 = arith.constant 0 : i32
            %977 = tpu.memref_slice %976[%969, %c0_i32_507, %c0_i32_508, %c0_i32_509] <%966> : memref<1024x8x2x128xbf16, strided<[2048, 256, 128, 1], offset: ?>, #tpu.memory_space<vmem>> -> memref<?x8x2x128xbf16, strided<[2048, 256, 128, 1], offset: ?>, #tpu.memory_space<vmem>>
            %978 = tpu.memref_reshape %15 : memref<4688x128x8x2x128xbf16, #tpu.memory_space<any>> -> memref<600064x8x2x128xbf16, #tpu.memory_space<any>>
            %c0_i32_510 = arith.constant 0 : i32
            %c0_i32_511 = arith.constant 0 : i32
            %c0_i32_512 = arith.constant 0 : i32
            %979 = tpu.memref_slice %978[%974, %c0_i32_510, %c0_i32_511, %c0_i32_512] <%966> : memref<600064x8x2x128xbf16, #tpu.memory_space<any>> -> memref<?x8x2x128xbf16, strided<[2048, 256, 128, 1], offset: ?>, #tpu.memory_space<any>>
            %980 = tpu.memref_slice %19[%c3_i32_497, %146] : memref<5x2x!tpu.dma_semaphore, #tpu.memory_space<semaphore_mem>> -> memref<1x1x!tpu.dma_semaphore, strided<[2, 1], offset: ?>, #tpu.memory_space<semaphore_mem>>
            %981 = tpu.memref_squeeze %980 : memref<1x1x!tpu.dma_semaphore, strided<[2, 1], offset: ?>, #tpu.memory_space<semaphore_mem>> -> memref<!tpu.dma_semaphore, strided<[], offset: ?>, #tpu.memory_space<semaphore_mem>>
            tpu.enqueue_dma source(%977 : memref<?x8x2x128xbf16, strided<[2048, 256, 128, 1], offset: ?>, #tpu.memory_space<vmem>>) target(%979 : memref<?x8x2x128xbf16, strided<[2048, 256, 128, 1], offset: ?>, #tpu.memory_space<any>>) target_semaphore(%981 : memref<!tpu.dma_semaphore, strided<[], offset: ?>, #tpu.memory_space<semaphore_mem>>)
            %982 = arith.subi %arg25, %966 : i32
            %c0_i32_513 = arith.constant 0 : i32
            scf.yield %982, %c0_i32_513 : i32, i32
          }
        } else {
        }
        %241 = tpu.memref_bitcast %16 : memref<2x1024x8x2x128xbf16, #tpu.memory_space<vmem>> -> memref<2x1024x8x1x128xi32, #tpu.memory_space<vmem>>
        %c0_i32_118 = arith.constant 0 : i32
        %c0_i32_119 = arith.constant 0 : i32
        %c0_i32_120 = arith.constant 0 : i32
        %c0_i32_121 = arith.constant 0 : i32
        %242 = tpu.memref_slice %241[%146, %c0_i32_118, %c0_i32_119, %c0_i32_120, %c0_i32_121] : memref<2x1024x8x1x128xi32, #tpu.memory_space<vmem>> -> memref<1x1024x8x1x128xi32, strided<[1048576, 1024, 128, 128, 1], offset: ?>, #tpu.memory_space<vmem>>
        %243 = tpu.memref_squeeze %242 : memref<1x1024x8x1x128xi32, strided<[1048576, 1024, 128, 128, 1], offset: ?>, #tpu.memory_space<vmem>> -> memref<1024x8x1x128xi32, strided<[1024, 128, 128, 1], offset: ?>, #tpu.memory_space<vmem>>
        %244 = tpu.memref_reshape %243 : memref<1024x8x1x128xi32, strided<[1024, 128, 128, 1], offset: ?>, #tpu.memory_space<vmem>> -> memref<8192x128xi32, #tpu.memory_space<vmem>>
        %245 = tpu.memref_reshape %244 : memref<8192x128xi32, #tpu.memory_space<vmem>> -> memref<8192x128xi32, #tpu.memory_space<vmem>>
        %c0_122 = arith.constant 0 : index
        %c0_123 = arith.constant 0 : index
        %246 = tpu.strided_load %245[%c0_122, %c0_123] {strides = array<i32: 8, 1>} : memref<8192x128xi32, #tpu.memory_space<vmem>>, vector<1024x128xi32>
        %c0_i32_124 = arith.constant 0 : i32
        %247 = vector.broadcast %c0_i32_124 : i32 to vector<1024x128xi32>
        %248 = arith.shrui %246, %247 : vector<1024x128xi32>
        %249 = arith.trunci %248 : vector<1024x128xi32> to vector<1024x128xi16>
        %c16_i32 = arith.constant 16 : i32
        %250 = vector.broadcast %c16_i32 : i32 to vector<1024x128xi32>
        %251 = arith.shrui %246, %250 : vector<1024x128xi32>
        %252 = arith.trunci %251 : vector<1024x128xi32> to vector<1024x128xi16>
        %253 = tpu.bitcast %249 : vector<1024x128xi16> -> vector<512x128xi32>
        %254 = tpu.bitcast %252 : vector<1024x128xi16> -> vector<512x128xi32>
        %255 = arith.andi %253, %145 : vector<512x128xi32>
        %256 = arith.andi %254, %145 : vector<512x128xi32>
        %257 = tpu.bitcast %255 : vector<512x128xi32> -> vector<1024x128xbf16>
        %258 = tpu.bitcast %256 : vector<512x128xi32> -> vector<1024x128xbf16>
        %259 = tpu.memref_bitcast %16 : memref<2x1024x8x2x128xbf16, #tpu.memory_space<vmem>> -> memref<2x1024x8x1x128xi32, #tpu.memory_space<vmem>>
        %c0_i32_125 = arith.constant 0 : i32
        %c0_i32_126 = arith.constant 0 : i32
        %c0_i32_127 = arith.constant 0 : i32
        %c0_i32_128 = arith.constant 0 : i32
        %260 = tpu.memref_slice %259[%146, %c0_i32_125, %c0_i32_126, %c0_i32_127, %c0_i32_128] : memref<2x1024x8x1x128xi32, #tpu.memory_space<vmem>> -> memref<1x1024x8x1x128xi32, strided<[1048576, 1024, 128, 128, 1], offset: ?>, #tpu.memory_space<vmem>>
        %261 = tpu.memref_squeeze %260 : memref<1x1024x8x1x128xi32, strided<[1048576, 1024, 128, 128, 1], offset: ?>, #tpu.memory_space<vmem>> -> memref<1024x8x1x128xi32, strided<[1024, 128, 128, 1], offset: ?>, #tpu.memory_space<vmem>>
        %262 = tpu.memref_reshape %261 : memref<1024x8x1x128xi32, strided<[1024, 128, 128, 1], offset: ?>, #tpu.memory_space<vmem>> -> memref<8192x128xi32, #tpu.memory_space<vmem>>
        %263 = tpu.memref_reshape %262 : memref<8192x128xi32, #tpu.memory_space<vmem>> -> memref<8192x128xi32, #tpu.memory_space<vmem>>
        %c1_129 = arith.constant 1 : index
        %c0_130 = arith.constant 0 : index
        %264 = tpu.strided_load %263[%c1_129, %c0_130] {strides = array<i32: 8, 1>} : memref<8192x128xi32, #tpu.memory_space<vmem>>, vector<1024x128xi32>
        %c0_i32_131 = arith.constant 0 : i32
        %265 = vector.broadcast %c0_i32_131 : i32 to vector<1024x128xi32>
        %266 = arith.shrui %264, %265 : vector<1024x128xi32>
        %267 = arith.trunci %266 : vector<1024x128xi32> to vector<1024x128xi16>
        %c16_i32_132 = arith.constant 16 : i32
        %268 = vector.broadcast %c16_i32_132 : i32 to vector<1024x128xi32>
        %269 = arith.shrui %264, %268 : vector<1024x128xi32>
        %270 = arith.trunci %269 : vector<1024x128xi32> to vector<1024x128xi16>
        %271 = tpu.bitcast %267 : vector<1024x128xi16> -> vector<512x128xi32>
        %272 = tpu.bitcast %270 : vector<1024x128xi16> -> vector<512x128xi32>
        %273 = arith.andi %271, %145 : vector<512x128xi32>
        %274 = arith.andi %272, %145 : vector<512x128xi32>
        %275 = tpu.bitcast %273 : vector<512x128xi32> -> vector<1024x128xbf16>
        %276 = tpu.bitcast %274 : vector<512x128xi32> -> vector<1024x128xbf16>
        %277 = tpu.memref_bitcast %16 : memref<2x1024x8x2x128xbf16, #tpu.memory_space<vmem>> -> memref<2x1024x8x1x128xi32, #tpu.memory_space<vmem>>
        %c0_i32_133 = arith.constant 0 : i32
        %c0_i32_134 = arith.constant 0 : i32
        %c0_i32_135 = arith.constant 0 : i32
        %c0_i32_136 = arith.constant 0 : i32
        %278 = tpu.memref_slice %277[%146, %c0_i32_133, %c0_i32_134, %c0_i32_135, %c0_i32_136] : memref<2x1024x8x1x128xi32, #tpu.memory_space<vmem>> -> memref<1x1024x8x1x128xi32, strided<[1048576, 1024, 128, 128, 1], offset: ?>, #tpu.memory_space<vmem>>
        %279 = tpu.memref_squeeze %278 : memref<1x1024x8x1x128xi32, strided<[1048576, 1024, 128, 128, 1], offset: ?>, #tpu.memory_space<vmem>> -> memref<1024x8x1x128xi32, strided<[1024, 128, 128, 1], offset: ?>, #tpu.memory_space<vmem>>
        %280 = tpu.memref_reshape %279 : memref<1024x8x1x128xi32, strided<[1024, 128, 128, 1], offset: ?>, #tpu.memory_space<vmem>> -> memref<8192x128xi32, #tpu.memory_space<vmem>>
        %281 = tpu.memref_reshape %280 : memref<8192x128xi32, #tpu.memory_space<vmem>> -> memref<8192x128xi32, #tpu.memory_space<vmem>>
        %c2_137 = arith.constant 2 : index
        %c0_138 = arith.constant 0 : index
        %282 = tpu.strided_load %281[%c2_137, %c0_138] {strides = array<i32: 8, 1>} : memref<8192x128xi32, #tpu.memory_space<vmem>>, vector<1024x128xi32>
        %c0_i32_139 = arith.constant 0 : i32
        %283 = vector.broadcast %c0_i32_139 : i32 to vector<1024x128xi32>
        %284 = arith.shrui %282, %283 : vector<1024x128xi32>
        %285 = arith.trunci %284 : vector<1024x128xi32> to vector<1024x128xi16>
        %c16_i32_140 = arith.constant 16 : i32
        %286 = vector.broadcast %c16_i32_140 : i32 to vector<1024x128xi32>
        %287 = arith.shrui %282, %286 : vector<1024x128xi32>
        %288 = arith.trunci %287 : vector<1024x128xi32> to vector<1024x128xi16>
        %289 = tpu.bitcast %285 : vector<1024x128xi16> -> vector<512x128xi32>
        %290 = tpu.bitcast %288 : vector<1024x128xi16> -> vector<512x128xi32>
        %291 = arith.andi %289, %145 : vector<512x128xi32>
        %292 = arith.andi %290, %145 : vector<512x128xi32>
        %293 = tpu.bitcast %291 : vector<512x128xi32> -> vector<1024x128xbf16>
        %294 = tpu.bitcast %292 : vector<512x128xi32> -> vector<1024x128xbf16>
        %295 = tpu.memref_bitcast %16 : memref<2x1024x8x2x128xbf16, #tpu.memory_space<vmem>> -> memref<2x1024x8x1x128xi32, #tpu.memory_space<vmem>>
        %c0_i32_141 = arith.constant 0 : i32
        %c0_i32_142 = arith.constant 0 : i32
        %c0_i32_143 = arith.constant 0 : i32
        %c0_i32_144 = arith.constant 0 : i32
        %296 = tpu.memref_slice %295[%146, %c0_i32_141, %c0_i32_142, %c0_i32_143, %c0_i32_144] : memref<2x1024x8x1x128xi32, #tpu.memory_space<vmem>> -> memref<1x1024x8x1x128xi32, strided<[1048576, 1024, 128, 128, 1], offset: ?>, #tpu.memory_space<vmem>>
        %297 = tpu.memref_squeeze %296 : memref<1x1024x8x1x128xi32, strided<[1048576, 1024, 128, 128, 1], offset: ?>, #tpu.memory_space<vmem>> -> memref<1024x8x1x128xi32, strided<[1024, 128, 128, 1], offset: ?>, #tpu.memory_space<vmem>>
        %298 = tpu.memref_reshape %297 : memref<1024x8x1x128xi32, strided<[1024, 128, 128, 1], offset: ?>, #tpu.memory_space<vmem>> -> memref<8192x128xi32, #tpu.memory_space<vmem>>
        %299 = tpu.memref_reshape %298 : memref<8192x128xi32, #tpu.memory_space<vmem>> -> memref<8192x128xi32, #tpu.memory_space<vmem>>
        %c3 = arith.constant 3 : index
        %c0_145 = arith.constant 0 : index
        %300 = tpu.strided_load %299[%c3, %c0_145] {strides = array<i32: 8, 1>} : memref<8192x128xi32, #tpu.memory_space<vmem>>, vector<1024x128xi32>
        %c0_i32_146 = arith.constant 0 : i32
        %301 = vector.broadcast %c0_i32_146 : i32 to vector<1024x128xi32>
        %302 = arith.shrui %300, %301 : vector<1024x128xi32>
        %303 = arith.trunci %302 : vector<1024x128xi32> to vector<1024x128xi16>
        %c16_i32_147 = arith.constant 16 : i32
        %304 = vector.broadcast %c16_i32_147 : i32 to vector<1024x128xi32>
        %305 = arith.shrui %300, %304 : vector<1024x128xi32>
        %306 = arith.trunci %305 : vector<1024x128xi32> to vector<1024x128xi16>
        %307 = tpu.bitcast %303 : vector<1024x128xi16> -> vector<512x128xi32>
        %308 = tpu.bitcast %306 : vector<1024x128xi16> -> vector<512x128xi32>
        %309 = arith.andi %307, %145 : vector<512x128xi32>
        %310 = arith.andi %308, %145 : vector<512x128xi32>
        %311 = tpu.bitcast %309 : vector<512x128xi32> -> vector<1024x128xbf16>
        %312 = tpu.bitcast %310 : vector<512x128xi32> -> vector<1024x128xbf16>
        %313 = tpu.memref_bitcast %16 : memref<2x1024x8x2x128xbf16, #tpu.memory_space<vmem>> -> memref<2x1024x8x1x128xi32, #tpu.memory_space<vmem>>
        %c0_i32_148 = arith.constant 0 : i32
        %c0_i32_149 = arith.constant 0 : i32
        %c0_i32_150 = arith.constant 0 : i32
        %c0_i32_151 = arith.constant 0 : i32
        %314 = tpu.memref_slice %313[%146, %c0_i32_148, %c0_i32_149, %c0_i32_150, %c0_i32_151] : memref<2x1024x8x1x128xi32, #tpu.memory_space<vmem>> -> memref<1x1024x8x1x128xi32, strided<[1048576, 1024, 128, 128, 1], offset: ?>, #tpu.memory_space<vmem>>
        %315 = tpu.memref_squeeze %314 : memref<1x1024x8x1x128xi32, strided<[1048576, 1024, 128, 128, 1], offset: ?>, #tpu.memory_space<vmem>> -> memref<1024x8x1x128xi32, strided<[1024, 128, 128, 1], offset: ?>, #tpu.memory_space<vmem>>
        %316 = tpu.memref_reshape %315 : memref<1024x8x1x128xi32, strided<[1024, 128, 128, 1], offset: ?>, #tpu.memory_space<vmem>> -> memref<8192x128xi32, #tpu.memory_space<vmem>>
        %317 = tpu.memref_reshape %316 : memref<8192x128xi32, #tpu.memory_space<vmem>> -> memref<8192x128xi32, #tpu.memory_space<vmem>>
        %c4 = arith.constant 4 : index
        %c0_152 = arith.constant 0 : index
        %318 = tpu.strided_load %317[%c4, %c0_152] {strides = array<i32: 8, 1>} : memref<8192x128xi32, #tpu.memory_space<vmem>>, vector<1024x128xi32>
        %c0_i32_153 = arith.constant 0 : i32
        %319 = vector.broadcast %c0_i32_153 : i32 to vector<1024x128xi32>
        %320 = arith.shrui %318, %319 : vector<1024x128xi32>
        %321 = arith.trunci %320 : vector<1024x128xi32> to vector<1024x128xi16>
        %c16_i32_154 = arith.constant 16 : i32
        %322 = vector.broadcast %c16_i32_154 : i32 to vector<1024x128xi32>
        %323 = arith.shrui %318, %322 : vector<1024x128xi32>
        %324 = arith.trunci %323 : vector<1024x128xi32> to vector<1024x128xi16>
        %325 = tpu.bitcast %321 : vector<1024x128xi16> -> vector<512x128xi32>
        %326 = tpu.bitcast %324 : vector<1024x128xi16> -> vector<512x128xi32>
        %327 = arith.andi %325, %145 : vector<512x128xi32>
        %328 = arith.andi %326, %145 : vector<512x128xi32>
        %329 = tpu.bitcast %327 : vector<512x128xi32> -> vector<1024x128xbf16>
        %330 = tpu.bitcast %328 : vector<512x128xi32> -> vector<1024x128xbf16>
        %331 = tpu.memref_bitcast %16 : memref<2x1024x8x2x128xbf16, #tpu.memory_space<vmem>> -> memref<2x1024x8x1x128xi32, #tpu.memory_space<vmem>>
        %c0_i32_155 = arith.constant 0 : i32
        %c0_i32_156 = arith.constant 0 : i32
        %c0_i32_157 = arith.constant 0 : i32
        %c0_i32_158 = arith.constant 0 : i32
        %332 = tpu.memref_slice %331[%146, %c0_i32_155, %c0_i32_156, %c0_i32_157, %c0_i32_158] : memref<2x1024x8x1x128xi32, #tpu.memory_space<vmem>> -> memref<1x1024x8x1x128xi32, strided<[1048576, 1024, 128, 128, 1], offset: ?>, #tpu.memory_space<vmem>>
        %333 = tpu.memref_squeeze %332 : memref<1x1024x8x1x128xi32, strided<[1048576, 1024, 128, 128, 1], offset: ?>, #tpu.memory_space<vmem>> -> memref<1024x8x1x128xi32, strided<[1024, 128, 128, 1], offset: ?>, #tpu.memory_space<vmem>>
        %334 = tpu.memref_reshape %333 : memref<1024x8x1x128xi32, strided<[1024, 128, 128, 1], offset: ?>, #tpu.memory_space<vmem>> -> memref<8192x128xi32, #tpu.memory_space<vmem>>
        %335 = tpu.memref_reshape %334 : memref<8192x128xi32, #tpu.memory_space<vmem>> -> memref<8192x128xi32, #tpu.memory_space<vmem>>
        %c5 = arith.constant 5 : index
        %c0_159 = arith.constant 0 : index
        %336 = tpu.strided_load %335[%c5, %c0_159] {strides = array<i32: 8, 1>} : memref<8192x128xi32, #tpu.memory_space<vmem>>, vector<1024x128xi32>
        %c0_i32_160 = arith.constant 0 : i32
        %337 = vector.broadcast %c0_i32_160 : i32 to vector<1024x128xi32>
        %338 = arith.shrui %336, %337 : vector<1024x128xi32>
        %339 = arith.trunci %338 : vector<1024x128xi32> to vector<1024x128xi16>
        %c16_i32_161 = arith.constant 16 : i32
        %340 = vector.broadcast %c16_i32_161 : i32 to vector<1024x128xi32>
        %341 = arith.shrui %336, %340 : vector<1024x128xi32>
        %342 = arith.trunci %341 : vector<1024x128xi32> to vector<1024x128xi16>
        %343 = tpu.bitcast %339 : vector<1024x128xi16> -> vector<512x128xi32>
        %344 = tpu.bitcast %342 : vector<1024x128xi16> -> vector<512x128xi32>
        %345 = arith.andi %343, %145 : vector<512x128xi32>
        %346 = arith.andi %344, %145 : vector<512x128xi32>
        %347 = tpu.bitcast %345 : vector<512x128xi32> -> vector<1024x128xbf16>
        %348 = tpu.bitcast %346 : vector<512x128xi32> -> vector<1024x128xbf16>
        %349 = tpu.memref_bitcast %16 : memref<2x1024x8x2x128xbf16, #tpu.memory_space<vmem>> -> memref<2x1024x8x1x128xi32, #tpu.memory_space<vmem>>
        %c0_i32_162 = arith.constant 0 : i32
        %c0_i32_163 = arith.constant 0 : i32
        %c0_i32_164 = arith.constant 0 : i32
        %c0_i32_165 = arith.constant 0 : i32
        %350 = tpu.memref_slice %349[%146, %c0_i32_162, %c0_i32_163, %c0_i32_164, %c0_i32_165] : memref<2x1024x8x1x128xi32, #tpu.memory_space<vmem>> -> memref<1x1024x8x1x128xi32, strided<[1048576, 1024, 128, 128, 1], offset: ?>, #tpu.memory_space<vmem>>
        %351 = tpu.memref_squeeze %350 : memref<1x1024x8x1x128xi32, strided<[1048576, 1024, 128, 128, 1], offset: ?>, #tpu.memory_space<vmem>> -> memref<1024x8x1x128xi32, strided<[1024, 128, 128, 1], offset: ?>, #tpu.memory_space<vmem>>
        %352 = tpu.memref_reshape %351 : memref<1024x8x1x128xi32, strided<[1024, 128, 128, 1], offset: ?>, #tpu.memory_space<vmem>> -> memref<8192x128xi32, #tpu.memory_space<vmem>>
        %353 = tpu.memref_reshape %352 : memref<8192x128xi32, #tpu.memory_space<vmem>> -> memref<8192x128xi32, #tpu.memory_space<vmem>>
        %c6 = arith.constant 6 : index
        %c0_166 = arith.constant 0 : index
        %354 = tpu.strided_load %353[%c6, %c0_166] {strides = array<i32: 8, 1>} : memref<8192x128xi32, #tpu.memory_space<vmem>>, vector<1024x128xi32>
        %c0_i32_167 = arith.constant 0 : i32
        %355 = vector.broadcast %c0_i32_167 : i32 to vector<1024x128xi32>
        %356 = arith.shrui %354, %355 : vector<1024x128xi32>
        %357 = arith.trunci %356 : vector<1024x128xi32> to vector<1024x128xi16>
        %c16_i32_168 = arith.constant 16 : i32
        %358 = vector.broadcast %c16_i32_168 : i32 to vector<1024x128xi32>
        %359 = arith.shrui %354, %358 : vector<1024x128xi32>
        %360 = arith.trunci %359 : vector<1024x128xi32> to vector<1024x128xi16>
        %361 = tpu.bitcast %357 : vector<1024x128xi16> -> vector<512x128xi32>
        %362 = tpu.bitcast %360 : vector<1024x128xi16> -> vector<512x128xi32>
        %363 = arith.andi %361, %145 : vector<512x128xi32>
        %364 = arith.andi %362, %145 : vector<512x128xi32>
        %365 = tpu.bitcast %363 : vector<512x128xi32> -> vector<1024x128xbf16>
        %366 = tpu.bitcast %364 : vector<512x128xi32> -> vector<1024x128xbf16>
        %367 = tpu.memref_bitcast %16 : memref<2x1024x8x2x128xbf16, #tpu.memory_space<vmem>> -> memref<2x1024x8x1x128xi32, #tpu.memory_space<vmem>>
        %c0_i32_169 = arith.constant 0 : i32
        %c0_i32_170 = arith.constant 0 : i32
        %c0_i32_171 = arith.constant 0 : i32
        %c0_i32_172 = arith.constant 0 : i32
        %368 = tpu.memref_slice %367[%146, %c0_i32_169, %c0_i32_170, %c0_i32_171, %c0_i32_172] : memref<2x1024x8x1x128xi32, #tpu.memory_space<vmem>> -> memref<1x1024x8x1x128xi32, strided<[1048576, 1024, 128, 128, 1], offset: ?>, #tpu.memory_space<vmem>>
        %369 = tpu.memref_squeeze %368 : memref<1x1024x8x1x128xi32, strided<[1048576, 1024, 128, 128, 1], offset: ?>, #tpu.memory_space<vmem>> -> memref<1024x8x1x128xi32, strided<[1024, 128, 128, 1], offset: ?>, #tpu.memory_space<vmem>>
        %370 = tpu.memref_reshape %369 : memref<1024x8x1x128xi32, strided<[1024, 128, 128, 1], offset: ?>, #tpu.memory_space<vmem>> -> memref<8192x128xi32, #tpu.memory_space<vmem>>
        %371 = tpu.memref_reshape %370 : memref<8192x128xi32, #tpu.memory_space<vmem>> -> memref<8192x128xi32, #tpu.memory_space<vmem>>
        %c7 = arith.constant 7 : index
        %c0_173 = arith.constant 0 : index
        %372 = tpu.strided_load %371[%c7, %c0_173] {strides = array<i32: 8, 1>} : memref<8192x128xi32, #tpu.memory_space<vmem>>, vector<1024x128xi32>
        %c0_i32_174 = arith.constant 0 : i32
        %373 = vector.broadcast %c0_i32_174 : i32 to vector<1024x128xi32>
        %374 = arith.shrui %372, %373 : vector<1024x128xi32>
        %375 = arith.trunci %374 : vector<1024x128xi32> to vector<1024x128xi16>
        %c16_i32_175 = arith.constant 16 : i32
        %376 = vector.broadcast %c16_i32_175 : i32 to vector<1024x128xi32>
        %377 = arith.shrui %372, %376 : vector<1024x128xi32>
        %378 = arith.trunci %377 : vector<1024x128xi32> to vector<1024x128xi16>
        %379 = tpu.bitcast %375 : vector<1024x128xi16> -> vector<512x128xi32>
        %380 = tpu.bitcast %378 : vector<1024x128xi16> -> vector<512x128xi32>
        %381 = arith.andi %379, %145 : vector<512x128xi32>
        %382 = arith.andi %380, %145 : vector<512x128xi32>
        %383 = tpu.bitcast %381 : vector<512x128xi32> -> vector<1024x128xbf16>
        %384 = tpu.bitcast %382 : vector<512x128xi32> -> vector<1024x128xbf16>
        %385 = vector.shape_cast %257 : vector<1024x128xbf16> to vector<1x1024x128xbf16>
        %386 = vector.shape_cast %275 : vector<1024x128xbf16> to vector<1x1024x128xbf16>
        %387 = vector.shape_cast %293 : vector<1024x128xbf16> to vector<1x1024x128xbf16>
        %388 = vector.shape_cast %311 : vector<1024x128xbf16> to vector<1x1024x128xbf16>
        %389 = vector.shape_cast %329 : vector<1024x128xbf16> to vector<1x1024x128xbf16>
        %390 = vector.shape_cast %347 : vector<1024x128xbf16> to vector<1x1024x128xbf16>
        %391 = vector.shape_cast %365 : vector<1024x128xbf16> to vector<1x1024x128xbf16>
        %392 = vector.shape_cast %383 : vector<1024x128xbf16> to vector<1x1024x128xbf16>
        %393 = tpu.concatenate %385, %386, %387, %388, %389, %390, %391, %392 in 0 : vector<1x1024x128xbf16>, vector<1x1024x128xbf16>, vector<1x1024x128xbf16>, vector<1x1024x128xbf16>, vector<1x1024x128xbf16>, vector<1x1024x128xbf16>, vector<1x1024x128xbf16>, vector<1x1024x128xbf16> -> vector<8x1024x128xbf16>
        %394 = vector.shape_cast %258 : vector<1024x128xbf16> to vector<1x1024x128xbf16>
        %395 = vector.shape_cast %276 : vector<1024x128xbf16> to vector<1x1024x128xbf16>
        %396 = vector.shape_cast %294 : vector<1024x128xbf16> to vector<1x1024x128xbf16>
        %397 = vector.shape_cast %312 : vector<1024x128xbf16> to vector<1x1024x128xbf16>
        %398 = vector.shape_cast %330 : vector<1024x128xbf16> to vector<1x1024x128xbf16>
        %399 = vector.shape_cast %348 : vector<1024x128xbf16> to vector<1x1024x128xbf16>
        %400 = vector.shape_cast %366 : vector<1024x128xbf16> to vector<1x1024x128xbf16>
        %401 = vector.shape_cast %384 : vector<1024x128xbf16> to vector<1x1024x128xbf16>
        %402 = tpu.concatenate %394, %395, %396, %397, %398, %399, %400, %401 in 0 : vector<1x1024x128xbf16>, vector<1x1024x128xbf16>, vector<1x1024x128xbf16>, vector<1x1024x128xbf16>, vector<1x1024x128xbf16>, vector<1x1024x128xbf16>, vector<1x1024x128xbf16>, vector<1x1024x128xbf16> -> vector<8x1024x128xbf16>
        %403 = tpu.memref_bitcast %17 : memref<2x8x128x2x2x128xbf16, #tpu.memory_space<vmem>> -> memref<2x8x128x2x1x128xi32, #tpu.memory_space<vmem>>
        %c0_i32_176 = arith.constant 0 : i32
        %c0_i32_177 = arith.constant 0 : i32
        %c0_i32_178 = arith.constant 0 : i32
        %c0_i32_179 = arith.constant 0 : i32
        %c0_i32_180 = arith.constant 0 : i32
        %404 = tpu.memref_slice %403[%77, %c0_i32_176, %c0_i32_177, %c0_i32_178, %c0_i32_179, %c0_i32_180] : memref<2x8x128x2x1x128xi32, #tpu.memory_space<vmem>> -> memref<1x1x128x2x1x128xi32, strided<[262144, 32768, 256, 128, 128, 1], offset: ?>, #tpu.memory_space<vmem>>
        %405 = tpu.memref_squeeze %404 : memref<1x1x128x2x1x128xi32, strided<[262144, 32768, 256, 128, 128, 1], offset: ?>, #tpu.memory_space<vmem>> -> memref<128x2x1x128xi32, strided<[256, 128, 128, 1], offset: ?>, #tpu.memory_space<vmem>>
        %406 = tpu.memref_reshape %405 : memref<128x2x1x128xi32, strided<[256, 128, 128, 1], offset: ?>, #tpu.memory_space<vmem>> -> memref<256x128xi32, #tpu.memory_space<vmem>>
        %c0_181 = arith.constant 0 : index
        %c0_182 = arith.constant 0 : index
        %407 = vector.load %406[%c0_181, %c0_182] : memref<256x128xi32, #tpu.memory_space<vmem>>, vector<2x128xi32>
        %408 = tpu.bitcast %407 : vector<2x128xi32> -> vector<4x128xbf16>
        %409 = tpu.memref_bitcast %17 : memref<2x8x128x2x2x128xbf16, #tpu.memory_space<vmem>> -> memref<2x8x128x2x1x128xi32, #tpu.memory_space<vmem>>
        %c1_i32_183 = arith.constant 1 : i32
        %c0_i32_184 = arith.constant 0 : i32
        %c0_i32_185 = arith.constant 0 : i32
        %c0_i32_186 = arith.constant 0 : i32
        %c0_i32_187 = arith.constant 0 : i32
        %410 = tpu.memref_slice %409[%77, %c1_i32_183, %c0_i32_184, %c0_i32_185, %c0_i32_186, %c0_i32_187] : memref<2x8x128x2x1x128xi32, #tpu.memory_space<vmem>> -> memref<1x1x128x2x1x128xi32, strided<[262144, 32768, 256, 128, 128, 1], offset: ?>, #tpu.memory_space<vmem>>
        %411 = tpu.memref_squeeze %410 : memref<1x1x128x2x1x128xi32, strided<[262144, 32768, 256, 128, 128, 1], offset: ?>, #tpu.memory_space<vmem>> -> memref<128x2x1x128xi32, strided<[256, 128, 128, 1], offset: ?>, #tpu.memory_space<vmem>>
        %412 = tpu.memref_reshape %411 : memref<128x2x1x128xi32, strided<[256, 128, 128, 1], offset: ?>, #tpu.memory_space<vmem>> -> memref<256x128xi32, #tpu.memory_space<vmem>>
        %c0_188 = arith.constant 0 : index
        %c0_189 = arith.constant 0 : index
        %413 = vector.load %412[%c0_188, %c0_189] : memref<256x128xi32, #tpu.memory_space<vmem>>, vector<2x128xi32>
        %414 = tpu.bitcast %413 : vector<2x128xi32> -> vector<4x128xbf16>
        %415 = tpu.memref_bitcast %17 : memref<2x8x128x2x2x128xbf16, #tpu.memory_space<vmem>> -> memref<2x8x128x2x1x128xi32, #tpu.memory_space<vmem>>
        %c2_i32_190 = arith.constant 2 : i32
        %c0_i32_191 = arith.constant 0 : i32
        %c0_i32_192 = arith.constant 0 : i32
        %c0_i32_193 = arith.constant 0 : i32
        %c0_i32_194 = arith.constant 0 : i32
        %416 = tpu.memref_slice %415[%77, %c2_i32_190, %c0_i32_191, %c0_i32_192, %c0_i32_193, %c0_i32_194] : memref<2x8x128x2x1x128xi32, #tpu.memory_space<vmem>> -> memref<1x1x128x2x1x128xi32, strided<[262144, 32768, 256, 128, 128, 1], offset: ?>, #tpu.memory_space<vmem>>
        %417 = tpu.memref_squeeze %416 : memref<1x1x128x2x1x128xi32, strided<[262144, 32768, 256, 128, 128, 1], offset: ?>, #tpu.memory_space<vmem>> -> memref<128x2x1x128xi32, strided<[256, 128, 128, 1], offset: ?>, #tpu.memory_space<vmem>>
        %418 = tpu.memref_reshape %417 : memref<128x2x1x128xi32, strided<[256, 128, 128, 1], offset: ?>, #tpu.memory_space<vmem>> -> memref<256x128xi32, #tpu.memory_space<vmem>>
        %c0_195 = arith.constant 0 : index
        %c0_196 = arith.constant 0 : index
        %419 = vector.load %418[%c0_195, %c0_196] : memref<256x128xi32, #tpu.memory_space<vmem>>, vector<2x128xi32>
        %420 = tpu.bitcast %419 : vector<2x128xi32> -> vector<4x128xbf16>
        %421 = tpu.memref_bitcast %17 : memref<2x8x128x2x2x128xbf16, #tpu.memory_space<vmem>> -> memref<2x8x128x2x1x128xi32, #tpu.memory_space<vmem>>
        %c3_i32 = arith.constant 3 : i32
        %c0_i32_197 = arith.constant 0 : i32
        %c0_i32_198 = arith.constant 0 : i32
        %c0_i32_199 = arith.constant 0 : i32
        %c0_i32_200 = arith.constant 0 : i32
        %422 = tpu.memref_slice %421[%77, %c3_i32, %c0_i32_197, %c0_i32_198, %c0_i32_199, %c0_i32_200] : memref<2x8x128x2x1x128xi32, #tpu.memory_space<vmem>> -> memref<1x1x128x2x1x128xi32, strided<[262144, 32768, 256, 128, 128, 1], offset: ?>, #tpu.memory_space<vmem>>
        %423 = tpu.memref_squeeze %422 : memref<1x1x128x2x1x128xi32, strided<[262144, 32768, 256, 128, 128, 1], offset: ?>, #tpu.memory_space<vmem>> -> memref<128x2x1x128xi32, strided<[256, 128, 128, 1], offset: ?>, #tpu.memory_space<vmem>>
        %424 = tpu.memref_reshape %423 : memref<128x2x1x128xi32, strided<[256, 128, 128, 1], offset: ?>, #tpu.memory_space<vmem>> -> memref<256x128xi32, #tpu.memory_space<vmem>>
        %c0_201 = arith.constant 0 : index
        %c0_202 = arith.constant 0 : index
        %425 = vector.load %424[%c0_201, %c0_202] : memref<256x128xi32, #tpu.memory_space<vmem>>, vector<2x128xi32>
        %426 = tpu.bitcast %425 : vector<2x128xi32> -> vector<4x128xbf16>
        %427 = tpu.memref_bitcast %17 : memref<2x8x128x2x2x128xbf16, #tpu.memory_space<vmem>> -> memref<2x8x128x2x1x128xi32, #tpu.memory_space<vmem>>
        %c4_i32_203 = arith.constant 4 : i32
        %c0_i32_204 = arith.constant 0 : i32
        %c0_i32_205 = arith.constant 0 : i32
        %c0_i32_206 = arith.constant 0 : i32
        %c0_i32_207 = arith.constant 0 : i32
        %428 = tpu.memref_slice %427[%77, %c4_i32_203, %c0_i32_204, %c0_i32_205, %c0_i32_206, %c0_i32_207] : memref<2x8x128x2x1x128xi32, #tpu.memory_space<vmem>> -> memref<1x1x128x2x1x128xi32, strided<[262144, 32768, 256, 128, 128, 1], offset: ?>, #tpu.memory_space<vmem>>
        %429 = tpu.memref_squeeze %428 : memref<1x1x128x2x1x128xi32, strided<[262144, 32768, 256, 128, 128, 1], offset: ?>, #tpu.memory_space<vmem>> -> memref<128x2x1x128xi32, strided<[256, 128, 128, 1], offset: ?>, #tpu.memory_space<vmem>>
        %430 = tpu.memref_reshape %429 : memref<128x2x1x128xi32, strided<[256, 128, 128, 1], offset: ?>, #tpu.memory_space<vmem>> -> memref<256x128xi32, #tpu.memory_space<vmem>>
        %c0_208 = arith.constant 0 : index
        %c0_209 = arith.constant 0 : index
        %431 = vector.load %430[%c0_208, %c0_209] : memref<256x128xi32, #tpu.memory_space<vmem>>, vector<2x128xi32>
        %432 = tpu.bitcast %431 : vector<2x128xi32> -> vector<4x128xbf16>
        %433 = tpu.memref_bitcast %17 : memref<2x8x128x2x2x128xbf16, #tpu.memory_space<vmem>> -> memref<2x8x128x2x1x128xi32, #tpu.memory_space<vmem>>
        %c5_i32 = arith.constant 5 : i32
        %c0_i32_210 = arith.constant 0 : i32
        %c0_i32_211 = arith.constant 0 : i32
        %c0_i32_212 = arith.constant 0 : i32
        %c0_i32_213 = arith.constant 0 : i32
        %434 = tpu.memref_slice %433[%77, %c5_i32, %c0_i32_210, %c0_i32_211, %c0_i32_212, %c0_i32_213] : memref<2x8x128x2x1x128xi32, #tpu.memory_space<vmem>> -> memref<1x1x128x2x1x128xi32, strided<[262144, 32768, 256, 128, 128, 1], offset: ?>, #tpu.memory_space<vmem>>
        %435 = tpu.memref_squeeze %434 : memref<1x1x128x2x1x128xi32, strided<[262144, 32768, 256, 128, 128, 1], offset: ?>, #tpu.memory_space<vmem>> -> memref<128x2x1x128xi32, strided<[256, 128, 128, 1], offset: ?>, #tpu.memory_space<vmem>>
        %436 = tpu.memref_reshape %435 : memref<128x2x1x128xi32, strided<[256, 128, 128, 1], offset: ?>, #tpu.memory_space<vmem>> -> memref<256x128xi32, #tpu.memory_space<vmem>>
        %c0_214 = arith.constant 0 : index
        %c0_215 = arith.constant 0 : index
        %437 = vector.load %436[%c0_214, %c0_215] : memref<256x128xi32, #tpu.memory_space<vmem>>, vector<2x128xi32>
        %438 = tpu.bitcast %437 : vector<2x128xi32> -> vector<4x128xbf16>
        %439 = tpu.memref_bitcast %17 : memref<2x8x128x2x2x128xbf16, #tpu.memory_space<vmem>> -> memref<2x8x128x2x1x128xi32, #tpu.memory_space<vmem>>
        %c6_i32 = arith.constant 6 : i32
        %c0_i32_216 = arith.constant 0 : i32
        %c0_i32_217 = arith.constant 0 : i32
        %c0_i32_218 = arith.constant 0 : i32
        %c0_i32_219 = arith.constant 0 : i32
        %440 = tpu.memref_slice %439[%77, %c6_i32, %c0_i32_216, %c0_i32_217, %c0_i32_218, %c0_i32_219] : memref<2x8x128x2x1x128xi32, #tpu.memory_space<vmem>> -> memref<1x1x128x2x1x128xi32, strided<[262144, 32768, 256, 128, 128, 1], offset: ?>, #tpu.memory_space<vmem>>
        %441 = tpu.memref_squeeze %440 : memref<1x1x128x2x1x128xi32, strided<[262144, 32768, 256, 128, 128, 1], offset: ?>, #tpu.memory_space<vmem>> -> memref<128x2x1x128xi32, strided<[256, 128, 128, 1], offset: ?>, #tpu.memory_space<vmem>>
        %442 = tpu.memref_reshape %441 : memref<128x2x1x128xi32, strided<[256, 128, 128, 1], offset: ?>, #tpu.memory_space<vmem>> -> memref<256x128xi32, #tpu.memory_space<vmem>>
        %c0_220 = arith.constant 0 : index
        %c0_221 = arith.constant 0 : index
        %443 = vector.load %442[%c0_220, %c0_221] : memref<256x128xi32, #tpu.memory_space<vmem>>, vector<2x128xi32>
        %444 = tpu.bitcast %443 : vector<2x128xi32> -> vector<4x128xbf16>
        %445 = tpu.memref_bitcast %17 : memref<2x8x128x2x2x128xbf16, #tpu.memory_space<vmem>> -> memref<2x8x128x2x1x128xi32, #tpu.memory_space<vmem>>
        %c7_i32 = arith.constant 7 : i32
        %c0_i32_222 = arith.constant 0 : i32
        %c0_i32_223 = arith.constant 0 : i32
        %c0_i32_224 = arith.constant 0 : i32
        %c0_i32_225 = arith.constant 0 : i32
        %446 = tpu.memref_slice %445[%77, %c7_i32, %c0_i32_222, %c0_i32_223, %c0_i32_224, %c0_i32_225] : memref<2x8x128x2x1x128xi32, #tpu.memory_space<vmem>> -> memref<1x1x128x2x1x128xi32, strided<[262144, 32768, 256, 128, 128, 1], offset: ?>, #tpu.memory_space<vmem>>
        %447 = tpu.memref_squeeze %446 : memref<1x1x128x2x1x128xi32, strided<[262144, 32768, 256, 128, 128, 1], offset: ?>, #tpu.memory_space<vmem>> -> memref<128x2x1x128xi32, strided<[256, 128, 128, 1], offset: ?>, #tpu.memory_space<vmem>>
        %448 = tpu.memref_reshape %447 : memref<128x2x1x128xi32, strided<[256, 128, 128, 1], offset: ?>, #tpu.memory_space<vmem>> -> memref<256x128xi32, #tpu.memory_space<vmem>>
        %c0_226 = arith.constant 0 : index
        %c0_227 = arith.constant 0 : index
        %449 = vector.load %448[%c0_226, %c0_227] : memref<256x128xi32, #tpu.memory_space<vmem>>, vector<2x128xi32>
        %450 = tpu.bitcast %449 : vector<2x128xi32> -> vector<4x128xbf16>
        %451 = vector.shape_cast %408 : vector<4x128xbf16> to vector<1x4x128xbf16>
        %452 = vector.shape_cast %414 : vector<4x128xbf16> to vector<1x4x128xbf16>
        %453 = vector.shape_cast %420 : vector<4x128xbf16> to vector<1x4x128xbf16>
        %454 = vector.shape_cast %426 : vector<4x128xbf16> to vector<1x4x128xbf16>
        %455 = vector.shape_cast %432 : vector<4x128xbf16> to vector<1x4x128xbf16>
        %456 = vector.shape_cast %438 : vector<4x128xbf16> to vector<1x4x128xbf16>
        %457 = vector.shape_cast %444 : vector<4x128xbf16> to vector<1x4x128xbf16>
        %458 = vector.shape_cast %450 : vector<4x128xbf16> to vector<1x4x128xbf16>
        %459 = tpu.concatenate %451, %452, %453, %454, %455, %456, %457, %458 in 0 : vector<1x4x128xbf16>, vector<1x4x128xbf16>, vector<1x4x128xbf16>, vector<1x4x128xbf16>, vector<1x4x128xbf16>, vector<1x4x128xbf16>, vector<1x4x128xbf16>, vector<1x4x128xbf16> -> vector<8x4x128xbf16>
        %460 = arith.extf %459 : vector<8x4x128xbf16> to vector<8x4x128xf32>
        %461 = arith.extf %393 : vector<8x1024x128xbf16> to vector<8x1024x128xf32>
        %462 = arith.extf %402 : vector<8x1024x128xbf16> to vector<8x1024x128xf32>
        "tpu.trace_start"() <{level = 10 : i32, message = "hqd,hkd->hqk"}> : () -> ()
        %cst = arith.constant dense<0.000000e+00> : vector<8x4x1024xf32>
        %463 = tpu.matmul %460, %461, %cst {dimension_numbers = #tpu.dot_dimension_numbers<[2], [2], [1], [1], [0, 0, 0, 1, 1, 1], [0], [0]>} : vector<8x4x128xf32>, vector<8x1024x128xf32>, vector<8x4x1024xf32> -> vector<8x4x1024xf32>
        "tpu.trace_stop"() : () -> ()
        %cst_228 = arith.constant 0.0883883461 : f32
        %464 = vector.broadcast %cst_228 : f32 to vector<8x4x1024xf32>
        %465 = arith.mulf %463, %464 : vector<8x4x1024xf32>
        %466 = arith.subi %37, %35 : i32
        %c128_i32_229 = arith.constant 128 : i32
        %467 = arith.muli %c0_i32_14, %c128_i32_229 : i32
        %468 = arith.addi %466, %467 : i32
        %469 = tpu.iota {dimensions = array<i32: 1>} : vector<8x4x1024xi32>
        %c4_i32_230 = arith.constant 4 : i32
        %470 = vector.broadcast %c4_i32_230 : i32 to vector<8x4x1024xi32>
        %471 = arith.divsi %469, %470 : vector<8x4x1024xi32>
        %c0_i32_231 = arith.constant 0 : i32
        %472 = vector.broadcast %c0_i32_231 : i32 to vector<8x4x1024xi32>
        %473 = arith.cmpi sgt, %469, %472 : vector<8x4x1024xi32>
        %474 = arith.extui %473 : vector<8x4x1024xi1> to vector<8x4x1024xi32>
        %c0_i32_232 = arith.constant 0 : i32
        %475 = vector.broadcast %c0_i32_232 : i32 to vector<8x4x1024xi32>
        %476 = arith.cmpi slt, %469, %475 : vector<8x4x1024xi32>
        %477 = arith.extui %476 : vector<8x4x1024xi1> to vector<8x4x1024xi32>
        %478 = arith.subi %474, %477 : vector<8x4x1024xi32>
        %c0_i32_233 = arith.constant 0 : i32
        %479 = arith.cmpi sgt, %c4_i32_230, %c0_i32_233 : i32
        %480 = arith.extui %479 : i1 to i32
        %c0_i32_234 = arith.constant 0 : i32
        %481 = arith.cmpi slt, %c4_i32_230, %c0_i32_234 : i32
        %482 = arith.extui %481 : i1 to i32
        %483 = arith.subi %480, %482 : i32
        %484 = vector.broadcast %483 : i32 to vector<8x4x1024xi32>
        %485 = arith.cmpi ne, %478, %484 : vector<8x4x1024xi32>
        %486 = vector.broadcast %c4_i32_230 : i32 to vector<8x4x1024xi32>
        %487 = arith.remsi %469, %486 : vector<8x4x1024xi32>
        %c0_i32_235 = arith.constant 0 : i32
        %488 = vector.broadcast %c0_i32_235 : i32 to vector<8x4x1024xi32>
        %489 = arith.cmpi ne, %487, %488 : vector<8x4x1024xi32>
        %490 = arith.andi %485, %489 : vector<8x4x1024xi1>
        %c1_i32_236 = arith.constant 1 : i32
        %491 = vector.broadcast %c1_i32_236 : i32 to vector<8x4x1024xi32>
        %492 = arith.subi %471, %491 : vector<8x4x1024xi32>
        %493 = arith.select %490, %492, %471 : vector<8x4x1024xi1>, vector<8x4x1024xi32>
        %494 = vector.broadcast %468 : i32 to vector<8x4x1024xi32>
        %495 = arith.addi %494, %493 : vector<8x4x1024xi32>
        %c1024_i32_237 = arith.constant 1024 : i32
        %496 = arith.muli %arg23, %c1024_i32_237 : i32
        %497 = tpu.iota {dimensions = array<i32: 2>} : vector<8x4x1024xi32>
        %498 = vector.broadcast %496 : i32 to vector<8x4x1024xi32>
        %499 = arith.addi %498, %497 : vector<8x4x1024xi32>
        %500 = arith.cmpi slt, %495, %499 : vector<8x4x1024xi32>
        %cst_238 = arith.constant -2.38197633E+38 : f32
        %cst_239 = arith.constant 0.000000e+00 : f32
        %501 = vector.broadcast %cst_238 : f32 to vector<8x4x1024xf32>
        %502 = vector.broadcast %cst_239 : f32 to vector<8x4x1024xf32>
        %503 = arith.select %500, %501, %502 : vector<8x4x1024xi1>, vector<8x4x1024xf32>
        %504 = arith.addf %465, %503 : vector<8x4x1024xf32>
        %505 = vector.extract_strided_slice %504 {offsets = [0, 0, 0], sizes = [1, 4, 1024], strides = [1, 1, 1]} : vector<8x4x1024xf32> to vector<1x4x1024xf32>
        %506 = vector.shape_cast %505 : vector<1x4x1024xf32> to vector<4x1024xf32>
        %cst_240 = arith.constant dense<0xFF800000> : vector<4xf32>
        %507 = vector.multi_reduction <maximumf>, %506, %cst_240 [1] : vector<4x1024xf32> to vector<4xf32>
        %508 = vector.shape_cast %507 : vector<4xf32> to vector<4x1xf32>
        %c0_i32_241 = arith.constant 0 : i32
        %509 = arith.cmpi eq, %arg23, %c0_i32_241 : i32
        %cst_242 = arith.constant 0xFF800000 : f32
        %510 = vector.broadcast %cst_242 : f32 to vector<4x128xf32>
        %c0_243 = arith.constant 0 : index
        %c0_244 = arith.constant 0 : index
        %c0_245 = arith.constant 0 : index
        %511 = vector.load %23[%c0_243, %c0_244, %c0_245] : memref<8x512x128xf32, #tpu.memory_space<vmem>>, vector<1x4x128xf32>
        %512 = vector.shape_cast %511 : vector<1x4x128xf32> to vector<4x128xf32>
        %513 = arith.select %509, %510, %512 : vector<4x128xf32>
        %514 = vector.broadcast %508 : vector<4x1xf32> to vector<4x128xf32>
        %515 = arith.maximumf %513, %514 : vector<4x128xf32>
        %c0_246 = arith.constant 0 : index
        %c0_247 = arith.constant 0 : index
        %c0_248 = arith.constant 0 : index
        %516 = vector.load %23[%c0_246, %c0_247, %c0_248] : memref<8x512x128xf32, #tpu.memory_space<vmem>>, vector<1x4x128xf32>
        %517 = vector.shape_cast %516 : vector<1x4x128xf32> to vector<4x128xf32>
        %518 = vector.shape_cast %515 : vector<4x128xf32> to vector<1x4x128xf32>
        tpu.vector_store %23[%c0_246, %c0_247, %c0_248], %518 {strides = array<i32>} : memref<8x512x128xf32, #tpu.memory_space<vmem>>, vector<1x4x128xf32>, 
        %519 = tpu.concatenate %515, %515, %515, %515, %515, %515, %515, %515 in 1 : vector<4x128xf32>, vector<4x128xf32>, vector<4x128xf32>, vector<4x128xf32>, vector<4x128xf32>, vector<4x128xf32>, vector<4x128xf32>, vector<4x128xf32> -> vector<4x1024xf32>
        %520 = arith.subf %506, %519 : vector<4x1024xf32>
        %521 = math.exp %520 : vector<4x1024xf32>
        %522 = vector.extract_strided_slice %462 {offsets = [0, 0, 0], sizes = [1, 1024, 128], strides = [1, 1, 1]} : vector<8x1024x128xf32> to vector<1x1024x128xf32>
        %523 = vector.shape_cast %522 : vector<1x1024x128xf32> to vector<1024x128xf32>
        "tpu.trace_start"() <{level = 10 : i32, message = "qk,kd->qd"}> : () -> ()
        %cst_249 = arith.constant dense<0.000000e+00> : vector<4x128xf32>
        %524 = tpu.matmul %521, %523, %cst_249 {dimension_numbers = #tpu.dot_dimension_numbers<[1], [0], [0], [1], [0, 0, 1, 1], [], []>} : vector<4x1024xf32>, vector<1024x128xf32>, vector<4x128xf32> -> vector<4x128xf32>
        "tpu.trace_stop"() : () -> ()
        %cst_250 = arith.constant dense<0.000000e+00> : vector<4xf32>
        %525 = vector.multi_reduction <add>, %521, %cst_250 [1] : vector<4x1024xf32> to vector<4xf32>
        %526 = vector.shape_cast %525 : vector<4xf32> to vector<4x1xf32>
        %527 = arith.subf %513, %515 : vector<4x128xf32>
        %528 = math.exp %527 : vector<4x128xf32>
        %c0_i32_251 = arith.constant 0 : i32
        %529 = arith.cmpi eq, %arg23, %c0_i32_251 : i32
        %cst_252 = arith.constant 0.000000e+00 : f32
        %530 = vector.broadcast %cst_252 : f32 to vector<4x128xf32>
        %c0_253 = arith.constant 0 : index
        %c0_254 = arith.constant 0 : index
        %c0_255 = arith.constant 0 : index
        %531 = vector.load %21[%c0_253, %c0_254, %c0_255] : memref<8x512x128xf32, #tpu.memory_space<vmem>>, vector<1x4x128xf32>
        %532 = vector.shape_cast %531 : vector<1x4x128xf32> to vector<4x128xf32>
        %533 = arith.select %529, %530, %532 : vector<4x128xf32>
        %534 = arith.mulf %528, %533 : vector<4x128xf32>
        %535 = vector.broadcast %526 : vector<4x1xf32> to vector<4x128xf32>
        %536 = arith.addf %534, %535 : vector<4x128xf32>
        %c0_256 = arith.constant 0 : index
        %c0_257 = arith.constant 0 : index
        %c0_258 = arith.constant 0 : index
        %537 = vector.load %21[%c0_256, %c0_257, %c0_258] : memref<8x512x128xf32, #tpu.memory_space<vmem>>, vector<1x4x128xf32>
        %538 = vector.shape_cast %537 : vector<1x4x128xf32> to vector<4x128xf32>
        %539 = vector.shape_cast %536 : vector<4x128xf32> to vector<1x4x128xf32>
        tpu.vector_store %21[%c0_256, %c0_257, %c0_258], %539 {strides = array<i32>} : memref<8x512x128xf32, #tpu.memory_space<vmem>>, vector<1x4x128xf32>, 
        %c0_i32_259 = arith.constant 0 : i32
        %540 = arith.cmpi eq, %arg23, %c0_i32_259 : i32
        %cst_260 = arith.constant 0.000000e+00 : f32
        %541 = vector.broadcast %cst_260 : f32 to vector<4x128xf32>
        %c0_261 = arith.constant 0 : index
        %c0_262 = arith.constant 0 : index
        %c0_263 = arith.constant 0 : index
        %542 = vector.load %25[%c0_261, %c0_262, %c0_263] : memref<8x512x128xf32, #tpu.memory_space<vmem>>, vector<1x4x128xf32>
        %543 = vector.shape_cast %542 : vector<1x4x128xf32> to vector<4x128xf32>
        %544 = arith.select %540, %541, %543 : vector<4x128xf32>
        %545 = arith.mulf %528, %544 : vector<4x128xf32>
        %546 = arith.addf %545, %524 : vector<4x128xf32>
        %c0_264 = arith.constant 0 : index
        %c0_265 = arith.constant 0 : index
        %c0_266 = arith.constant 0 : index
        %547 = vector.load %25[%c0_264, %c0_265, %c0_266] : memref<8x512x128xf32, #tpu.memory_space<vmem>>, vector<1x4x128xf32>
        %548 = vector.shape_cast %547 : vector<1x4x128xf32> to vector<4x128xf32>
        %549 = vector.shape_cast %546 : vector<4x128xf32> to vector<1x4x128xf32>
        tpu.vector_store %25[%c0_264, %c0_265, %c0_266], %549 {strides = array<i32>} : memref<8x512x128xf32, #tpu.memory_space<vmem>>, vector<1x4x128xf32>, 
        %550 = vector.extract_strided_slice %504 {offsets = [1, 0, 0], sizes = [1, 4, 1024], strides = [1, 1, 1]} : vector<8x4x1024xf32> to vector<1x4x1024xf32>
        %551 = vector.shape_cast %550 : vector<1x4x1024xf32> to vector<4x1024xf32>
        %cst_267 = arith.constant dense<0xFF800000> : vector<4xf32>
        %552 = vector.multi_reduction <maximumf>, %551, %cst_267 [1] : vector<4x1024xf32> to vector<4xf32>
        %553 = vector.shape_cast %552 : vector<4xf32> to vector<4x1xf32>
        %c0_i32_268 = arith.constant 0 : i32
        %554 = arith.cmpi eq, %arg23, %c0_i32_268 : i32
        %cst_269 = arith.constant 0xFF800000 : f32
        %555 = vector.broadcast %cst_269 : f32 to vector<4x128xf32>
        %c1_270 = arith.constant 1 : index
        %c0_271 = arith.constant 0 : index
        %c0_272 = arith.constant 0 : index
        %556 = vector.load %23[%c1_270, %c0_271, %c0_272] : memref<8x512x128xf32, #tpu.memory_space<vmem>>, vector<1x4x128xf32>
        %557 = vector.shape_cast %556 : vector<1x4x128xf32> to vector<4x128xf32>
        %558 = arith.select %554, %555, %557 : vector<4x128xf32>
        %559 = vector.broadcast %553 : vector<4x1xf32> to vector<4x128xf32>
        %560 = arith.maximumf %558, %559 : vector<4x128xf32>
        %c1_273 = arith.constant 1 : index
        %c0_274 = arith.constant 0 : index
        %c0_275 = arith.constant 0 : index
        %561 = vector.load %23[%c1_273, %c0_274, %c0_275] : memref<8x512x128xf32, #tpu.memory_space<vmem>>, vector<1x4x128xf32>
        %562 = vector.shape_cast %561 : vector<1x4x128xf32> to vector<4x128xf32>
        %563 = vector.shape_cast %560 : vector<4x128xf32> to vector<1x4x128xf32>
        tpu.vector_store %23[%c1_273, %c0_274, %c0_275], %563 {strides = array<i32>} : memref<8x512x128xf32, #tpu.memory_space<vmem>>, vector<1x4x128xf32>, 
        %564 = tpu.concatenate %560, %560, %560, %560, %560, %560, %560, %560 in 1 : vector<4x128xf32>, vector<4x128xf32>, vector<4x128xf32>, vector<4x128xf32>, vector<4x128xf32>, vector<4x128xf32>, vector<4x128xf32>, vector<4x128xf32> -> vector<4x1024xf32>
        %565 = arith.subf %551, %564 : vector<4x1024xf32>
        %566 = math.exp %565 : vector<4x1024xf32>
        %567 = vector.extract_strided_slice %462 {offsets = [1, 0, 0], sizes = [1, 1024, 128], strides = [1, 1, 1]} : vector<8x1024x128xf32> to vector<1x1024x128xf32>
        %568 = vector.shape_cast %567 : vector<1x1024x128xf32> to vector<1024x128xf32>
        "tpu.trace_start"() <{level = 10 : i32, message = "qk,kd->qd"}> : () -> ()
        %cst_276 = arith.constant dense<0.000000e+00> : vector<4x128xf32>
        %569 = tpu.matmul %566, %568, %cst_276 {dimension_numbers = #tpu.dot_dimension_numbers<[1], [0], [0], [1], [0, 0, 1, 1], [], []>} : vector<4x1024xf32>, vector<1024x128xf32>, vector<4x128xf32> -> vector<4x128xf32>
        "tpu.trace_stop"() : () -> ()
        %cst_277 = arith.constant dense<0.000000e+00> : vector<4xf32>
        %570 = vector.multi_reduction <add>, %566, %cst_277 [1] : vector<4x1024xf32> to vector<4xf32>
        %571 = vector.shape_cast %570 : vector<4xf32> to vector<4x1xf32>
        %572 = arith.subf %558, %560 : vector<4x128xf32>
        %573 = math.exp %572 : vector<4x128xf32>
        %c0_i32_278 = arith.constant 0 : i32
        %574 = arith.cmpi eq, %arg23, %c0_i32_278 : i32
        %cst_279 = arith.constant 0.000000e+00 : f32
        %575 = vector.broadcast %cst_279 : f32 to vector<4x128xf32>
        %c1_280 = arith.constant 1 : index
        %c0_281 = arith.constant 0 : index
        %c0_282 = arith.constant 0 : index
        %576 = vector.load %21[%c1_280, %c0_281, %c0_282] : memref<8x512x128xf32, #tpu.memory_space<vmem>>, vector<1x4x128xf32>
        %577 = vector.shape_cast %576 : vector<1x4x128xf32> to vector<4x128xf32>
        %578 = arith.select %574, %575, %577 : vector<4x128xf32>
        %579 = arith.mulf %573, %578 : vector<4x128xf32>
        %580 = vector.broadcast %571 : vector<4x1xf32> to vector<4x128xf32>
        %581 = arith.addf %579, %580 : vector<4x128xf32>
        %c1_283 = arith.constant 1 : index
        %c0_284 = arith.constant 0 : index
        %c0_285 = arith.constant 0 : index
        %582 = vector.load %21[%c1_283, %c0_284, %c0_285] : memref<8x512x128xf32, #tpu.memory_space<vmem>>, vector<1x4x128xf32>
        %583 = vector.shape_cast %582 : vector<1x4x128xf32> to vector<4x128xf32>
        %584 = vector.shape_cast %581 : vector<4x128xf32> to vector<1x4x128xf32>
        tpu.vector_store %21[%c1_283, %c0_284, %c0_285], %584 {strides = array<i32>} : memref<8x512x128xf32, #tpu.memory_space<vmem>>, vector<1x4x128xf32>, 
        %c0_i32_286 = arith.constant 0 : i32
        %585 = arith.cmpi eq, %arg23, %c0_i32_286 : i32
        %cst_287 = arith.constant 0.000000e+00 : f32
        %586 = vector.broadcast %cst_287 : f32 to vector<4x128xf32>
        %c1_288 = arith.constant 1 : index
        %c0_289 = arith.constant 0 : index
        %c0_290 = arith.constant 0 : index
        %587 = vector.load %25[%c1_288, %c0_289, %c0_290] : memref<8x512x128xf32, #tpu.memory_space<vmem>>, vector<1x4x128xf32>
        %588 = vector.shape_cast %587 : vector<1x4x128xf32> to vector<4x128xf32>
        %589 = arith.select %585, %586, %588 : vector<4x128xf32>
        %590 = arith.mulf %573, %589 : vector<4x128xf32>
        %591 = arith.addf %590, %569 : vector<4x128xf32>
        %c1_291 = arith.constant 1 : index
        %c0_292 = arith.constant 0 : index
        %c0_293 = arith.constant 0 : index
        %592 = vector.load %25[%c1_291, %c0_292, %c0_293] : memref<8x512x128xf32, #tpu.memory_space<vmem>>, vector<1x4x128xf32>
        %593 = vector.shape_cast %592 : vector<1x4x128xf32> to vector<4x128xf32>
        %594 = vector.shape_cast %591 : vector<4x128xf32> to vector<1x4x128xf32>
        tpu.vector_store %25[%c1_291, %c0_292, %c0_293], %594 {strides = array<i32>} : memref<8x512x128xf32, #tpu.memory_space<vmem>>, vector<1x4x128xf32>, 
        %595 = vector.extract_strided_slice %504 {offsets = [2, 0, 0], sizes = [1, 4, 1024], strides = [1, 1, 1]} : vector<8x4x1024xf32> to vector<1x4x1024xf32>
        %596 = vector.shape_cast %595 : vector<1x4x1024xf32> to vector<4x1024xf32>
        %cst_294 = arith.constant dense<0xFF800000> : vector<4xf32>
        %597 = vector.multi_reduction <maximumf>, %596, %cst_294 [1] : vector<4x1024xf32> to vector<4xf32>
        %598 = vector.shape_cast %597 : vector<4xf32> to vector<4x1xf32>
        %c0_i32_295 = arith.constant 0 : i32
        %599 = arith.cmpi eq, %arg23, %c0_i32_295 : i32
        %cst_296 = arith.constant 0xFF800000 : f32
        %600 = vector.broadcast %cst_296 : f32 to vector<4x128xf32>
        %c2_297 = arith.constant 2 : index
        %c0_298 = arith.constant 0 : index
        %c0_299 = arith.constant 0 : index
        %601 = vector.load %23[%c2_297, %c0_298, %c0_299] : memref<8x512x128xf32, #tpu.memory_space<vmem>>, vector<1x4x128xf32>
        %602 = vector.shape_cast %601 : vector<1x4x128xf32> to vector<4x128xf32>
        %603 = arith.select %599, %600, %602 : vector<4x128xf32>
        %604 = vector.broadcast %598 : vector<4x1xf32> to vector<4x128xf32>
        %605 = arith.maximumf %603, %604 : vector<4x128xf32>
        %c2_300 = arith.constant 2 : index
        %c0_301 = arith.constant 0 : index
        %c0_302 = arith.constant 0 : index
        %606 = vector.load %23[%c2_300, %c0_301, %c0_302] : memref<8x512x128xf32, #tpu.memory_space<vmem>>, vector<1x4x128xf32>
        %607 = vector.shape_cast %606 : vector<1x4x128xf32> to vector<4x128xf32>
        %608 = vector.shape_cast %605 : vector<4x128xf32> to vector<1x4x128xf32>
        tpu.vector_store %23[%c2_300, %c0_301, %c0_302], %608 {strides = array<i32>} : memref<8x512x128xf32, #tpu.memory_space<vmem>>, vector<1x4x128xf32>, 
        %609 = tpu.concatenate %605, %605, %605, %605, %605, %605, %605, %605 in 1 : vector<4x128xf32>, vector<4x128xf32>, vector<4x128xf32>, vector<4x128xf32>, vector<4x128xf32>, vector<4x128xf32>, vector<4x128xf32>, vector<4x128xf32> -> vector<4x1024xf32>
        %610 = arith.subf %596, %609 : vector<4x1024xf32>
        %611 = math.exp %610 : vector<4x1024xf32>
        %612 = vector.extract_strided_slice %462 {offsets = [2, 0, 0], sizes = [1, 1024, 128], strides = [1, 1, 1]} : vector<8x1024x128xf32> to vector<1x1024x128xf32>
…
          %810 = tpu.concatenate %806, %806, %806, %806, %806, %806, %806, %806 in 1 : vector<512x128xf32>, vector<512x128xf32>, vector<512x128xf32>, vector<512x128xf32>, vector<512x128xf32>, vector<512x128xf32>, vector<512x128xf32>, vector<512x128xf32> -> vector<512x1024xf32>
          %811 = arith.subf %797, %810 : vector<512x1024xf32>
          %812 = math.exp %811 : vector<512x1024xf32>
          %813 = vector.extract_strided_slice %483 {offsets = [6, 0, 0], sizes = [1, 1024, 128], strides = [1, 1, 1]} : vector<8x1024x128xf32> to vector<1x1024x128xf32>
          %814 = vector.shape_cast %813 : vector<1x1024x128xf32> to vector<1024x128xf32>
          "tpu.trace_start"() <{level = 10 : i32, message = "qk,kd->qd"}> : () -> ()
          %cst_418 = arith.constant dense<0.000000e+00> : vector<512x128xf32>
          %815 = tpu.matmul %812, %814, %cst_418 {dimension_numbers = #tpu.dot_dimension_numbers<[1], [0], [0], [1], [0, 0, 1, 1], [], []>} : vector<512x1024xf32>, vector<1024x128xf32>, vector<512x128xf32> -> vector<512x128xf32>
          "tpu.trace_stop"() : () -> ()
          %cst_419 = arith.constant dense<0.000000e+00> : vector<512xf32>
          %816 = vector.multi_reduction <add>, %812, %cst_419 [1] : vector<512x1024xf32> to vector<512xf32>
          %817 = vector.shape_cast %816 : vector<512xf32> to vector<512x1xf32>
          %818 = arith.subf %804, %806 : vector<512x128xf32>
          %819 = math.exp %818 : vector<512x128xf32>
          %c0_i32_420 = arith.constant 0 : i32
          %820 = arith.cmpi eq, %arg24, %c0_i32_420 : i32
          %cst_421 = arith.constant 0.000000e+00 : f32
          %821 = vector.broadcast %cst_421 : f32 to vector<512x128xf32>
          %c6_422 = arith.constant 6 : index
          %c0_423 = arith.constant 0 : index
          %c0_424 = arith.constant 0 : index
          %822 = vector.load %21[%c6_422, %c0_423, %c0_424] : memref<8x512x128xf32, #tpu.memory_space<vmem>>, vector<1x512x128xf32>
          %823 = vector.shape_cast %822 : vector<1x512x128xf32> to vector<512x128xf32>
          %824 = arith.select %820, %821, %823 : vector<512x128xf32>
          %825 = arith.mulf %819, %824 : vector<512x128xf32>
          %826 = vector.broadcast %817 : vector<512x1xf32> to vector<512x128xf32>
          %827 = arith.addf %825, %826 : vector<512x128xf32>
          %c6_425 = arith.constant 6 : index
          %c0_426 = arith.constant 0 : index
          %c0_427 = arith.constant 0 : index
          %828 = vector.load %21[%c6_425, %c0_426, %c0_427] : memref<8x512x128xf32, #tpu.memory_space<vmem>>, vector<1x512x128xf32>
          %829 = vector.shape_cast %828 : vector<1x512x128xf32> to vector<512x128xf32>
          %830 = vector.shape_cast %827 : vector<512x128xf32> to vector<1x512x128xf32>
          tpu.vector_store %21[%c6_425, %c0_426, %c0_427], %830 {strides = array<i32>} : memref<8x512x128xf32, #tpu.memory_space<vmem>>, vector<1x512x128xf32>, 
          %c0_i32_428 = arith.constant 0 : i32
          %831 = arith.cmpi eq, %arg24, %c0_i32_428 : i32
          %cst_429 = arith.constant 0.000000e+00 : f32
          %832 = vector.broadcast %cst_429 : f32 to vector<512x128xf32>
          %c6_430 = arith.constant 6 : index
          %c0_431 = arith.constant 0 : index
          %c0_432 = arith.constant 0 : index
          %833 = vector.load %25[%c6_430, %c0_431, %c0_432] : memref<8x512x128xf32, #tpu.memory_space<vmem>>, vector<1x512x128xf32>
          %834 = vector.shape_cast %833 : vector<1x512x128xf32> to vector<512x128xf32>
          %835 = arith.select %831, %832, %834 : vector<512x128xf32>
          %836 = arith.mulf %819, %835 : vector<512x128xf32>
          %837 = arith.addf %836, %815 : vector<512x128xf32>
          %c6_433 = arith.constant 6 : index
          %c0_434 = arith.constant 0 : index
          %c0_435 = arith.constant 0 : index
          %838 = vector.load %25[%c6_433, %c0_434, %c0_435] : memref<8x512x128xf32, #tpu.memory_space<vmem>>, vector<1x512x128xf32>
          %839 = vector.shape_cast %838 : vector<1x512x128xf32> to vector<512x128xf32>
          %840 = vector.shape_cast %837 : vector<512x128xf32> to vector<1x512x128xf32>
          tpu.vector_store %25[%c6_433, %c0_434, %c0_435], %840 {strides = array<i32>} : memref<8x512x128xf32, #tpu.memory_space<vmem>>, vector<1x512x128xf32>, 
          %841 = vector.extract_strided_slice %525 {offsets = [7, 0, 0], sizes = [1, 512, 1024], strides = [1, 1, 1]} : vector<8x512x1024xf32> to vector<1x512x1024xf32>
          %842 = vector.shape_cast %841 : vector<1x512x1024xf32> to vector<512x1024xf32>
          %cst_436 = arith.constant dense<0xFF800000> : vector<512xf32>
          %843 = vector.multi_reduction <maximumf>, %842, %cst_436 [1] : vector<512x1024xf32> to vector<512xf32>
          %844 = vector.shape_cast %843 : vector<512xf32> to vector<512x1xf32>
          %c0_i32_437 = arith.constant 0 : i32
          %845 = arith.cmpi eq, %arg24, %c0_i32_437 : i32
          %cst_438 = arith.constant 0xFF800000 : f32
          %846 = vector.broadcast %cst_438 : f32 to vector<512x128xf32>
          %c7_439 = arith.constant 7 : index
          %c0_440 = arith.constant 0 : index
          %c0_441 = arith.constant 0 : index
          %847 = vector.load %23[%c7_439, %c0_440, %c0_441] : memref<8x512x128xf32, #tpu.memory_space<vmem>>, vector<1x512x128xf32>
          %848 = vector.shape_cast %847 : vector<1x512x128xf32> to vector<512x128xf32>
          %849 = arith.select %845, %846, %848 : vector<512x128xf32>
          %850 = vector.broadcast %844 : vector<512x1xf32> to vector<512x128xf32>
          %851 = arith.maximumf %849, %850 : vector<512x128xf32>
          %c7_442 = arith.constant 7 : index
          %c0_443 = arith.constant 0 : index
          %c0_444 = arith.constant 0 : index
          %852 = vector.load %23[%c7_442, %c0_443, %c0_444] : memref<8x512x128xf32, #tpu.memory_space<vmem>>, vector<1x512x128xf32>
          %853 = vector.shape_cast %852 : vector<1x512x128xf32> to vector<512x128xf32>
          %854 = vector.shape_cast %851 : vector<512x128xf32> to vector<1x512x128xf32>
          tpu.vector_store %23[%c7_442, %c0_443, %c0_444], %854 {strides = array<i32>} : memref<8x512x128xf32, #tpu.memory_space<vmem>>, vector<1x512x128xf32>, 
          %855 = tpu.concatenate %851, %851, %851, %851, %851, %851, %851, %851 in 1 : vector<512x128xf32>, vector<512x128xf32>, vector<512x128xf32>, vector<512x128xf32>, vector<512x128xf32>, vector<512x128xf32>, vector<512x128xf32>, vector<512x128xf32> -> vector<512x1024xf32>
          %856 = arith.subf %842, %855 : vector<512x1024xf32>
          %857 = math.exp %856 : vector<512x1024xf32>
          %858 = vector.extract_strided_slice %483 {offsets = [7, 0, 0], sizes = [1, 1024, 128], strides = [1, 1, 1]} : vector<8x1024x128xf32> to vector<1x1024x128xf32>
          %859 = vector.shape_cast %858 : vector<1x1024x128xf32> to vector<1024x128xf32>
          "tpu.trace_start"() <{level = 10 : i32, message = "qk,kd->qd"}> : () -> ()
          %cst_445 = arith.constant dense<0.000000e+00> : vector<512x128xf32>
          %860 = tpu.matmul %857, %859, %cst_445 {dimension_numbers = #tpu.dot_dimension_numbers<[1], [0], [0], [1], [0, 0, 1, 1], [], []>} : vector<512x1024xf32>, vector<1024x128xf32>, vector<512x128xf32> -> vector<512x128xf32>
          "tpu.trace_stop"() : () -> ()
          %cst_446 = arith.constant dense<0.000000e+00> : vector<512xf32>
          %861 = vector.multi_reduction <add>, %857, %cst_446 [1] : vector<512x1024xf32> to vector<512xf32>
          %862 = vector.shape_cast %861 : vector<512xf32> to vector<512x1xf32>
          %863 = arith.subf %849, %851 : vector<512x128xf32>
          %864 = math.exp %863 : vector<512x128xf32>
          %c0_i32_447 = arith.constant 0 : i32
          %865 = arith.cmpi eq, %arg24, %c0_i32_447 : i32
          %cst_448 = arith.constant 0.000000e+00 : f32
          %866 = vector.broadcast %cst_448 : f32 to vector<512x128xf32>
          %c7_449 = arith.constant 7 : index
          %c0_450 = arith.constant 0 : index
          %c0_451 = arith.constant 0 : index
          %867 = vector.load %21[%c7_449, %c0_450, %c0_451] : memref<8x512x128xf32, #tpu.memory_space<vmem>>, vector<1x512x128xf32>
          %868 = vector.shape_cast %867 : vector<1x512x128xf32> to vector<512x128xf32>
          %869 = arith.select %865, %866, %868 : vector<512x128xf32>
          %870 = arith.mulf %864, %869 : vector<512x128xf32>
          %871 = vector.broadcast %862 : vector<512x1xf32> to vector<512x128xf32>
          %872 = arith.addf %870, %871 : vector<512x128xf32>
          %c7_452 = arith.constant 7 : index
          %c0_453 = arith.constant 0 : index
          %c0_454 = arith.constant 0 : index
          %873 = vector.load %21[%c7_452, %c0_453, %c0_454] : memref<8x512x128xf32, #tpu.memory_space<vmem>>, vector<1x512x128xf32>
          %874 = vector.shape_cast %873 : vector<1x512x128xf32> to vector<512x128xf32>
          %875 = vector.shape_cast %872 : vector<512x128xf32> to vector<1x512x128xf32>
          tpu.vector_store %21[%c7_452, %c0_453, %c0_454], %875 {strides = array<i32>} : memref<8x512x128xf32, #tpu.memory_space<vmem>>, vector<1x512x128xf32>, 
          %c0_i32_455 = arith.constant 0 : i32
          %876 = arith.cmpi eq, %arg24, %c0_i32_455 : i32
          %cst_456 = arith.constant 0.000000e+00 : f32
          %877 = vector.broadcast %cst_456 : f32 to vector<512x128xf32>
          %c7_457 = arith.constant 7 : index
          %c0_458 = arith.constant 0 : index
          %c0_459 = arith.constant 0 : index
          %878 = vector.load %25[%c7_457, %c0_458, %c0_459] : memref<8x512x128xf32, #tpu.memory_space<vmem>>, vector<1x512x128xf32>
          %879 = vector.shape_cast %878 : vector<1x512x128xf32> to vector<512x128xf32>
          %880 = arith.select %876, %877, %879 : vector<512x128xf32>
          %881 = arith.mulf %864, %880 : vector<512x128xf32>
          %882 = arith.addf %881, %860 : vector<512x128xf32>
          %c7_460 = arith.constant 7 : index
          %c0_461 = arith.constant 0 : index
          %c0_462 = arith.constant 0 : index
          %883 = vector.load %25[%c7_460, %c0_461, %c0_462] : memref<8x512x128xf32, #tpu.memory_space<vmem>>, vector<1x512x128xf32>
          %884 = vector.shape_cast %883 : vector<1x512x128xf32> to vector<512x128xf32>
          %885 = vector.shape_cast %882 : vector<512x128xf32> to vector<1x512x128xf32>
          tpu.vector_store %25[%c7_460, %c0_461, %c0_462], %885 {strides = array<i32>} : memref<8x512x128xf32, #tpu.memory_space<vmem>>, vector<1x512x128xf32>, 
        }
        %c0_34 = arith.constant 0 : index
        %c0_35 = arith.constant 0 : index
        %c0_36 = arith.constant 0 : index
        %111 = vector.load %25[%c0_34, %c0_35, %c0_36] : memref<8x512x128xf32, #tpu.memory_space<vmem>>, vector<8x512x128xf32>
        %c0_37 = arith.constant 0 : index
        %c0_38 = arith.constant 0 : index
        %c0_39 = arith.constant 0 : index
        %112 = vector.load %21[%c0_37, %c0_38, %c0_39] : memref<8x512x128xf32, #tpu.memory_space<vmem>>, vector<8x512x128xf32>
        %113 = tpu.reciprocal %112 {approx = true} : vector<8x512x128xf32> -> vector<8x512x128xf32>
        %114 = arith.mulf %111, %113 : vector<8x512x128xf32>
        %115 = arith.truncf %114 : vector<8x512x128xf32> to vector<8x512x128xbf16>
        %c2_40 = arith.constant 2 : index
        %116 = memref.load %6[%c2_40] : memref<128xi32, #tpu.memory_space<smem>>
        %c0_i32_41 = arith.constant 0 : i32
        %117 = arith.cmpi eq, %116, %c0_i32_41 : i32
        %c0_i32_42 = arith.constant 0 : i32
        %c1_i32_43 = arith.constant 1 : i32
        %118 = arith.select %117, %c1_i32_43, %c0_i32_42 : i32
        %c2_44 = arith.constant 2 : index
        %119 = memref.load %6[%c2_44] : memref<128xi32, #tpu.memory_space<smem>>
        memref.store %118, %6[%c2_44] : memref<128xi32, #tpu.memory_space<smem>>
        %120 = arith.index_cast %116 : i32 to index
        %121 = memref.load %7[%120] : memref<128xi32, #tpu.memory_space<smem>>
        %c2_i32 = arith.constant 2 : i32
        %122 = arith.addi %116, %c2_i32 : i32
        %123 = arith.index_cast %122 : i32 to index
        %124 = memref.load %7[%123] : memref<128xi32, #tpu.memory_space<smem>>
        %c0_i32_45 = arith.constant 0 : i32
        %125 = arith.cmpi sge, %121, %c0_i32_45 : i32
        %126 = arith.cmpi sle, %121, %arg0 : i32
        %127 = arith.andi %125, %126 : i1
        %128 = arith.extui %127 : i1 to i32
        %c0_i32_46 = arith.constant 0 : i32
        %129 = arith.cmpi ne, %128, %c0_i32_46 : i32
        scf.if %129 {
          %156 = arith.index_cast %121 : i32 to index
          %157 = memref.load %2[%156] : memref<128xi32, #tpu.memory_space<smem>>
          %c128_i32_74 = arith.constant 128 : i32
          %158 = arith.muli %124, %c128_i32_74 : i32
          %159 = arith.addi %157, %158 : i32
          %c1_i32_75 = arith.constant 1 : i32
          %160 = arith.addi %121, %c1_i32_75 : i32
          %161 = arith.index_cast %160 : i32 to index
          %162 = memref.load %2[%161] : memref<128xi32, #tpu.memory_space<smem>>
          %163 = arith.subi %162, %159 : i32
          %c128_i32_76 = arith.constant 128 : i32
          %164 = arith.minsi %c128_i32_76, %163 : i32
          %c2_i32_77 = arith.constant 2 : i32
          %c0_i32_78 = arith.constant 0 : i32
          %c0_i32_79 = arith.constant 0 : i32
          %c0_i32_80 = arith.constant 0 : i32
          %c0_i32_81 = arith.constant 0 : i32
          %c0_i32_82 = arith.constant 0 : i32
          %165 = tpu.memref_slice %18[%116, %c0_i32_78, %c0_i32_79, %c0_i32_80, %c0_i32_81, %c0_i32_82] : memref<2x8x128x2x2x128xbf16, #tpu.memory_space<vmem>> -> memref<1x8x128x2x2x128xbf16, strided<[524288, 65536, 512, 256, 128, 1], offset: ?>, #tpu.memory_space<vmem>>
          %166 = tpu.memref_squeeze %165 : memref<1x8x128x2x2x128xbf16, strided<[524288, 65536, 512, 256, 128, 1], offset: ?>, #tpu.memory_space<vmem>> -> memref<8x128x2x2x128xbf16, strided<[65536, 512, 256, 128, 1], offset: ?>, #tpu.memory_space<vmem>>
          %c0_i32_83 = arith.constant 0 : i32
          %c0_i32_84 = arith.constant 0 : i32
          %c0_i32_85 = arith.constant 0 : i32
          %c0_i32_86 = arith.constant 0 : i32
          %c0_i32_87 = arith.constant 0 : i32
          %167 = tpu.memref_slice %166[%c0_i32_83, %c0_i32_84, %c0_i32_85, %c0_i32_86, %c0_i32_87] <%164> : memref<8x128x2x2x128xbf16, strided<[65536, 512, 256, 128, 1], offset: ?>, #tpu.memory_space<vmem>> -> memref<8x?x2x2x128xbf16, strided<[65536, 512, 256, 128, 1], offset: ?>, #tpu.memory_space<vmem>>
          %c0_i32_88 = arith.constant 0 : i32
          %c0_i32_89 = arith.constant 0 : i32
          %c0_i32_90 = arith.constant 0 : i32
          %c0_i32_91 = arith.constant 0 : i32
          %168 = tpu.memref_slice %14[%c0_i32_88, %159, %c0_i32_89, %c0_i32_90, %c0_i32_91] <%164> : memref<8x8192x2x2x128xbf16, #tpu.memory_space<any>> -> memref<8x?x2x2x128xbf16, strided<[4194304, 512, 256, 128, 1], offset: ?>, #tpu.memory_space<any>>
          %169 = tpu.memref_slice %19[%c2_i32_77, %116] : memref<5x2x!tpu.dma_semaphore, #tpu.memory_space<semaphore_mem>> -> memref<1x1x!tpu.dma_semaphore, strided<[2, 1], offset: ?>, #tpu.memory_space<semaphore_mem>>
          %170 = tpu.memref_squeeze %169 : memref<1x1x!tpu.dma_semaphore, strided<[2, 1], offset: ?>, #tpu.memory_space<semaphore_mem>> -> memref<!tpu.dma_semaphore, strided<[], offset: ?>, #tpu.memory_space<semaphore_mem>>
          tpu.wait_dma2 semaphore(%170 : memref<!tpu.dma_semaphore, strided<[], offset: ?>, #tpu.memory_space<semaphore_mem>>) src(%167 : memref<8x?x2x2x128xbf16, strided<[65536, 512, 256, 128, 1], offset: ?>, #tpu.memory_space<vmem>>) dst(%168 : memref<8x?x2x2x128xbf16, strided<[4194304, 512, 256, 128, 1], offset: ?>, #tpu.memory_space<any>>)
        } else {
        }
        %130 = tpu.bitcast %115 : vector<8x512x128xbf16> -> vector<8x256x128xi32>
        %c0_i32_47 = arith.constant 0 : i32
        %c0_i32_48 = arith.constant 0 : i32
        %c0_i32_49 = arith.constant 0 : i32
        %c0_i32_50 = arith.constant 0 : i32
        %c0_i32_51 = arith.constant 0 : i32
        %131 = tpu.memref_slice %18[%116, %c0_i32_47, %c0_i32_48, %c0_i32_49, %c0_i32_50, %c0_i32_51] : memref<2x8x128x2x2x128xbf16, #tpu.memory_space<vmem>> -> memref<1x8x128x2x2x128xbf16, strided<[524288, 65536, 512, 256, 128, 1], offset: ?>, #tpu.memory_space<vmem>>
        %132 = tpu.memref_squeeze %131 : memref<1x8x128x2x2x128xbf16, strided<[524288, 65536, 512, 256, 128, 1], offset: ?>, #tpu.memory_space<vmem>> -> memref<8x128x2x2x128xbf16, strided<[65536, 512, 256, 128, 1], offset: ?>, #tpu.memory_space<vmem>>
        %133 = tpu.memref_bitcast %132 : memref<8x128x2x2x128xbf16, strided<[65536, 512, 256, 128, 1], offset: ?>, #tpu.memory_space<vmem>> -> memref<8x128x2x1x128xi32, #tpu.memory_space<vmem>>
        %134 = tpu.memref_reshape %133 : memref<8x128x2x1x128xi32, #tpu.memory_space<vmem>> -> memref<8x256x128xi32, #tpu.memory_space<vmem>>
        %c0_52 = arith.constant 0 : index
        %c0_53 = arith.constant 0 : index
        %c0_54 = arith.constant 0 : index
        %135 = vector.load %134[%c0_52, %c0_53, %c0_54] : memref<8x256x128xi32, #tpu.memory_space<vmem>>, vector<8x256x128xi32>
        tpu.vector_store %134[%c0_52, %c0_53, %c0_54], %130 {strides = array<i32>} : memref<8x256x128xi32, #tpu.memory_space<vmem>>, vector<8x256x128xi32>, 
        %136 = arith.index_cast %116 : i32 to index
        %137 = memref.load %7[%136] : memref<128xi32, #tpu.memory_space<smem>>
        memref.store %arg0, %7[%136] : memref<128xi32, #tpu.memory_space<smem>>
        %c2_i32_55 = arith.constant 2 : i32
        %138 = arith.addi %116, %c2_i32_55 : i32
        %139 = arith.index_cast %138 : i32 to index
        %140 = memref.load %7[%139] : memref<128xi32, #tpu.memory_space<smem>>
        memref.store %arg23, %7[%139] : memref<128xi32, #tpu.memory_space<smem>>
        %141 = arith.index_cast %arg0 : i32 to index
        %142 = memref.load %2[%141] : memref<128xi32, #tpu.memory_space<smem>>
        %c128_i32_56 = arith.constant 128 : i32
        %143 = arith.muli %arg23, %c128_i32_56 : i32
        %144 = arith.addi %142, %143 : i32
        %c1_i32_57 = arith.constant 1 : i32
        %145 = arith.addi %arg0, %c1_i32_57 : i32
        %146 = arith.index_cast %145 : i32 to index
        %147 = memref.load %2[%146] : memref<128xi32, #tpu.memory_space<smem>>
        %148 = arith.subi %147, %144 : i32
        %c128_i32_58 = arith.constant 128 : i32
        %149 = arith.minsi %c128_i32_58, %148 : i32
        %c2_i32_59 = arith.constant 2 : i32
        %c0_i32_60 = arith.constant 0 : i32
        %c0_i32_61 = arith.constant 0 : i32
        %c0_i32_62 = arith.constant 0 : i32
        %c0_i32_63 = arith.constant 0 : i32
        %c0_i32_64 = arith.constant 0 : i32
        %150 = tpu.memref_slice %18[%116, %c0_i32_60, %c0_i32_61, %c0_i32_62, %c0_i32_63, %c0_i32_64] : memref<2x8x128x2x2x128xbf16, #tpu.memory_space<vmem>> -> memref<1x8x128x2x2x128xbf16, strided<[524288, 65536, 512, 256, 128, 1], offset: ?>, #tpu.memory_space<vmem>>
        %151 = tpu.memref_squeeze %150 : memref<1x8x128x2x2x128xbf16, strided<[524288, 65536, 512, 256, 128, 1], offset: ?>, #tpu.memory_space<vmem>> -> memref<8x128x2x2x128xbf16, strided<[65536, 512, 256, 128, 1], offset: ?>, #tpu.memory_space<vmem>>
        %c0_i32_65 = arith.constant 0 : i32
        %c0_i32_66 = arith.constant 0 : i32
        %c0_i32_67 = arith.constant 0 : i32
        %c0_i32_68 = arith.constant 0 : i32
        %c0_i32_69 = arith.constant 0 : i32
        %152 = tpu.memref_slice %151[%c0_i32_65, %c0_i32_66, %c0_i32_67, %c0_i32_68, %c0_i32_69] <%149> : memref<8x128x2x2x128xbf16, strided<[65536, 512, 256, 128, 1], offset: ?>, #tpu.memory_space<vmem>> -> memref<8x?x2x2x128xbf16, strided<[65536, 512, 256, 128, 1], offset: ?>, #tpu.memory_space<vmem>>
        %c0_i32_70 = arith.constant 0 : i32
        %c0_i32_71 = arith.constant 0 : i32
        %c0_i32_72 = arith.constant 0 : i32
        %c0_i32_73 = arith.constant 0 : i32
        %153 = tpu.memref_slice %14[%c0_i32_70, %144, %c0_i32_71, %c0_i32_72, %c0_i32_73] <%149> : memref<8x8192x2x2x128xbf16, #tpu.memory_space<any>> -> memref<8x?x2x2x128xbf16, strided<[4194304, 512, 256, 128, 1], offset: ?>, #tpu.memory_space<any>>
        %154 = tpu.memref_slice %19[%c2_i32_59, %116] : memref<5x2x!tpu.dma_semaphore, #tpu.memory_space<semaphore_mem>> -> memref<1x1x!tpu.dma_semaphore, strided<[2, 1], offset: ?>, #tpu.memory_space<semaphore_mem>>
        %155 = tpu.memref_squeeze %154 : memref<1x1x!tpu.dma_semaphore, strided<[2, 1], offset: ?>, #tpu.memory_space<semaphore_mem>> -> memref<!tpu.dma_semaphore, strided<[], offset: ?>, #tpu.memory_space<semaphore_mem>>
        tpu.enqueue_dma source(%152 : memref<8x?x2x2x128xbf16, strided<[65536, 512, 256, 128, 1], offset: ?>, #tpu.memory_space<vmem>>) target(%153 : memref<8x?x2x2x128xbf16, strided<[4194304, 512, 256, 128, 1], offset: ?>, #tpu.memory_space<any>>) target_semaphore(%155 : memref<!tpu.dma_semaphore, strided<[], offset: ?>, #tpu.memory_space<semaphore_mem>>)
      }
    } else {
    }
    %c1_i32_4 = arith.constant 1 : i32
    %54 = arith.subi %26, %c1_i32_4 : i32
    %55 = arith.cmpi eq, %arg0, %54 : i32
    %56 = arith.extui %55 : i1 to i32
    %c0_i32_5 = arith.constant 0 : i32
    %57 = arith.cmpi ne, %56, %c0_i32_5 : i32
    scf.if %57 {
      %c0_6 = arith.constant 0 : index
      %58 = memref.load %7[%c0_6] : memref<128xi32, #tpu.memory_space<smem>>
      %c2_7 = arith.constant 2 : index
      %59 = memref.load %7[%c2_7] : memref<128xi32, #tpu.memory_space<smem>>
      %c0_i32_8 = arith.constant 0 : i32
      %60 = arith.cmpi sge, %58, %c0_i32_8 : i32
      %61 = arith.cmpi sle, %58, %arg0 : i32
      %62 = arith.andi %60, %61 : i1
      %63 = arith.extui %62 : i1 to i32
      %c0_i32_9 = arith.constant 0 : i32
      %64 = arith.cmpi ne, %63, %c0_i32_9 : i32
      scf.if %64 {
        %80 = arith.index_cast %58 : i32 to index
        %81 = memref.load %2[%80] : memref<128xi32, #tpu.memory_space<smem>>
        %c128_i32 = arith.constant 128 : i32
        %82 = arith.muli %59, %c128_i32 : i32
        %83 = arith.addi %81, %82 : i32
        %c1_i32_17 = arith.constant 1 : i32
        %84 = arith.addi %58, %c1_i32_17 : i32
        %85 = arith.index_cast %84 : i32 to index
        %86 = memref.load %2[%85] : memref<128xi32, #tpu.memory_space<smem>>
        %87 = arith.subi %86, %83 : i32
        %c128_i32_18 = arith.constant 128 : i32
        %88 = arith.minsi %c128_i32_18, %87 : i32
        %c0_i32_19 = arith.constant 0 : i32
        %c2_i32 = arith.constant 2 : i32
        %c0_i32_20 = arith.constant 0 : i32
        %c0_i32_21 = arith.constant 0 : i32
        %c0_i32_22 = arith.constant 0 : i32
        %c0_i32_23 = arith.constant 0 : i32
        %c0_i32_24 = arith.constant 0 : i32
        %c0_i32_25 = arith.constant 0 : i32
        %89 = tpu.memref_slice %18[%c0_i32_19, %c0_i32_21, %c0_i32_22, %c0_i32_23, %c0_i32_24, %c0_i32_25] : memref<2x8x128x2x2x128xbf16, #tpu.memory_space<vmem>> -> memref<1x8x128x2x2x128xbf16, strided<[524288, 65536, 512, 256, 128, 1]>, #tpu.memory_space<vmem>>
        %90 = tpu.memref_squeeze %89 : memref<1x8x128x2x2x128xbf16, strided<[524288, 65536, 512, 256, 128, 1]>, #tpu.memory_space<vmem>> -> memref<8x128x2x2x128xbf16, strided<[65536, 512, 256, 128, 1]>, #tpu.memory_space<vmem>>
        %c0_i32_26 = arith.constant 0 : i32
        %c0_i32_27 = arith.constant 0 : i32
        %c0_i32_28 = arith.constant 0 : i32
        %c0_i32_29 = arith.constant 0 : i32
        %c0_i32_30 = arith.constant 0 : i32
        %91 = tpu.memref_slice %90[%c0_i32_26, %c0_i32_27, %c0_i32_28, %c0_i32_29, %c0_i32_30] <%88> : memref<8x128x2x2x128xbf16, strided<[65536, 512, 256, 128, 1]>, #tpu.memory_space<vmem>> -> memref<8x?x2x2x128xbf16, strided<[65536, 512, 256, 128, 1]>, #tpu.memory_space<vmem>>
        %c0_i32_31 = arith.constant 0 : i32
        %c0_i32_32 = arith.constant 0 : i32
        %c0_i32_33 = arith.constant 0 : i32
        %c0_i32_34 = arith.constant 0 : i32
        %92 = tpu.memref_slice %14[%c0_i32_31, %83, %c0_i32_32, %c0_i32_33, %c0_i32_34] <%88> : memref<8x8192x2x2x128xbf16, #tpu.memory_space<any>> -> memref<8x?x2x2x128xbf16, strided<[4194304, 512, 256, 128, 1], offset: ?>, #tpu.memory_space<any>>
        %93 = tpu.memref_slice %19[%c2_i32, %c0_i32_20] : memref<5x2x!tpu.dma_semaphore, #tpu.memory_space<semaphore_mem>> -> memref<1x1x!tpu.dma_semaphore, strided<[2, 1], offset: 4>, #tpu.memory_space<semaphore_mem>>
        %94 = tpu.memref_squeeze %93 : memref<1x1x!tpu.dma_semaphore, strided<[2, 1], offset: 4>, #tpu.memory_space<semaphore_mem>> -> memref<!tpu.dma_semaphore, strided<[], offset: 4>, #tpu.memory_space<semaphore_mem>>
        tpu.wait_dma2 semaphore(%94 : memref<!tpu.dma_semaphore, strided<[], offset: 4>, #tpu.memory_space<semaphore_mem>>) src(%91 : memref<8x?x2x2x128xbf16, strided<[65536, 512, 256, 128, 1]>, #tpu.memory_space<vmem>>) dst(%92 : memref<8x?x2x2x128xbf16, strided<[4194304, 512, 256, 128, 1], offset: ?>, #tpu.memory_space<any>>)
      } else {
      }
      %c4 = arith.constant 4 : index
      %65 = memref.load %8[%c4] : memref<128xi32, #tpu.memory_space<smem>>
      %c0_i32_10 = arith.constant 0 : i32
      %66 = arith.cmpi sgt, %65, %c0_i32_10 : i32
      %67 = arith.extui %66 : i1 to i32
      %c0_i32_11 = arith.constant 0 : i32
      %68 = arith.cmpi ne, %67, %c0_i32_11 : i32
      scf.if %68 {
        %c0_17 = arith.constant 0 : index
        %80 = memref.load %8[%c0_17] : memref<128xi32, #tpu.memory_space<smem>>
        %c2_18 = arith.constant 2 : index
        %81 = memref.load %8[%c2_18] : memref<128xi32, #tpu.memory_space<smem>>
        %c0_i32_19 = arith.constant 0 : i32
        %c4_20 = arith.constant 4 : index
        %82 = memref.load %8[%c4_20] : memref<128xi32, #tpu.memory_space<smem>>
        memref.store %c0_i32_19, %8[%c4_20] : memref<128xi32, #tpu.memory_space<smem>>
        %c1024_i32 = arith.constant 1024 : i32
        %83 = arith.divsi %81, %c1024_i32 : i32
        %c0_i32_21 = arith.constant 0 : i32
        %84 = arith.cmpi sgt, %81, %c0_i32_21 : i32
        %85 = arith.extui %84 : i1 to i32
        %c0_i32_22 = arith.constant 0 : i32
        %86 = arith.cmpi slt, %81, %c0_i32_22 : i32
        %87 = arith.extui %86 : i1 to i32
        %88 = arith.subi %85, %87 : i32
        %c0_i32_23 = arith.constant 0 : i32
        %89 = arith.cmpi sgt, %c1024_i32, %c0_i32_23 : i32
        %90 = arith.extui %89 : i1 to i32
        %c0_i32_24 = arith.constant 0 : i32
        %91 = arith.cmpi slt, %c1024_i32, %c0_i32_24 : i32
        %92 = arith.extui %91 : i1 to i32
        %93 = arith.subi %90, %92 : i32
        %94 = arith.cmpi ne, %88, %93 : i32
        %95 = arith.remsi %81, %c1024_i32 : i32
        %c0_i32_25 = arith.constant 0 : i32
        %96 = arith.cmpi ne, %95, %c0_i32_25 : i32
        %97 = arith.andi %94, %96 : i1
        %c1_i32_26 = arith.constant 1 : i32
        %98 = arith.subi %83, %c1_i32_26 : i32
        %99 = arith.select %97, %98, %83 : i32
        %c128_i32 = arith.constant 128 : i32
        %100 = arith.divsi %81, %c128_i32 : i32
        %c0_i32_27 = arith.constant 0 : i32
        %101 = arith.cmpi sgt, %81, %c0_i32_27 : i32
        %102 = arith.extui %101 : i1 to i32
        %c0_i32_28 = arith.constant 0 : i32
        %103 = arith.cmpi slt, %81, %c0_i32_28 : i32
        %104 = arith.extui %103 : i1 to i32
        %105 = arith.subi %102, %104 : i32
        %c0_i32_29 = arith.constant 0 : i32
        %106 = arith.cmpi sgt, %c128_i32, %c0_i32_29 : i32
        %107 = arith.extui %106 : i1 to i32
        %c0_i32_30 = arith.constant 0 : i32
        %108 = arith.cmpi slt, %c128_i32, %c0_i32_30 : i32
        %109 = arith.extui %108 : i1 to i32
        %110 = arith.subi %107, %109 : i32
        %111 = arith.cmpi ne, %105, %110 : i32
        %112 = arith.remsi %81, %c128_i32 : i32
        %c0_i32_31 = arith.constant 0 : i32
        %113 = arith.cmpi ne, %112, %c0_i32_31 : i32
        %114 = arith.andi %111, %113 : i1
        %c1_i32_32 = arith.constant 1 : i32
        %115 = arith.subi %100, %c1_i32_32 : i32
        %116 = arith.select %114, %115, %100 : i32
        %117 = arith.addi %81, %65 : i32
        %c128_i32_33 = arith.constant 128 : i32
        %118 = arith.addi %117, %c128_i32_33 : i32
        %c1_i32_34 = arith.constant 1 : i32
        %119 = arith.subi %118, %c1_i32_34 : i32
        %c128_i32_35 = arith.constant 128 : i32
        %120 = arith.divsi %119, %c128_i32_35 : i32
        %c0_i32_36 = arith.constant 0 : i32
        %121 = arith.cmpi sgt, %119, %c0_i32_36 : i32
        %122 = arith.extui %121 : i1 to i32
        %c0_i32_37 = arith.constant 0 : i32
        %123 = arith.cmpi slt, %119, %c0_i32_37 : i32
        %124 = arith.extui %123 : i1 to i32
        %125 = arith.subi %122, %124 : i32
        %c0_i32_38 = arith.constant 0 : i32
        %126 = arith.cmpi sgt, %c128_i32_35, %c0_i32_38 : i32
        %127 = arith.extui %126 : i1 to i32
        %c0_i32_39 = arith.constant 0 : i32
        %128 = arith.cmpi slt, %c128_i32_35, %c0_i32_39 : i32
        %129 = arith.extui %128 : i1 to i32
        %130 = arith.subi %127, %129 : i32
        %131 = arith.cmpi ne, %125, %130 : i32
        %132 = arith.remsi %119, %c128_i32_35 : i32
        %c0_i32_40 = arith.constant 0 : i32
        %133 = arith.cmpi ne, %132, %c0_i32_40 : i32
        %134 = arith.andi %131, %133 : i1
        %c1_i32_41 = arith.constant 1 : i32
        %135 = arith.subi %120, %c1_i32_41 : i32
        %136 = arith.select %134, %135, %120 : i32
        %c128_i32_42 = arith.constant 128 : i32
        %c0_i32_43 = arith.constant 0 : i32
        %137 = arith.cmpi eq, %c128_i32_42, %c0_i32_43 : i32
        %c1_i32_44 = arith.constant 1 : i32
        %138 = arith.select %137, %c1_i32_44, %c128_i32_42 : i32
        %139 = arith.remsi %81, %138 : i32
        %c0_i32_45 = arith.constant 0 : i32
        %140 = arith.cmpi ne, %139, %c0_i32_45 : i32
        %c0_i32_46 = arith.constant 0 : i32
        %141 = arith.cmpi slt, %139, %c0_i32_46 : i32
        %c0_i32_47 = arith.constant 0 : i32
        %142 = arith.cmpi slt, %138, %c0_i32_47 : i32
        %143 = arith.xori %141, %142 : i1
        %144 = arith.andi %143, %140 : i1
        %145 = arith.addi %139, %138 : i32
        %146 = arith.select %144, %145, %139 : i32
        %c8_i32 = arith.constant 8 : i32
        %147 = arith.muli %99, %c8_i32 : i32
        %148 = arith.subi %116, %147 : i32
        %149 = arith.index_cast %80 : i32 to index
        %150 = memref.load %3[%149] : memref<128xi32, #tpu.memory_space<smem>>
        %c128_i32_48 = arith.constant 128 : i32
        %151 = arith.addi %150, %c128_i32_48 : i32
        %c1_i32_49 = arith.constant 1 : i32
        %152 = arith.subi %151, %c1_i32_49 : i32
        %c128_i32_50 = arith.constant 128 : i32
        %153 = arith.divsi %152, %c128_i32_50 : i32
        %c0_i32_51 = arith.constant 0 : i32
        %154 = arith.cmpi sgt, %152, %c0_i32_51 : i32
        %155 = arith.extui %154 : i1 to i32
        %c0_i32_52 = arith.constant 0 : i32
        %156 = arith.cmpi slt, %152, %c0_i32_52 : i32
        %157 = arith.extui %156 : i1 to i32
        %158 = arith.subi %155, %157 : i32
        %c0_i32_53 = arith.constant 0 : i32
        %159 = arith.cmpi sgt, %c128_i32_50, %c0_i32_53 : i32
        %160 = arith.extui %159 : i1 to i32
        %c0_i32_54 = arith.constant 0 : i32
        %161 = arith.cmpi slt, %c128_i32_50, %c0_i32_54 : i32
        %162 = arith.extui %161 : i1 to i32
        %163 = arith.subi %160, %162 : i32
        %164 = arith.cmpi ne, %158, %163 : i32
        %165 = arith.remsi %152, %c128_i32_50 : i32
        %c0_i32_55 = arith.constant 0 : i32
        %166 = arith.cmpi ne, %165, %c0_i32_55 : i32
        %167 = arith.andi %164, %166 : i1
        %c1_i32_56 = arith.constant 1 : i32
        %168 = arith.subi %153, %c1_i32_56 : i32
        %169 = arith.select %167, %168, %153 : i32
        %170 = arith.addi %169, %116 : i32
        %171 = arith.subi %136, %116 : i32
        %c0_i32_57 = arith.constant 0 : i32
        %c3_i32 = arith.constant 3 : i32
        %c0_i32_58 = arith.constant 0 : i32
        %c0_i32_59 = arith.constant 0 : i32
        %172 = arith.subi %171, %c0_i32_59 : i32
        %173 = arith.addi %c0_i32_59, %172 : i32
        %c1_i32_60 = arith.constant 1 : i32
        %174:2 = scf.for %arg23 = %c0_i32_59 to %173 step %c1_i32_60 iter_args(%arg24 = %65, %arg25 = %146) -> (i32, i32)  : i32 {
          %c128_i32_61 = arith.constant 128 : i32
          %175 = arith.subi %c128_i32_61, %arg25 : i32
          %176 = arith.minsi %175, %arg24 : i32
          %177 = arith.addi %148, %arg23 : i32
          %c128_i32_62 = arith.constant 128 : i32
          %178 = arith.muli %177, %c128_i32_62 : i32
          %179 = arith.addi %178, %arg25 : i32
          %180 = arith.addi %170, %arg23 : i32
          %181 = arith.index_cast %180 : i32 to index
          %182 = memref.load %1[%181] : memref<2048xi32, #tpu.memory_space<smem>>
          %c128_i32_63 = arith.constant 128 : i32
          %183 = arith.muli %182, %c128_i32_63 : i32
          %184 = arith.addi %183, %arg25 : i32
          %c0_i32_64 = arith.constant 0 : i32
          %c0_i32_65 = arith.constant 0 : i32
          %c0_i32_66 = arith.constant 0 : i32
          %c0_i32_67 = arith.constant 0 : i32
          %185 = tpu.memref_slice %16[%c0_i32_57, %c0_i32_64, %c0_i32_65, %c0_i32_66, %c0_i32_67] : memref<2x1024x8x2x128xbf16, #tpu.memory_space<vmem>> -> memref<1x1024x8x2x128xbf16, strided<[2097152, 2048, 256, 128, 1]>, #tpu.memory_space<vmem>>
          %186 = tpu.memref_squeeze %185 : memref<1x1024x8x2x128xbf16, strided<[2097152, 2048, 256, 128, 1]>, #tpu.memory_space<vmem>> -> memref<1024x8x2x128xbf16, strided<[2048, 256, 128, 1]>, #tpu.memory_space<vmem>>
          %c0_i32_68 = arith.constant 0 : i32
          %c0_i32_69 = arith.constant 0 : i32
          %c0_i32_70 = arith.constant 0 : i32
          %187 = tpu.memref_slice %186[%179, %c0_i32_68, %c0_i32_69, %c0_i32_70] <%176> : memref<1024x8x2x128xbf16, strided<[2048, 256, 128, 1]>, #tpu.memory_space<vmem>> -> memref<?x8x2x128xbf16, strided<[2048, 256, 128, 1], offset: ?>, #tpu.memory_space<vmem>>
          %188 = tpu.memref_reshape %15 : memref<4688x128x8x2x128xbf16, #tpu.memory_space<any>> -> memref<600064x8x2x128xbf16, #tpu.memory_space<any>>
          %c0_i32_71 = arith.constant 0 : i32
          %c0_i32_72 = arith.constant 0 : i32
          %c0_i32_73 = arith.constant 0 : i32
          %189 = tpu.memref_slice %188[%184, %c0_i32_71, %c0_i32_72, %c0_i32_73] <%176> : memref<600064x8x2x128xbf16, #tpu.memory_space<any>> -> memref<?x8x2x128xbf16, strided<[2048, 256, 128, 1], offset: ?>, #tpu.memory_space<any>>
          %190 = tpu.memref_slice %19[%c3_i32, %c0_i32_58] : memref<5x2x!tpu.dma_semaphore, #tpu.memory_space<semaphore_mem>> -> memref<1x1x!tpu.dma_semaphore, strided<[2, 1], offset: 6>, #tpu.memory_space<semaphore_mem>>
          %191 = tpu.memref_squeeze %190 : memref<1x1x!tpu.dma_semaphore, strided<[2, 1], offset: 6>, #tpu.memory_space<semaphore_mem>> -> memref<!tpu.dma_semaphore, strided<[], offset: 6>, #tpu.memory_space<semaphore_mem>>
          tpu.wait_dma2 semaphore(%191 : memref<!tpu.dma_semaphore, strided<[], offset: 6>, #tpu.memory_space<semaphore_mem>>) src(%187 : memref<?x8x2x128xbf16, strided<[2048, 256, 128, 1], offset: ?>, #tpu.memory_space<vmem>>) dst(%189 : memref<?x8x2x128xbf16, strided<[2048, 256, 128, 1], offset: ?>, #tpu.memory_space<any>>)
          %192 = arith.subi %arg24, %176 : i32
          %c0_i32_74 = arith.constant 0 : i32
          scf.yield %192, %c0_i32_74 : i32, i32
        }
      } else {
      }
      %c1_12 = arith.constant 1 : index
      %69 = memref.load %7[%c1_12] : memref<128xi32, #tpu.memory_space<smem>>
      %c3 = arith.constant 3 : index
      %70 = memref.load %7[%c3] : memref<128xi32, #tpu.memory_space<smem>>
      %c0_i32_13 = arith.constant 0 : i32
      %71 = arith.cmpi sge, %69, %c0_i32_13 : i32
      %72 = arith.cmpi sle, %69, %arg0 : i32
      %73 = arith.andi %71, %72 : i1
      %74 = arith.extui %73 : i1 to i32
      %c0_i32_14 = arith.constant 0 : i32
      %75 = arith.cmpi ne, %74, %c0_i32_14 : i32
      scf.if %75 {
        %80 = arith.index_cast %69 : i32 to index
        %81 = memref.load %2[%80] : memref<128xi32, #tpu.memory_space<smem>>
        %c128_i32 = arith.constant 128 : i32
        %82 = arith.muli %70, %c128_i32 : i32
        %83 = arith.addi %81, %82 : i32
        %c1_i32_17 = arith.constant 1 : i32
        %84 = arith.addi %69, %c1_i32_17 : i32
        %85 = arith.index_cast %84 : i32 to index
        %86 = memref.load %2[%85] : memref<128xi32, #tpu.memory_space<smem>>
        %87 = arith.subi %86, %83 : i32
        %c128_i32_18 = arith.constant 128 : i32
        %88 = arith.minsi %c128_i32_18, %87 : i32
        %c1_i32_19 = arith.constant 1 : i32
        %c2_i32 = arith.constant 2 : i32
        %c1_i32_20 = arith.constant 1 : i32
        %c0_i32_21 = arith.constant 0 : i32
        %c0_i32_22 = arith.constant 0 : i32
        %c0_i32_23 = arith.constant 0 : i32
        %c0_i32_24 = arith.constant 0 : i32
        %c0_i32_25 = arith.constant 0 : i32
        %89 = tpu.memref_slice %18[%c1_i32_19, %c0_i32_21, %c0_i32_22, %c0_i32_23, %c0_i32_24, %c0_i32_25] : memref<2x8x128x2x2x128xbf16, #tpu.memory_space<vmem>> -> memref<1x8x128x2x2x128xbf16, strided<[524288, 65536, 512, 256, 128, 1], offset: 524288>, #tpu.memory_space<vmem>>
        %90 = tpu.memref_squeeze %89 : memref<1x8x128x2x2x128xbf16, strided<[524288, 65536, 512, 256, 128, 1], offset: 524288>, #tpu.memory_space<vmem>> -> memref<8x128x2x2x128xbf16, strided<[65536, 512, 256, 128, 1], offset: 524288>, #tpu.memory_space<vmem>>
        %c0_i32_26 = arith.constant 0 : i32
        %c0_i32_27 = arith.constant 0 : i32
        %c0_i32_28 = arith.constant 0 : i32
        %c0_i32_29 = arith.constant 0 : i32
        %c0_i32_30 = arith.constant 0 : i32
        %91 = tpu.memref_slice %90[%c0_i32_26, %c0_i32_27, %c0_i32_28, %c0_i32_29, %c0_i32_30] <%88> : memref<8x128x2x2x128xbf16, strided<[65536, 512, 256, 128, 1], offset: 524288>, #tpu.memory_space<vmem>> -> memref<8x?x2x2x128xbf16, strided<[65536, 512, 256, 128, 1], offset: 524288>, #tpu.memory_space<vmem>>
        %c0_i32_31 = arith.constant 0 : i32
        %c0_i32_32 = arith.constant 0 : i32
        %c0_i32_33 = arith.constant 0 : i32
        %c0_i32_34 = arith.constant 0 : i32
        %92 = tpu.memref_slice %14[%c0_i32_31, %83, %c0_i32_32, %c0_i32_33, %c0_i32_34] <%88> : memref<8x8192x2x2x128xbf16, #tpu.memory_space<any>> -> memref<8x?x2x2x128xbf16, strided<[4194304, 512, 256, 128, 1], offset: ?>, #tpu.memory_space<any>>
        %93 = tpu.memref_slice %19[%c2_i32, %c1_i32_20] : memref<5x2x!tpu.dma_semaphore, #tpu.memory_space<semaphore_mem>> -> memref<1x1x!tpu.dma_semaphore, strided<[2, 1], offset: 5>, #tpu.memory_space<semaphore_mem>>
        %94 = tpu.memref_squeeze %93 : memref<1x1x!tpu.dma_semaphore, strided<[2, 1], offset: 5>, #tpu.memory_space<semaphore_mem>> -> memref<!tpu.dma_semaphore, strided<[], offset: 5>, #tpu.memory_space<semaphore_mem>>
        tpu.wait_dma2 semaphore(%94 : memref<!tpu.dma_semaphore, strided<[], offset: 5>, #tpu.memory_space<semaphore_mem>>) src(%91 : memref<8x?x2x2x128xbf16, strided<[65536, 512, 256, 128, 1], offset: 524288>, #tpu.memory_space<vmem>>) dst(%92 : memref<8x?x2x2x128xbf16, strided<[4194304, 512, 256, 128, 1], offset: ?>, #tpu.memory_space<any>>)
      } else {
      }
      %c5 = arith.constant 5 : index
      %76 = memref.load %8[%c5] : memref<128xi32, #tpu.memory_space<smem>>
      %c0_i32_15 = arith.constant 0 : i32
      %77 = arith.cmpi sgt, %76, %c0_i32_15 : i32
      %78 = arith.extui %77 : i1 to i32
      %c0_i32_16 = arith.constant 0 : i32
      %79 = arith.cmpi ne, %78, %c0_i32_16 : i32
      scf.if %79 {
        %c1_17 = arith.constant 1 : index
        %80 = memref.load %8[%c1_17] : memref<128xi32, #tpu.memory_space<smem>>
        %c3_18 = arith.constant 3 : index
        %81 = memref.load %8[%c3_18] : memref<128xi32, #tpu.memory_space<smem>>
        %c0_i32_19 = arith.constant 0 : i32
        %c5_20 = arith.constant 5 : index
        %82 = memref.load %8[%c5_20] : memref<128xi32, #tpu.memory_space<smem>>
        memref.store %c0_i32_19, %8[%c5_20] : memref<128xi32, #tpu.memory_space<smem>>
        %c1024_i32 = arith.constant 1024 : i32
        %83 = arith.divsi %81, %c1024_i32 : i32
        %c0_i32_21 = arith.constant 0 : i32
        %84 = arith.cmpi sgt, %81, %c0_i32_21 : i32
        %85 = arith.extui %84 : i1 to i32
        %c0_i32_22 = arith.constant 0 : i32
        %86 = arith.cmpi slt, %81, %c0_i32_22 : i32
        %87 = arith.extui %86 : i1 to i32
        %88 = arith.subi %85, %87 : i32
        %c0_i32_23 = arith.constant 0 : i32
        %89 = arith.cmpi sgt, %c1024_i32, %c0_i32_23 : i32
        %90 = arith.extui %89 : i1 to i32
        %c0_i32_24 = arith.constant 0 : i32
        %91 = arith.cmpi slt, %c1024_i32, %c0_i32_24 : i32
        %92 = arith.extui %91 : i1 to i32
        %93 = arith.subi %90, %92 : i32
        %94 = arith.cmpi ne, %88, %93 : i32
        %95 = arith.remsi %81, %c1024_i32 : i32
        %c0_i32_25 = arith.constant 0 : i32
        %96 = arith.cmpi ne, %95, %c0_i32_25 : i32
        %97 = arith.andi %94, %96 : i1
        %c1_i32_26 = arith.constant 1 : i32
        %98 = arith.subi %83, %c1_i32_26 : i32
        %99 = arith.select %97, %98, %83 : i32
        %c128_i32 = arith.constant 128 : i32
        %100 = arith.divsi %81, %c128_i32 : i32
        %c0_i32_27 = arith.constant 0 : i32
        %101 = arith.cmpi sgt, %81, %c0_i32_27 : i32
        %102 = arith.extui %101 : i1 to i32
        %c0_i32_28 = arith.constant 0 : i32
        %103 = arith.cmpi slt, %81, %c0_i32_28 : i32
        %104 = arith.extui %103 : i1 to i32
        %105 = arith.subi %102, %104 : i32
        %c0_i32_29 = arith.constant 0 : i32
        %106 = arith.cmpi sgt, %c128_i32, %c0_i32_29 : i32
        %107 = arith.extui %106 : i1 to i32
        %c0_i32_30 = arith.constant 0 : i32
        %108 = arith.cmpi slt, %c128_i32, %c0_i32_30 : i32
        %109 = arith.extui %108 : i1 to i32
        %110 = arith.subi %107, %109 : i32
        %111 = arith.cmpi ne, %105, %110 : i32
        %112 = arith.remsi %81, %c128_i32 : i32
        %c0_i32_31 = arith.constant 0 : i32
        %113 = arith.cmpi ne, %112, %c0_i32_31 : i32
        %114 = arith.andi %111, %113 : i1
        %c1_i32_32 = arith.constant 1 : i32
        %115 = arith.subi %100, %c1_i32_32 : i32
        %116 = arith.select %114, %115, %100 : i32
        %117 = arith.addi %81, %76 : i32
        %c128_i32_33 = arith.constant 128 : i32
        %118 = arith.addi %117, %c128_i32_33 : i32
        %c1_i32_34 = arith.constant 1 : i32
        %119 = arith.subi %118, %c1_i32_34 : i32
        %c128_i32_35 = arith.constant 128 : i32
        %120 = arith.divsi %119, %c128_i32_35 : i32
        %c0_i32_36 = arith.constant 0 : i32
        %121 = arith.cmpi sgt, %119, %c0_i32_36 : i32
        %122 = arith.extui %121 : i1 to i32
        %c0_i32_37 = arith.constant 0 : i32
        %123 = arith.cmpi slt, %119, %c0_i32_37 : i32
        %124 = arith.extui %123 : i1 to i32
        %125 = arith.subi %122, %124 : i32
        %c0_i32_38 = arith.constant 0 : i32
        %126 = arith.cmpi sgt, %c128_i32_35, %c0_i32_38 : i32
        %127 = arith.extui %126 : i1 to i32
        %c0_i32_39 = arith.constant 0 : i32
        %128 = arith.cmpi slt, %c128_i32_35, %c0_i32_39 : i32
        %129 = arith.extui %128 : i1 to i32
        %130 = arith.subi %127, %129 : i32
        %131 = arith.cmpi ne, %125, %130 : i32
        %132 = arith.remsi %119, %c128_i32_35 : i32
        %c0_i32_40 = arith.constant 0 : i32
        %133 = arith.cmpi ne, %132, %c0_i32_40 : i32
        %134 = arith.andi %131, %133 : i1
        %c1_i32_41 = arith.constant 1 : i32
        %135 = arith.subi %120, %c1_i32_41 : i32
        %136 = arith.select %134, %135, %120 : i32
        %c128_i32_42 = arith.constant 128 : i32
        %c0_i32_43 = arith.constant 0 : i32
        %137 = arith.cmpi eq, %c128_i32_42, %c0_i32_43 : i32
        %c1_i32_44 = arith.constant 1 : i32
        %138 = arith.select %137, %c1_i32_44, %c128_i32_42 : i32
        %139 = arith.remsi %81, %138 : i32
        %c0_i32_45 = arith.constant 0 : i32
        %140 = arith.cmpi ne, %139, %c0_i32_45 : i32
        %c0_i32_46 = arith.constant 0 : i32
        %141 = arith.cmpi slt, %139, %c0_i32_46 : i32
        %c0_i32_47 = arith.constant 0 : i32
        %142 = arith.cmpi slt, %138, %c0_i32_47 : i32
        %143 = arith.xori %141, %142 : i1
        %144 = arith.andi %143, %140 : i1
        %145 = arith.addi %139, %138 : i32
        %146 = arith.select %144, %145, %139 : i32
        %c8_i32 = arith.constant 8 : i32
        %147 = arith.muli %99, %c8_i32 : i32
        %148 = arith.subi %116, %147 : i32
        %149 = arith.index_cast %80 : i32 to index
        %150 = memref.load %3[%149] : memref<128xi32, #tpu.memory_space<smem>>
        %c128_i32_48 = arith.constant 128 : i32
        %151 = arith.addi %150, %c128_i32_48 : i32
        %c1_i32_49 = arith.constant 1 : i32
        %152 = arith.subi %151, %c1_i32_49 : i32
        %c128_i32_50 = arith.constant 128 : i32
        %153 = arith.divsi %152, %c128_i32_50 : i32
        %c0_i32_51 = arith.constant 0 : i32
        %154 = arith.cmpi sgt, %152, %c0_i32_51 : i32
        %155 = arith.extui %154 : i1 to i32
        %c0_i32_52 = arith.constant 0 : i32
        %156 = arith.cmpi slt, %152, %c0_i32_52 : i32
        %157 = arith.extui %156 : i1 to i32
        %158 = arith.subi %155, %157 : i32
        %c0_i32_53 = arith.constant 0 : i32
        %159 = arith.cmpi sgt, %c128_i32_50, %c0_i32_53 : i32
        %160 = arith.extui %159 : i1 to i32
        %c0_i32_54 = arith.constant 0 : i32
        %161 = arith.cmpi slt, %c128_i32_50, %c0_i32_54 : i32
        %162 = arith.extui %161 : i1 to i32
        %163 = arith.subi %160, %162 : i32
        %164 = arith.cmpi ne, %158, %163 : i32
        %165 = arith.remsi %152, %c128_i32_50 : i32
        %c0_i32_55 = arith.constant 0 : i32
        %166 = arith.cmpi ne, %165, %c0_i32_55 : i32
        %167 = arith.andi %164, %166 : i1
        %c1_i32_56 = arith.constant 1 : i32
        %168 = arith.subi %153, %c1_i32_56 : i32
        %169 = arith.select %167, %168, %153 : i32
        %170 = arith.addi %169, %116 : i32
        %171 = arith.subi %136, %116 : i32
        %c1_i32_57 = arith.constant 1 : i32
        %c3_i32 = arith.constant 3 : i32
        %c1_i32_58 = arith.constant 1 : i32
        %c0_i32_59 = arith.constant 0 : i32
        %172 = arith.subi %171, %c0_i32_59 : i32
        %173 = arith.addi %c0_i32_59, %172 : i32
        %c1_i32_60 = arith.constant 1 : i32
        %174:2 = scf.for %arg23 = %c0_i32_59 to %173 step %c1_i32_60 iter_args(%arg24 = %76, %arg25 = %146) -> (i32, i32)  : i32 {
          %c128_i32_61 = arith.constant 128 : i32
          %175 = arith.subi %c128_i32_61, %arg25 : i32
          %176 = arith.minsi %175, %arg24 : i32
          %177 = arith.addi %148, %arg23 : i32
          %c128_i32_62 = arith.constant 128 : i32
          %178 = arith.muli %177, %c128_i32_62 : i32
          %179 = arith.addi %178, %arg25 : i32
          %180 = arith.addi %170, %arg23 : i32
          %181 = arith.index_cast %180 : i32 to index
          %182 = memref.load %1[%181] : memref<2048xi32, #tpu.memory_space<smem>>
          %c128_i32_63 = arith.constant 128 : i32
          %183 = arith.muli %182, %c128_i32_63 : i32
          %184 = arith.addi %183, %arg25 : i32
          %c0_i32_64 = arith.constant 0 : i32
          %c0_i32_65 = arith.constant 0 : i32
          %c0_i32_66 = arith.constant 0 : i32
          %c0_i32_67 = arith.constant 0 : i32
          %185 = tpu.memref_slice %16[%c1_i32_57, %c0_i32_64, %c0_i32_65, %c0_i32_66, %c0_i32_67] : memref<2x1024x8x2x128xbf16, #tpu.memory_space<vmem>> -> memref<1x1024x8x2x128xbf16, strided<[2097152, 2048, 256, 128, 1], offset: 2097152>, #tpu.memory_space<vmem>>
          %186 = tpu.memref_squeeze %185 : memref<1x1024x8x2x128xbf16, strided<[2097152, 2048, 256, 128, 1], offset: 2097152>, #tpu.memory_space<vmem>> -> memref<1024x8x2x128xbf16, strided<[2048, 256, 128, 1], offset: 2097152>, #tpu.memory_space<vmem>>
          %c0_i32_68 = arith.constant 0 : i32
          %c0_i32_69 = arith.constant 0 : i32
          %c0_i32_70 = arith.constant 0 : i32
          %187 = tpu.memref_slice %186[%179, %c0_i32_68, %c0_i32_69, %c0_i32_70] <%176> : memref<1024x8x2x128xbf16, strided<[2048, 256, 128, 1], offset: 2097152>, #tpu.memory_space<vmem>> -> memref<?x8x2x128xbf16, strided<[2048, 256, 128, 1], offset: ?>, #tpu.memory_space<vmem>>
          %188 = tpu.memref_reshape %15 : memref<4688x128x8x2x128xbf16, #tpu.memory_space<any>> -> memref<600064x8x2x128xbf16, #tpu.memory_space<any>>
          %c0_i32_71 = arith.constant 0 : i32
          %c0_i32_72 = arith.constant 0 : i32
          %c0_i32_73 = arith.constant 0 : i32
          %189 = tpu.memref_slice %188[%184, %c0_i32_71, %c0_i32_72, %c0_i32_73] <%176> : memref<600064x8x2x128xbf16, #tpu.memory_space<any>> -> memref<?x8x2x128xbf16, strided<[2048, 256, 128, 1], offset: ?>, #tpu.memory_space<any>>
          %190 = tpu.memref_slice %19[%c3_i32, %c1_i32_58] : memref<5x2x!tpu.dma_semaphore, #tpu.memory_space<semaphore_mem>> -> memref<1x1x!tpu.dma_semaphore, strided<[2, 1], offset: 7>, #tpu.memory_space<semaphore_mem>>
          %191 = tpu.memref_squeeze %190 : memref<1x1x!tpu.dma_semaphore, strided<[2, 1], offset: 7>, #tpu.memory_space<semaphore_mem>> -> memref<!tpu.dma_semaphore, strided<[], offset: 7>, #tpu.memory_space<semaphore_mem>>
          tpu.wait_dma2 semaphore(%191 : memref<!tpu.dma_semaphore, strided<[], offset: 7>, #tpu.memory_space<semaphore_mem>>) src(%187 : memref<?x8x2x128xbf16, strided<[2048, 256, 128, 1], offset: ?>, #tpu.memory_space<vmem>>) dst(%189 : memref<?x8x2x128xbf16, strided<[2048, 256, 128, 1], offset: ?>, #tpu.memory_space<any>>)
          %192 = arith.subi %arg24, %176 : i32
          %c0_i32_74 = arith.constant 0 : i32
          scf.yield %192, %c0_i32_74 : i32, i32
        }
      } else {
      }
    } else {
    }
    return
  }
}
