module @"RPA-bq_128-bkvp_8-p_128" attributes {stable_mosaic.version = 9 : i64} {
  func.func @main(%arg0: i32, %arg1: memref<4xi32, #tpu.memory_space<smem>>, %arg2: memref<1280xi32, #tpu.memory_space<smem>>, %arg3: memref<5xi32, #tpu.memory_space<smem>>, %arg4: memref<5xi32, #tpu.memory_space<smem>>, %arg5: memref<5xi32, #tpu.memory_space<smem>>, %arg6: memref<3xi32, #tpu.memory_space<smem>>, %arg7: memref<3xi32, #tpu.memory_space<smem>>, %arg8: memref<4xi32, #tpu.memory_space<smem>>, %arg9: memref<6xi32, #tpu.memory_space<smem>>, %arg10: memref<8x8192x2x2x128xbf16, #tpu.memory_space<any>>, %arg11: memref<8192x8x2x128xbf16, #tpu.memory_space<any>>, %arg12: memref<4688x128x8x2x128xbf16, #tpu.memory_space<any>>, %arg13: memref<1024x128xi32, #tpu.memory_space<any>>, %arg14: memref<8x8192x2x2x128xbf16, #tpu.memory_space<any>>, %arg15: memref<4688x128x8x2x128xbf16, #tpu.memory_space<any>>, %arg16: memref<2x1024x8x2x128xbf16, #tpu.memory_space<vmem>>, %arg17: memref<2x8x128x2x2x128xbf16, #tpu.memory_space<vmem>>, %arg18: memref<2x8x128x2x2x128xbf16, #tpu.memory_space<vmem>>, %arg19: memref<5x2x!tpu.dma_semaphore, #tpu.memory_space<semaphore_mem>>, %arg20: memref<8x512x128xf32, #tpu.memory_space<vmem>>, %arg21: memref<8x512x128xf32, #tpu.memory_space<vmem>>, %arg22: memref<8x512x128xf32, #tpu.memory_space<vmem>>) attributes {dimension_semantics = [#tpu.dimension_semantics<arbitrary>], iteration_bounds = array<i64: -9223372036854775808>, scalar_prefetch = 9 : i64, scratch_operands = 7 : i64, window_params = [{}, {}, {}, {}, {}, {}]} {
    %0 = tpu.iteration_bound 0 : i32
    %c0 = arith.constant 0 : index
    %1 = memref.load %arg6[%c0] : memref<3xi32, #tpu.memory_space<smem>>
    %c1 = arith.constant 1 : index
    %2 = memref.load %arg6[%c1] : memref<3xi32, #tpu.memory_space<smem>>
    %c2 = arith.constant 2 : index
    %3 = memref.load %arg6[%c2] : memref<3xi32, #tpu.memory_space<smem>>
    %4 = arith.index_cast %arg0 : i32 to index
    %5 = memref.load %arg3[%4] : memref<5xi32, #tpu.memory_space<smem>>
    %c1_i32 = arith.constant 1 : i32
    %6 = arith.addi %arg0, %c1_i32 : i32
    %7 = arith.index_cast %6 : i32 to index
    %8 = memref.load %arg3[%7] : memref<5xi32, #tpu.memory_space<smem>>
    %9 = arith.subi %8, %5 : i32
    %10 = arith.index_cast %arg0 : i32 to index
    %11 = memref.load %arg1[%10] : memref<4xi32, #tpu.memory_space<smem>>
    %c0_i32 = arith.constant 0 : i32
    %12 = arith.cmpi eq, %arg0, %c0_i32 : i32
    %13 = arith.extui %12 : i1 to i32
    %c0_i32_0 = arith.constant 0 : i32
    %14 = arith.cmpi ne, %13, %c0_i32_0 : i32
    scf.if %14 {
      %c0_6 = arith.constant 0 : index
      %32 = memref.load %arg3[%c0_6] : memref<5xi32, #tpu.memory_space<smem>>
      %c0_i32_7 = arith.constant 0 : i32
      %33 = arith.addi %32, %c0_i32_7 : i32
      %c1_8 = arith.constant 1 : index
      %34 = memref.load %arg3[%c1_8] : memref<5xi32, #tpu.memory_space<smem>>
      %35 = arith.subi %34, %33 : i32
      %c128_i32 = arith.constant 128 : i32
      %36 = arith.minsi %c128_i32, %35 : i32
      %c0_i32_9 = arith.constant 0 : i32
      %c1_i32_10 = arith.constant 1 : i32
      %c0_i32_11 = arith.constant 0 : i32
      %c0_i32_12 = arith.constant 0 : i32
      %c0_i32_13 = arith.constant 0 : i32
      %c0_i32_14 = arith.constant 0 : i32
      %c0_i32_15 = arith.constant 0 : i32
      %37 = tpu.memref_slice %arg10[%c0_i32_12, %33, %c0_i32_13, %c0_i32_14, %c0_i32_15] <%36> : memref<8x8192x2x2x128xbf16, #tpu.memory_space<any>> -> memref<8x?x2x2x128xbf16, strided<[4194304, 512, 256, 128, 1], offset: ?>, #tpu.memory_space<any>>
      %c0_i32_16 = arith.constant 0 : i32
      %c0_i32_17 = arith.constant 0 : i32
      %c0_i32_18 = arith.constant 0 : i32
      %c0_i32_19 = arith.constant 0 : i32
      %c0_i32_20 = arith.constant 0 : i32
      %38 = tpu.memref_slice %arg17[%c0_i32_9, %c0_i32_16, %c0_i32_17, %c0_i32_18, %c0_i32_19, %c0_i32_20] : memref<2x8x128x2x2x128xbf16, #tpu.memory_space<vmem>> -> memref<1x8x128x2x2x128xbf16, strided<[524288, 65536, 512, 256, 128, 1]>, #tpu.memory_space<vmem>>
      %39 = tpu.memref_squeeze %38 : memref<1x8x128x2x2x128xbf16, strided<[524288, 65536, 512, 256, 128, 1]>, #tpu.memory_space<vmem>> -> memref<8x128x2x2x128xbf16, strided<[65536, 512, 256, 128, 1]>, #tpu.memory_space<vmem>>
      %c0_i32_21 = arith.constant 0 : i32
      %c0_i32_22 = arith.constant 0 : i32
      %c0_i32_23 = arith.constant 0 : i32
      %c0_i32_24 = arith.constant 0 : i32
      %c0_i32_25 = arith.constant 0 : i32
      %40 = tpu.memref_slice %39[%c0_i32_21, %c0_i32_22, %c0_i32_23, %c0_i32_24, %c0_i32_25] <%36> : memref<8x128x2x2x128xbf16, strided<[65536, 512, 256, 128, 1]>, #tpu.memory_space<vmem>> -> memref<8x?x2x2x128xbf16, strided<[65536, 512, 256, 128, 1]>, #tpu.memory_space<vmem>>
      %41 = tpu.memref_slice %arg19[%c1_i32_10, %c0_i32_11] : memref<5x2x!tpu.dma_semaphore, #tpu.memory_space<semaphore_mem>> -> memref<1x1x!tpu.dma_semaphore, strided<[2, 1], offset: 2>, #tpu.memory_space<semaphore_mem>>
      %42 = tpu.memref_squeeze %41 : memref<1x1x!tpu.dma_semaphore, strided<[2, 1], offset: 2>, #tpu.memory_space<semaphore_mem>> -> memref<!tpu.dma_semaphore, strided<[], offset: 2>, #tpu.memory_space<semaphore_mem>>
      tpu.enqueue_dma source(%37 : memref<8x?x2x2x128xbf16, strided<[4194304, 512, 256, 128, 1], offset: ?>, #tpu.memory_space<any>>) target(%40 : memref<8x?x2x2x128xbf16, strided<[65536, 512, 256, 128, 1]>, #tpu.memory_space<vmem>>) target_semaphore(%42 : memref<!tpu.dma_semaphore, strided<[], offset: 2>, #tpu.memory_space<semaphore_mem>>)
      %c0_26 = arith.constant 0 : index
      %43 = memref.load %arg1[%c0_26] : memref<4xi32, #tpu.memory_space<smem>>
      %c0_27 = arith.constant 0 : index
      %44 = memref.load %arg3[%c0_27] : memref<5xi32, #tpu.memory_space<smem>>
      %c1_28 = arith.constant 1 : index
      %45 = memref.load %arg3[%c1_28] : memref<5xi32, #tpu.memory_space<smem>>
      %46 = arith.subi %45, %44 : i32
      %c0_i32_29 = arith.constant 0 : i32
      %47 = arith.subi %43, %c0_i32_29 : i32
      %48 = arith.subi %47, %46 : i32
      %c0_i32_30 = arith.constant 0 : i32
      %49 = arith.maxsi %48, %c0_i32_30 : i32
      %50 = arith.subi %47, %49 : i32
      %c128_i32_31 = arith.constant 128 : i32
      %51 = arith.addi %49, %c128_i32_31 : i32
      %c1_i32_32 = arith.constant 1 : i32
      %52 = arith.subi %51, %c1_i32_32 : i32
      %c128_i32_33 = arith.constant 128 : i32
      %53 = arith.divsi %52, %c128_i32_33 : i32
      %c0_i32_34 = arith.constant 0 : i32
      %54 = arith.cmpi sgt, %52, %c0_i32_34 : i32
      %55 = arith.extui %54 : i1 to i32
      %c0_i32_35 = arith.constant 0 : i32
      %56 = arith.cmpi slt, %52, %c0_i32_35 : i32
      %57 = arith.extui %56 : i1 to i32
      %58 = arith.subi %55, %57 : i32
      %c0_i32_36 = arith.constant 0 : i32
      %59 = arith.cmpi sgt, %c128_i32_33, %c0_i32_36 : i32
      %60 = arith.extui %59 : i1 to i32
      %c0_i32_37 = arith.constant 0 : i32
      %61 = arith.cmpi slt, %c128_i32_33, %c0_i32_37 : i32
      %62 = arith.extui %61 : i1 to i32
      %63 = arith.subi %60, %62 : i32
      %64 = arith.cmpi ne, %58, %63 : i32
      %65 = arith.remsi %52, %c128_i32_33 : i32
      %c0_i32_38 = arith.constant 0 : i32
      %66 = arith.cmpi ne, %65, %c0_i32_38 : i32
      %67 = arith.andi %64, %66 : i1
      %c1_i32_39 = arith.constant 1 : i32
      %68 = arith.subi %53, %c1_i32_39 : i32
      %69 = arith.select %67, %68, %53 : i32
      %c8_i32 = arith.constant 8 : i32
      %70 = arith.minsi %69, %c8_i32 : i32
      %c1024_i32 = arith.constant 1024 : i32
      %71 = arith.subi %c1024_i32, %49 : i32
      %c0_i32_40 = arith.constant 0 : i32
      %72 = arith.maxsi %71, %c0_i32_40 : i32
      %73 = arith.minsi %72, %50 : i32
      %c0_41 = arith.constant 0 : index
      %74 = memref.load %arg4[%c0_41] : memref<5xi32, #tpu.memory_space<smem>>
      %c128_i32_42 = arith.constant 128 : i32
      %75 = arith.addi %74, %c128_i32_42 : i32
      %c1_i32_43 = arith.constant 1 : i32
      %76 = arith.subi %75, %c1_i32_43 : i32
      %c128_i32_44 = arith.constant 128 : i32
      %77 = arith.divsi %76, %c128_i32_44 : i32
      %c0_i32_45 = arith.constant 0 : i32
      %78 = arith.cmpi sgt, %76, %c0_i32_45 : i32
      %79 = arith.extui %78 : i1 to i32
      %c0_i32_46 = arith.constant 0 : i32
      %80 = arith.cmpi slt, %76, %c0_i32_46 : i32
      %81 = arith.extui %80 : i1 to i32
      %82 = arith.subi %79, %81 : i32
      %c0_i32_47 = arith.constant 0 : i32
      %83 = arith.cmpi sgt, %c128_i32_44, %c0_i32_47 : i32
      %84 = arith.extui %83 : i1 to i32
      %c0_i32_48 = arith.constant 0 : i32
      %85 = arith.cmpi slt, %c128_i32_44, %c0_i32_48 : i32
      %86 = arith.extui %85 : i1 to i32
      %87 = arith.subi %84, %86 : i32
      %88 = arith.cmpi ne, %82, %87 : i32
      %89 = arith.remsi %76, %c128_i32_44 : i32
      %c0_i32_49 = arith.constant 0 : i32
      %90 = arith.cmpi ne, %89, %c0_i32_49 : i32
      %91 = arith.andi %88, %90 : i1
      %c1_i32_50 = arith.constant 1 : i32
      %92 = arith.subi %77, %c1_i32_50 : i32
      %93 = arith.select %91, %92, %77 : i32
      %c0_i32_51 = arith.constant 0 : i32
      %94 = arith.addi %93, %c0_i32_51 : i32
      %c4 = arith.constant 4 : index
      %95 = memref.load %arg9[%c4] : memref<6xi32, #tpu.memory_space<smem>>
      %c0_i32_52 = arith.constant 0 : i32
      %96 = arith.cmpi sgt, %95, %c0_i32_52 : i32
      %97 = arith.extui %96 : i1 to i32
      %c0_i32_53 = arith.constant 0 : i32
      %98 = arith.cmpi ne, %97, %c0_i32_53 : i32
      scf.if %98 {
        %c0_66 = arith.constant 0 : index
        %106 = memref.load %arg9[%c0_66] : memref<6xi32, #tpu.memory_space<smem>>
        %c2_67 = arith.constant 2 : index
        %107 = memref.load %arg9[%c2_67] : memref<6xi32, #tpu.memory_space<smem>>
        %c0_i32_68 = arith.constant 0 : i32
        %c4_69 = arith.constant 4 : index
        %108 = memref.load %arg9[%c4_69] : memref<6xi32, #tpu.memory_space<smem>>
        memref.store %c0_i32_68, %arg9[%c4_69] : memref<6xi32, #tpu.memory_space<smem>>
        %c1024_i32_70 = arith.constant 1024 : i32
        %109 = arith.divsi %107, %c1024_i32_70 : i32
        %c0_i32_71 = arith.constant 0 : i32
        %110 = arith.cmpi sgt, %107, %c0_i32_71 : i32
        %111 = arith.extui %110 : i1 to i32
        %c0_i32_72 = arith.constant 0 : i32
        %112 = arith.cmpi slt, %107, %c0_i32_72 : i32
        %113 = arith.extui %112 : i1 to i32
        %114 = arith.subi %111, %113 : i32
        %c0_i32_73 = arith.constant 0 : i32
        %115 = arith.cmpi sgt, %c1024_i32_70, %c0_i32_73 : i32
        %116 = arith.extui %115 : i1 to i32
        %c0_i32_74 = arith.constant 0 : i32
        %117 = arith.cmpi slt, %c1024_i32_70, %c0_i32_74 : i32
        %118 = arith.extui %117 : i1 to i32
        %119 = arith.subi %116, %118 : i32
        %120 = arith.cmpi ne, %114, %119 : i32
        %121 = arith.remsi %107, %c1024_i32_70 : i32
        %c0_i32_75 = arith.constant 0 : i32
        %122 = arith.cmpi ne, %121, %c0_i32_75 : i32
        %123 = arith.andi %120, %122 : i1
        %c1_i32_76 = arith.constant 1 : i32
        %124 = arith.subi %109, %c1_i32_76 : i32
        %125 = arith.select %123, %124, %109 : i32
        %c128_i32_77 = arith.constant 128 : i32
        %126 = arith.divsi %107, %c128_i32_77 : i32
        %c0_i32_78 = arith.constant 0 : i32
        %127 = arith.cmpi sgt, %107, %c0_i32_78 : i32
        %128 = arith.extui %127 : i1 to i32
        %c0_i32_79 = arith.constant 0 : i32
        %129 = arith.cmpi slt, %107, %c0_i32_79 : i32
        %130 = arith.extui %129 : i1 to i32
        %131 = arith.subi %128, %130 : i32
        %c0_i32_80 = arith.constant 0 : i32
        %132 = arith.cmpi sgt, %c128_i32_77, %c0_i32_80 : i32
        %133 = arith.extui %132 : i1 to i32
        %c0_i32_81 = arith.constant 0 : i32
        %134 = arith.cmpi slt, %c128_i32_77, %c0_i32_81 : i32
        %135 = arith.extui %134 : i1 to i32
        %136 = arith.subi %133, %135 : i32
        %137 = arith.cmpi ne, %131, %136 : i32
        %138 = arith.remsi %107, %c128_i32_77 : i32
        %c0_i32_82 = arith.constant 0 : i32
        %139 = arith.cmpi ne, %138, %c0_i32_82 : i32
        %140 = arith.andi %137, %139 : i1
        %c1_i32_83 = arith.constant 1 : i32
        %141 = arith.subi %126, %c1_i32_83 : i32
        %142 = arith.select %140, %141, %126 : i32
        %143 = arith.addi %107, %95 : i32
        %c128_i32_84 = arith.constant 128 : i32
        %144 = arith.addi %143, %c128_i32_84 : i32
        %c1_i32_85 = arith.constant 1 : i32
        %145 = arith.subi %144, %c1_i32_85 : i32
        %c128_i32_86 = arith.constant 128 : i32
        %146 = arith.divsi %145, %c128_i32_86 : i32
        %c0_i32_87 = arith.constant 0 : i32
        %147 = arith.cmpi sgt, %145, %c0_i32_87 : i32
        %148 = arith.extui %147 : i1 to i32
        %c0_i32_88 = arith.constant 0 : i32
        %149 = arith.cmpi slt, %145, %c0_i32_88 : i32
        %150 = arith.extui %149 : i1 to i32
        %151 = arith.subi %148, %150 : i32
        %c0_i32_89 = arith.constant 0 : i32
        %152 = arith.cmpi sgt, %c128_i32_86, %c0_i32_89 : i32
        %153 = arith.extui %152 : i1 to i32
        %c0_i32_90 = arith.constant 0 : i32
        %154 = arith.cmpi slt, %c128_i32_86, %c0_i32_90 : i32
        %155 = arith.extui %154 : i1 to i32
        %156 = arith.subi %153, %155 : i32
        %157 = arith.cmpi ne, %151, %156 : i32
        %158 = arith.remsi %145, %c128_i32_86 : i32
        %c0_i32_91 = arith.constant 0 : i32
        %159 = arith.cmpi ne, %158, %c0_i32_91 : i32
        %160 = arith.andi %157, %159 : i1
        %c1_i32_92 = arith.constant 1 : i32
        %161 = arith.subi %146, %c1_i32_92 : i32
        %162 = arith.select %160, %161, %146 : i32
        %c128_i32_93 = arith.constant 128 : i32
        %c0_i32_94 = arith.constant 0 : i32
        %163 = arith.cmpi eq, %c128_i32_93, %c0_i32_94 : i32
        %c1_i32_95 = arith.constant 1 : i32
        %164 = arith.select %163, %c1_i32_95, %c128_i32_93 : i32
        %165 = arith.remsi %107, %164 : i32
        %c0_i32_96 = arith.constant 0 : i32
        %166 = arith.cmpi ne, %165, %c0_i32_96 : i32
        %c0_i32_97 = arith.constant 0 : i32
        %167 = arith.cmpi slt, %165, %c0_i32_97 : i32
        %c0_i32_98 = arith.constant 0 : i32
        %168 = arith.cmpi slt, %164, %c0_i32_98 : i32
        %169 = arith.xori %167, %168 : i1
        %170 = arith.andi %169, %166 : i1
        %171 = arith.addi %165, %164 : i32
        %172 = arith.select %170, %171, %165 : i32
        %c8_i32_99 = arith.constant 8 : i32
        %173 = arith.muli %125, %c8_i32_99 : i32
        %174 = arith.subi %142, %173 : i32
        %175 = arith.index_cast %106 : i32 to index
        %176 = memref.load %arg4[%175] : memref<5xi32, #tpu.memory_space<smem>>
        %c128_i32_100 = arith.constant 128 : i32
        %177 = arith.addi %176, %c128_i32_100 : i32
        %c1_i32_101 = arith.constant 1 : i32
        %178 = arith.subi %177, %c1_i32_101 : i32
        %c128_i32_102 = arith.constant 128 : i32
        %179 = arith.divsi %178, %c128_i32_102 : i32
        %c0_i32_103 = arith.constant 0 : i32
        %180 = arith.cmpi sgt, %178, %c0_i32_103 : i32
        %181 = arith.extui %180 : i1 to i32
        %c0_i32_104 = arith.constant 0 : i32
        %182 = arith.cmpi slt, %178, %c0_i32_104 : i32
        %183 = arith.extui %182 : i1 to i32
        %184 = arith.subi %181, %183 : i32
        %c0_i32_105 = arith.constant 0 : i32
        %185 = arith.cmpi sgt, %c128_i32_102, %c0_i32_105 : i32
        %186 = arith.extui %185 : i1 to i32
        %c0_i32_106 = arith.constant 0 : i32
        %187 = arith.cmpi slt, %c128_i32_102, %c0_i32_106 : i32
        %188 = arith.extui %187 : i1 to i32
        %189 = arith.subi %186, %188 : i32
        %190 = arith.cmpi ne, %184, %189 : i32
        %191 = arith.remsi %178, %c128_i32_102 : i32
        %c0_i32_107 = arith.constant 0 : i32
        %192 = arith.cmpi ne, %191, %c0_i32_107 : i32
        %193 = arith.andi %190, %192 : i1
        %c1_i32_108 = arith.constant 1 : i32
        %194 = arith.subi %179, %c1_i32_108 : i32
        %195 = arith.select %193, %194, %179 : i32
        %196 = arith.addi %195, %142 : i32
        %197 = arith.subi %162, %142 : i32
        %c0_i32_109 = arith.constant 0 : i32
        %c3_i32 = arith.constant 3 : i32
        %c0_i32_110 = arith.constant 0 : i32
        %c0_i32_111 = arith.constant 0 : i32
        %198 = arith.subi %197, %c0_i32_111 : i32
        %199 = arith.addi %c0_i32_111, %198 : i32
        %c1_i32_112 = arith.constant 1 : i32
        %200:2 = scf.for %arg23 = %c0_i32_111 to %199 step %c1_i32_112 iter_args(%arg24 = %95, %arg25 = %172) -> (i32, i32)  : i32 {
          %c128_i32_113 = arith.constant 128 : i32
          %201 = arith.subi %c128_i32_113, %arg25 : i32
          %202 = arith.minsi %201, %arg24 : i32
          %203 = arith.addi %174, %arg23 : i32
          %c128_i32_114 = arith.constant 128 : i32
          %204 = arith.muli %203, %c128_i32_114 : i32
          %205 = arith.addi %204, %arg25 : i32
          %206 = arith.addi %196, %arg23 : i32
          %207 = arith.index_cast %206 : i32 to index
          %208 = memref.load %arg2[%207] : memref<1280xi32, #tpu.memory_space<smem>>
          %c128_i32_115 = arith.constant 128 : i32
          %209 = arith.muli %208, %c128_i32_115 : i32
          %210 = arith.addi %209, %arg25 : i32
          %c0_i32_116 = arith.constant 0 : i32
          %c0_i32_117 = arith.constant 0 : i32
          %c0_i32_118 = arith.constant 0 : i32
          %c0_i32_119 = arith.constant 0 : i32
          %211 = tpu.memref_slice %arg16[%c0_i32_109, %c0_i32_116, %c0_i32_117, %c0_i32_118, %c0_i32_119] : memref<2x1024x8x2x128xbf16, #tpu.memory_space<vmem>> -> memref<1x1024x8x2x128xbf16, strided<[2097152, 2048, 256, 128, 1]>, #tpu.memory_space<vmem>>
          %212 = tpu.memref_squeeze %211 : memref<1x1024x8x2x128xbf16, strided<[2097152, 2048, 256, 128, 1]>, #tpu.memory_space<vmem>> -> memref<1024x8x2x128xbf16, strided<[2048, 256, 128, 1]>, #tpu.memory_space<vmem>>
          %c0_i32_120 = arith.constant 0 : i32
          %c0_i32_121 = arith.constant 0 : i32
          %c0_i32_122 = arith.constant 0 : i32
          %213 = tpu.memref_slice %212[%205, %c0_i32_120, %c0_i32_121, %c0_i32_122] <%202> : memref<1024x8x2x128xbf16, strided<[2048, 256, 128, 1]>, #tpu.memory_space<vmem>> -> memref<?x8x2x128xbf16, strided<[2048, 256, 128, 1], offset: ?>, #tpu.memory_space<vmem>>
          %214 = tpu.memref_reshape %arg15 : memref<4688x128x8x2x128xbf16, #tpu.memory_space<any>> -> memref<600064x8x2x128xbf16, #tpu.memory_space<any>>
          %c0_i32_123 = arith.constant 0 : i32
          %c0_i32_124 = arith.constant 0 : i32
          %c0_i32_125 = arith.constant 0 : i32
          %215 = tpu.memref_slice %214[%210, %c0_i32_123, %c0_i32_124, %c0_i32_125] <%202> : memref<600064x8x2x128xbf16, #tpu.memory_space<any>> -> memref<?x8x2x128xbf16, strided<[2048, 256, 128, 1], offset: ?>, #tpu.memory_space<any>>
          %216 = tpu.memref_slice %arg19[%c3_i32, %c0_i32_110] : memref<5x2x!tpu.dma_semaphore, #tpu.memory_space<semaphore_mem>> -> memref<1x1x!tpu.dma_semaphore, strided<[2, 1], offset: 6>, #tpu.memory_space<semaphore_mem>>
          %217 = tpu.memref_squeeze %216 : memref<1x1x!tpu.dma_semaphore, strided<[2, 1], offset: 6>, #tpu.memory_space<semaphore_mem>> -> memref<!tpu.dma_semaphore, strided<[], offset: 6>, #tpu.memory_space<semaphore_mem>>
          tpu.wait_dma2 semaphore(%217 : memref<!tpu.dma_semaphore, strided<[], offset: 6>, #tpu.memory_space<semaphore_mem>>) src(%213 : memref<?x8x2x128xbf16, strided<[2048, 256, 128, 1], offset: ?>, #tpu.memory_space<vmem>>) dst(%215 : memref<?x8x2x128xbf16, strided<[2048, 256, 128, 1], offset: ?>, #tpu.memory_space<any>>)
          %218 = arith.subi %arg24, %202 : i32
          %c0_i32_126 = arith.constant 0 : i32
          scf.yield %218, %c0_i32_126 : i32, i32
        }
      } else {
      }
      %c0_i32_54 = arith.constant 0 : i32
      %c0_i32_55 = arith.constant 0 : i32
      %c0_i32_56 = arith.constant 0 : i32
      %c0_i32_57 = arith.constant 0 : i32
      %c0_i32_58 = arith.constant 0 : i32
      %99 = arith.subi %70, %c0_i32_57 : i32
      %100 = arith.addi %c0_i32_57, %99 : i32
      %c1_i32_59 = arith.constant 1 : i32
      %101 = scf.for %arg23 = %c0_i32_57 to %100 step %c1_i32_59 iter_args(%arg24 = %c0_i32_58) -> (i32)  : i32 {
        %c128_i32_66 = arith.constant 128 : i32
        %106 = arith.muli %arg23, %c128_i32_66 : i32
        %107 = arith.subi %49, %106 : i32
        %c128_i32_67 = arith.constant 128 : i32
        %108 = arith.minsi %c128_i32_67, %107 : i32
        %109 = arith.addi %94, %arg23 : i32
        %110 = arith.index_cast %109 : i32 to index
        %111 = memref.load %arg2[%110] : memref<1280xi32, #tpu.memory_space<smem>>
        %c128_i32_68 = arith.constant 128 : i32
        %112 = arith.muli %111, %c128_i32_68 : i32
        %c128_i32_69 = arith.constant 128 : i32
        %113 = arith.muli %arg23, %c128_i32_69 : i32
        %114 = tpu.memref_reshape %arg12 : memref<4688x128x8x2x128xbf16, #tpu.memory_space<any>> -> memref<600064x8x2x128xbf16, #tpu.memory_space<any>>
        %c0_i32_70 = arith.constant 0 : i32
        %c0_i32_71 = arith.constant 0 : i32
        %c0_i32_72 = arith.constant 0 : i32
        %115 = tpu.memref_slice %114[%112, %c0_i32_70, %c0_i32_71, %c0_i32_72] <%108> : memref<600064x8x2x128xbf16, #tpu.memory_space<any>> -> memref<?x8x2x128xbf16, strided<[2048, 256, 128, 1], offset: ?>, #tpu.memory_space<any>>
        %c0_i32_73 = arith.constant 0 : i32
        %c0_i32_74 = arith.constant 0 : i32
        %c0_i32_75 = arith.constant 0 : i32
        %c0_i32_76 = arith.constant 0 : i32
        %116 = tpu.memref_slice %arg16[%c0_i32_54, %c0_i32_73, %c0_i32_74, %c0_i32_75, %c0_i32_76] : memref<2x1024x8x2x128xbf16, #tpu.memory_space<vmem>> -> memref<1x1024x8x2x128xbf16, strided<[2097152, 2048, 256, 128, 1]>, #tpu.memory_space<vmem>>
        %117 = tpu.memref_squeeze %116 : memref<1x1024x8x2x128xbf16, strided<[2097152, 2048, 256, 128, 1]>, #tpu.memory_space<vmem>> -> memref<1024x8x2x128xbf16, strided<[2048, 256, 128, 1]>, #tpu.memory_space<vmem>>
        %c0_i32_77 = arith.constant 0 : i32
        %c0_i32_78 = arith.constant 0 : i32
        %c0_i32_79 = arith.constant 0 : i32
        %118 = tpu.memref_slice %117[%113, %c0_i32_77, %c0_i32_78, %c0_i32_79] <%108> : memref<1024x8x2x128xbf16, strided<[2048, 256, 128, 1]>, #tpu.memory_space<vmem>> -> memref<?x8x2x128xbf16, strided<[2048, 256, 128, 1], offset: ?>, #tpu.memory_space<vmem>>
        %119 = tpu.memref_slice %arg19[%c0_i32_55, %c0_i32_56] : memref<5x2x!tpu.dma_semaphore, #tpu.memory_space<semaphore_mem>> -> memref<1x1x!tpu.dma_semaphore, strided<[2, 1]>, #tpu.memory_space<semaphore_mem>>
        %120 = tpu.memref_squeeze %119 : memref<1x1x!tpu.dma_semaphore, strided<[2, 1]>, #tpu.memory_space<semaphore_mem>> -> memref<!tpu.dma_semaphore, strided<[]>, #tpu.memory_space<semaphore_mem>>
        tpu.enqueue_dma source(%115 : memref<?x8x2x128xbf16, strided<[2048, 256, 128, 1], offset: ?>, #tpu.memory_space<any>>) target(%118 : memref<?x8x2x128xbf16, strided<[2048, 256, 128, 1], offset: ?>, #tpu.memory_space<vmem>>) target_semaphore(%120 : memref<!tpu.dma_semaphore, strided<[]>, #tpu.memory_space<semaphore_mem>>)
        %121 = arith.addi %arg24, %108 : i32
        scf.yield %121 : i32
      }
      %c0_i32_60 = arith.constant 0 : i32
      %102 = arith.cmpi sgt, %73, %c0_i32_60 : i32
      %103 = arith.extui %102 : i1 to i32
      %c0_i32_61 = arith.constant 0 : i32
      %c0_i32_62 = arith.constant 0 : i32
      %c0_i32_63 = arith.constant 0 : i32
      %c0_i32_64 = arith.constant 0 : i32
      %104 = arith.cmpi ne, %103, %c0_i32_64 : i32
      scf.if %104 {
        %106 = arith.subi %45, %50 : i32
        %c0_i32_66 = arith.constant 0 : i32
        %c0_i32_67 = arith.constant 0 : i32
        %c0_i32_68 = arith.constant 0 : i32
        %107 = tpu.memref_slice %arg11[%106, %c0_i32_66, %c0_i32_67, %c0_i32_68] <%73> : memref<8192x8x2x128xbf16, #tpu.memory_space<any>> -> memref<?x8x2x128xbf16, strided<[2048, 256, 128, 1], offset: ?>, #tpu.memory_space<any>>
        %c0_i32_69 = arith.constant 0 : i32
        %c0_i32_70 = arith.constant 0 : i32
        %c0_i32_71 = arith.constant 0 : i32
        %c0_i32_72 = arith.constant 0 : i32
        %108 = tpu.memref_slice %arg16[%c0_i32_61, %c0_i32_69, %c0_i32_70, %c0_i32_71, %c0_i32_72] : memref<2x1024x8x2x128xbf16, #tpu.memory_space<vmem>> -> memref<1x1024x8x2x128xbf16, strided<[2097152, 2048, 256, 128, 1]>, #tpu.memory_space<vmem>>
        %109 = tpu.memref_squeeze %108 : memref<1x1024x8x2x128xbf16, strided<[2097152, 2048, 256, 128, 1]>, #tpu.memory_space<vmem>> -> memref<1024x8x2x128xbf16, strided<[2048, 256, 128, 1]>, #tpu.memory_space<vmem>>
        %c0_i32_73 = arith.constant 0 : i32
        %c0_i32_74 = arith.constant 0 : i32
        %c0_i32_75 = arith.constant 0 : i32
        %110 = tpu.memref_slice %109[%101, %c0_i32_73, %c0_i32_74, %c0_i32_75] <%73> : memref<1024x8x2x128xbf16, strided<[2048, 256, 128, 1]>, #tpu.memory_space<vmem>> -> memref<?x8x2x128xbf16, strided<[2048, 256, 128, 1], offset: ?>, #tpu.memory_space<vmem>>
        %111 = tpu.memref_slice %arg19[%c0_i32_62, %c0_i32_63] : memref<5x2x!tpu.dma_semaphore, #tpu.memory_space<semaphore_mem>> -> memref<1x1x!tpu.dma_semaphore, strided<[2, 1]>, #tpu.memory_space<semaphore_mem>>
        %112 = tpu.memref_squeeze %111 : memref<1x1x!tpu.dma_semaphore, strided<[2, 1]>, #tpu.memory_space<semaphore_mem>> -> memref<!tpu.dma_semaphore, strided<[]>, #tpu.memory_space<semaphore_mem>>
        tpu.enqueue_dma source(%107 : memref<?x8x2x128xbf16, strided<[2048, 256, 128, 1], offset: ?>, #tpu.memory_space<any>>) target(%110 : memref<?x8x2x128xbf16, strided<[2048, 256, 128, 1], offset: ?>, #tpu.memory_space<vmem>>) target_semaphore(%112 : memref<!tpu.dma_semaphore, strided<[]>, #tpu.memory_space<semaphore_mem>>)
      } else {
      }
      %c0_i32_65 = arith.constant 0 : i32
      %105 = arith.addi %c0_i32_65, %101 : i32
    } else {
    }
    %15 = arith.cmpi slt, %arg0, %1 : i32
    %16 = arith.extui %15 : i1 to i32
    %c0_i32_1 = arith.constant 0 : i32
    %17 = arith.cmpi ne, %16, %c0_i32_1 : i32
    scf.if %17 {
      %c1024_i32 = arith.constant 1024 : i32
      %32 = arith.addi %11, %c1024_i32 : i32
      %c1_i32_6 = arith.constant 1 : i32
      %33 = arith.subi %32, %c1_i32_6 : i32
      %c1024_i32_7 = arith.constant 1024 : i32
      %34 = arith.divsi %33, %c1024_i32_7 : i32
      %c0_i32_8 = arith.constant 0 : i32
      %35 = arith.cmpi sgt, %33, %c0_i32_8 : i32
      %36 = arith.extui %35 : i1 to i32
      %c0_i32_9 = arith.constant 0 : i32
      %37 = arith.cmpi slt, %33, %c0_i32_9 : i32
      %38 = arith.extui %37 : i1 to i32
      %39 = arith.subi %36, %38 : i32
      %c0_i32_10 = arith.constant 0 : i32
      %40 = arith.cmpi sgt, %c1024_i32_7, %c0_i32_10 : i32
      %41 = arith.extui %40 : i1 to i32
      %c0_i32_11 = arith.constant 0 : i32
      %42 = arith.cmpi slt, %c1024_i32_7, %c0_i32_11 : i32
      %43 = arith.extui %42 : i1 to i32
      %44 = arith.subi %41, %43 : i32
      %45 = arith.cmpi ne, %39, %44 : i32
      %46 = arith.remsi %33, %c1024_i32_7 : i32
      %c0_i32_12 = arith.constant 0 : i32
      %47 = arith.cmpi ne, %46, %c0_i32_12 : i32
      %48 = arith.andi %45, %47 : i1
      %c1_i32_13 = arith.constant 1 : i32
      %49 = arith.subi %34, %c1_i32_13 : i32
      %50 = arith.select %48, %49, %34 : i32
      %c0_i32_14 = arith.constant 0 : i32
      %c0_15 = arith.constant 0 : index
      %51 = memref.load %arg7[%c0_15] : memref<3xi32, #tpu.memory_space<smem>>
      %c1_i32_16 = arith.constant 1 : i32
      %52 = arith.addi %c0_i32_14, %c1_i32_16 : i32
      %c1_i32_17 = arith.constant 1 : i32
      %53 = arith.cmpi eq, %52, %c1_i32_17 : i32
      %c0_i32_18 = arith.constant 0 : i32
      %54 = arith.select %53, %c0_i32_18, %52 : i32
      %c1_i32_19 = arith.constant 1 : i32
      %55 = arith.addi %arg0, %c1_i32_19 : i32
      %56 = arith.select %53, %55, %arg0 : i32
      %c0_i32_20 = arith.constant 0 : i32
      %57 = arith.cmpi eq, %51, %c0_i32_20 : i32
      %c0_i32_21 = arith.constant 0 : i32
      %c1_i32_22 = arith.constant 1 : i32
      %58 = arith.select %57, %c1_i32_22, %c0_i32_21 : i32
      %59 = arith.cmpi slt, %56, %0 : i32
      %60 = arith.extui %59 : i1 to i32
      %c0_i32_23 = arith.constant 0 : i32
      %61 = arith.cmpi ne, %60, %c0_i32_23 : i32
      scf.if %61 {
        %c0_66 = arith.constant 0 : index
        %109 = memref.load %arg7[%c0_66] : memref<3xi32, #tpu.memory_space<smem>>
        memref.store %58, %arg7[%c0_66] : memref<3xi32, #tpu.memory_space<smem>>
        %110 = arith.index_cast %56 : i32 to index
        %111 = memref.load %arg3[%110] : memref<5xi32, #tpu.memory_space<smem>>
        %c128_i32_67 = arith.constant 128 : i32
        %112 = arith.muli %54, %c128_i32_67 : i32
        %113 = arith.addi %111, %112 : i32
        %c1_i32_68 = arith.constant 1 : i32
        %114 = arith.addi %56, %c1_i32_68 : i32
        %115 = arith.index_cast %114 : i32 to index
        %116 = memref.load %arg3[%115] : memref<5xi32, #tpu.memory_space<smem>>
        %117 = arith.subi %116, %113 : i32
        %c128_i32_69 = arith.constant 128 : i32
        %118 = arith.minsi %c128_i32_69, %117 : i32
        %c1_i32_70 = arith.constant 1 : i32
        %c0_i32_71 = arith.constant 0 : i32
        %c0_i32_72 = arith.constant 0 : i32
        %c0_i32_73 = arith.constant 0 : i32
        %c0_i32_74 = arith.constant 0 : i32
        %119 = tpu.memref_slice %arg10[%c0_i32_71, %113, %c0_i32_72, %c0_i32_73, %c0_i32_74] <%118> : memref<8x8192x2x2x128xbf16, #tpu.memory_space<any>> -> memref<8x?x2x2x128xbf16, strided<[4194304, 512, 256, 128, 1], offset: ?>, #tpu.memory_space<any>>
        %c0_i32_75 = arith.constant 0 : i32
        %c0_i32_76 = arith.constant 0 : i32
        %c0_i32_77 = arith.constant 0 : i32
        %c0_i32_78 = arith.constant 0 : i32
        %c0_i32_79 = arith.constant 0 : i32
        %120 = tpu.memref_slice %arg17[%58, %c0_i32_75, %c0_i32_76, %c0_i32_77, %c0_i32_78, %c0_i32_79] : memref<2x8x128x2x2x128xbf16, #tpu.memory_space<vmem>> -> memref<1x8x128x2x2x128xbf16, strided<[524288, 65536, 512, 256, 128, 1], offset: ?>, #tpu.memory_space<vmem>>
        %121 = tpu.memref_squeeze %120 : memref<1x8x128x2x2x128xbf16, strided<[524288, 65536, 512, 256, 128, 1], offset: ?>, #tpu.memory_space<vmem>> -> memref<8x128x2x2x128xbf16, strided<[65536, 512, 256, 128, 1], offset: ?>, #tpu.memory_space<vmem>>
        %c0_i32_80 = arith.constant 0 : i32
        %c0_i32_81 = arith.constant 0 : i32
        %c0_i32_82 = arith.constant 0 : i32
        %c0_i32_83 = arith.constant 0 : i32
        %c0_i32_84 = arith.constant 0 : i32
        %122 = tpu.memref_slice %121[%c0_i32_80, %c0_i32_81, %c0_i32_82, %c0_i32_83, %c0_i32_84] <%118> : memref<8x128x2x2x128xbf16, strided<[65536, 512, 256, 128, 1], offset: ?>, #tpu.memory_space<vmem>> -> memref<8x?x2x2x128xbf16, strided<[65536, 512, 256, 128, 1], offset: ?>, #tpu.memory_space<vmem>>
        %123 = tpu.memref_slice %arg19[%c1_i32_70, %58] : memref<5x2x!tpu.dma_semaphore, #tpu.memory_space<semaphore_mem>> -> memref<1x1x!tpu.dma_semaphore, strided<[2, 1], offset: ?>, #tpu.memory_space<semaphore_mem>>
        %124 = tpu.memref_squeeze %123 : memref<1x1x!tpu.dma_semaphore, strided<[2, 1], offset: ?>, #tpu.memory_space<semaphore_mem>> -> memref<!tpu.dma_semaphore, strided<[], offset: ?>, #tpu.memory_space<semaphore_mem>>
        tpu.enqueue_dma source(%119 : memref<8x?x2x2x128xbf16, strided<[4194304, 512, 256, 128, 1], offset: ?>, #tpu.memory_space<any>>) target(%122 : memref<8x?x2x2x128xbf16, strided<[65536, 512, 256, 128, 1], offset: ?>, #tpu.memory_space<vmem>>) target_semaphore(%124 : memref<!tpu.dma_semaphore, strided<[], offset: ?>, #tpu.memory_space<semaphore_mem>>)
      } else {
      }
      %c0_i32_24 = arith.constant 0 : i32
      %62 = arith.subi %50, %c0_i32_24 : i32
      %63 = arith.addi %c0_i32_24, %62 : i32
      %c1_i32_25 = arith.constant 1 : i32
      scf.for %arg23 = %c0_i32_24 to %63 step %c1_i32_25  : i32 {
        %c1024_i32_66 = arith.constant 1024 : i32
        %109 = arith.muli %arg23, %c1024_i32_66 : i32
        %110 = arith.subi %11, %109 : i32
        %c1024_i32_67 = arith.constant 1024 : i32
        %111 = arith.minsi %c1024_i32_67, %110 : i32
        %112 = tpu.iota {dimensions = array<i32: 0>} : vector<1024x128xi32>
        %113 = vector.broadcast %111 : i32 to vector<1024x128xi32>
        %114 = arith.cmpi slt, %112, %113 : vector<1024x128xi32>
        %c-1_i32 = arith.constant -1 : i32
        %115 = vector.broadcast %c-1_i32 : i32 to vector<1024x128xi32>
        %c0_i32_68 = arith.constant 0 : i32
        %116 = vector.broadcast %c0_i32_68 : i32 to vector<1024x128xi32>
        %117 = arith.select %114, %115, %116 : vector<1024x128xi1>, vector<1024x128xi32>
        %118 = arith.trunci %117 : vector<1024x128xi32> to vector<1024x128xi16>
        %119 = tpu.bitcast %118 : vector<1024x128xi16> -> vector<512x128xi32>
        %c1_69 = arith.constant 1 : index
        %120 = memref.load %arg7[%c1_69] : memref<3xi32, #tpu.memory_space<smem>>
        %c1_i32_70 = arith.constant 1 : i32
        %121 = arith.addi %arg23, %c1_i32_70 : i32
        %122 = arith.cmpi eq, %121, %50 : i32
        %c0_i32_71 = arith.constant 0 : i32
        %123 = arith.select %122, %c0_i32_71, %121 : i32
        %c1_i32_72 = arith.constant 1 : i32
        %124 = arith.addi %c0_i32_14, %c1_i32_72 : i32
        %125 = arith.select %122, %124, %c0_i32_14 : i32
        %c1_i32_73 = arith.constant 1 : i32
        %126 = arith.cmpi eq, %125, %c1_i32_73 : i32
        %c0_i32_74 = arith.constant 0 : i32
        %127 = arith.select %126, %c0_i32_74, %125 : i32
        %c1_i32_75 = arith.constant 1 : i32
        %128 = arith.addi %arg0, %c1_i32_75 : i32
        %129 = arith.select %126, %128, %arg0 : i32
        %c0_i32_76 = arith.constant 0 : i32
        %130 = arith.cmpi eq, %120, %c0_i32_76 : i32
        %c0_i32_77 = arith.constant 0 : i32
        %c1_i32_78 = arith.constant 1 : i32
        %131 = arith.select %130, %c1_i32_78, %c0_i32_77 : i32
        %132 = arith.cmpi slt, %129, %0 : i32
        %133 = arith.extui %132 : i1 to i32
        %c0_i32_79 = arith.constant 0 : i32
        %134 = arith.cmpi ne, %133, %c0_i32_79 : i32
        scf.if %134 {
          %c1_456 = arith.constant 1 : index
          %839 = memref.load %arg7[%c1_456] : memref<3xi32, #tpu.memory_space<smem>>
          memref.store %131, %arg7[%c1_456] : memref<3xi32, #tpu.memory_space<smem>>
          %840 = arith.index_cast %129 : i32 to index
          %841 = memref.load %arg1[%840] : memref<4xi32, #tpu.memory_space<smem>>
          %c1024_i32_457 = arith.constant 1024 : i32
          %842 = arith.muli %123, %c1024_i32_457 : i32
          %c8_i32_458 = arith.constant 8 : i32
          %843 = arith.muli %123, %c8_i32_458 : i32
          %844 = arith.index_cast %129 : i32 to index
          %845 = memref.load %arg3[%844] : memref<5xi32, #tpu.memory_space<smem>>
          %c1_i32_459 = arith.constant 1 : i32
          %846 = arith.addi %129, %c1_i32_459 : i32
          %847 = arith.index_cast %846 : i32 to index
          %848 = memref.load %arg3[%847] : memref<5xi32, #tpu.memory_space<smem>>
          %849 = arith.subi %848, %845 : i32
          %850 = arith.subi %841, %842 : i32
          %851 = arith.subi %850, %849 : i32
          %c0_i32_460 = arith.constant 0 : i32
          %852 = arith.maxsi %851, %c0_i32_460 : i32
          %853 = arith.subi %850, %852 : i32
          %c128_i32_461 = arith.constant 128 : i32
          %854 = arith.addi %852, %c128_i32_461 : i32
          %c1_i32_462 = arith.constant 1 : i32
          %855 = arith.subi %854, %c1_i32_462 : i32
          %c128_i32_463 = arith.constant 128 : i32
          %856 = arith.divsi %855, %c128_i32_463 : i32
          %c0_i32_464 = arith.constant 0 : i32
          %857 = arith.cmpi sgt, %855, %c0_i32_464 : i32
          %858 = arith.extui %857 : i1 to i32
          %c0_i32_465 = arith.constant 0 : i32
          %859 = arith.cmpi slt, %855, %c0_i32_465 : i32
          %860 = arith.extui %859 : i1 to i32
          %861 = arith.subi %858, %860 : i32
          %c0_i32_466 = arith.constant 0 : i32
          %862 = arith.cmpi sgt, %c128_i32_463, %c0_i32_466 : i32
          %863 = arith.extui %862 : i1 to i32
          %c0_i32_467 = arith.constant 0 : i32
          %864 = arith.cmpi slt, %c128_i32_463, %c0_i32_467 : i32
          %865 = arith.extui %864 : i1 to i32
          %866 = arith.subi %863, %865 : i32
          %867 = arith.cmpi ne, %861, %866 : i32
          %868 = arith.remsi %855, %c128_i32_463 : i32
          %c0_i32_468 = arith.constant 0 : i32
          %869 = arith.cmpi ne, %868, %c0_i32_468 : i32
          %870 = arith.andi %867, %869 : i1
          %c1_i32_469 = arith.constant 1 : i32
          %871 = arith.subi %856, %c1_i32_469 : i32
          %872 = arith.select %870, %871, %856 : i32
          %c8_i32_470 = arith.constant 8 : i32
          %873 = arith.minsi %872, %c8_i32_470 : i32
          %c1024_i32_471 = arith.constant 1024 : i32
          %874 = arith.subi %c1024_i32_471, %852 : i32
          %c0_i32_472 = arith.constant 0 : i32
          %875 = arith.maxsi %874, %c0_i32_472 : i32
          %876 = arith.minsi %875, %853 : i32
          %877 = arith.index_cast %129 : i32 to index
          %878 = memref.load %arg4[%877] : memref<5xi32, #tpu.memory_space<smem>>
          %c128_i32_473 = arith.constant 128 : i32
          %879 = arith.addi %878, %c128_i32_473 : i32
          %c1_i32_474 = arith.constant 1 : i32
          %880 = arith.subi %879, %c1_i32_474 : i32
          %c128_i32_475 = arith.constant 128 : i32
          %881 = arith.divsi %880, %c128_i32_475 : i32
          %c0_i32_476 = arith.constant 0 : i32
          %882 = arith.cmpi sgt, %880, %c0_i32_476 : i32
          %883 = arith.extui %882 : i1 to i32
          %c0_i32_477 = arith.constant 0 : i32
          %884 = arith.cmpi slt, %880, %c0_i32_477 : i32
          %885 = arith.extui %884 : i1 to i32
          %886 = arith.subi %883, %885 : i32
          %c0_i32_478 = arith.constant 0 : i32
          %887 = arith.cmpi sgt, %c128_i32_475, %c0_i32_478 : i32
          %888 = arith.extui %887 : i1 to i32
          %c0_i32_479 = arith.constant 0 : i32
          %889 = arith.cmpi slt, %c128_i32_475, %c0_i32_479 : i32
          %890 = arith.extui %889 : i1 to i32
          %891 = arith.subi %888, %890 : i32
          %892 = arith.cmpi ne, %886, %891 : i32
          %893 = arith.remsi %880, %c128_i32_475 : i32
          %c0_i32_480 = arith.constant 0 : i32
          %894 = arith.cmpi ne, %893, %c0_i32_480 : i32
          %895 = arith.andi %892, %894 : i1
          %c1_i32_481 = arith.constant 1 : i32
          %896 = arith.subi %881, %c1_i32_481 : i32
          %897 = arith.select %895, %896, %881 : i32
          %898 = arith.addi %897, %843 : i32
          %c4_i32_482 = arith.constant 4 : i32
          %899 = arith.addi %131, %c4_i32_482 : i32
          %900 = arith.index_cast %899 : i32 to index
          %901 = memref.load %arg9[%900] : memref<6xi32, #tpu.memory_space<smem>>
          %c0_i32_483 = arith.constant 0 : i32
          %902 = arith.cmpi sgt, %901, %c0_i32_483 : i32
          %903 = arith.extui %902 : i1 to i32
          %c0_i32_484 = arith.constant 0 : i32
          %904 = arith.cmpi ne, %903, %c0_i32_484 : i32
          scf.if %904 {
            %912 = arith.index_cast %131 : i32 to index
            %913 = memref.load %arg9[%912] : memref<6xi32, #tpu.memory_space<smem>>
            %c2_i32_492 = arith.constant 2 : i32
            %914 = arith.addi %131, %c2_i32_492 : i32
            %915 = arith.index_cast %914 : i32 to index
            %916 = memref.load %arg9[%915] : memref<6xi32, #tpu.memory_space<smem>>
            %c4_i32_493 = arith.constant 4 : i32
            %917 = arith.addi %131, %c4_i32_493 : i32
            %c0_i32_494 = arith.constant 0 : i32
            %918 = arith.index_cast %917 : i32 to index
            %919 = memref.load %arg9[%918] : memref<6xi32, #tpu.memory_space<smem>>
            memref.store %c0_i32_494, %arg9[%918] : memref<6xi32, #tpu.memory_space<smem>>
            %c1024_i32_495 = arith.constant 1024 : i32
            %920 = arith.divsi %916, %c1024_i32_495 : i32
            %c0_i32_496 = arith.constant 0 : i32
            %921 = arith.cmpi sgt, %916, %c0_i32_496 : i32
            %922 = arith.extui %921 : i1 to i32
            %c0_i32_497 = arith.constant 0 : i32
            %923 = arith.cmpi slt, %916, %c0_i32_497 : i32
            %924 = arith.extui %923 : i1 to i32
            %925 = arith.subi %922, %924 : i32
            %c0_i32_498 = arith.constant 0 : i32
            %926 = arith.cmpi sgt, %c1024_i32_495, %c0_i32_498 : i32
            %927 = arith.extui %926 : i1 to i32
            %c0_i32_499 = arith.constant 0 : i32
            %928 = arith.cmpi slt, %c1024_i32_495, %c0_i32_499 : i32
            %929 = arith.extui %928 : i1 to i32
            %930 = arith.subi %927, %929 : i32
            %931 = arith.cmpi ne, %925, %930 : i32
            %932 = arith.remsi %916, %c1024_i32_495 : i32
            %c0_i32_500 = arith.constant 0 : i32
            %933 = arith.cmpi ne, %932, %c0_i32_500 : i32
            %934 = arith.andi %931, %933 : i1
            %c1_i32_501 = arith.constant 1 : i32
            %935 = arith.subi %920, %c1_i32_501 : i32
            %936 = arith.select %934, %935, %920 : i32
            %c128_i32_502 = arith.constant 128 : i32
            %937 = arith.divsi %916, %c128_i32_502 : i32
            %c0_i32_503 = arith.constant 0 : i32
            %938 = arith.cmpi sgt, %916, %c0_i32_503 : i32
            %939 = arith.extui %938 : i1 to i32
            %c0_i32_504 = arith.constant 0 : i32
            %940 = arith.cmpi slt, %916, %c0_i32_504 : i32
            %941 = arith.extui %940 : i1 to i32
            %942 = arith.subi %939, %941 : i32
            %c0_i32_505 = arith.constant 0 : i32
            %943 = arith.cmpi sgt, %c128_i32_502, %c0_i32_505 : i32
            %944 = arith.extui %943 : i1 to i32
            %c0_i32_506 = arith.constant 0 : i32
            %945 = arith.cmpi slt, %c128_i32_502, %c0_i32_506 : i32
            %946 = arith.extui %945 : i1 to i32
            %947 = arith.subi %944, %946 : i32
            %948 = arith.cmpi ne, %942, %947 : i32
            %949 = arith.remsi %916, %c128_i32_502 : i32
            %c0_i32_507 = arith.constant 0 : i32
            %950 = arith.cmpi ne, %949, %c0_i32_507 : i32
            %951 = arith.andi %948, %950 : i1
            %c1_i32_508 = arith.constant 1 : i32
            %952 = arith.subi %937, %c1_i32_508 : i32
            %953 = arith.select %951, %952, %937 : i32
            %954 = arith.addi %916, %901 : i32
            %c128_i32_509 = arith.constant 128 : i32
            %955 = arith.addi %954, %c128_i32_509 : i32
            %c1_i32_510 = arith.constant 1 : i32
            %956 = arith.subi %955, %c1_i32_510 : i32
            %c128_i32_511 = arith.constant 128 : i32
            %957 = arith.divsi %956, %c128_i32_511 : i32
            %c0_i32_512 = arith.constant 0 : i32
            %958 = arith.cmpi sgt, %956, %c0_i32_512 : i32
            %959 = arith.extui %958 : i1 to i32
            %c0_i32_513 = arith.constant 0 : i32
            %960 = arith.cmpi slt, %956, %c0_i32_513 : i32
            %961 = arith.extui %960 : i1 to i32
            %962 = arith.subi %959, %961 : i32
            %c0_i32_514 = arith.constant 0 : i32
            %963 = arith.cmpi sgt, %c128_i32_511, %c0_i32_514 : i32
            %964 = arith.extui %963 : i1 to i32
            %c0_i32_515 = arith.constant 0 : i32
            %965 = arith.cmpi slt, %c128_i32_511, %c0_i32_515 : i32
            %966 = arith.extui %965 : i1 to i32
            %967 = arith.subi %964, %966 : i32
            %968 = arith.cmpi ne, %962, %967 : i32
            %969 = arith.remsi %956, %c128_i32_511 : i32
            %c0_i32_516 = arith.constant 0 : i32
            %970 = arith.cmpi ne, %969, %c0_i32_516 : i32
            %971 = arith.andi %968, %970 : i1
            %c1_i32_517 = arith.constant 1 : i32
            %972 = arith.subi %957, %c1_i32_517 : i32
            %973 = arith.select %971, %972, %957 : i32
            %c128_i32_518 = arith.constant 128 : i32
            %c0_i32_519 = arith.constant 0 : i32
            %974 = arith.cmpi eq, %c128_i32_518, %c0_i32_519 : i32
            %c1_i32_520 = arith.constant 1 : i32
            %975 = arith.select %974, %c1_i32_520, %c128_i32_518 : i32
            %976 = arith.remsi %916, %975 : i32
            %c0_i32_521 = arith.constant 0 : i32
            %977 = arith.cmpi ne, %976, %c0_i32_521 : i32
            %c0_i32_522 = arith.constant 0 : i32
            %978 = arith.cmpi slt, %976, %c0_i32_522 : i32
            %c0_i32_523 = arith.constant 0 : i32
            %979 = arith.cmpi slt, %975, %c0_i32_523 : i32
            %980 = arith.xori %978, %979 : i1
            %981 = arith.andi %980, %977 : i1
            %982 = arith.addi %976, %975 : i32
            %983 = arith.select %981, %982, %976 : i32
            %c8_i32_524 = arith.constant 8 : i32
            %984 = arith.muli %936, %c8_i32_524 : i32
            %985 = arith.subi %953, %984 : i32
            %986 = arith.index_cast %913 : i32 to index
            %987 = memref.load %arg4[%986] : memref<5xi32, #tpu.memory_space<smem>>
            %c128_i32_525 = arith.constant 128 : i32
            %988 = arith.addi %987, %c128_i32_525 : i32
            %c1_i32_526 = arith.constant 1 : i32
            %989 = arith.subi %988, %c1_i32_526 : i32
            %c128_i32_527 = arith.constant 128 : i32
            %990 = arith.divsi %989, %c128_i32_527 : i32
            %c0_i32_528 = arith.constant 0 : i32
            %991 = arith.cmpi sgt, %989, %c0_i32_528 : i32
            %992 = arith.extui %991 : i1 to i32
            %c0_i32_529 = arith.constant 0 : i32
            %993 = arith.cmpi slt, %989, %c0_i32_529 : i32
            %994 = arith.extui %993 : i1 to i32
            %995 = arith.subi %992, %994 : i32
            %c0_i32_530 = arith.constant 0 : i32
            %996 = arith.cmpi sgt, %c128_i32_527, %c0_i32_530 : i32
            %997 = arith.extui %996 : i1 to i32
            %c0_i32_531 = arith.constant 0 : i32
            %998 = arith.cmpi slt, %c128_i32_527, %c0_i32_531 : i32
            %999 = arith.extui %998 : i1 to i32
            %1000 = arith.subi %997, %999 : i32
            %1001 = arith.cmpi ne, %995, %1000 : i32
            %1002 = arith.remsi %989, %c128_i32_527 : i32
            %c0_i32_532 = arith.constant 0 : i32
            %1003 = arith.cmpi ne, %1002, %c0_i32_532 : i32
            %1004 = arith.andi %1001, %1003 : i1
            %c1_i32_533 = arith.constant 1 : i32
            %1005 = arith.subi %990, %c1_i32_533 : i32
            %1006 = arith.select %1004, %1005, %990 : i32
            %1007 = arith.addi %1006, %953 : i32
            %1008 = arith.subi %973, %953 : i32
            %c3_i32_534 = arith.constant 3 : i32
            %c0_i32_535 = arith.constant 0 : i32
            %1009 = arith.subi %1008, %c0_i32_535 : i32
            %1010 = arith.addi %c0_i32_535, %1009 : i32
            %c1_i32_536 = arith.constant 1 : i32
            %1011:2 = scf.for %arg24 = %c0_i32_535 to %1010 step %c1_i32_536 iter_args(%arg25 = %901, %arg26 = %983) -> (i32, i32)  : i32 {
              %c128_i32_537 = arith.constant 128 : i32
              %1012 = arith.subi %c128_i32_537, %arg26 : i32
              %1013 = arith.minsi %1012, %arg25 : i32
              %1014 = arith.addi %985, %arg24 : i32
              %c128_i32_538 = arith.constant 128 : i32
              %1015 = arith.muli %1014, %c128_i32_538 : i32
              %1016 = arith.addi %1015, %arg26 : i32
              %1017 = arith.addi %1007, %arg24 : i32
              %1018 = arith.index_cast %1017 : i32 to index
              %1019 = memref.load %arg2[%1018] : memref<1280xi32, #tpu.memory_space<smem>>
              %c128_i32_539 = arith.constant 128 : i32
              %1020 = arith.muli %1019, %c128_i32_539 : i32
              %1021 = arith.addi %1020, %arg26 : i32
              %c0_i32_540 = arith.constant 0 : i32
              %c0_i32_541 = arith.constant 0 : i32
              %c0_i32_542 = arith.constant 0 : i32
              %c0_i32_543 = arith.constant 0 : i32
              %1022 = tpu.memref_slice %arg16[%131, %c0_i32_540, %c0_i32_541, %c0_i32_542, %c0_i32_543] : memref<2x1024x8x2x128xbf16, #tpu.memory_space<vmem>> -> memref<1x1024x8x2x128xbf16, strided<[2097152, 2048, 256, 128, 1], offset: ?>, #tpu.memory_space<vmem>>
              %1023 = tpu.memref_squeeze %1022 : memref<1x1024x8x2x128xbf16, strided<[2097152, 2048, 256, 128, 1], offset: ?>, #tpu.memory_space<vmem>> -> memref<1024x8x2x128xbf16, strided<[2048, 256, 128, 1], offset: ?>, #tpu.memory_space<vmem>>
              %c0_i32_544 = arith.constant 0 : i32
              %c0_i32_545 = arith.constant 0 : i32
              %c0_i32_546 = arith.constant 0 : i32
              %1024 = tpu.memref_slice %1023[%1016, %c0_i32_544, %c0_i32_545, %c0_i32_546] <%1013> : memref<1024x8x2x128xbf16, strided<[2048, 256, 128, 1], offset: ?>, #tpu.memory_space<vmem>> -> memref<?x8x2x128xbf16, strided<[2048, 256, 128, 1], offset: ?>, #tpu.memory_space<vmem>>
              %1025 = tpu.memref_reshape %arg15 : memref<4688x128x8x2x128xbf16, #tpu.memory_space<any>> -> memref<600064x8x2x128xbf16, #tpu.memory_space<any>>
              %c0_i32_547 = arith.constant 0 : i32
              %c0_i32_548 = arith.constant 0 : i32
              %c0_i32_549 = arith.constant 0 : i32
              %1026 = tpu.memref_slice %1025[%1021, %c0_i32_547, %c0_i32_548, %c0_i32_549] <%1013> : memref<600064x8x2x128xbf16, #tpu.memory_space<any>> -> memref<?x8x2x128xbf16, strided<[2048, 256, 128, 1], offset: ?>, #tpu.memory_space<any>>
              %1027 = tpu.memref_slice %arg19[%c3_i32_534, %131] : memref<5x2x!tpu.dma_semaphore, #tpu.memory_space<semaphore_mem>> -> memref<1x1x!tpu.dma_semaphore, strided<[2, 1], offset: ?>, #tpu.memory_space<semaphore_mem>>
              %1028 = tpu.memref_squeeze %1027 : memref<1x1x!tpu.dma_semaphore, strided<[2, 1], offset: ?>, #tpu.memory_space<semaphore_mem>> -> memref<!tpu.dma_semaphore, strided<[], offset: ?>, #tpu.memory_space<semaphore_mem>>
              tpu.wait_dma2 semaphore(%1028 : memref<!tpu.dma_semaphore, strided<[], offset: ?>, #tpu.memory_space<semaphore_mem>>) src(%1024 : memref<?x8x2x128xbf16, strided<[2048, 256, 128, 1], offset: ?>, #tpu.memory_space<vmem>>) dst(%1026 : memref<?x8x2x128xbf16, strided<[2048, 256, 128, 1], offset: ?>, #tpu.memory_space<any>>)
              %1029 = arith.subi %arg25, %1013 : i32
              %c0_i32_550 = arith.constant 0 : i32
              scf.yield %1029, %c0_i32_550 : i32, i32
            }
          } else {
          }
          %c0_i32_485 = arith.constant 0 : i32
          %c0_i32_486 = arith.constant 0 : i32
          %c0_i32_487 = arith.constant 0 : i32
          %905 = arith.subi %873, %c0_i32_486 : i32
          %906 = arith.addi %c0_i32_486, %905 : i32
          %c1_i32_488 = arith.constant 1 : i32
          %907 = scf.for %arg24 = %c0_i32_486 to %906 step %c1_i32_488 iter_args(%arg25 = %c0_i32_487) -> (i32)  : i32 {
            %c128_i32_492 = arith.constant 128 : i32
            %912 = arith.muli %arg24, %c128_i32_492 : i32
            %913 = arith.subi %852, %912 : i32
            %c128_i32_493 = arith.constant 128 : i32
            %914 = arith.minsi %c128_i32_493, %913 : i32
            %915 = arith.addi %898, %arg24 : i32
            %916 = arith.index_cast %915 : i32 to index
            %917 = memref.load %arg2[%916] : memref<1280xi32, #tpu.memory_space<smem>>
            %c128_i32_494 = arith.constant 128 : i32
            %918 = arith.muli %917, %c128_i32_494 : i32
            %c128_i32_495 = arith.constant 128 : i32
            %919 = arith.muli %arg24, %c128_i32_495 : i32
            %920 = tpu.memref_reshape %arg12 : memref<4688x128x8x2x128xbf16, #tpu.memory_space<any>> -> memref<600064x8x2x128xbf16, #tpu.memory_space<any>>
            %c0_i32_496 = arith.constant 0 : i32
            %c0_i32_497 = arith.constant 0 : i32
            %c0_i32_498 = arith.constant 0 : i32
            %921 = tpu.memref_slice %920[%918, %c0_i32_496, %c0_i32_497, %c0_i32_498] <%914> : memref<600064x8x2x128xbf16, #tpu.memory_space<any>> -> memref<?x8x2x128xbf16, strided<[2048, 256, 128, 1], offset: ?>, #tpu.memory_space<any>>
            %c0_i32_499 = arith.constant 0 : i32
            %c0_i32_500 = arith.constant 0 : i32
            %c0_i32_501 = arith.constant 0 : i32
            %c0_i32_502 = arith.constant 0 : i32
            %922 = tpu.memref_slice %arg16[%131, %c0_i32_499, %c0_i32_500, %c0_i32_501, %c0_i32_502] : memref<2x1024x8x2x128xbf16, #tpu.memory_space<vmem>> -> memref<1x1024x8x2x128xbf16, strided<[2097152, 2048, 256, 128, 1], offset: ?>, #tpu.memory_space<vmem>>
            %923 = tpu.memref_squeeze %922 : memref<1x1024x8x2x128xbf16, strided<[2097152, 2048, 256, 128, 1], offset: ?>, #tpu.memory_space<vmem>> -> memref<1024x8x2x128xbf16, strided<[2048, 256, 128, 1], offset: ?>, #tpu.memory_space<vmem>>
            %c0_i32_503 = arith.constant 0 : i32
            %c0_i32_504 = arith.constant 0 : i32
            %c0_i32_505 = arith.constant 0 : i32
            %924 = tpu.memref_slice %923[%919, %c0_i32_503, %c0_i32_504, %c0_i32_505] <%914> : memref<1024x8x2x128xbf16, strided<[2048, 256, 128, 1], offset: ?>, #tpu.memory_space<vmem>> -> memref<?x8x2x128xbf16, strided<[2048, 256, 128, 1], offset: ?>, #tpu.memory_space<vmem>>
            %925 = tpu.memref_slice %arg19[%c0_i32_485, %131] : memref<5x2x!tpu.dma_semaphore, #tpu.memory_space<semaphore_mem>> -> memref<1x1x!tpu.dma_semaphore, strided<[2, 1], offset: ?>, #tpu.memory_space<semaphore_mem>>
            %926 = tpu.memref_squeeze %925 : memref<1x1x!tpu.dma_semaphore, strided<[2, 1], offset: ?>, #tpu.memory_space<semaphore_mem>> -> memref<!tpu.dma_semaphore, strided<[], offset: ?>, #tpu.memory_space<semaphore_mem>>
            tpu.enqueue_dma source(%921 : memref<?x8x2x128xbf16, strided<[2048, 256, 128, 1], offset: ?>, #tpu.memory_space<any>>) target(%924 : memref<?x8x2x128xbf16, strided<[2048, 256, 128, 1], offset: ?>, #tpu.memory_space<vmem>>) target_semaphore(%926 : memref<!tpu.dma_semaphore, strided<[], offset: ?>, #tpu.memory_space<semaphore_mem>>)
            %927 = arith.addi %arg25, %914 : i32
            scf.yield %927 : i32
          }
          %c0_i32_489 = arith.constant 0 : i32
          %908 = arith.cmpi sgt, %876, %c0_i32_489 : i32
          %909 = arith.extui %908 : i1 to i32
          %c0_i32_490 = arith.constant 0 : i32
          %c0_i32_491 = arith.constant 0 : i32
          %910 = arith.cmpi ne, %909, %c0_i32_491 : i32
          scf.if %910 {
            %912 = arith.subi %848, %853 : i32
            %c0_i32_492 = arith.constant 0 : i32
            %c0_i32_493 = arith.constant 0 : i32
            %c0_i32_494 = arith.constant 0 : i32
            %913 = tpu.memref_slice %arg11[%912, %c0_i32_492, %c0_i32_493, %c0_i32_494] <%876> : memref<8192x8x2x128xbf16, #tpu.memory_space<any>> -> memref<?x8x2x128xbf16, strided<[2048, 256, 128, 1], offset: ?>, #tpu.memory_space<any>>
            %c0_i32_495 = arith.constant 0 : i32
            %c0_i32_496 = arith.constant 0 : i32
            %c0_i32_497 = arith.constant 0 : i32
            %c0_i32_498 = arith.constant 0 : i32
            %914 = tpu.memref_slice %arg16[%131, %c0_i32_495, %c0_i32_496, %c0_i32_497, %c0_i32_498] : memref<2x1024x8x2x128xbf16, #tpu.memory_space<vmem>> -> memref<1x1024x8x2x128xbf16, strided<[2097152, 2048, 256, 128, 1], offset: ?>, #tpu.memory_space<vmem>>
            %915 = tpu.memref_squeeze %914 : memref<1x1024x8x2x128xbf16, strided<[2097152, 2048, 256, 128, 1], offset: ?>, #tpu.memory_space<vmem>> -> memref<1024x8x2x128xbf16, strided<[2048, 256, 128, 1], offset: ?>, #tpu.memory_space<vmem>>
            %c0_i32_499 = arith.constant 0 : i32
            %c0_i32_500 = arith.constant 0 : i32
            %c0_i32_501 = arith.constant 0 : i32
            %916 = tpu.memref_slice %915[%907, %c0_i32_499, %c0_i32_500, %c0_i32_501] <%876> : memref<1024x8x2x128xbf16, strided<[2048, 256, 128, 1], offset: ?>, #tpu.memory_space<vmem>> -> memref<?x8x2x128xbf16, strided<[2048, 256, 128, 1], offset: ?>, #tpu.memory_space<vmem>>
            %917 = tpu.memref_slice %arg19[%c0_i32_490, %131] : memref<5x2x!tpu.dma_semaphore, #tpu.memory_space<semaphore_mem>> -> memref<1x1x!tpu.dma_semaphore, strided<[2, 1], offset: ?>, #tpu.memory_space<semaphore_mem>>
            %918 = tpu.memref_squeeze %917 : memref<1x1x!tpu.dma_semaphore, strided<[2, 1], offset: ?>, #tpu.memory_space<semaphore_mem>> -> memref<!tpu.dma_semaphore, strided<[], offset: ?>, #tpu.memory_space<semaphore_mem>>
            tpu.enqueue_dma source(%913 : memref<?x8x2x128xbf16, strided<[2048, 256, 128, 1], offset: ?>, #tpu.memory_space<any>>) target(%916 : memref<?x8x2x128xbf16, strided<[2048, 256, 128, 1], offset: ?>, #tpu.memory_space<vmem>>) target_semaphore(%918 : memref<!tpu.dma_semaphore, strided<[], offset: ?>, #tpu.memory_space<semaphore_mem>>)
          } else {
          }
          %911 = arith.addi %842, %907 : i32
        } else {
        }
        %c0_i32_80 = arith.constant 0 : i32
        %135 = arith.cmpi eq, %arg23, %c0_i32_80 : i32
        %136 = arith.extui %135 : i1 to i32
        %c0_i32_81 = arith.constant 0 : i32
        %137 = arith.cmpi ne, %136, %c0_i32_81 : i32
        scf.if %137 {
          %839 = arith.index_cast %arg0 : i32 to index
          %840 = memref.load %arg3[%839] : memref<5xi32, #tpu.memory_space<smem>>
          %c128_i32_456 = arith.constant 128 : i32
          %841 = arith.muli %c0_i32_14, %c128_i32_456 : i32
          %842 = arith.addi %840, %841 : i32
          %c1_i32_457 = arith.constant 1 : i32
          %843 = arith.addi %arg0, %c1_i32_457 : i32
          %844 = arith.index_cast %843 : i32 to index
          %845 = memref.load %arg3[%844] : memref<5xi32, #tpu.memory_space<smem>>
          %846 = arith.subi %845, %842 : i32
          %c128_i32_458 = arith.constant 128 : i32
          %847 = arith.minsi %c128_i32_458, %846 : i32
          %c1_i32_459 = arith.constant 1 : i32
          %c0_i32_460 = arith.constant 0 : i32
          %c0_i32_461 = arith.constant 0 : i32
          %c0_i32_462 = arith.constant 0 : i32
          %c0_i32_463 = arith.constant 0 : i32
          %848 = tpu.memref_slice %arg10[%c0_i32_460, %842, %c0_i32_461, %c0_i32_462, %c0_i32_463] <%847> : memref<8x8192x2x2x128xbf16, #tpu.memory_space<any>> -> memref<8x?x2x2x128xbf16, strided<[4194304, 512, 256, 128, 1], offset: ?>, #tpu.memory_space<any>>
          %c0_i32_464 = arith.constant 0 : i32
          %c0_i32_465 = arith.constant 0 : i32
          %c0_i32_466 = arith.constant 0 : i32
          %c0_i32_467 = arith.constant 0 : i32
          %c0_i32_468 = arith.constant 0 : i32
          %849 = tpu.memref_slice %arg17[%51, %c0_i32_464, %c0_i32_465, %c0_i32_466, %c0_i32_467, %c0_i32_468] : memref<2x8x128x2x2x128xbf16, #tpu.memory_space<vmem>> -> memref<1x8x128x2x2x128xbf16, strided<[524288, 65536, 512, 256, 128, 1], offset: ?>, #tpu.memory_space<vmem>>
          %850 = tpu.memref_squeeze %849 : memref<1x8x128x2x2x128xbf16, strided<[524288, 65536, 512, 256, 128, 1], offset: ?>, #tpu.memory_space<vmem>> -> memref<8x128x2x2x128xbf16, strided<[65536, 512, 256, 128, 1], offset: ?>, #tpu.memory_space<vmem>>
          %c0_i32_469 = arith.constant 0 : i32
          %c0_i32_470 = arith.constant 0 : i32
          %c0_i32_471 = arith.constant 0 : i32
          %c0_i32_472 = arith.constant 0 : i32
          %c0_i32_473 = arith.constant 0 : i32
          %851 = tpu.memref_slice %850[%c0_i32_469, %c0_i32_470, %c0_i32_471, %c0_i32_472, %c0_i32_473] <%847> : memref<8x128x2x2x128xbf16, strided<[65536, 512, 256, 128, 1], offset: ?>, #tpu.memory_space<vmem>> -> memref<8x?x2x2x128xbf16, strided<[65536, 512, 256, 128, 1], offset: ?>, #tpu.memory_space<vmem>>
          %852 = tpu.memref_slice %arg19[%c1_i32_459, %51] : memref<5x2x!tpu.dma_semaphore, #tpu.memory_space<semaphore_mem>> -> memref<1x1x!tpu.dma_semaphore, strided<[2, 1], offset: ?>, #tpu.memory_space<semaphore_mem>>
          %853 = tpu.memref_squeeze %852 : memref<1x1x!tpu.dma_semaphore, strided<[2, 1], offset: ?>, #tpu.memory_space<semaphore_mem>> -> memref<!tpu.dma_semaphore, strided<[], offset: ?>, #tpu.memory_space<semaphore_mem>>
          tpu.wait_dma2 semaphore(%853 : memref<!tpu.dma_semaphore, strided<[], offset: ?>, #tpu.memory_space<semaphore_mem>>) src(%848 : memref<8x?x2x2x128xbf16, strided<[4194304, 512, 256, 128, 1], offset: ?>, #tpu.memory_space<any>>) dst(%851 : memref<8x?x2x2x128xbf16, strided<[65536, 512, 256, 128, 1], offset: ?>, #tpu.memory_space<vmem>>)
        } else {
        }
        %138 = arith.index_cast %arg0 : i32 to index
        %139 = memref.load %arg1[%138] : memref<4xi32, #tpu.memory_space<smem>>
        %c1024_i32_82 = arith.constant 1024 : i32
        %140 = arith.muli %arg23, %c1024_i32_82 : i32
        %c8_i32 = arith.constant 8 : i32
        %141 = arith.muli %arg23, %c8_i32 : i32
        %142 = arith.index_cast %arg0 : i32 to index
        %143 = memref.load %arg3[%142] : memref<5xi32, #tpu.memory_space<smem>>
        %c1_i32_83 = arith.constant 1 : i32
        %144 = arith.addi %arg0, %c1_i32_83 : i32
        %145 = arith.index_cast %144 : i32 to index
        %146 = memref.load %arg3[%145] : memref<5xi32, #tpu.memory_space<smem>>
        %147 = arith.subi %146, %143 : i32
        %148 = arith.subi %139, %140 : i32
        %149 = arith.subi %148, %147 : i32
        %c0_i32_84 = arith.constant 0 : i32
        %150 = arith.maxsi %149, %c0_i32_84 : i32
        %151 = arith.subi %148, %150 : i32
        %c128_i32_85 = arith.constant 128 : i32
        %152 = arith.addi %150, %c128_i32_85 : i32
        %c1_i32_86 = arith.constant 1 : i32
        %153 = arith.subi %152, %c1_i32_86 : i32
        %c128_i32_87 = arith.constant 128 : i32
        %154 = arith.divsi %153, %c128_i32_87 : i32
        %c0_i32_88 = arith.constant 0 : i32
        %155 = arith.cmpi sgt, %153, %c0_i32_88 : i32
        %156 = arith.extui %155 : i1 to i32
        %c0_i32_89 = arith.constant 0 : i32
        %157 = arith.cmpi slt, %153, %c0_i32_89 : i32
        %158 = arith.extui %157 : i1 to i32
        %159 = arith.subi %156, %158 : i32
        %c0_i32_90 = arith.constant 0 : i32
        %160 = arith.cmpi sgt, %c128_i32_87, %c0_i32_90 : i32
        %161 = arith.extui %160 : i1 to i32
        %c0_i32_91 = arith.constant 0 : i32
        %162 = arith.cmpi slt, %c128_i32_87, %c0_i32_91 : i32
        %163 = arith.extui %162 : i1 to i32
        %164 = arith.subi %161, %163 : i32
        %165 = arith.cmpi ne, %159, %164 : i32
        %166 = arith.remsi %153, %c128_i32_87 : i32
        %c0_i32_92 = arith.constant 0 : i32
        %167 = arith.cmpi ne, %166, %c0_i32_92 : i32
        %168 = arith.andi %165, %167 : i1
        %c1_i32_93 = arith.constant 1 : i32
        %169 = arith.subi %154, %c1_i32_93 : i32
        %170 = arith.select %168, %169, %154 : i32
        %c8_i32_94 = arith.constant 8 : i32
        %171 = arith.minsi %170, %c8_i32_94 : i32
        %c1024_i32_95 = arith.constant 1024 : i32
        %172 = arith.subi %c1024_i32_95, %150 : i32
        %c0_i32_96 = arith.constant 0 : i32
        %173 = arith.maxsi %172, %c0_i32_96 : i32
        %174 = arith.minsi %173, %151 : i32
        %175 = arith.index_cast %arg0 : i32 to index
        %176 = memref.load %arg4[%175] : memref<5xi32, #tpu.memory_space<smem>>
        %c128_i32_97 = arith.constant 128 : i32
        %177 = arith.addi %176, %c128_i32_97 : i32
        %c1_i32_98 = arith.constant 1 : i32
        %178 = arith.subi %177, %c1_i32_98 : i32
        %c128_i32_99 = arith.constant 128 : i32
        %179 = arith.divsi %178, %c128_i32_99 : i32
        %c0_i32_100 = arith.constant 0 : i32
        %180 = arith.cmpi sgt, %178, %c0_i32_100 : i32
        %181 = arith.extui %180 : i1 to i32
        %c0_i32_101 = arith.constant 0 : i32
        %182 = arith.cmpi slt, %178, %c0_i32_101 : i32
        %183 = arith.extui %182 : i1 to i32
        %184 = arith.subi %181, %183 : i32
        %c0_i32_102 = arith.constant 0 : i32
        %185 = arith.cmpi sgt, %c128_i32_99, %c0_i32_102 : i32
        %186 = arith.extui %185 : i1 to i32
        %c0_i32_103 = arith.constant 0 : i32
        %187 = arith.cmpi slt, %c128_i32_99, %c0_i32_103 : i32
        %188 = arith.extui %187 : i1 to i32
        %189 = arith.subi %186, %188 : i32
        %190 = arith.cmpi ne, %184, %189 : i32
        %191 = arith.remsi %178, %c128_i32_99 : i32
        %c0_i32_104 = arith.constant 0 : i32
        %192 = arith.cmpi ne, %191, %c0_i32_104 : i32
        %193 = arith.andi %190, %192 : i1
        %c1_i32_105 = arith.constant 1 : i32
        %194 = arith.subi %179, %c1_i32_105 : i32
        %195 = arith.select %193, %194, %179 : i32
        %196 = arith.addi %195, %141 : i32
        %c4_i32 = arith.constant 4 : i32
        %197 = arith.addi %120, %c4_i32 : i32
        %198 = arith.index_cast %197 : i32 to index
        %199 = memref.load %arg9[%198] : memref<6xi32, #tpu.memory_space<smem>>
        %c0_i32_106 = arith.constant 0 : i32
        %200 = arith.cmpi sgt, %199, %c0_i32_106 : i32
        %201 = arith.extui %200 : i1 to i32
        %c0_i32_107 = arith.constant 0 : i32
        %202 = arith.cmpi ne, %201, %c0_i32_107 : i32
        scf.if %202 {
          %839 = arith.index_cast %120 : i32 to index
          %840 = memref.load %arg9[%839] : memref<6xi32, #tpu.memory_space<smem>>
          %c2_i32_456 = arith.constant 2 : i32
          %841 = arith.addi %120, %c2_i32_456 : i32
          %842 = arith.index_cast %841 : i32 to index
          %843 = memref.load %arg9[%842] : memref<6xi32, #tpu.memory_space<smem>>
          %c4_i32_457 = arith.constant 4 : i32
          %844 = arith.addi %120, %c4_i32_457 : i32
          %c0_i32_458 = arith.constant 0 : i32
          %845 = arith.index_cast %844 : i32 to index
          %846 = memref.load %arg9[%845] : memref<6xi32, #tpu.memory_space<smem>>
          memref.store %c0_i32_458, %arg9[%845] : memref<6xi32, #tpu.memory_space<smem>>
          %c1024_i32_459 = arith.constant 1024 : i32
          %847 = arith.divsi %843, %c1024_i32_459 : i32
          %c0_i32_460 = arith.constant 0 : i32
          %848 = arith.cmpi sgt, %843, %c0_i32_460 : i32
          %849 = arith.extui %848 : i1 to i32
          %c0_i32_461 = arith.constant 0 : i32
          %850 = arith.cmpi slt, %843, %c0_i32_461 : i32
          %851 = arith.extui %850 : i1 to i32
          %852 = arith.subi %849, %851 : i32
          %c0_i32_462 = arith.constant 0 : i32
          %853 = arith.cmpi sgt, %c1024_i32_459, %c0_i32_462 : i32
          %854 = arith.extui %853 : i1 to i32
          %c0_i32_463 = arith.constant 0 : i32
          %855 = arith.cmpi slt, %c1024_i32_459, %c0_i32_463 : i32
          %856 = arith.extui %855 : i1 to i32
          %857 = arith.subi %854, %856 : i32
          %858 = arith.cmpi ne, %852, %857 : i32
          %859 = arith.remsi %843, %c1024_i32_459 : i32
          %c0_i32_464 = arith.constant 0 : i32
          %860 = arith.cmpi ne, %859, %c0_i32_464 : i32
          %861 = arith.andi %858, %860 : i1
          %c1_i32_465 = arith.constant 1 : i32
          %862 = arith.subi %847, %c1_i32_465 : i32
          %863 = arith.select %861, %862, %847 : i32
          %c128_i32_466 = arith.constant 128 : i32
          %864 = arith.divsi %843, %c128_i32_466 : i32
          %c0_i32_467 = arith.constant 0 : i32
          %865 = arith.cmpi sgt, %843, %c0_i32_467 : i32
          %866 = arith.extui %865 : i1 to i32
          %c0_i32_468 = arith.constant 0 : i32
          %867 = arith.cmpi slt, %843, %c0_i32_468 : i32
          %868 = arith.extui %867 : i1 to i32
          %869 = arith.subi %866, %868 : i32
          %c0_i32_469 = arith.constant 0 : i32
          %870 = arith.cmpi sgt, %c128_i32_466, %c0_i32_469 : i32
          %871 = arith.extui %870 : i1 to i32
          %c0_i32_470 = arith.constant 0 : i32
          %872 = arith.cmpi slt, %c128_i32_466, %c0_i32_470 : i32
          %873 = arith.extui %872 : i1 to i32
          %874 = arith.subi %871, %873 : i32
          %875 = arith.cmpi ne, %869, %874 : i32
          %876 = arith.remsi %843, %c128_i32_466 : i32
          %c0_i32_471 = arith.constant 0 : i32
          %877 = arith.cmpi ne, %876, %c0_i32_471 : i32
          %878 = arith.andi %875, %877 : i1
          %c1_i32_472 = arith.constant 1 : i32
          %879 = arith.subi %864, %c1_i32_472 : i32
          %880 = arith.select %878, %879, %864 : i32
          %881 = arith.addi %843, %199 : i32
          %c128_i32_473 = arith.constant 128 : i32
          %882 = arith.addi %881, %c128_i32_473 : i32
          %c1_i32_474 = arith.constant 1 : i32
          %883 = arith.subi %882, %c1_i32_474 : i32
          %c128_i32_475 = arith.constant 128 : i32
          %884 = arith.divsi %883, %c128_i32_475 : i32
          %c0_i32_476 = arith.constant 0 : i32
          %885 = arith.cmpi sgt, %883, %c0_i32_476 : i32
          %886 = arith.extui %885 : i1 to i32
          %c0_i32_477 = arith.constant 0 : i32
          %887 = arith.cmpi slt, %883, %c0_i32_477 : i32
          %888 = arith.extui %887 : i1 to i32
          %889 = arith.subi %886, %888 : i32
          %c0_i32_478 = arith.constant 0 : i32
          %890 = arith.cmpi sgt, %c128_i32_475, %c0_i32_478 : i32
          %891 = arith.extui %890 : i1 to i32
          %c0_i32_479 = arith.constant 0 : i32
          %892 = arith.cmpi slt, %c128_i32_475, %c0_i32_479 : i32
          %893 = arith.extui %892 : i1 to i32
          %894 = arith.subi %891, %893 : i32
          %895 = arith.cmpi ne, %889, %894 : i32
          %896 = arith.remsi %883, %c128_i32_475 : i32
          %c0_i32_480 = arith.constant 0 : i32
          %897 = arith.cmpi ne, %896, %c0_i32_480 : i32
          %898 = arith.andi %895, %897 : i1
          %c1_i32_481 = arith.constant 1 : i32
          %899 = arith.subi %884, %c1_i32_481 : i32
          %900 = arith.select %898, %899, %884 : i32
          %c128_i32_482 = arith.constant 128 : i32
          %c0_i32_483 = arith.constant 0 : i32
          %901 = arith.cmpi eq, %c128_i32_482, %c0_i32_483 : i32
          %c1_i32_484 = arith.constant 1 : i32
          %902 = arith.select %901, %c1_i32_484, %c128_i32_482 : i32
          %903 = arith.remsi %843, %902 : i32
          %c0_i32_485 = arith.constant 0 : i32
          %904 = arith.cmpi ne, %903, %c0_i32_485 : i32
          %c0_i32_486 = arith.constant 0 : i32
          %905 = arith.cmpi slt, %903, %c0_i32_486 : i32
          %c0_i32_487 = arith.constant 0 : i32
          %906 = arith.cmpi slt, %902, %c0_i32_487 : i32
          %907 = arith.xori %905, %906 : i1
          %908 = arith.andi %907, %904 : i1
          %909 = arith.addi %903, %902 : i32
          %910 = arith.select %908, %909, %903 : i32
          %c8_i32_488 = arith.constant 8 : i32
          %911 = arith.muli %863, %c8_i32_488 : i32
          %912 = arith.subi %880, %911 : i32
          %913 = arith.index_cast %840 : i32 to index
          %914 = memref.load %arg4[%913] : memref<5xi32, #tpu.memory_space<smem>>
          %c128_i32_489 = arith.constant 128 : i32
          %915 = arith.addi %914, %c128_i32_489 : i32
          %c1_i32_490 = arith.constant 1 : i32
          %916 = arith.subi %915, %c1_i32_490 : i32
          %c128_i32_491 = arith.constant 128 : i32
          %917 = arith.divsi %916, %c128_i32_491 : i32
          %c0_i32_492 = arith.constant 0 : i32
          %918 = arith.cmpi sgt, %916, %c0_i32_492 : i32
          %919 = arith.extui %918 : i1 to i32
          %c0_i32_493 = arith.constant 0 : i32
          %920 = arith.cmpi slt, %916, %c0_i32_493 : i32
          %921 = arith.extui %920 : i1 to i32
          %922 = arith.subi %919, %921 : i32
          %c0_i32_494 = arith.constant 0 : i32
          %923 = arith.cmpi sgt, %c128_i32_491, %c0_i32_494 : i32
          %924 = arith.extui %923 : i1 to i32
          %c0_i32_495 = arith.constant 0 : i32
          %925 = arith.cmpi slt, %c128_i32_491, %c0_i32_495 : i32
          %926 = arith.extui %925 : i1 to i32
          %927 = arith.subi %924, %926 : i32
          %928 = arith.cmpi ne, %922, %927 : i32
          %929 = arith.remsi %916, %c128_i32_491 : i32
          %c0_i32_496 = arith.constant 0 : i32
          %930 = arith.cmpi ne, %929, %c0_i32_496 : i32
          %931 = arith.andi %928, %930 : i1
          %c1_i32_497 = arith.constant 1 : i32
          %932 = arith.subi %917, %c1_i32_497 : i32
          %933 = arith.select %931, %932, %917 : i32
          %934 = arith.addi %933, %880 : i32
          %935 = arith.subi %900, %880 : i32
          %c3_i32_498 = arith.constant 3 : i32
          %c0_i32_499 = arith.constant 0 : i32
          %936 = arith.subi %935, %c0_i32_499 : i32
          %937 = arith.addi %c0_i32_499, %936 : i32
          %c1_i32_500 = arith.constant 1 : i32
          %938:2 = scf.for %arg24 = %c0_i32_499 to %937 step %c1_i32_500 iter_args(%arg25 = %199, %arg26 = %910) -> (i32, i32)  : i32 {
            %c128_i32_501 = arith.constant 128 : i32
            %939 = arith.subi %c128_i32_501, %arg26 : i32
            %940 = arith.minsi %939, %arg25 : i32
            %941 = arith.addi %912, %arg24 : i32
            %c128_i32_502 = arith.constant 128 : i32
            %942 = arith.muli %941, %c128_i32_502 : i32
            %943 = arith.addi %942, %arg26 : i32
            %944 = arith.addi %934, %arg24 : i32
            %945 = arith.index_cast %944 : i32 to index
            %946 = memref.load %arg2[%945] : memref<1280xi32, #tpu.memory_space<smem>>
            %c128_i32_503 = arith.constant 128 : i32
            %947 = arith.muli %946, %c128_i32_503 : i32
            %948 = arith.addi %947, %arg26 : i32
            %c0_i32_504 = arith.constant 0 : i32
            %c0_i32_505 = arith.constant 0 : i32
            %c0_i32_506 = arith.constant 0 : i32
            %c0_i32_507 = arith.constant 0 : i32
            %949 = tpu.memref_slice %arg16[%120, %c0_i32_504, %c0_i32_505, %c0_i32_506, %c0_i32_507] : memref<2x1024x8x2x128xbf16, #tpu.memory_space<vmem>> -> memref<1x1024x8x2x128xbf16, strided<[2097152, 2048, 256, 128, 1], offset: ?>, #tpu.memory_space<vmem>>
            %950 = tpu.memref_squeeze %949 : memref<1x1024x8x2x128xbf16, strided<[2097152, 2048, 256, 128, 1], offset: ?>, #tpu.memory_space<vmem>> -> memref<1024x8x2x128xbf16, strided<[2048, 256, 128, 1], offset: ?>, #tpu.memory_space<vmem>>
            %c0_i32_508 = arith.constant 0 : i32
            %c0_i32_509 = arith.constant 0 : i32
            %c0_i32_510 = arith.constant 0 : i32
            %951 = tpu.memref_slice %950[%943, %c0_i32_508, %c0_i32_509, %c0_i32_510] <%940> : memref<1024x8x2x128xbf16, strided<[2048, 256, 128, 1], offset: ?>, #tpu.memory_space<vmem>> -> memref<?x8x2x128xbf16, strided<[2048, 256, 128, 1], offset: ?>, #tpu.memory_space<vmem>>
            %952 = tpu.memref_reshape %arg15 : memref<4688x128x8x2x128xbf16, #tpu.memory_space<any>> -> memref<600064x8x2x128xbf16, #tpu.memory_space<any>>
            %c0_i32_511 = arith.constant 0 : i32
            %c0_i32_512 = arith.constant 0 : i32
            %c0_i32_513 = arith.constant 0 : i32
            %953 = tpu.memref_slice %952[%948, %c0_i32_511, %c0_i32_512, %c0_i32_513] <%940> : memref<600064x8x2x128xbf16, #tpu.memory_space<any>> -> memref<?x8x2x128xbf16, strided<[2048, 256, 128, 1], offset: ?>, #tpu.memory_space<any>>
            %954 = tpu.memref_slice %arg19[%c3_i32_498, %120] : memref<5x2x!tpu.dma_semaphore, #tpu.memory_space<semaphore_mem>> -> memref<1x1x!tpu.dma_semaphore, strided<[2, 1], offset: ?>, #tpu.memory_space<semaphore_mem>>
            %955 = tpu.memref_squeeze %954 : memref<1x1x!tpu.dma_semaphore, strided<[2, 1], offset: ?>, #tpu.memory_space<semaphore_mem>> -> memref<!tpu.dma_semaphore, strided<[], offset: ?>, #tpu.memory_space<semaphore_mem>>
            tpu.wait_dma2 semaphore(%955 : memref<!tpu.dma_semaphore, strided<[], offset: ?>, #tpu.memory_space<semaphore_mem>>) src(%951 : memref<?x8x2x128xbf16, strided<[2048, 256, 128, 1], offset: ?>, #tpu.memory_space<vmem>>) dst(%953 : memref<?x8x2x128xbf16, strided<[2048, 256, 128, 1], offset: ?>, #tpu.memory_space<any>>)
            %956 = arith.subi %arg25, %940 : i32
            %c0_i32_514 = arith.constant 0 : i32
            scf.yield %956, %c0_i32_514 : i32, i32
          }
        } else {
        }
        %c0_i32_108 = arith.constant 0 : i32
        %c0_i32_109 = arith.constant 0 : i32
        %c0_i32_110 = arith.constant 0 : i32
        %203 = arith.subi %171, %c0_i32_109 : i32
        %204 = arith.addi %c0_i32_109, %203 : i32
        %c1_i32_111 = arith.constant 1 : i32
        %205 = scf.for %arg24 = %c0_i32_109 to %204 step %c1_i32_111 iter_args(%arg25 = %c0_i32_110) -> (i32)  : i32 {
          %c128_i32_456 = arith.constant 128 : i32
          %839 = arith.muli %arg24, %c128_i32_456 : i32
          %840 = arith.subi %150, %839 : i32
          %c128_i32_457 = arith.constant 128 : i32
          %841 = arith.minsi %c128_i32_457, %840 : i32
          %842 = arith.addi %196, %arg24 : i32
          %843 = arith.index_cast %842 : i32 to index
          %844 = memref.load %arg2[%843] : memref<1280xi32, #tpu.memory_space<smem>>
          %c128_i32_458 = arith.constant 128 : i32
          %845 = arith.muli %844, %c128_i32_458 : i32
          %c128_i32_459 = arith.constant 128 : i32
          %846 = arith.muli %arg24, %c128_i32_459 : i32
          %847 = tpu.memref_reshape %arg12 : memref<4688x128x8x2x128xbf16, #tpu.memory_space<any>> -> memref<600064x8x2x128xbf16, #tpu.memory_space<any>>
          %c0_i32_460 = arith.constant 0 : i32
          %c0_i32_461 = arith.constant 0 : i32
          %c0_i32_462 = arith.constant 0 : i32
          %848 = tpu.memref_slice %847[%845, %c0_i32_460, %c0_i32_461, %c0_i32_462] <%841> : memref<600064x8x2x128xbf16, #tpu.memory_space<any>> -> memref<?x8x2x128xbf16, strided<[2048, 256, 128, 1], offset: ?>, #tpu.memory_space<any>>
          %c0_i32_463 = arith.constant 0 : i32
          %c0_i32_464 = arith.constant 0 : i32
          %c0_i32_465 = arith.constant 0 : i32
          %c0_i32_466 = arith.constant 0 : i32
          %849 = tpu.memref_slice %arg16[%120, %c0_i32_463, %c0_i32_464, %c0_i32_465, %c0_i32_466] : memref<2x1024x8x2x128xbf16, #tpu.memory_space<vmem>> -> memref<1x1024x8x2x128xbf16, strided<[2097152, 2048, 256, 128, 1], offset: ?>, #tpu.memory_space<vmem>>
          %850 = tpu.memref_squeeze %849 : memref<1x1024x8x2x128xbf16, strided<[2097152, 2048, 256, 128, 1], offset: ?>, #tpu.memory_space<vmem>> -> memref<1024x8x2x128xbf16, strided<[2048, 256, 128, 1], offset: ?>, #tpu.memory_space<vmem>>
          %c0_i32_467 = arith.constant 0 : i32
          %c0_i32_468 = arith.constant 0 : i32
          %c0_i32_469 = arith.constant 0 : i32
          %851 = tpu.memref_slice %850[%846, %c0_i32_467, %c0_i32_468, %c0_i32_469] <%841> : memref<1024x8x2x128xbf16, strided<[2048, 256, 128, 1], offset: ?>, #tpu.memory_space<vmem>> -> memref<?x8x2x128xbf16, strided<[2048, 256, 128, 1], offset: ?>, #tpu.memory_space<vmem>>
          %852 = tpu.memref_slice %arg19[%c0_i32_108, %120] : memref<5x2x!tpu.dma_semaphore, #tpu.memory_space<semaphore_mem>> -> memref<1x1x!tpu.dma_semaphore, strided<[2, 1], offset: ?>, #tpu.memory_space<semaphore_mem>>
          %853 = tpu.memref_squeeze %852 : memref<1x1x!tpu.dma_semaphore, strided<[2, 1], offset: ?>, #tpu.memory_space<semaphore_mem>> -> memref<!tpu.dma_semaphore, strided<[], offset: ?>, #tpu.memory_space<semaphore_mem>>
          tpu.wait_dma2 semaphore(%853 : memref<!tpu.dma_semaphore, strided<[], offset: ?>, #tpu.memory_space<semaphore_mem>>) src(%848 : memref<?x8x2x128xbf16, strided<[2048, 256, 128, 1], offset: ?>, #tpu.memory_space<any>>) dst(%851 : memref<?x8x2x128xbf16, strided<[2048, 256, 128, 1], offset: ?>, #tpu.memory_space<vmem>>)
          %854 = arith.addi %arg25, %841 : i32
          scf.yield %854 : i32
        }
        %c0_i32_112 = arith.constant 0 : i32
        %206 = arith.cmpi sgt, %174, %c0_i32_112 : i32
        %207 = arith.extui %206 : i1 to i32
        %c0_i32_113 = arith.constant 0 : i32
        %c0_i32_114 = arith.constant 0 : i32
        %208 = arith.cmpi ne, %207, %c0_i32_114 : i32
        scf.if %208 {
          %839 = arith.subi %146, %151 : i32
          %c0_i32_456 = arith.constant 0 : i32
          %c0_i32_457 = arith.constant 0 : i32
          %c0_i32_458 = arith.constant 0 : i32
          %840 = tpu.memref_slice %arg11[%839, %c0_i32_456, %c0_i32_457, %c0_i32_458] <%174> : memref<8192x8x2x128xbf16, #tpu.memory_space<any>> -> memref<?x8x2x128xbf16, strided<[2048, 256, 128, 1], offset: ?>, #tpu.memory_space<any>>
          %c0_i32_459 = arith.constant 0 : i32
          %c0_i32_460 = arith.constant 0 : i32
          %c0_i32_461 = arith.constant 0 : i32
          %c0_i32_462 = arith.constant 0 : i32
          %841 = tpu.memref_slice %arg16[%120, %c0_i32_459, %c0_i32_460, %c0_i32_461, %c0_i32_462] : memref<2x1024x8x2x128xbf16, #tpu.memory_space<vmem>> -> memref<1x1024x8x2x128xbf16, strided<[2097152, 2048, 256, 128, 1], offset: ?>, #tpu.memory_space<vmem>>
          %842 = tpu.memref_squeeze %841 : memref<1x1024x8x2x128xbf16, strided<[2097152, 2048, 256, 128, 1], offset: ?>, #tpu.memory_space<vmem>> -> memref<1024x8x2x128xbf16, strided<[2048, 256, 128, 1], offset: ?>, #tpu.memory_space<vmem>>
          %c0_i32_463 = arith.constant 0 : i32
          %c0_i32_464 = arith.constant 0 : i32
          %c0_i32_465 = arith.constant 0 : i32
          %843 = tpu.memref_slice %842[%205, %c0_i32_463, %c0_i32_464, %c0_i32_465] <%174> : memref<1024x8x2x128xbf16, strided<[2048, 256, 128, 1], offset: ?>, #tpu.memory_space<vmem>> -> memref<?x8x2x128xbf16, strided<[2048, 256, 128, 1], offset: ?>, #tpu.memory_space<vmem>>
          %844 = tpu.memref_slice %arg19[%c0_i32_113, %120] : memref<5x2x!tpu.dma_semaphore, #tpu.memory_space<semaphore_mem>> -> memref<1x1x!tpu.dma_semaphore, strided<[2, 1], offset: ?>, #tpu.memory_space<semaphore_mem>>
          %845 = tpu.memref_squeeze %844 : memref<1x1x!tpu.dma_semaphore, strided<[2, 1], offset: ?>, #tpu.memory_space<semaphore_mem>> -> memref<!tpu.dma_semaphore, strided<[], offset: ?>, #tpu.memory_space<semaphore_mem>>
          tpu.wait_dma2 semaphore(%845 : memref<!tpu.dma_semaphore, strided<[], offset: ?>, #tpu.memory_space<semaphore_mem>>) src(%840 : memref<?x8x2x128xbf16, strided<[2048, 256, 128, 1], offset: ?>, #tpu.memory_space<any>>) dst(%843 : memref<?x8x2x128xbf16, strided<[2048, 256, 128, 1], offset: ?>, #tpu.memory_space<vmem>>)
        } else {
        }
        %209 = arith.addi %140, %205 : i32
        %c0_i32_115 = arith.constant 0 : i32
        %210 = arith.cmpi sgt, %174, %c0_i32_115 : i32
        %c0_i32_116 = arith.constant 0 : i32
        %211 = arith.cmpi eq, %c0_i32_14, %c0_i32_116 : i32
        %212 = arith.andi %210, %211 : i1
        %213 = arith.extui %212 : i1 to i32
        %c0_i32_117 = arith.constant 0 : i32
        %214 = arith.cmpi ne, %213, %c0_i32_117 : i32
        scf.if %214 {
          %839 = arith.index_cast %120 : i32 to index
          %840 = memref.load %arg9[%839] : memref<6xi32, #tpu.memory_space<smem>>
          memref.store %arg0, %arg9[%839] : memref<6xi32, #tpu.memory_space<smem>>
          %c2_i32_456 = arith.constant 2 : i32
          %841 = arith.addi %120, %c2_i32_456 : i32
          %842 = arith.index_cast %841 : i32 to index
          %843 = memref.load %arg9[%842] : memref<6xi32, #tpu.memory_space<smem>>
          memref.store %209, %arg9[%842] : memref<6xi32, #tpu.memory_space<smem>>
          %c4_i32_457 = arith.constant 4 : i32
          %844 = arith.addi %120, %c4_i32_457 : i32
          %845 = arith.index_cast %844 : i32 to index
          %846 = memref.load %arg9[%845] : memref<6xi32, #tpu.memory_space<smem>>
          memref.store %174, %arg9[%845] : memref<6xi32, #tpu.memory_space<smem>>
          %c1024_i32_458 = arith.constant 1024 : i32
          %847 = arith.divsi %209, %c1024_i32_458 : i32
          %c0_i32_459 = arith.constant 0 : i32
          %848 = arith.cmpi sgt, %209, %c0_i32_459 : i32
          %849 = arith.extui %848 : i1 to i32
          %c0_i32_460 = arith.constant 0 : i32
          %850 = arith.cmpi slt, %209, %c0_i32_460 : i32
          %851 = arith.extui %850 : i1 to i32
          %852 = arith.subi %849, %851 : i32
          %c0_i32_461 = arith.constant 0 : i32
          %853 = arith.cmpi sgt, %c1024_i32_458, %c0_i32_461 : i32
          %854 = arith.extui %853 : i1 to i32
          %c0_i32_462 = arith.constant 0 : i32
          %855 = arith.cmpi slt, %c1024_i32_458, %c0_i32_462 : i32
          %856 = arith.extui %855 : i1 to i32
          %857 = arith.subi %854, %856 : i32
          %858 = arith.cmpi ne, %852, %857 : i32
          %859 = arith.remsi %209, %c1024_i32_458 : i32
          %c0_i32_463 = arith.constant 0 : i32
          %860 = arith.cmpi ne, %859, %c0_i32_463 : i32
          %861 = arith.andi %858, %860 : i1
          %c1_i32_464 = arith.constant 1 : i32
          %862 = arith.subi %847, %c1_i32_464 : i32
          %863 = arith.select %861, %862, %847 : i32
          %c128_i32_465 = arith.constant 128 : i32
          %864 = arith.divsi %209, %c128_i32_465 : i32
          %c0_i32_466 = arith.constant 0 : i32
          %865 = arith.cmpi sgt, %209, %c0_i32_466 : i32
          %866 = arith.extui %865 : i1 to i32
          %c0_i32_467 = arith.constant 0 : i32
          %867 = arith.cmpi slt, %209, %c0_i32_467 : i32
          %868 = arith.extui %867 : i1 to i32
          %869 = arith.subi %866, %868 : i32
          %c0_i32_468 = arith.constant 0 : i32
          %870 = arith.cmpi sgt, %c128_i32_465, %c0_i32_468 : i32
          %871 = arith.extui %870 : i1 to i32
          %c0_i32_469 = arith.constant 0 : i32
          %872 = arith.cmpi slt, %c128_i32_465, %c0_i32_469 : i32
          %873 = arith.extui %872 : i1 to i32
          %874 = arith.subi %871, %873 : i32
          %875 = arith.cmpi ne, %869, %874 : i32
          %876 = arith.remsi %209, %c128_i32_465 : i32
          %c0_i32_470 = arith.constant 0 : i32
          %877 = arith.cmpi ne, %876, %c0_i32_470 : i32
          %878 = arith.andi %875, %877 : i1
          %c1_i32_471 = arith.constant 1 : i32
          %879 = arith.subi %864, %c1_i32_471 : i32
          %880 = arith.select %878, %879, %864 : i32
          %881 = arith.addi %209, %174 : i32
          %c128_i32_472 = arith.constant 128 : i32
          %882 = arith.addi %881, %c128_i32_472 : i32
          %c1_i32_473 = arith.constant 1 : i32
          %883 = arith.subi %882, %c1_i32_473 : i32
          %c128_i32_474 = arith.constant 128 : i32
          %884 = arith.divsi %883, %c128_i32_474 : i32
          %c0_i32_475 = arith.constant 0 : i32
          %885 = arith.cmpi sgt, %883, %c0_i32_475 : i32
          %886 = arith.extui %885 : i1 to i32
          %c0_i32_476 = arith.constant 0 : i32
          %887 = arith.cmpi slt, %883, %c0_i32_476 : i32
          %888 = arith.extui %887 : i1 to i32
          %889 = arith.subi %886, %888 : i32
          %c0_i32_477 = arith.constant 0 : i32
          %890 = arith.cmpi sgt, %c128_i32_474, %c0_i32_477 : i32
          %891 = arith.extui %890 : i1 to i32
          %c0_i32_478 = arith.constant 0 : i32
          %892 = arith.cmpi slt, %c128_i32_474, %c0_i32_478 : i32
          %893 = arith.extui %892 : i1 to i32
          %894 = arith.subi %891, %893 : i32
          %895 = arith.cmpi ne, %889, %894 : i32
          %896 = arith.remsi %883, %c128_i32_474 : i32
          %c0_i32_479 = arith.constant 0 : i32
          %897 = arith.cmpi ne, %896, %c0_i32_479 : i32
          %898 = arith.andi %895, %897 : i1
          %c1_i32_480 = arith.constant 1 : i32
          %899 = arith.subi %884, %c1_i32_480 : i32
          %900 = arith.select %898, %899, %884 : i32
          %c128_i32_481 = arith.constant 128 : i32
          %c0_i32_482 = arith.constant 0 : i32
          %901 = arith.cmpi eq, %c128_i32_481, %c0_i32_482 : i32
          %c1_i32_483 = arith.constant 1 : i32
          %902 = arith.select %901, %c1_i32_483, %c128_i32_481 : i32
          %903 = arith.remsi %209, %902 : i32
          %c0_i32_484 = arith.constant 0 : i32
          %904 = arith.cmpi ne, %903, %c0_i32_484 : i32
          %c0_i32_485 = arith.constant 0 : i32
          %905 = arith.cmpi slt, %903, %c0_i32_485 : i32
          %c0_i32_486 = arith.constant 0 : i32
          %906 = arith.cmpi slt, %902, %c0_i32_486 : i32
          %907 = arith.xori %905, %906 : i1
          %908 = arith.andi %907, %904 : i1
          %909 = arith.addi %903, %902 : i32
          %910 = arith.select %908, %909, %903 : i32
          %c8_i32_487 = arith.constant 8 : i32
          %911 = arith.muli %863, %c8_i32_487 : i32
          %912 = arith.subi %880, %911 : i32
          %913 = arith.index_cast %arg0 : i32 to index
          %914 = memref.load %arg4[%913] : memref<5xi32, #tpu.memory_space<smem>>
          %c128_i32_488 = arith.constant 128 : i32
          %915 = arith.addi %914, %c128_i32_488 : i32
          %c1_i32_489 = arith.constant 1 : i32
          %916 = arith.subi %915, %c1_i32_489 : i32
          %c128_i32_490 = arith.constant 128 : i32
          %917 = arith.divsi %916, %c128_i32_490 : i32
          %c0_i32_491 = arith.constant 0 : i32
          %918 = arith.cmpi sgt, %916, %c0_i32_491 : i32
          %919 = arith.extui %918 : i1 to i32
          %c0_i32_492 = arith.constant 0 : i32
          %920 = arith.cmpi slt, %916, %c0_i32_492 : i32
          %921 = arith.extui %920 : i1 to i32
          %922 = arith.subi %919, %921 : i32
          %c0_i32_493 = arith.constant 0 : i32
          %923 = arith.cmpi sgt, %c128_i32_490, %c0_i32_493 : i32
          %924 = arith.extui %923 : i1 to i32
          %c0_i32_494 = arith.constant 0 : i32
          %925 = arith.cmpi slt, %c128_i32_490, %c0_i32_494 : i32
          %926 = arith.extui %925 : i1 to i32
          %927 = arith.subi %924, %926 : i32
          %928 = arith.cmpi ne, %922, %927 : i32
          %929 = arith.remsi %916, %c128_i32_490 : i32
          %c0_i32_495 = arith.constant 0 : i32
          %930 = arith.cmpi ne, %929, %c0_i32_495 : i32
          %931 = arith.andi %928, %930 : i1
          %c1_i32_496 = arith.constant 1 : i32
          %932 = arith.subi %917, %c1_i32_496 : i32
          %933 = arith.select %931, %932, %917 : i32
          %934 = arith.addi %933, %880 : i32
          %935 = arith.subi %900, %880 : i32
          %c3_i32_497 = arith.constant 3 : i32
          %c0_i32_498 = arith.constant 0 : i32
          %936 = arith.subi %935, %c0_i32_498 : i32
          %937 = arith.addi %c0_i32_498, %936 : i32
          %c1_i32_499 = arith.constant 1 : i32
          %938:2 = scf.for %arg24 = %c0_i32_498 to %937 step %c1_i32_499 iter_args(%arg25 = %174, %arg26 = %910) -> (i32, i32)  : i32 {
            %c128_i32_500 = arith.constant 128 : i32
            %939 = arith.subi %c128_i32_500, %arg26 : i32
            %940 = arith.minsi %939, %arg25 : i32
            %941 = arith.addi %912, %arg24 : i32
            %c128_i32_501 = arith.constant 128 : i32
            %942 = arith.muli %941, %c128_i32_501 : i32
            %943 = arith.addi %942, %arg26 : i32
            %944 = arith.addi %934, %arg24 : i32
            %945 = arith.index_cast %944 : i32 to index
            %946 = memref.load %arg2[%945] : memref<1280xi32, #tpu.memory_space<smem>>
            %c128_i32_502 = arith.constant 128 : i32
            %947 = arith.muli %946, %c128_i32_502 : i32
            %948 = arith.addi %947, %arg26 : i32
            %c0_i32_503 = arith.constant 0 : i32
            %c0_i32_504 = arith.constant 0 : i32
            %c0_i32_505 = arith.constant 0 : i32
            %c0_i32_506 = arith.constant 0 : i32
            %949 = tpu.memref_slice %arg16[%120, %c0_i32_503, %c0_i32_504, %c0_i32_505, %c0_i32_506] : memref<2x1024x8x2x128xbf16, #tpu.memory_space<vmem>> -> memref<1x1024x8x2x128xbf16, strided<[2097152, 2048, 256, 128, 1], offset: ?>, #tpu.memory_space<vmem>>
            %950 = tpu.memref_squeeze %949 : memref<1x1024x8x2x128xbf16, strided<[2097152, 2048, 256, 128, 1], offset: ?>, #tpu.memory_space<vmem>> -> memref<1024x8x2x128xbf16, strided<[2048, 256, 128, 1], offset: ?>, #tpu.memory_space<vmem>>
            %c0_i32_507 = arith.constant 0 : i32
            %c0_i32_508 = arith.constant 0 : i32
            %c0_i32_509 = arith.constant 0 : i32
            %951 = tpu.memref_slice %950[%943, %c0_i32_507, %c0_i32_508, %c0_i32_509] <%940> : memref<1024x8x2x128xbf16, strided<[2048, 256, 128, 1], offset: ?>, #tpu.memory_space<vmem>> -> memref<?x8x2x128xbf16, strided<[2048, 256, 128, 1], offset: ?>, #tpu.memory_space<vmem>>
            %952 = tpu.memref_reshape %arg15 : memref<4688x128x8x2x128xbf16, #tpu.memory_space<any>> -> memref<600064x8x2x128xbf16, #tpu.memory_space<any>>
            %c0_i32_510 = arith.constant 0 : i32
            %c0_i32_511 = arith.constant 0 : i32
            %c0_i32_512 = arith.constant 0 : i32
            %953 = tpu.memref_slice %952[%948, %c0_i32_510, %c0_i32_511, %c0_i32_512] <%940> : memref<600064x8x2x128xbf16, #tpu.memory_space<any>> -> memref<?x8x2x128xbf16, strided<[2048, 256, 128, 1], offset: ?>, #tpu.memory_space<any>>
            %954 = tpu.memref_slice %arg19[%c3_i32_497, %120] : memref<5x2x!tpu.dma_semaphore, #tpu.memory_space<semaphore_mem>> -> memref<1x1x!tpu.dma_semaphore, strided<[2, 1], offset: ?>, #tpu.memory_space<semaphore_mem>>
            %955 = tpu.memref_squeeze %954 : memref<1x1x!tpu.dma_semaphore, strided<[2, 1], offset: ?>, #tpu.memory_space<semaphore_mem>> -> memref<!tpu.dma_semaphore, strided<[], offset: ?>, #tpu.memory_space<semaphore_mem>>
            tpu.enqueue_dma source(%951 : memref<?x8x2x128xbf16, strided<[2048, 256, 128, 1], offset: ?>, #tpu.memory_space<vmem>>) target(%953 : memref<?x8x2x128xbf16, strided<[2048, 256, 128, 1], offset: ?>, #tpu.memory_space<any>>) target_semaphore(%955 : memref<!tpu.dma_semaphore, strided<[], offset: ?>, #tpu.memory_space<semaphore_mem>>)
            %956 = arith.subi %arg25, %940 : i32
            %c0_i32_513 = arith.constant 0 : i32
            scf.yield %956, %c0_i32_513 : i32, i32
          }
        } else {
        }
        %215 = tpu.memref_bitcast %arg16 : memref<2x1024x8x2x128xbf16, #tpu.memory_space<vmem>> -> memref<2x1024x8x1x128xi32, #tpu.memory_space<vmem>>
        %c0_i32_118 = arith.constant 0 : i32
        %c0_i32_119 = arith.constant 0 : i32
        %c0_i32_120 = arith.constant 0 : i32
        %c0_i32_121 = arith.constant 0 : i32
        %216 = tpu.memref_slice %215[%120, %c0_i32_118, %c0_i32_119, %c0_i32_120, %c0_i32_121] : memref<2x1024x8x1x128xi32, #tpu.memory_space<vmem>> -> memref<1x1024x8x1x128xi32, strided<[1048576, 1024, 128, 128, 1], offset: ?>, #tpu.memory_space<vmem>>
        %217 = tpu.memref_squeeze %216 : memref<1x1024x8x1x128xi32, strided<[1048576, 1024, 128, 128, 1], offset: ?>, #tpu.memory_space<vmem>> -> memref<1024x8x1x128xi32, strided<[1024, 128, 128, 1], offset: ?>, #tpu.memory_space<vmem>>
        %218 = tpu.memref_reshape %217 : memref<1024x8x1x128xi32, strided<[1024, 128, 128, 1], offset: ?>, #tpu.memory_space<vmem>> -> memref<8192x128xi32, #tpu.memory_space<vmem>>
        %219 = tpu.memref_reshape %218 : memref<8192x128xi32, #tpu.memory_space<vmem>> -> memref<8192x128xi32, #tpu.memory_space<vmem>>
        %c0_122 = arith.constant 0 : index
        %c0_123 = arith.constant 0 : index
        %220 = tpu.strided_load %219[%c0_122, %c0_123] {strides = array<i32: 8, 1>} : memref<8192x128xi32, #tpu.memory_space<vmem>>, vector<1024x128xi32>
        %c0_i32_124 = arith.constant 0 : i32
        %221 = vector.broadcast %c0_i32_124 : i32 to vector<1024x128xi32>
        %222 = arith.shrui %220, %221 : vector<1024x128xi32>
        %223 = arith.trunci %222 : vector<1024x128xi32> to vector<1024x128xi16>
        %c16_i32 = arith.constant 16 : i32
        %224 = vector.broadcast %c16_i32 : i32 to vector<1024x128xi32>
        %225 = arith.shrui %220, %224 : vector<1024x128xi32>
        %226 = arith.trunci %225 : vector<1024x128xi32> to vector<1024x128xi16>
        %227 = tpu.bitcast %223 : vector<1024x128xi16> -> vector<512x128xi32>
        %228 = tpu.bitcast %226 : vector<1024x128xi16> -> vector<512x128xi32>
        %229 = arith.andi %227, %119 : vector<512x128xi32>
        %230 = arith.andi %228, %119 : vector<512x128xi32>
        %231 = tpu.bitcast %229 : vector<512x128xi32> -> vector<1024x128xbf16>
        %232 = tpu.bitcast %230 : vector<512x128xi32> -> vector<1024x128xbf16>
        %233 = tpu.memref_bitcast %arg16 : memref<2x1024x8x2x128xbf16, #tpu.memory_space<vmem>> -> memref<2x1024x8x1x128xi32, #tpu.memory_space<vmem>>
        %c0_i32_125 = arith.constant 0 : i32
        %c0_i32_126 = arith.constant 0 : i32
        %c0_i32_127 = arith.constant 0 : i32
        %c0_i32_128 = arith.constant 0 : i32
        %234 = tpu.memref_slice %233[%120, %c0_i32_125, %c0_i32_126, %c0_i32_127, %c0_i32_128] : memref<2x1024x8x1x128xi32, #tpu.memory_space<vmem>> -> memref<1x1024x8x1x128xi32, strided<[1048576, 1024, 128, 128, 1], offset: ?>, #tpu.memory_space<vmem>>
        %235 = tpu.memref_squeeze %234 : memref<1x1024x8x1x128xi32, strided<[1048576, 1024, 128, 128, 1], offset: ?>, #tpu.memory_space<vmem>> -> memref<1024x8x1x128xi32, strided<[1024, 128, 128, 1], offset: ?>, #tpu.memory_space<vmem>>
        %236 = tpu.memref_reshape %235 : memref<1024x8x1x128xi32, strided<[1024, 128, 128, 1], offset: ?>, #tpu.memory_space<vmem>> -> memref<8192x128xi32, #tpu.memory_space<vmem>>
        %237 = tpu.memref_reshape %236 : memref<8192x128xi32, #tpu.memory_space<vmem>> -> memref<8192x128xi32, #tpu.memory_space<vmem>>
        %c1_129 = arith.constant 1 : index
        %c0_130 = arith.constant 0 : index
        %238 = tpu.strided_load %237[%c1_129, %c0_130] {strides = array<i32: 8, 1>} : memref<8192x128xi32, #tpu.memory_space<vmem>>, vector<1024x128xi32>
        %c0_i32_131 = arith.constant 0 : i32
        %239 = vector.broadcast %c0_i32_131 : i32 to vector<1024x128xi32>
        %240 = arith.shrui %238, %239 : vector<1024x128xi32>
        %241 = arith.trunci %240 : vector<1024x128xi32> to vector<1024x128xi16>
        %c16_i32_132 = arith.constant 16 : i32
        %242 = vector.broadcast %c16_i32_132 : i32 to vector<1024x128xi32>
        %243 = arith.shrui %238, %242 : vector<1024x128xi32>
        %244 = arith.trunci %243 : vector<1024x128xi32> to vector<1024x128xi16>
        %245 = tpu.bitcast %241 : vector<1024x128xi16> -> vector<512x128xi32>
        %246 = tpu.bitcast %244 : vector<1024x128xi16> -> vector<512x128xi32>
        %247 = arith.andi %245, %119 : vector<512x128xi32>
        %248 = arith.andi %246, %119 : vector<512x128xi32>
        %249 = tpu.bitcast %247 : vector<512x128xi32> -> vector<1024x128xbf16>
        %250 = tpu.bitcast %248 : vector<512x128xi32> -> vector<1024x128xbf16>
        %251 = tpu.memref_bitcast %arg16 : memref<2x1024x8x2x128xbf16, #tpu.memory_space<vmem>> -> memref<2x1024x8x1x128xi32, #tpu.memory_space<vmem>>
        %c0_i32_133 = arith.constant 0 : i32
        %c0_i32_134 = arith.constant 0 : i32
        %c0_i32_135 = arith.constant 0 : i32
        %c0_i32_136 = arith.constant 0 : i32
        %252 = tpu.memref_slice %251[%120, %c0_i32_133, %c0_i32_134, %c0_i32_135, %c0_i32_136] : memref<2x1024x8x1x128xi32, #tpu.memory_space<vmem>> -> memref<1x1024x8x1x128xi32, strided<[1048576, 1024, 128, 128, 1], offset: ?>, #tpu.memory_space<vmem>>
        %253 = tpu.memref_squeeze %252 : memref<1x1024x8x1x128xi32, strided<[1048576, 1024, 128, 128, 1], offset: ?>, #tpu.memory_space<vmem>> -> memref<1024x8x1x128xi32, strided<[1024, 128, 128, 1], offset: ?>, #tpu.memory_space<vmem>>
        %254 = tpu.memref_reshape %253 : memref<1024x8x1x128xi32, strided<[1024, 128, 128, 1], offset: ?>, #tpu.memory_space<vmem>> -> memref<8192x128xi32, #tpu.memory_space<vmem>>
        %255 = tpu.memref_reshape %254 : memref<8192x128xi32, #tpu.memory_space<vmem>> -> memref<8192x128xi32, #tpu.memory_space<vmem>>
        %c2_137 = arith.constant 2 : index
        %c0_138 = arith.constant 0 : index
        %256 = tpu.strided_load %255[%c2_137, %c0_138] {strides = array<i32: 8, 1>} : memref<8192x128xi32, #tpu.memory_space<vmem>>, vector<1024x128xi32>
        %c0_i32_139 = arith.constant 0 : i32
        %257 = vector.broadcast %c0_i32_139 : i32 to vector<1024x128xi32>
        %258 = arith.shrui %256, %257 : vector<1024x128xi32>
        %259 = arith.trunci %258 : vector<1024x128xi32> to vector<1024x128xi16>
        %c16_i32_140 = arith.constant 16 : i32
        %260 = vector.broadcast %c16_i32_140 : i32 to vector<1024x128xi32>
        %261 = arith.shrui %256, %260 : vector<1024x128xi32>
        %262 = arith.trunci %261 : vector<1024x128xi32> to vector<1024x128xi16>
        %263 = tpu.bitcast %259 : vector<1024x128xi16> -> vector<512x128xi32>
        %264 = tpu.bitcast %262 : vector<1024x128xi16> -> vector<512x128xi32>
        %265 = arith.andi %263, %119 : vector<512x128xi32>
        %266 = arith.andi %264, %119 : vector<512x128xi32>
        %267 = tpu.bitcast %265 : vector<512x128xi32> -> vector<1024x128xbf16>
        %268 = tpu.bitcast %266 : vector<512x128xi32> -> vector<1024x128xbf16>
        %269 = tpu.memref_bitcast %arg16 : memref<2x1024x8x2x128xbf16, #tpu.memory_space<vmem>> -> memref<2x1024x8x1x128xi32, #tpu.memory_space<vmem>>
        %c0_i32_141 = arith.constant 0 : i32
        %c0_i32_142 = arith.constant 0 : i32
        %c0_i32_143 = arith.constant 0 : i32
        %c0_i32_144 = arith.constant 0 : i32
        %270 = tpu.memref_slice %269[%120, %c0_i32_141, %c0_i32_142, %c0_i32_143, %c0_i32_144] : memref<2x1024x8x1x128xi32, #tpu.memory_space<vmem>> -> memref<1x1024x8x1x128xi32, strided<[1048576, 1024, 128, 128, 1], offset: ?>, #tpu.memory_space<vmem>>
        %271 = tpu.memref_squeeze %270 : memref<1x1024x8x1x128xi32, strided<[1048576, 1024, 128, 128, 1], offset: ?>, #tpu.memory_space<vmem>> -> memref<1024x8x1x128xi32, strided<[1024, 128, 128, 1], offset: ?>, #tpu.memory_space<vmem>>
        %272 = tpu.memref_reshape %271 : memref<1024x8x1x128xi32, strided<[1024, 128, 128, 1], offset: ?>, #tpu.memory_space<vmem>> -> memref<8192x128xi32, #tpu.memory_space<vmem>>
        %273 = tpu.memref_reshape %272 : memref<8192x128xi32, #tpu.memory_space<vmem>> -> memref<8192x128xi32, #tpu.memory_space<vmem>>
        %c3 = arith.constant 3 : index
        %c0_145 = arith.constant 0 : index
        %274 = tpu.strided_load %273[%c3, %c0_145] {strides = array<i32: 8, 1>} : memref<8192x128xi32, #tpu.memory_space<vmem>>, vector<1024x128xi32>
        %c0_i32_146 = arith.constant 0 : i32
        %275 = vector.broadcast %c0_i32_146 : i32 to vector<1024x128xi32>
        %276 = arith.shrui %274, %275 : vector<1024x128xi32>
        %277 = arith.trunci %276 : vector<1024x128xi32> to vector<1024x128xi16>
        %c16_i32_147 = arith.constant 16 : i32
        %278 = vector.broadcast %c16_i32_147 : i32 to vector<1024x128xi32>
        %279 = arith.shrui %274, %278 : vector<1024x128xi32>
        %280 = arith.trunci %279 : vector<1024x128xi32> to vector<1024x128xi16>
        %281 = tpu.bitcast %277 : vector<1024x128xi16> -> vector<512x128xi32>
        %282 = tpu.bitcast %280 : vector<1024x128xi16> -> vector<512x128xi32>
        %283 = arith.andi %281, %119 : vector<512x128xi32>
        %284 = arith.andi %282, %119 : vector<512x128xi32>
        %285 = tpu.bitcast %283 : vector<512x128xi32> -> vector<1024x128xbf16>
        %286 = tpu.bitcast %284 : vector<512x128xi32> -> vector<1024x128xbf16>
        %287 = tpu.memref_bitcast %arg16 : memref<2x1024x8x2x128xbf16, #tpu.memory_space<vmem>> -> memref<2x1024x8x1x128xi32, #tpu.memory_space<vmem>>
        %c0_i32_148 = arith.constant 0 : i32
        %c0_i32_149 = arith.constant 0 : i32
        %c0_i32_150 = arith.constant 0 : i32
        %c0_i32_151 = arith.constant 0 : i32
        %288 = tpu.memref_slice %287[%120, %c0_i32_148, %c0_i32_149, %c0_i32_150, %c0_i32_151] : memref<2x1024x8x1x128xi32, #tpu.memory_space<vmem>> -> memref<1x1024x8x1x128xi32, strided<[1048576, 1024, 128, 128, 1], offset: ?>, #tpu.memory_space<vmem>>
        %289 = tpu.memref_squeeze %288 : memref<1x1024x8x1x128xi32, strided<[1048576, 1024, 128, 128, 1], offset: ?>, #tpu.memory_space<vmem>> -> memref<1024x8x1x128xi32, strided<[1024, 128, 128, 1], offset: ?>, #tpu.memory_space<vmem>>
        %290 = tpu.memref_reshape %289 : memref<1024x8x1x128xi32, strided<[1024, 128, 128, 1], offset: ?>, #tpu.memory_space<vmem>> -> memref<8192x128xi32, #tpu.memory_space<vmem>>
        %291 = tpu.memref_reshape %290 : memref<8192x128xi32, #tpu.memory_space<vmem>> -> memref<8192x128xi32, #tpu.memory_space<vmem>>
        %c4 = arith.constant 4 : index
        %c0_152 = arith.constant 0 : index
        %292 = tpu.strided_load %291[%c4, %c0_152] {strides = array<i32: 8, 1>} : memref<8192x128xi32, #tpu.memory_space<vmem>>, vector<1024x128xi32>
        %c0_i32_153 = arith.constant 0 : i32
        %293 = vector.broadcast %c0_i32_153 : i32 to vector<1024x128xi32>
        %294 = arith.shrui %292, %293 : vector<1024x128xi32>
        %295 = arith.trunci %294 : vector<1024x128xi32> to vector<1024x128xi16>
        %c16_i32_154 = arith.constant 16 : i32
        %296 = vector.broadcast %c16_i32_154 : i32 to vector<1024x128xi32>
        %297 = arith.shrui %292, %296 : vector<1024x128xi32>
        %298 = arith.trunci %297 : vector<1024x128xi32> to vector<1024x128xi16>
        %299 = tpu.bitcast %295 : vector<1024x128xi16> -> vector<512x128xi32>
        %300 = tpu.bitcast %298 : vector<1024x128xi16> -> vector<512x128xi32>
        %301 = arith.andi %299, %119 : vector<512x128xi32>
        %302 = arith.andi %300, %119 : vector<512x128xi32>
        %303 = tpu.bitcast %301 : vector<512x128xi32> -> vector<1024x128xbf16>
        %304 = tpu.bitcast %302 : vector<512x128xi32> -> vector<1024x128xbf16>
        %305 = tpu.memref_bitcast %arg16 : memref<2x1024x8x2x128xbf16, #tpu.memory_space<vmem>> -> memref<2x1024x8x1x128xi32, #tpu.memory_space<vmem>>
        %c0_i32_155 = arith.constant 0 : i32
        %c0_i32_156 = arith.constant 0 : i32
        %c0_i32_157 = arith.constant 0 : i32
        %c0_i32_158 = arith.constant 0 : i32
        %306 = tpu.memref_slice %305[%120, %c0_i32_155, %c0_i32_156, %c0_i32_157, %c0_i32_158] : memref<2x1024x8x1x128xi32, #tpu.memory_space<vmem>> -> memref<1x1024x8x1x128xi32, strided<[1048576, 1024, 128, 128, 1], offset: ?>, #tpu.memory_space<vmem>>
        %307 = tpu.memref_squeeze %306 : memref<1x1024x8x1x128xi32, strided<[1048576, 1024, 128, 128, 1], offset: ?>, #tpu.memory_space<vmem>> -> memref<1024x8x1x128xi32, strided<[1024, 128, 128, 1], offset: ?>, #tpu.memory_space<vmem>>
        %308 = tpu.memref_reshape %307 : memref<1024x8x1x128xi32, strided<[1024, 128, 128, 1], offset: ?>, #tpu.memory_space<vmem>> -> memref<8192x128xi32, #tpu.memory_space<vmem>>
        %309 = tpu.memref_reshape %308 : memref<8192x128xi32, #tpu.memory_space<vmem>> -> memref<8192x128xi32, #tpu.memory_space<vmem>>
        %c5 = arith.constant 5 : index
        %c0_159 = arith.constant 0 : index
        %310 = tpu.strided_load %309[%c5, %c0_159] {strides = array<i32: 8, 1>} : memref<8192x128xi32, #tpu.memory_space<vmem>>, vector<1024x128xi32>
        %c0_i32_160 = arith.constant 0 : i32
        %311 = vector.broadcast %c0_i32_160 : i32 to vector<1024x128xi32>
        %312 = arith.shrui %310, %311 : vector<1024x128xi32>
        %313 = arith.trunci %312 : vector<1024x128xi32> to vector<1024x128xi16>
        %c16_i32_161 = arith.constant 16 : i32
        %314 = vector.broadcast %c16_i32_161 : i32 to vector<1024x128xi32>
        %315 = arith.shrui %310, %314 : vector<1024x128xi32>
        %316 = arith.trunci %315 : vector<1024x128xi32> to vector<1024x128xi16>
        %317 = tpu.bitcast %313 : vector<1024x128xi16> -> vector<512x128xi32>
        %318 = tpu.bitcast %316 : vector<1024x128xi16> -> vector<512x128xi32>
        %319 = arith.andi %317, %119 : vector<512x128xi32>
        %320 = arith.andi %318, %119 : vector<512x128xi32>
        %321 = tpu.bitcast %319 : vector<512x128xi32> -> vector<1024x128xbf16>
        %322 = tpu.bitcast %320 : vector<512x128xi32> -> vector<1024x128xbf16>
        %323 = tpu.memref_bitcast %arg16 : memref<2x1024x8x2x128xbf16, #tpu.memory_space<vmem>> -> memref<2x1024x8x1x128xi32, #tpu.memory_space<vmem>>
        %c0_i32_162 = arith.constant 0 : i32
        %c0_i32_163 = arith.constant 0 : i32
        %c0_i32_164 = arith.constant 0 : i32
        %c0_i32_165 = arith.constant 0 : i32
        %324 = tpu.memref_slice %323[%120, %c0_i32_162, %c0_i32_163, %c0_i32_164, %c0_i32_165] : memref<2x1024x8x1x128xi32, #tpu.memory_space<vmem>> -> memref<1x1024x8x1x128xi32, strided<[1048576, 1024, 128, 128, 1], offset: ?>, #tpu.memory_space<vmem>>
        %325 = tpu.memref_squeeze %324 : memref<1x1024x8x1x128xi32, strided<[1048576, 1024, 128, 128, 1], offset: ?>, #tpu.memory_space<vmem>> -> memref<1024x8x1x128xi32, strided<[1024, 128, 128, 1], offset: ?>, #tpu.memory_space<vmem>>
        %326 = tpu.memref_reshape %325 : memref<1024x8x1x128xi32, strided<[1024, 128, 128, 1], offset: ?>, #tpu.memory_space<vmem>> -> memref<8192x128xi32, #tpu.memory_space<vmem>>
        %327 = tpu.memref_reshape %326 : memref<8192x128xi32, #tpu.memory_space<vmem>> -> memref<8192x128xi32, #tpu.memory_space<vmem>>
        %c6 = arith.constant 6 : index
        %c0_166 = arith.constant 0 : index
        %328 = tpu.strided_load %327[%c6, %c0_166] {strides = array<i32: 8, 1>} : memref<8192x128xi32, #tpu.memory_space<vmem>>, vector<1024x128xi32>
        %c0_i32_167 = arith.constant 0 : i32
        %329 = vector.broadcast %c0_i32_167 : i32 to vector<1024x128xi32>
        %330 = arith.shrui %328, %329 : vector<1024x128xi32>
        %331 = arith.trunci %330 : vector<1024x128xi32> to vector<1024x128xi16>
        %c16_i32_168 = arith.constant 16 : i32
        %332 = vector.broadcast %c16_i32_168 : i32 to vector<1024x128xi32>
        %333 = arith.shrui %328, %332 : vector<1024x128xi32>
        %334 = arith.trunci %333 : vector<1024x128xi32> to vector<1024x128xi16>
        %335 = tpu.bitcast %331 : vector<1024x128xi16> -> vector<512x128xi32>
        %336 = tpu.bitcast %334 : vector<1024x128xi16> -> vector<512x128xi32>
        %337 = arith.andi %335, %119 : vector<512x128xi32>
        %338 = arith.andi %336, %119 : vector<512x128xi32>
        %339 = tpu.bitcast %337 : vector<512x128xi32> -> vector<1024x128xbf16>
        %340 = tpu.bitcast %338 : vector<512x128xi32> -> vector<1024x128xbf16>
        %341 = tpu.memref_bitcast %arg16 : memref<2x1024x8x2x128xbf16, #tpu.memory_space<vmem>> -> memref<2x1024x8x1x128xi32, #tpu.memory_space<vmem>>
        %c0_i32_169 = arith.constant 0 : i32
        %c0_i32_170 = arith.constant 0 : i32
        %c0_i32_171 = arith.constant 0 : i32
        %c0_i32_172 = arith.constant 0 : i32
        %342 = tpu.memref_slice %341[%120, %c0_i32_169, %c0_i32_170, %c0_i32_171, %c0_i32_172] : memref<2x1024x8x1x128xi32, #tpu.memory_space<vmem>> -> memref<1x1024x8x1x128xi32, strided<[1048576, 1024, 128, 128, 1], offset: ?>, #tpu.memory_space<vmem>>
        %343 = tpu.memref_squeeze %342 : memref<1x1024x8x1x128xi32, strided<[1048576, 1024, 128, 128, 1], offset: ?>, #tpu.memory_space<vmem>> -> memref<1024x8x1x128xi32, strided<[1024, 128, 128, 1], offset: ?>, #tpu.memory_space<vmem>>
        %344 = tpu.memref_reshape %343 : memref<1024x8x1x128xi32, strided<[1024, 128, 128, 1], offset: ?>, #tpu.memory_space<vmem>> -> memref<8192x128xi32, #tpu.memory_space<vmem>>
        %345 = tpu.memref_reshape %344 : memref<8192x128xi32, #tpu.memory_space<vmem>> -> memref<8192x128xi32, #tpu.memory_space<vmem>>
        %c7 = arith.constant 7 : index
        %c0_173 = arith.constant 0 : index
        %346 = tpu.strided_load %345[%c7, %c0_173] {strides = array<i32: 8, 1>} : memref<8192x128xi32, #tpu.memory_space<vmem>>, vector<1024x128xi32>
        %c0_i32_174 = arith.constant 0 : i32
        %347 = vector.broadcast %c0_i32_174 : i32 to vector<1024x128xi32>
        %348 = arith.shrui %346, %347 : vector<1024x128xi32>
        %349 = arith.trunci %348 : vector<1024x128xi32> to vector<1024x128xi16>
        %c16_i32_175 = arith.constant 16 : i32
        %350 = vector.broadcast %c16_i32_175 : i32 to vector<1024x128xi32>
        %351 = arith.shrui %346, %350 : vector<1024x128xi32>
        %352 = arith.trunci %351 : vector<1024x128xi32> to vector<1024x128xi16>
        %353 = tpu.bitcast %349 : vector<1024x128xi16> -> vector<512x128xi32>
        %354 = tpu.bitcast %352 : vector<1024x128xi16> -> vector<512x128xi32>
        %355 = arith.andi %353, %119 : vector<512x128xi32>
        %356 = arith.andi %354, %119 : vector<512x128xi32>
        %357 = tpu.bitcast %355 : vector<512x128xi32> -> vector<1024x128xbf16>
        %358 = tpu.bitcast %356 : vector<512x128xi32> -> vector<1024x128xbf16>
        %359 = vector.shape_cast %231 : vector<1024x128xbf16> to vector<1x1024x128xbf16>
        %360 = vector.shape_cast %249 : vector<1024x128xbf16> to vector<1x1024x128xbf16>
        %361 = vector.shape_cast %267 : vector<1024x128xbf16> to vector<1x1024x128xbf16>
        %362 = vector.shape_cast %285 : vector<1024x128xbf16> to vector<1x1024x128xbf16>
        %363 = vector.shape_cast %303 : vector<1024x128xbf16> to vector<1x1024x128xbf16>
        %364 = vector.shape_cast %321 : vector<1024x128xbf16> to vector<1x1024x128xbf16>
        %365 = vector.shape_cast %339 : vector<1024x128xbf16> to vector<1x1024x128xbf16>
        %366 = vector.shape_cast %357 : vector<1024x128xbf16> to vector<1x1024x128xbf16>
        %367 = tpu.concatenate %359, %360, %361, %362, %363, %364, %365, %366 in 0 : vector<1x1024x128xbf16>, vector<1x1024x128xbf16>, vector<1x1024x128xbf16>, vector<1x1024x128xbf16>, vector<1x1024x128xbf16>, vector<1x1024x128xbf16>, vector<1x1024x128xbf16>, vector<1x1024x128xbf16> -> vector<8x1024x128xbf16>
        %368 = vector.shape_cast %232 : vector<1024x128xbf16> to vector<1x1024x128xbf16>
        %369 = vector.shape_cast %250 : vector<1024x128xbf16> to vector<1x1024x128xbf16>
        %370 = vector.shape_cast %268 : vector<1024x128xbf16> to vector<1x1024x128xbf16>
        %371 = vector.shape_cast %286 : vector<1024x128xbf16> to vector<1x1024x128xbf16>
        %372 = vector.shape_cast %304 : vector<1024x128xbf16> to vector<1x1024x128xbf16>
        %373 = vector.shape_cast %322 : vector<1024x128xbf16> to vector<1x1024x128xbf16>
        %374 = vector.shape_cast %340 : vector<1024x128xbf16> to vector<1x1024x128xbf16>
        %375 = vector.shape_cast %358 : vector<1024x128xbf16> to vector<1x1024x128xbf16>
        %376 = tpu.concatenate %368, %369, %370, %371, %372, %373, %374, %375 in 0 : vector<1x1024x128xbf16>, vector<1x1024x128xbf16>, vector<1x1024x128xbf16>, vector<1x1024x128xbf16>, vector<1x1024x128xbf16>, vector<1x1024x128xbf16>, vector<1x1024x128xbf16>, vector<1x1024x128xbf16> -> vector<8x1024x128xbf16>
        %377 = tpu.memref_bitcast %arg17 : memref<2x8x128x2x2x128xbf16, #tpu.memory_space<vmem>> -> memref<2x8x128x2x1x128xi32, #tpu.memory_space<vmem>>
        %c0_i32_176 = arith.constant 0 : i32
        %c0_i32_177 = arith.constant 0 : i32
        %c0_i32_178 = arith.constant 0 : i32
        %c0_i32_179 = arith.constant 0 : i32
        %c0_i32_180 = arith.constant 0 : i32
        %378 = tpu.memref_slice %377[%51, %c0_i32_176, %c0_i32_177, %c0_i32_178, %c0_i32_179, %c0_i32_180] : memref<2x8x128x2x1x128xi32, #tpu.memory_space<vmem>> -> memref<1x1x128x2x1x128xi32, strided<[262144, 32768, 256, 128, 128, 1], offset: ?>, #tpu.memory_space<vmem>>
        %379 = tpu.memref_squeeze %378 : memref<1x1x128x2x1x128xi32, strided<[262144, 32768, 256, 128, 128, 1], offset: ?>, #tpu.memory_space<vmem>> -> memref<128x2x1x128xi32, strided<[256, 128, 128, 1], offset: ?>, #tpu.memory_space<vmem>>
        %380 = tpu.memref_reshape %379 : memref<128x2x1x128xi32, strided<[256, 128, 128, 1], offset: ?>, #tpu.memory_space<vmem>> -> memref<256x128xi32, #tpu.memory_space<vmem>>
        %c0_181 = arith.constant 0 : index
        %c0_182 = arith.constant 0 : index
        %381 = vector.load %380[%c0_181, %c0_182] : memref<256x128xi32, #tpu.memory_space<vmem>>, vector<2x128xi32>
        %382 = tpu.bitcast %381 : vector<2x128xi32> -> vector<4x128xbf16>
        %383 = tpu.memref_bitcast %arg17 : memref<2x8x128x2x2x128xbf16, #tpu.memory_space<vmem>> -> memref<2x8x128x2x1x128xi32, #tpu.memory_space<vmem>>
        %c1_i32_183 = arith.constant 1 : i32
        %c0_i32_184 = arith.constant 0 : i32
        %c0_i32_185 = arith.constant 0 : i32
        %c0_i32_186 = arith.constant 0 : i32
        %c0_i32_187 = arith.constant 0 : i32
        %384 = tpu.memref_slice %383[%51, %c1_i32_183, %c0_i32_184, %c0_i32_185, %c0_i32_186, %c0_i32_187] : memref<2x8x128x2x1x128xi32, #tpu.memory_space<vmem>> -> memref<1x1x128x2x1x128xi32, strided<[262144, 32768, 256, 128, 128, 1], offset: ?>, #tpu.memory_space<vmem>>
        %385 = tpu.memref_squeeze %384 : memref<1x1x128x2x1x128xi32, strided<[262144, 32768, 256, 128, 128, 1], offset: ?>, #tpu.memory_space<vmem>> -> memref<128x2x1x128xi32, strided<[256, 128, 128, 1], offset: ?>, #tpu.memory_space<vmem>>
        %386 = tpu.memref_reshape %385 : memref<128x2x1x128xi32, strided<[256, 128, 128, 1], offset: ?>, #tpu.memory_space<vmem>> -> memref<256x128xi32, #tpu.memory_space<vmem>>
        %c0_188 = arith.constant 0 : index
        %c0_189 = arith.constant 0 : index
        %387 = vector.load %386[%c0_188, %c0_189] : memref<256x128xi32, #tpu.memory_space<vmem>>, vector<2x128xi32>
        %388 = tpu.bitcast %387 : vector<2x128xi32> -> vector<4x128xbf16>
        %389 = tpu.memref_bitcast %arg17 : memref<2x8x128x2x2x128xbf16, #tpu.memory_space<vmem>> -> memref<2x8x128x2x1x128xi32, #tpu.memory_space<vmem>>
        %c2_i32_190 = arith.constant 2 : i32
        %c0_i32_191 = arith.constant 0 : i32
        %c0_i32_192 = arith.constant 0 : i32
        %c0_i32_193 = arith.constant 0 : i32
        %c0_i32_194 = arith.constant 0 : i32
        %390 = tpu.memref_slice %389[%51, %c2_i32_190, %c0_i32_191, %c0_i32_192, %c0_i32_193, %c0_i32_194] : memref<2x8x128x2x1x128xi32, #tpu.memory_space<vmem>> -> memref<1x1x128x2x1x128xi32, strided<[262144, 32768, 256, 128, 128, 1], offset: ?>, #tpu.memory_space<vmem>>
        %391 = tpu.memref_squeeze %390 : memref<1x1x128x2x1x128xi32, strided<[262144, 32768, 256, 128, 128, 1], offset: ?>, #tpu.memory_space<vmem>> -> memref<128x2x1x128xi32, strided<[256, 128, 128, 1], offset: ?>, #tpu.memory_space<vmem>>
        %392 = tpu.memref_reshape %391 : memref<128x2x1x128xi32, strided<[256, 128, 128, 1], offset: ?>, #tpu.memory_space<vmem>> -> memref<256x128xi32, #tpu.memory_space<vmem>>
        %c0_195 = arith.constant 0 : index
        %c0_196 = arith.constant 0 : index
        %393 = vector.load %392[%c0_195, %c0_196] : memref<256x128xi32, #tpu.memory_space<vmem>>, vector<2x128xi32>
        %394 = tpu.bitcast %393 : vector<2x128xi32> -> vector<4x128xbf16>
        %395 = tpu.memref_bitcast %arg17 : memref<2x8x128x2x2x128xbf16, #tpu.memory_space<vmem>> -> memref<2x8x128x2x1x128xi32, #tpu.memory_space<vmem>>
        %c3_i32 = arith.constant 3 : i32
        %c0_i32_197 = arith.constant 0 : i32
        %c0_i32_198 = arith.constant 0 : i32
        %c0_i32_199 = arith.constant 0 : i32
        %c0_i32_200 = arith.constant 0 : i32
        %396 = tpu.memref_slice %395[%51, %c3_i32, %c0_i32_197, %c0_i32_198, %c0_i32_199, %c0_i32_200] : memref<2x8x128x2x1x128xi32, #tpu.memory_space<vmem>> -> memref<1x1x128x2x1x128xi32, strided<[262144, 32768, 256, 128, 128, 1], offset: ?>, #tpu.memory_space<vmem>>
        %397 = tpu.memref_squeeze %396 : memref<1x1x128x2x1x128xi32, strided<[262144, 32768, 256, 128, 128, 1], offset: ?>, #tpu.memory_space<vmem>> -> memref<128x2x1x128xi32, strided<[256, 128, 128, 1], offset: ?>, #tpu.memory_space<vmem>>
        %398 = tpu.memref_reshape %397 : memref<128x2x1x128xi32, strided<[256, 128, 128, 1], offset: ?>, #tpu.memory_space<vmem>> -> memref<256x128xi32, #tpu.memory_space<vmem>>
        %c0_201 = arith.constant 0 : index
        %c0_202 = arith.constant 0 : index
        %399 = vector.load %398[%c0_201, %c0_202] : memref<256x128xi32, #tpu.memory_space<vmem>>, vector<2x128xi32>
        %400 = tpu.bitcast %399 : vector<2x128xi32> -> vector<4x128xbf16>
        %401 = tpu.memref_bitcast %arg17 : memref<2x8x128x2x2x128xbf16, #tpu.memory_space<vmem>> -> memref<2x8x128x2x1x128xi32, #tpu.memory_space<vmem>>
        %c4_i32_203 = arith.constant 4 : i32
        %c0_i32_204 = arith.constant 0 : i32
        %c0_i32_205 = arith.constant 0 : i32
        %c0_i32_206 = arith.constant 0 : i32
        %c0_i32_207 = arith.constant 0 : i32
        %402 = tpu.memref_slice %401[%51, %c4_i32_203, %c0_i32_204, %c0_i32_205, %c0_i32_206, %c0_i32_207] : memref<2x8x128x2x1x128xi32, #tpu.memory_space<vmem>> -> memref<1x1x128x2x1x128xi32, strided<[262144, 32768, 256, 128, 128, 1], offset: ?>, #tpu.memory_space<vmem>>
        %403 = tpu.memref_squeeze %402 : memref<1x1x128x2x1x128xi32, strided<[262144, 32768, 256, 128, 128, 1], offset: ?>, #tpu.memory_space<vmem>> -> memref<128x2x1x128xi32, strided<[256, 128, 128, 1], offset: ?>, #tpu.memory_space<vmem>>
        %404 = tpu.memref_reshape %403 : memref<128x2x1x128xi32, strided<[256, 128, 128, 1], offset: ?>, #tpu.memory_space<vmem>> -> memref<256x128xi32, #tpu.memory_space<vmem>>
        %c0_208 = arith.constant 0 : index
        %c0_209 = arith.constant 0 : index
        %405 = vector.load %404[%c0_208, %c0_209] : memref<256x128xi32, #tpu.memory_space<vmem>>, vector<2x128xi32>
        %406 = tpu.bitcast %405 : vector<2x128xi32> -> vector<4x128xbf16>
        %407 = tpu.memref_bitcast %arg17 : memref<2x8x128x2x2x128xbf16, #tpu.memory_space<vmem>> -> memref<2x8x128x2x1x128xi32, #tpu.memory_space<vmem>>
        %c5_i32 = arith.constant 5 : i32
        %c0_i32_210 = arith.constant 0 : i32
        %c0_i32_211 = arith.constant 0 : i32
        %c0_i32_212 = arith.constant 0 : i32
        %c0_i32_213 = arith.constant 0 : i32
        %408 = tpu.memref_slice %407[%51, %c5_i32, %c0_i32_210, %c0_i32_211, %c0_i32_212, %c0_i32_213] : memref<2x8x128x2x1x128xi32, #tpu.memory_space<vmem>> -> memref<1x1x128x2x1x128xi32, strided<[262144, 32768, 256, 128, 128, 1], offset: ?>, #tpu.memory_space<vmem>>
        %409 = tpu.memref_squeeze %408 : memref<1x1x128x2x1x128xi32, strided<[262144, 32768, 256, 128, 128, 1], offset: ?>, #tpu.memory_space<vmem>> -> memref<128x2x1x128xi32, strided<[256, 128, 128, 1], offset: ?>, #tpu.memory_space<vmem>>
        %410 = tpu.memref_reshape %409 : memref<128x2x1x128xi32, strided<[256, 128, 128, 1], offset: ?>, #tpu.memory_space<vmem>> -> memref<256x128xi32, #tpu.memory_space<vmem>>
        %c0_214 = arith.constant 0 : index
        %c0_215 = arith.constant 0 : index
        %411 = vector.load %410[%c0_214, %c0_215] : memref<256x128xi32, #tpu.memory_space<vmem>>, vector<2x128xi32>
        %412 = tpu.bitcast %411 : vector<2x128xi32> -> vector<4x128xbf16>
        %413 = tpu.memref_bitcast %arg17 : memref<2x8x128x2x2x128xbf16, #tpu.memory_space<vmem>> -> memref<2x8x128x2x1x128xi32, #tpu.memory_space<vmem>>
        %c6_i32 = arith.constant 6 : i32
        %c0_i32_216 = arith.constant 0 : i32
        %c0_i32_217 = arith.constant 0 : i32
        %c0_i32_218 = arith.constant 0 : i32
        %c0_i32_219 = arith.constant 0 : i32
        %414 = tpu.memref_slice %413[%51, %c6_i32, %c0_i32_216, %c0_i32_217, %c0_i32_218, %c0_i32_219] : memref<2x8x128x2x1x128xi32, #tpu.memory_space<vmem>> -> memref<1x1x128x2x1x128xi32, strided<[262144, 32768, 256, 128, 128, 1], offset: ?>, #tpu.memory_space<vmem>>
        %415 = tpu.memref_squeeze %414 : memref<1x1x128x2x1x128xi32, strided<[262144, 32768, 256, 128, 128, 1], offset: ?>, #tpu.memory_space<vmem>> -> memref<128x2x1x128xi32, strided<[256, 128, 128, 1], offset: ?>, #tpu.memory_space<vmem>>
        %416 = tpu.memref_reshape %415 : memref<128x2x1x128xi32, strided<[256, 128, 128, 1], offset: ?>, #tpu.memory_space<vmem>> -> memref<256x128xi32, #tpu.memory_space<vmem>>
        %c0_220 = arith.constant 0 : index
        %c0_221 = arith.constant 0 : index
        %417 = vector.load %416[%c0_220, %c0_221] : memref<256x128xi32, #tpu.memory_space<vmem>>, vector<2x128xi32>
        %418 = tpu.bitcast %417 : vector<2x128xi32> -> vector<4x128xbf16>
        %419 = tpu.memref_bitcast %arg17 : memref<2x8x128x2x2x128xbf16, #tpu.memory_space<vmem>> -> memref<2x8x128x2x1x128xi32, #tpu.memory_space<vmem>>
        %c7_i32 = arith.constant 7 : i32
        %c0_i32_222 = arith.constant 0 : i32
        %c0_i32_223 = arith.constant 0 : i32
        %c0_i32_224 = arith.constant 0 : i32
        %c0_i32_225 = arith.constant 0 : i32
        %420 = tpu.memref_slice %419[%51, %c7_i32, %c0_i32_222, %c0_i32_223, %c0_i32_224, %c0_i32_225] : memref<2x8x128x2x1x128xi32, #tpu.memory_space<vmem>> -> memref<1x1x128x2x1x128xi32, strided<[262144, 32768, 256, 128, 128, 1], offset: ?>, #tpu.memory_space<vmem>>
        %421 = tpu.memref_squeeze %420 : memref<1x1x128x2x1x128xi32, strided<[262144, 32768, 256, 128, 128, 1], offset: ?>, #tpu.memory_space<vmem>> -> memref<128x2x1x128xi32, strided<[256, 128, 128, 1], offset: ?>, #tpu.memory_space<vmem>>
        %422 = tpu.memref_reshape %421 : memref<128x2x1x128xi32, strided<[256, 128, 128, 1], offset: ?>, #tpu.memory_space<vmem>> -> memref<256x128xi32, #tpu.memory_space<vmem>>
        %c0_226 = arith.constant 0 : index
        %c0_227 = arith.constant 0 : index
        %423 = vector.load %422[%c0_226, %c0_227] : memref<256x128xi32, #tpu.memory_space<vmem>>, vector<2x128xi32>
        %424 = tpu.bitcast %423 : vector<2x128xi32> -> vector<4x128xbf16>
        %425 = vector.shape_cast %382 : vector<4x128xbf16> to vector<1x4x128xbf16>
        %426 = vector.shape_cast %388 : vector<4x128xbf16> to vector<1x4x128xbf16>
        %427 = vector.shape_cast %394 : vector<4x128xbf16> to vector<1x4x128xbf16>
        %428 = vector.shape_cast %400 : vector<4x128xbf16> to vector<1x4x128xbf16>
        %429 = vector.shape_cast %406 : vector<4x128xbf16> to vector<1x4x128xbf16>
        %430 = vector.shape_cast %412 : vector<4x128xbf16> to vector<1x4x128xbf16>
        %431 = vector.shape_cast %418 : vector<4x128xbf16> to vector<1x4x128xbf16>
        %432 = vector.shape_cast %424 : vector<4x128xbf16> to vector<1x4x128xbf16>
        %433 = tpu.concatenate %425, %426, %427, %428, %429, %430, %431, %432 in 0 : vector<1x4x128xbf16>, vector<1x4x128xbf16>, vector<1x4x128xbf16>, vector<1x4x128xbf16>, vector<1x4x128xbf16>, vector<1x4x128xbf16>, vector<1x4x128xbf16>, vector<1x4x128xbf16> -> vector<8x4x128xbf16>
        %434 = arith.extf %433 : vector<8x4x128xbf16> to vector<8x4x128xf32>
        %435 = arith.extf %367 : vector<8x1024x128xbf16> to vector<8x1024x128xf32>
        %436 = arith.extf %376 : vector<8x1024x128xbf16> to vector<8x1024x128xf32>
        "tpu.trace_start"() <{level = 10 : i32, message = "hqd,hkd->hqk"}> : () -> ()
        %cst = arith.constant dense<0.000000e+00> : vector<8x4x1024xf32>
        %437 = tpu.matmul %434, %435, %cst {dimension_numbers = #tpu.dot_dimension_numbers<[2], [2], [1], [1], [0, 0, 0, 1, 1, 1], [0], [0]>} : vector<8x4x128xf32>, vector<8x1024x128xf32>, vector<8x4x1024xf32> -> vector<8x4x1024xf32>
        "tpu.trace_stop"() : () -> ()
        %cst_228 = arith.constant 0.0883883461 : f32
        %438 = vector.broadcast %cst_228 : f32 to vector<8x4x1024xf32>
        %439 = arith.mulf %437, %438 : vector<8x4x1024xf32>
        %440 = arith.subi %11, %9 : i32
        %c128_i32_229 = arith.constant 128 : i32
        %441 = arith.muli %c0_i32_14, %c128_i32_229 : i32
        %442 = arith.addi %440, %441 : i32
        %443 = tpu.iota {dimensions = array<i32: 1>} : vector<8x4x1024xi32>
        %c4_i32_230 = arith.constant 4 : i32
        %444 = vector.broadcast %c4_i32_230 : i32 to vector<8x4x1024xi32>
        %445 = arith.divsi %443, %444 : vector<8x4x1024xi32>
        %c0_i32_231 = arith.constant 0 : i32
        %446 = vector.broadcast %c0_i32_231 : i32 to vector<8x4x1024xi32>
        %447 = arith.cmpi sgt, %443, %446 : vector<8x4x1024xi32>
        %448 = arith.extui %447 : vector<8x4x1024xi1> to vector<8x4x1024xi32>
        %c0_i32_232 = arith.constant 0 : i32
        %449 = vector.broadcast %c0_i32_232 : i32 to vector<8x4x1024xi32>
        %450 = arith.cmpi slt, %443, %449 : vector<8x4x1024xi32>
        %451 = arith.extui %450 : vector<8x4x1024xi1> to vector<8x4x1024xi32>
        %452 = arith.subi %448, %451 : vector<8x4x1024xi32>
        %c0_i32_233 = arith.constant 0 : i32
        %453 = arith.cmpi sgt, %c4_i32_230, %c0_i32_233 : i32
        %454 = arith.extui %453 : i1 to i32
        %c0_i32_234 = arith.constant 0 : i32
        %455 = arith.cmpi slt, %c4_i32_230, %c0_i32_234 : i32
        %456 = arith.extui %455 : i1 to i32
        %457 = arith.subi %454, %456 : i32
        %458 = vector.broadcast %457 : i32 to vector<8x4x1024xi32>
        %459 = arith.cmpi ne, %452, %458 : vector<8x4x1024xi32>
        %460 = vector.broadcast %c4_i32_230 : i32 to vector<8x4x1024xi32>
        %461 = arith.remsi %443, %460 : vector<8x4x1024xi32>
        %c0_i32_235 = arith.constant 0 : i32
        %462 = vector.broadcast %c0_i32_235 : i32 to vector<8x4x1024xi32>
        %463 = arith.cmpi ne, %461, %462 : vector<8x4x1024xi32>
        %464 = arith.andi %459, %463 : vector<8x4x1024xi1>
        %c1_i32_236 = arith.constant 1 : i32
        %465 = vector.broadcast %c1_i32_236 : i32 to vector<8x4x1024xi32>
        %466 = arith.subi %445, %465 : vector<8x4x1024xi32>
        %467 = arith.select %464, %466, %445 : vector<8x4x1024xi1>, vector<8x4x1024xi32>
        %468 = vector.broadcast %442 : i32 to vector<8x4x1024xi32>
        %469 = arith.addi %468, %467 : vector<8x4x1024xi32>
        %c1024_i32_237 = arith.constant 1024 : i32
        %470 = arith.muli %arg23, %c1024_i32_237 : i32
        %471 = tpu.iota {dimensions = array<i32: 2>} : vector<8x4x1024xi32>
        %472 = vector.broadcast %470 : i32 to vector<8x4x1024xi32>
        %473 = arith.addi %472, %471 : vector<8x4x1024xi32>
        %474 = arith.cmpi slt, %469, %473 : vector<8x4x1024xi32>
        %cst_238 = arith.constant -2.38197633E+38 : f32
        %cst_239 = arith.constant 0.000000e+00 : f32
        %475 = vector.broadcast %cst_238 : f32 to vector<8x4x1024xf32>
        %476 = vector.broadcast %cst_239 : f32 to vector<8x4x1024xf32>
        %477 = arith.select %474, %475, %476 : vector<8x4x1024xi1>, vector<8x4x1024xf32>
        %478 = arith.addf %439, %477 : vector<8x4x1024xf32>
        %479 = vector.extract_strided_slice %478 {offsets = [0, 0, 0], sizes = [1, 4, 1024], strides = [1, 1, 1]} : vector<8x4x1024xf32> to vector<1x4x1024xf32>
        %480 = vector.shape_cast %479 : vector<1x4x1024xf32> to vector<4x1024xf32>
        %cst_240 = arith.constant dense<0xFF800000> : vector<4xf32>
        %481 = vector.multi_reduction <maximumf>, %480, %cst_240 [1] : vector<4x1024xf32> to vector<4xf32>
        %482 = vector.shape_cast %481 : vector<4xf32> to vector<4x1xf32>
        %c0_i32_241 = arith.constant 0 : i32
        %483 = arith.cmpi eq, %arg23, %c0_i32_241 : i32
        %cst_242 = arith.constant 0xFF800000 : f32
        %484 = vector.broadcast %cst_242 : f32 to vector<4x128xf32>
        %c0_243 = arith.constant 0 : index
        %c0_244 = arith.constant 0 : index
        %c0_245 = arith.constant 0 : index
        %485 = vector.load %arg21[%c0_243, %c0_244, %c0_245] : memref<8x512x128xf32, #tpu.memory_space<vmem>>, vector<1x4x128xf32>
        %486 = vector.shape_cast %485 : vector<1x4x128xf32> to vector<4x128xf32>
        %487 = arith.select %483, %484, %486 : vector<4x128xf32>
        %488 = vector.broadcast %482 : vector<4x1xf32> to vector<4x128xf32>
        %489 = arith.maximumf %487, %488 : vector<4x128xf32>
        %c0_246 = arith.constant 0 : index
        %c0_247 = arith.constant 0 : index
        %c0_248 = arith.constant 0 : index
        %490 = vector.load %arg21[%c0_246, %c0_247, %c0_248] : memref<8x512x128xf32, #tpu.memory_space<vmem>>, vector<1x4x128xf32>
        %491 = vector.shape_cast %490 : vector<1x4x128xf32> to vector<4x128xf32>
        %492 = vector.shape_cast %489 : vector<4x128xf32> to vector<1x4x128xf32>
        tpu.vector_store %arg21[%c0_246, %c0_247, %c0_248], %492 {strides = array<i32>} : memref<8x512x128xf32, #tpu.memory_space<vmem>>, vector<1x4x128xf32>, 
        %493 = tpu.concatenate %489, %489, %489, %489, %489, %489, %489, %489 in 1 : vector<4x128xf32>, vector<4x128xf32>, vector<4x128xf32>, vector<4x128xf32>, vector<4x128xf32>, vector<4x128xf32>, vector<4x128xf32>, vector<4x128xf32> -> vector<4x1024xf32>
        %494 = arith.subf %480, %493 : vector<4x1024xf32>
        %495 = math.exp %494 : vector<4x1024xf32>
        %496 = vector.extract_strided_slice %436 {offsets = [0, 0, 0], sizes = [1, 1024, 128], strides = [1, 1, 1]} : vector<8x1024x128xf32> to vector<1x1024x128xf32>
        %497 = vector.shape_cast %496 : vector<1x1024x128xf32> to vector<1024x128xf32>
        "tpu.trace_start"() <{level = 10 : i32, message = "qk,kd->qd"}> : () -> ()
        %cst_249 = arith.constant dense<0.000000e+00> : vector<4x128xf32>
        %498 = tpu.matmul %495, %497, %cst_249 {dimension_numbers = #tpu.dot_dimension_numbers<[1], [0], [0], [1], [0, 0, 1, 1], [], []>} : vector<4x1024xf32>, vector<1024x128xf32>, vector<4x128xf32> -> vector<4x128xf32>
        "tpu.trace_stop"() : () -> ()
        %cst_250 = arith.constant dense<0.000000e+00> : vector<4xf32>
        %499 = vector.multi_reduction <add>, %495, %cst_250 [1] : vector<4x1024xf32> to vector<4xf32>
        %500 = vector.shape_cast %499 : vector<4xf32> to vector<4x1xf32>
        %501 = arith.subf %487, %489 : vector<4x128xf32>
        %502 = math.exp %501 : vector<4x128xf32>
        %c0_i32_251 = arith.constant 0 : i32
        %503 = arith.cmpi eq, %arg23, %c0_i32_251 : i32
        %cst_252 = arith.constant 0.000000e+00 : f32
        %504 = vector.broadcast %cst_252 : f32 to vector<4x128xf32>
        %c0_253 = arith.constant 0 : index
        %c0_254 = arith.constant 0 : index
        %c0_255 = arith.constant 0 : index
        %505 = vector.load %arg20[%c0_253, %c0_254, %c0_255] : memref<8x512x128xf32, #tpu.memory_space<vmem>>, vector<1x4x128xf32>
        %506 = vector.shape_cast %505 : vector<1x4x128xf32> to vector<4x128xf32>
        %507 = arith.select %503, %504, %506 : vector<4x128xf32>
        %508 = arith.mulf %502, %507 : vector<4x128xf32>
        %509 = vector.broadcast %500 : vector<4x1xf32> to vector<4x128xf32>
        %510 = arith.addf %508, %509 : vector<4x128xf32>
        %c0_256 = arith.constant 0 : index
        %c0_257 = arith.constant 0 : index
        %c0_258 = arith.constant 0 : index
        %511 = vector.load %arg20[%c0_256, %c0_257, %c0_258] : memref<8x512x128xf32, #tpu.memory_space<vmem>>, vector<1x4x128xf32>
        %512 = vector.shape_cast %511 : vector<1x4x128xf32> to vector<4x128xf32>
        %513 = vector.shape_cast %510 : vector<4x128xf32> to vector<1x4x128xf32>
        tpu.vector_store %arg20[%c0_256, %c0_257, %c0_258], %513 {strides = array<i32>} : memref<8x512x128xf32, #tpu.memory_space<vmem>>, vector<1x4x128xf32>, 
        %c0_i32_259 = arith.constant 0 : i32
        %514 = arith.cmpi eq, %arg23, %c0_i32_259 : i32
        %cst_260 = arith.constant 0.000000e+00 : f32
        %515 = vector.broadcast %cst_260 : f32 to vector<4x128xf32>
        %c0_261 = arith.constant 0 : index
        %c0_262 = arith.constant 0 : index
        %c0_263 = arith.constant 0 : index
        %516 = vector.load %arg22[%c0_261, %c0_262, %c0_263] : memref<8x512x128xf32, #tpu.memory_space<vmem>>, vector<1x4x128xf32>
        %517 = vector.shape_cast %516 : vector<1x4x128xf32> to vector<4x128xf32>
        %518 = arith.select %514, %515, %517 : vector<4x128xf32>
        %519 = arith.mulf %502, %518 : vector<4x128xf32>
        %520 = arith.addf %519, %498 : vector<4x128xf32>
        %c0_264 = arith.constant 0 : index
        %c0_265 = arith.constant 0 : index
        %c0_266 = arith.constant 0 : index
        %521 = vector.load %arg22[%c0_264, %c0_265, %c0_266] : memref<8x512x128xf32, #tpu.memory_space<vmem>>, vector<1x4x128xf32>
        %522 = vector.shape_cast %521 : vector<1x4x128xf32> to vector<4x128xf32>
        %523 = vector.shape_cast %520 : vector<4x128xf32> to vector<1x4x128xf32>
        tpu.vector_store %arg22[%c0_264, %c0_265, %c0_266], %523 {strides = array<i32>} : memref<8x512x128xf32, #tpu.memory_space<vmem>>, vector<1x4x128xf32>, 
        %524 = vector.extract_strided_slice %478 {offsets = [1, 0, 0], sizes = [1, 4, 1024], strides = [1, 1, 1]} : vector<8x4x1024xf32> to vector<1x4x1024xf32>
        %525 = vector.shape_cast %524 : vector<1x4x1024xf32> to vector<4x1024xf32>
        %cst_267 = arith.constant dense<0xFF800000> : vector<4xf32>
        %526 = vector.multi_reduction <maximumf>, %525, %cst_267 [1] : vector<4x1024xf32> to vector<4xf32>
        %527 = vector.shape_cast %526 : vector<4xf32> to vector<4x1xf32>
        %c0_i32_268 = arith.constant 0 : i32
        %528 = arith.cmpi eq, %arg23, %c0_i32_268 : i32
        %cst_269 = arith.constant 0xFF800000 : f32
        %529 = vector.broadcast %cst_269 : f32 to vector<4x128xf32>
        %c1_270 = arith.constant 1 : index
        %c0_271 = arith.constant 0 : index
        %c0_272 = arith.constant 0 : index
        %530 = vector.load %arg21[%c1_270, %c0_271, %c0_272] : memref<8x512x128xf32, #tpu.memory_space<vmem>>, vector<1x4x128xf32>
        %531 = vector.shape_cast %530 : vector<1x4x128xf32> to vector<4x128xf32>
        %532 = arith.select %528, %529, %531 : vector<4x128xf32>
        %533 = vector.broadcast %527 : vector<4x1xf32> to vector<4x128xf32>
        %534 = arith.maximumf %532, %533 : vector<4x128xf32>
        %c1_273 = arith.constant 1 : index
        %c0_274 = arith.constant 0 : index
        %c0_275 = arith.constant 0 : index
        %535 = vector.load %arg21[%c1_273, %c0_274, %c0_275] : memref<8x512x128xf32, #tpu.memory_space<vmem>>, vector<1x4x128xf32>
        %536 = vector.shape_cast %535 : vector<1x4x128xf32> to vector<4x128xf32>
        %537 = vector.shape_cast %534 : vector<4x128xf32> to vector<1x4x128xf32>
        tpu.vector_store %arg21[%c1_273, %c0_274, %c0_275], %537 {strides = array<i32>} : memref<8x512x128xf32, #tpu.memory_space<vmem>>, vector<1x4x128xf32>, 
        %538 = tpu.concatenate %534, %534, %534, %534, %534, %534, %534, %534 in 1 : vector<4x128xf32>, vector<4x128xf32>, vector<4x128xf32>, vector<4x128xf32>, vector<4x128xf32>, vector<4x128xf32>, vector<4x128xf32>, vector<4x128xf32> -> vector<4x1024xf32>
        %539 = arith.subf %525, %538 : vector<4x1024xf32>
        %540 = math.exp %539 : vector<4x1024xf32>
        %541 = vector.extract_strided_slice %436 {offsets = [1, 0, 0], sizes = [1, 1024, 128], strides = [1, 1, 1]} : vector<8x1024x128xf32> to vector<1x1024x128xf32>
        %542 = vector.shape_cast %541 : vector<1x1024x128xf32> to vector<1024x128xf32>
        "tpu.trace_start"() <{level = 10 : i32, message = "qk,kd->qd"}> : () -> ()
        %cst_276 = arith.constant dense<0.000000e+00> : vector<4x128xf32>
        %543 = tpu.matmul %540, %542, %cst_276 {dimension_numbers = #tpu.dot_dimension_numbers<[1], [0], [0], [1], [0, 0, 1, 1], [], []>} : vector<4x1024xf32>, vector<1024x128xf32>, vector<4x128xf32> -> vector<4x128xf32>
        "tpu.trace_stop"() : () -> ()
        %cst_277 = arith.constant dense<0.000000e+00> : vector<4xf32>
        %544 = vector.multi_reduction <add>, %540, %cst_277 [1] : vector<4x1024xf32> to vector<4xf32>
        %545 = vector.shape_cast %544 : vector<4xf32> to vector<4x1xf32>
        %546 = arith.subf %532, %534 : vector<4x128xf32>
        %547 = math.exp %546 : vector<4x128xf32>
        %c0_i32_278 = arith.constant 0 : i32
        %548 = arith.cmpi eq, %arg23, %c0_i32_278 : i32
        %cst_279 = arith.constant 0.000000e+00 : f32
        %549 = vector.broadcast %cst_279 : f32 to vector<4x128xf32>
        %c1_280 = arith.constant 1 : index
        %c0_281 = arith.constant 0 : index
        %c0_282 = arith.constant 0 : index
        %550 = vector.load %arg20[%c1_280, %c0_281, %c0_282] : memref<8x512x128xf32, #tpu.memory_space<vmem>>, vector<1x4x128xf32>
        %551 = vector.shape_cast %550 : vector<1x4x128xf32> to vector<4x128xf32>
        %552 = arith.select %548, %549, %551 : vector<4x128xf32>
        %553 = arith.mulf %547, %552 : vector<4x128xf32>
        %554 = vector.broadcast %545 : vector<4x1xf32> to vector<4x128xf32>
        %555 = arith.addf %553, %554 : vector<4x128xf32>
        %c1_283 = arith.constant 1 : index
        %c0_284 = arith.constant 0 : index
        %c0_285 = arith.constant 0 : index
        %556 = vector.load %arg20[%c1_283, %c0_284, %c0_285] : memref<8x512x128xf32, #tpu.memory_space<vmem>>, vector<1x4x128xf32>
        %557 = vector.shape_cast %556 : vector<1x4x128xf32> to vector<4x128xf32>
        %558 = vector.shape_cast %555 : vector<4x128xf32> to vector<1x4x128xf32>
        tpu.vector_store %arg20[%c1_283, %c0_284, %c0_285], %558 {strides = array<i32>} : memref<8x512x128xf32, #tpu.memory_space<vmem>>, vector<1x4x128xf32>, 
        %c0_i32_286 = arith.constant 0 : i32
        %559 = arith.cmpi eq, %arg23, %c0_i32_286 : i32
        %cst_287 = arith.constant 0.000000e+00 : f32
        %560 = vector.broadcast %cst_287 : f32 to vector<4x128xf32>
        %c1_288 = arith.constant 1 : index
        %c0_289 = arith.constant 0 : index
        %c0_290 = arith.constant 0 : index
        %561 = vector.load %arg22[%c1_288, %c0_289, %c0_290] : memref<8x512x128xf32, #tpu.memory_space<vmem>>, vector<1x4x128xf32>
        %562 = vector.shape_cast %561 : vector<1x4x128xf32> to vector<4x128xf32>
        %563 = arith.select %559, %560, %562 : vector<4x128xf32>
        %564 = arith.mulf %547, %563 : vector<4x128xf32>
        %565 = arith.addf %564, %543 : vector<4x128xf32>
        %c1_291 = arith.constant 1 : index
        %c0_292 = arith.constant 0 : index
        %c0_293 = arith.constant 0 : index
        %566 = vector.load %arg22[%c1_291, %c0_292, %c0_293] : memref<8x512x128xf32, #tpu.memory_space<vmem>>, vector<1x4x128xf32>
        %567 = vector.shape_cast %566 : vector<1x4x128xf32> to vector<4x128xf32>
        %568 = vector.shape_cast %565 : vector<4x128xf32> to vector<1x4x128xf32>
        tpu.vector_store %arg22[%c1_291, %c0_292, %c0_293], %568 {strides = array<i32>} : memref<8x512x128xf32, #tpu.memory_space<vmem>>, vector<1x4x128xf32>, 
        %569 = vector.extract_strided_slice %478 {offsets = [2, 0, 0], sizes = [1, 4, 1024], strides = [1, 1, 1]} : vector<8x4x1024xf32> to vector<1x4x1024xf32>
        %570 = vector.shape_cast %569 : vector<1x4x1024xf32> to vector<4x1024xf32>
        %cst_294 = arith.constant dense<0xFF800000> : vector<4xf32>
        %571 = vector.multi_reduction <maximumf>, %570, %cst_294 [1] : vector<4x1024xf32> to vector<4xf32>
        %572 = vector.shape_cast %571 : vector<4xf32> to vector<4x1xf32>
        %c0_i32_295 = arith.constant 0 : i32
        %573 = arith.cmpi eq, %arg23, %c0_i32_295 : i32
        %cst_296 = arith.constant 0xFF800000 : f32
        %574 = vector.broadcast %cst_296 : f32 to vector<4x128xf32>
        %c2_297 = arith.constant 2 : index
        %c0_298 = arith.constant 0 : index
        %c0_299 = arith.constant 0 : index
        %575 = vector.load %arg21[%c2_297, %c0_298, %c0_299] : memref<8x512x128xf32, #tpu.memory_space<vmem>>, vector<1x4x128xf32>
        %576 = vector.shape_cast %575 : vector<1x4x128xf32> to vector<4x128xf32>
        %577 = arith.select %573, %574, %576 : vector<4x128xf32>
        %578 = vector.broadcast %572 : vector<4x1xf32> to vector<4x128xf32>
        %579 = arith.maximumf %577, %578 : vector<4x128xf32>
        %c2_300 = arith.constant 2 : index
        %c0_301 = arith.constant 0 : index
        %c0_302 = arith.constant 0 : index
        %580 = vector.load %arg21[%c2_300, %c0_301, %c0_302] : memref<8x512x128xf32, #tpu.memory_space<vmem>>, vector<1x4x128xf32>
        %581 = vector.shape_cast %580 : vector<1x4x128xf32> to vector<4x128xf32>
        %582 = vector.shape_cast %579 : vector<4x128xf32> to vector<1x4x128xf32>
        tpu.vector_store %arg21[%c2_300, %c0_301, %c0_302], %582 {strides = array<i32>} : memref<8x512x128xf32, #tpu.memory_space<vmem>>, vector<1x4x128xf32>, 
        %583 = tpu.concatenate %579, %579, %579, %579, %579, %579, %579, %579 in 1 : vector<4x128xf32>, vector<4x128xf32>, vector<4x128xf32>, vector<4x128xf32>, vector<4x128xf32>, vector<4x128xf32>, vector<4x128xf32>, vector<4x128xf32> -> vector<4x1024xf32>
        %584 = arith.subf %570, %583 : vector<4x1024xf32>
        %585 = math.exp %584 : vector<4x1024xf32>
        %586 = vector.extract_strided_slice %436 {offsets = [2, 0, 0], sizes = [1, 1024, 128], strides = [1, 1, 1]} : vector<8x1024x128xf32> to vector<1x1024x128xf32>
        %587 = vector.shape_cast %586 : vector<1x1024x128xf32> to vector<1024x128xf32>
        "tpu.trace_start"() <{level = 10 : i32, message = "qk,kd->qd"}> : () -> ()
        %cst_303 = arith.constant dense<0.000000e+00> : vector<4x128xf32>
        %588 = tpu.matmul %585, %587, %cst_303 {dimension_numbers = #tpu.dot_dimension_numbers<[1], [0], [0], [1], [0, 0, 1, 1], [], []>} : vector<4x1024xf32>, vector<1024x128xf32>, vector<4x128xf32> -> vector<4x128xf32>
        "tpu.trace_stop"() : () -> ()
        %cst_304 = arith.constant dense<0.000000e+00> : vector<4xf32>
        %589 = vector.multi_reduction <add>, %585, %cst_304 [1] : vector<4x1024xf32> to vector<4xf32>
        %590 = vector.shape_cast %589 : vector<4xf32> to vector<4x1xf32>
        %591 = arith.subf %577, %579 : vector<4x128xf32>
        %592 = math.exp %591 : vector<4x128xf32>
        %c0_i32_305 = arith.constant 0 : i32
        %593 = arith.cmpi eq, %arg23, %c0_i32_305 : i32
        %cst_306 = arith.constant 0.000000e+00 : f32
        %594 = vector.broadcast %cst_306 : f32 to vector<4x128xf32>
        %c2_307 = arith.constant 2 : index
        %c0_308 = arith.constant 0 : index
        %c0_309 = arith.constant 0 : index
        %595 = vector.load %arg20[%c2_307, %c0_308, %c0_309] : memref<8x512x128xf32, #tpu.memory_space<vmem>>, vector<1x4x128xf32>
        %596 = vector.shape_cast %595 : vector<1x4x128xf32> to vector<4x128xf32>
        %597 = arith.select %593, %594, %596 : vector<4x128xf32>
        %598 = arith.mulf %592, %597 : vector<4x128xf32>
        %599 = vector.broadcast %590 : vector<4x1xf32> to vector<4x128xf32>
        %600 = arith.addf %598, %599 : vector<4x128xf32>
        %c2_310 = arith.constant 2 : index
        %c0_311 = arith.constant 0 : index
        %c0_312 = arith.constant 0 : index
        %601 = vector.load %arg20[%c2_310, %c0_311, %c0_312] : memref<8x512x128xf32, #tpu.memory_space<vmem>>, vector<1x4x128xf32>
        %602 = vector.shape_cast %601 : vector<1x4x128xf32> to vector<4x128xf32>
        %603 = vector.shape_cast %600 : vector<4x128xf32> to vector<1x4x128xf32>
        tpu.vector_store %arg20[%c2_310, %c0_311, %c0_312], %603 {strides = array<i32>} : memref<8x512x128xf32, #tpu.memory_space<vmem>>, vector<1x4x128xf32>, 
        %c0_i32_313 = arith.constant 0 : i32
        %604 = arith.cmpi eq, %arg23, %c0_i32_313 : i32
        %cst_314 = arith.constant 0.000000e+00 : f32
        %605 = vector.broadcast %cst_314 : f32 to vector<4x128xf32>
        %c2_315 = arith.constant 2 : index
        %c0_316 = arith.constant 0 : index
        %c0_317 = arith.constant 0 : index
        %606 = vector.load %arg22[%c2_315, %c0_316, %c0_317] : memref<8x512x128xf32, #tpu.memory_space<vmem>>, vector<1x4x128xf32>
        %607 = vector.shape_cast %606 : vector<1x4x128xf32> to vector<4x128xf32>
        %608 = arith.select %604, %605, %607 : vector<4x128xf32>
        %609 = arith.mulf %592, %608 : vector<4x128xf32>
        %610 = arith.addf %609, %588 : vector<4x128xf32>
        %c2_318 = arith.constant 2 : index
        %c0_319 = arith.constant 0 : index
        %c0_320 = arith.constant 0 : index
        %611 = vector.load %arg22[%c2_318, %c0_319, %c0_320] : memref<8x512x128xf32, #tpu.memory_space<vmem>>, vector<1x4x128xf32>
        %612 = vector.shape_cast %611 : vector<1x4x128xf32> to vector<4x128xf32>
        %613 = vector.shape_cast %610 : vector<4x128xf32> to vector<1x4x128xf32>
        tpu.vector_store %arg22[%c2_318, %c0_319, %c0_320], %613 {strides = array<i32>} : memref<8x512x128xf32, #tpu.memory_space<vmem>>, vector<1x4x128xf32>, 
        %614 = vector.extract_strided_slice %478 {offsets = [3, 0, 0], sizes = [1, 4, 1024], strides = [1, 1, 1]} : vector<8x4x1024xf32> to vector<1x4x1024xf32>
        %615 = vector.shape_cast %614 : vector<1x4x1024xf32> to vector<4x1024xf32>
        %cst_321 = arith.constant dense<0xFF800000> : vector<4xf32>
        %616 = vector.multi_reduction <maximumf>, %615, %cst_321 [1] : vector<4x1024xf32> to vector<4xf32>
        %617 = vector.shape_cast %616 : vector<4xf32> to vector<4x1xf32>
        %c0_i32_322 = arith.constant 0 : i32
        %618 = arith.cmpi eq, %arg23, %c0_i32_322 : i32
        %cst_323 = arith.constant 0xFF800000 : f32
        %619 = vector.broadcast %cst_323 : f32 to vector<4x128xf32>
        %c3_324 = arith.constant 3 : index
        %c0_325 = arith.constant 0 : index
        %c0_326 = arith.constant 0 : index
        %620 = vector.load %arg21[%c3_324, %c0_325, %c0_326] : memref<8x512x128xf32, #tpu.memory_space<vmem>>, vector<1x4x128xf32>
        %621 = vector.shape_cast %620 : vector<1x4x128xf32> to vector<4x128xf32>
        %622 = arith.select %618, %619, %621 : vector<4x128xf32>
        %623 = vector.broadcast %617 : vector<4x1xf32> to vector<4x128xf32>
        %624 = arith.maximumf %622, %623 : vector<4x128xf32>
        %c3_327 = arith.constant 3 : index
        %c0_328 = arith.constant 0 : index
        %c0_329 = arith.constant 0 : index
…
          %784 = tpu.concatenate %780, %780, %780, %780, %780, %780, %780, %780 in 1 : vector<512x128xf32>, vector<512x128xf32>, vector<512x128xf32>, vector<512x128xf32>, vector<512x128xf32>, vector<512x128xf32>, vector<512x128xf32>, vector<512x128xf32> -> vector<512x1024xf32>
          %785 = arith.subf %771, %784 : vector<512x1024xf32>
          %786 = math.exp %785 : vector<512x1024xf32>
          %787 = vector.extract_strided_slice %457 {offsets = [6, 0, 0], sizes = [1, 1024, 128], strides = [1, 1, 1]} : vector<8x1024x128xf32> to vector<1x1024x128xf32>
          %788 = vector.shape_cast %787 : vector<1x1024x128xf32> to vector<1024x128xf32>
          "tpu.trace_start"() <{level = 10 : i32, message = "qk,kd->qd"}> : () -> ()
          %cst_418 = arith.constant dense<0.000000e+00> : vector<512x128xf32>
          %789 = tpu.matmul %786, %788, %cst_418 {dimension_numbers = #tpu.dot_dimension_numbers<[1], [0], [0], [1], [0, 0, 1, 1], [], []>} : vector<512x1024xf32>, vector<1024x128xf32>, vector<512x128xf32> -> vector<512x128xf32>
          "tpu.trace_stop"() : () -> ()
          %cst_419 = arith.constant dense<0.000000e+00> : vector<512xf32>
          %790 = vector.multi_reduction <add>, %786, %cst_419 [1] : vector<512x1024xf32> to vector<512xf32>
          %791 = vector.shape_cast %790 : vector<512xf32> to vector<512x1xf32>
          %792 = arith.subf %778, %780 : vector<512x128xf32>
          %793 = math.exp %792 : vector<512x128xf32>
          %c0_i32_420 = arith.constant 0 : i32
          %794 = arith.cmpi eq, %arg24, %c0_i32_420 : i32
          %cst_421 = arith.constant 0.000000e+00 : f32
          %795 = vector.broadcast %cst_421 : f32 to vector<512x128xf32>
          %c6_422 = arith.constant 6 : index
          %c0_423 = arith.constant 0 : index
          %c0_424 = arith.constant 0 : index
          %796 = vector.load %arg20[%c6_422, %c0_423, %c0_424] : memref<8x512x128xf32, #tpu.memory_space<vmem>>, vector<1x512x128xf32>
          %797 = vector.shape_cast %796 : vector<1x512x128xf32> to vector<512x128xf32>
          %798 = arith.select %794, %795, %797 : vector<512x128xf32>
          %799 = arith.mulf %793, %798 : vector<512x128xf32>
          %800 = vector.broadcast %791 : vector<512x1xf32> to vector<512x128xf32>
          %801 = arith.addf %799, %800 : vector<512x128xf32>
          %c6_425 = arith.constant 6 : index
          %c0_426 = arith.constant 0 : index
          %c0_427 = arith.constant 0 : index
          %802 = vector.load %arg20[%c6_425, %c0_426, %c0_427] : memref<8x512x128xf32, #tpu.memory_space<vmem>>, vector<1x512x128xf32>
          %803 = vector.shape_cast %802 : vector<1x512x128xf32> to vector<512x128xf32>
          %804 = vector.shape_cast %801 : vector<512x128xf32> to vector<1x512x128xf32>
          tpu.vector_store %arg20[%c6_425, %c0_426, %c0_427], %804 {strides = array<i32>} : memref<8x512x128xf32, #tpu.memory_space<vmem>>, vector<1x512x128xf32>, 
          %c0_i32_428 = arith.constant 0 : i32
          %805 = arith.cmpi eq, %arg24, %c0_i32_428 : i32
          %cst_429 = arith.constant 0.000000e+00 : f32
          %806 = vector.broadcast %cst_429 : f32 to vector<512x128xf32>
          %c6_430 = arith.constant 6 : index
          %c0_431 = arith.constant 0 : index
          %c0_432 = arith.constant 0 : index
          %807 = vector.load %arg22[%c6_430, %c0_431, %c0_432] : memref<8x512x128xf32, #tpu.memory_space<vmem>>, vector<1x512x128xf32>
          %808 = vector.shape_cast %807 : vector<1x512x128xf32> to vector<512x128xf32>
          %809 = arith.select %805, %806, %808 : vector<512x128xf32>
          %810 = arith.mulf %793, %809 : vector<512x128xf32>
          %811 = arith.addf %810, %789 : vector<512x128xf32>
          %c6_433 = arith.constant 6 : index
          %c0_434 = arith.constant 0 : index
          %c0_435 = arith.constant 0 : index
          %812 = vector.load %arg22[%c6_433, %c0_434, %c0_435] : memref<8x512x128xf32, #tpu.memory_space<vmem>>, vector<1x512x128xf32>
          %813 = vector.shape_cast %812 : vector<1x512x128xf32> to vector<512x128xf32>
          %814 = vector.shape_cast %811 : vector<512x128xf32> to vector<1x512x128xf32>
          tpu.vector_store %arg22[%c6_433, %c0_434, %c0_435], %814 {strides = array<i32>} : memref<8x512x128xf32, #tpu.memory_space<vmem>>, vector<1x512x128xf32>, 
          %815 = vector.extract_strided_slice %499 {offsets = [7, 0, 0], sizes = [1, 512, 1024], strides = [1, 1, 1]} : vector<8x512x1024xf32> to vector<1x512x1024xf32>
          %816 = vector.shape_cast %815 : vector<1x512x1024xf32> to vector<512x1024xf32>
          %cst_436 = arith.constant dense<0xFF800000> : vector<512xf32>
          %817 = vector.multi_reduction <maximumf>, %816, %cst_436 [1] : vector<512x1024xf32> to vector<512xf32>
          %818 = vector.shape_cast %817 : vector<512xf32> to vector<512x1xf32>
          %c0_i32_437 = arith.constant 0 : i32
          %819 = arith.cmpi eq, %arg24, %c0_i32_437 : i32
          %cst_438 = arith.constant 0xFF800000 : f32
          %820 = vector.broadcast %cst_438 : f32 to vector<512x128xf32>
          %c7_439 = arith.constant 7 : index
          %c0_440 = arith.constant 0 : index
          %c0_441 = arith.constant 0 : index
          %821 = vector.load %arg21[%c7_439, %c0_440, %c0_441] : memref<8x512x128xf32, #tpu.memory_space<vmem>>, vector<1x512x128xf32>
          %822 = vector.shape_cast %821 : vector<1x512x128xf32> to vector<512x128xf32>
          %823 = arith.select %819, %820, %822 : vector<512x128xf32>
          %824 = vector.broadcast %818 : vector<512x1xf32> to vector<512x128xf32>
          %825 = arith.maximumf %823, %824 : vector<512x128xf32>
          %c7_442 = arith.constant 7 : index
          %c0_443 = arith.constant 0 : index
          %c0_444 = arith.constant 0 : index
          %826 = vector.load %arg21[%c7_442, %c0_443, %c0_444] : memref<8x512x128xf32, #tpu.memory_space<vmem>>, vector<1x512x128xf32>
          %827 = vector.shape_cast %826 : vector<1x512x128xf32> to vector<512x128xf32>
          %828 = vector.shape_cast %825 : vector<512x128xf32> to vector<1x512x128xf32>
          tpu.vector_store %arg21[%c7_442, %c0_443, %c0_444], %828 {strides = array<i32>} : memref<8x512x128xf32, #tpu.memory_space<vmem>>, vector<1x512x128xf32>, 
          %829 = tpu.concatenate %825, %825, %825, %825, %825, %825, %825, %825 in 1 : vector<512x128xf32>, vector<512x128xf32>, vector<512x128xf32>, vector<512x128xf32>, vector<512x128xf32>, vector<512x128xf32>, vector<512x128xf32>, vector<512x128xf32> -> vector<512x1024xf32>
          %830 = arith.subf %816, %829 : vector<512x1024xf32>
          %831 = math.exp %830 : vector<512x1024xf32>
          %832 = vector.extract_strided_slice %457 {offsets = [7, 0, 0], sizes = [1, 1024, 128], strides = [1, 1, 1]} : vector<8x1024x128xf32> to vector<1x1024x128xf32>
          %833 = vector.shape_cast %832 : vector<1x1024x128xf32> to vector<1024x128xf32>
          "tpu.trace_start"() <{level = 10 : i32, message = "qk,kd->qd"}> : () -> ()
          %cst_445 = arith.constant dense<0.000000e+00> : vector<512x128xf32>
          %834 = tpu.matmul %831, %833, %cst_445 {dimension_numbers = #tpu.dot_dimension_numbers<[1], [0], [0], [1], [0, 0, 1, 1], [], []>} : vector<512x1024xf32>, vector<1024x128xf32>, vector<512x128xf32> -> vector<512x128xf32>
          "tpu.trace_stop"() : () -> ()
          %cst_446 = arith.constant dense<0.000000e+00> : vector<512xf32>
          %835 = vector.multi_reduction <add>, %831, %cst_446 [1] : vector<512x1024xf32> to vector<512xf32>
          %836 = vector.shape_cast %835 : vector<512xf32> to vector<512x1xf32>
          %837 = arith.subf %823, %825 : vector<512x128xf32>
          %838 = math.exp %837 : vector<512x128xf32>
          %c0_i32_447 = arith.constant 0 : i32
          %839 = arith.cmpi eq, %arg24, %c0_i32_447 : i32
          %cst_448 = arith.constant 0.000000e+00 : f32
          %840 = vector.broadcast %cst_448 : f32 to vector<512x128xf32>
          %c7_449 = arith.constant 7 : index
          %c0_450 = arith.constant 0 : index
          %c0_451 = arith.constant 0 : index
          %841 = vector.load %arg20[%c7_449, %c0_450, %c0_451] : memref<8x512x128xf32, #tpu.memory_space<vmem>>, vector<1x512x128xf32>
          %842 = vector.shape_cast %841 : vector<1x512x128xf32> to vector<512x128xf32>
          %843 = arith.select %839, %840, %842 : vector<512x128xf32>
          %844 = arith.mulf %838, %843 : vector<512x128xf32>
          %845 = vector.broadcast %836 : vector<512x1xf32> to vector<512x128xf32>
          %846 = arith.addf %844, %845 : vector<512x128xf32>
          %c7_452 = arith.constant 7 : index
          %c0_453 = arith.constant 0 : index
          %c0_454 = arith.constant 0 : index
          %847 = vector.load %arg20[%c7_452, %c0_453, %c0_454] : memref<8x512x128xf32, #tpu.memory_space<vmem>>, vector<1x512x128xf32>
          %848 = vector.shape_cast %847 : vector<1x512x128xf32> to vector<512x128xf32>
          %849 = vector.shape_cast %846 : vector<512x128xf32> to vector<1x512x128xf32>
          tpu.vector_store %arg20[%c7_452, %c0_453, %c0_454], %849 {strides = array<i32>} : memref<8x512x128xf32, #tpu.memory_space<vmem>>, vector<1x512x128xf32>, 
          %c0_i32_455 = arith.constant 0 : i32
          %850 = arith.cmpi eq, %arg24, %c0_i32_455 : i32
          %cst_456 = arith.constant 0.000000e+00 : f32
          %851 = vector.broadcast %cst_456 : f32 to vector<512x128xf32>
          %c7_457 = arith.constant 7 : index
          %c0_458 = arith.constant 0 : index
          %c0_459 = arith.constant 0 : index
          %852 = vector.load %arg22[%c7_457, %c0_458, %c0_459] : memref<8x512x128xf32, #tpu.memory_space<vmem>>, vector<1x512x128xf32>
          %853 = vector.shape_cast %852 : vector<1x512x128xf32> to vector<512x128xf32>
          %854 = arith.select %850, %851, %853 : vector<512x128xf32>
          %855 = arith.mulf %838, %854 : vector<512x128xf32>
          %856 = arith.addf %855, %834 : vector<512x128xf32>
          %c7_460 = arith.constant 7 : index
          %c0_461 = arith.constant 0 : index
          %c0_462 = arith.constant 0 : index
          %857 = vector.load %arg22[%c7_460, %c0_461, %c0_462] : memref<8x512x128xf32, #tpu.memory_space<vmem>>, vector<1x512x128xf32>
          %858 = vector.shape_cast %857 : vector<1x512x128xf32> to vector<512x128xf32>
          %859 = vector.shape_cast %856 : vector<512x128xf32> to vector<1x512x128xf32>
          tpu.vector_store %arg22[%c7_460, %c0_461, %c0_462], %859 {strides = array<i32>} : memref<8x512x128xf32, #tpu.memory_space<vmem>>, vector<1x512x128xf32>, 
        }
        %c0_34 = arith.constant 0 : index
        %c0_35 = arith.constant 0 : index
        %c0_36 = arith.constant 0 : index
        %85 = vector.load %arg22[%c0_34, %c0_35, %c0_36] : memref<8x512x128xf32, #tpu.memory_space<vmem>>, vector<8x512x128xf32>
        %c0_37 = arith.constant 0 : index
        %c0_38 = arith.constant 0 : index
        %c0_39 = arith.constant 0 : index
        %86 = vector.load %arg20[%c0_37, %c0_38, %c0_39] : memref<8x512x128xf32, #tpu.memory_space<vmem>>, vector<8x512x128xf32>
        %87 = tpu.reciprocal %86 {approx = true} : vector<8x512x128xf32> -> vector<8x512x128xf32>
        %88 = arith.mulf %85, %87 : vector<8x512x128xf32>
        %89 = arith.truncf %88 : vector<8x512x128xf32> to vector<8x512x128xbf16>
        %c2_40 = arith.constant 2 : index
        %90 = memref.load %arg7[%c2_40] : memref<3xi32, #tpu.memory_space<smem>>
        %c0_i32_41 = arith.constant 0 : i32
        %91 = arith.cmpi eq, %90, %c0_i32_41 : i32
        %c0_i32_42 = arith.constant 0 : i32
        %c1_i32_43 = arith.constant 1 : i32
        %92 = arith.select %91, %c1_i32_43, %c0_i32_42 : i32
        %c2_44 = arith.constant 2 : index
        %93 = memref.load %arg7[%c2_44] : memref<3xi32, #tpu.memory_space<smem>>
        memref.store %92, %arg7[%c2_44] : memref<3xi32, #tpu.memory_space<smem>>
        %94 = arith.index_cast %90 : i32 to index
        %95 = memref.load %arg8[%94] : memref<4xi32, #tpu.memory_space<smem>>
        %c2_i32 = arith.constant 2 : i32
        %96 = arith.addi %90, %c2_i32 : i32
        %97 = arith.index_cast %96 : i32 to index
        %98 = memref.load %arg8[%97] : memref<4xi32, #tpu.memory_space<smem>>
        %c0_i32_45 = arith.constant 0 : i32
        %99 = arith.cmpi sge, %95, %c0_i32_45 : i32
        %100 = arith.cmpi sle, %95, %arg0 : i32
        %101 = arith.andi %99, %100 : i1
        %102 = arith.extui %101 : i1 to i32
        %c0_i32_46 = arith.constant 0 : i32
        %103 = arith.cmpi ne, %102, %c0_i32_46 : i32
        scf.if %103 {
          %130 = arith.index_cast %95 : i32 to index
          %131 = memref.load %arg3[%130] : memref<5xi32, #tpu.memory_space<smem>>
          %c128_i32_74 = arith.constant 128 : i32
          %132 = arith.muli %98, %c128_i32_74 : i32
          %133 = arith.addi %131, %132 : i32
          %c1_i32_75 = arith.constant 1 : i32
          %134 = arith.addi %95, %c1_i32_75 : i32
          %135 = arith.index_cast %134 : i32 to index
          %136 = memref.load %arg3[%135] : memref<5xi32, #tpu.memory_space<smem>>
          %137 = arith.subi %136, %133 : i32
          %c128_i32_76 = arith.constant 128 : i32
          %138 = arith.minsi %c128_i32_76, %137 : i32
          %c2_i32_77 = arith.constant 2 : i32
          %c0_i32_78 = arith.constant 0 : i32
          %c0_i32_79 = arith.constant 0 : i32
          %c0_i32_80 = arith.constant 0 : i32
          %c0_i32_81 = arith.constant 0 : i32
          %c0_i32_82 = arith.constant 0 : i32
          %139 = tpu.memref_slice %arg18[%90, %c0_i32_78, %c0_i32_79, %c0_i32_80, %c0_i32_81, %c0_i32_82] : memref<2x8x128x2x2x128xbf16, #tpu.memory_space<vmem>> -> memref<1x8x128x2x2x128xbf16, strided<[524288, 65536, 512, 256, 128, 1], offset: ?>, #tpu.memory_space<vmem>>
          %140 = tpu.memref_squeeze %139 : memref<1x8x128x2x2x128xbf16, strided<[524288, 65536, 512, 256, 128, 1], offset: ?>, #tpu.memory_space<vmem>> -> memref<8x128x2x2x128xbf16, strided<[65536, 512, 256, 128, 1], offset: ?>, #tpu.memory_space<vmem>>
          %c0_i32_83 = arith.constant 0 : i32
          %c0_i32_84 = arith.constant 0 : i32
          %c0_i32_85 = arith.constant 0 : i32
          %c0_i32_86 = arith.constant 0 : i32
          %c0_i32_87 = arith.constant 0 : i32
          %141 = tpu.memref_slice %140[%c0_i32_83, %c0_i32_84, %c0_i32_85, %c0_i32_86, %c0_i32_87] <%138> : memref<8x128x2x2x128xbf16, strided<[65536, 512, 256, 128, 1], offset: ?>, #tpu.memory_space<vmem>> -> memref<8x?x2x2x128xbf16, strided<[65536, 512, 256, 128, 1], offset: ?>, #tpu.memory_space<vmem>>
          %c0_i32_88 = arith.constant 0 : i32
          %c0_i32_89 = arith.constant 0 : i32
          %c0_i32_90 = arith.constant 0 : i32
          %c0_i32_91 = arith.constant 0 : i32
          %142 = tpu.memref_slice %arg14[%c0_i32_88, %133, %c0_i32_89, %c0_i32_90, %c0_i32_91] <%138> : memref<8x8192x2x2x128xbf16, #tpu.memory_space<any>> -> memref<8x?x2x2x128xbf16, strided<[4194304, 512, 256, 128, 1], offset: ?>, #tpu.memory_space<any>>
          %143 = tpu.memref_slice %arg19[%c2_i32_77, %90] : memref<5x2x!tpu.dma_semaphore, #tpu.memory_space<semaphore_mem>> -> memref<1x1x!tpu.dma_semaphore, strided<[2, 1], offset: ?>, #tpu.memory_space<semaphore_mem>>
          %144 = tpu.memref_squeeze %143 : memref<1x1x!tpu.dma_semaphore, strided<[2, 1], offset: ?>, #tpu.memory_space<semaphore_mem>> -> memref<!tpu.dma_semaphore, strided<[], offset: ?>, #tpu.memory_space<semaphore_mem>>
          tpu.wait_dma2 semaphore(%144 : memref<!tpu.dma_semaphore, strided<[], offset: ?>, #tpu.memory_space<semaphore_mem>>) src(%141 : memref<8x?x2x2x128xbf16, strided<[65536, 512, 256, 128, 1], offset: ?>, #tpu.memory_space<vmem>>) dst(%142 : memref<8x?x2x2x128xbf16, strided<[4194304, 512, 256, 128, 1], offset: ?>, #tpu.memory_space<any>>)
        } else {
        }
        %104 = tpu.bitcast %89 : vector<8x512x128xbf16> -> vector<8x256x128xi32>
        %c0_i32_47 = arith.constant 0 : i32
        %c0_i32_48 = arith.constant 0 : i32
        %c0_i32_49 = arith.constant 0 : i32
        %c0_i32_50 = arith.constant 0 : i32
        %c0_i32_51 = arith.constant 0 : i32
        %105 = tpu.memref_slice %arg18[%90, %c0_i32_47, %c0_i32_48, %c0_i32_49, %c0_i32_50, %c0_i32_51] : memref<2x8x128x2x2x128xbf16, #tpu.memory_space<vmem>> -> memref<1x8x128x2x2x128xbf16, strided<[524288, 65536, 512, 256, 128, 1], offset: ?>, #tpu.memory_space<vmem>>
        %106 = tpu.memref_squeeze %105 : memref<1x8x128x2x2x128xbf16, strided<[524288, 65536, 512, 256, 128, 1], offset: ?>, #tpu.memory_space<vmem>> -> memref<8x128x2x2x128xbf16, strided<[65536, 512, 256, 128, 1], offset: ?>, #tpu.memory_space<vmem>>
        %107 = tpu.memref_bitcast %106 : memref<8x128x2x2x128xbf16, strided<[65536, 512, 256, 128, 1], offset: ?>, #tpu.memory_space<vmem>> -> memref<8x128x2x1x128xi32, #tpu.memory_space<vmem>>
        %108 = tpu.memref_reshape %107 : memref<8x128x2x1x128xi32, #tpu.memory_space<vmem>> -> memref<8x256x128xi32, #tpu.memory_space<vmem>>
        %c0_52 = arith.constant 0 : index
        %c0_53 = arith.constant 0 : index
        %c0_54 = arith.constant 0 : index
        %109 = vector.load %108[%c0_52, %c0_53, %c0_54] : memref<8x256x128xi32, #tpu.memory_space<vmem>>, vector<8x256x128xi32>
        tpu.vector_store %108[%c0_52, %c0_53, %c0_54], %104 {strides = array<i32>} : memref<8x256x128xi32, #tpu.memory_space<vmem>>, vector<8x256x128xi32>, 
        %110 = arith.index_cast %90 : i32 to index
        %111 = memref.load %arg8[%110] : memref<4xi32, #tpu.memory_space<smem>>
        memref.store %arg0, %arg8[%110] : memref<4xi32, #tpu.memory_space<smem>>
        %c2_i32_55 = arith.constant 2 : i32
        %112 = arith.addi %90, %c2_i32_55 : i32
        %113 = arith.index_cast %112 : i32 to index
        %114 = memref.load %arg8[%113] : memref<4xi32, #tpu.memory_space<smem>>
        memref.store %arg23, %arg8[%113] : memref<4xi32, #tpu.memory_space<smem>>
        %115 = arith.index_cast %arg0 : i32 to index
        %116 = memref.load %arg3[%115] : memref<5xi32, #tpu.memory_space<smem>>
        %c128_i32_56 = arith.constant 128 : i32
        %117 = arith.muli %arg23, %c128_i32_56 : i32
        %118 = arith.addi %116, %117 : i32
        %c1_i32_57 = arith.constant 1 : i32
        %119 = arith.addi %arg0, %c1_i32_57 : i32
        %120 = arith.index_cast %119 : i32 to index
        %121 = memref.load %arg3[%120] : memref<5xi32, #tpu.memory_space<smem>>
        %122 = arith.subi %121, %118 : i32
        %c128_i32_58 = arith.constant 128 : i32
        %123 = arith.minsi %c128_i32_58, %122 : i32
        %c2_i32_59 = arith.constant 2 : i32
        %c0_i32_60 = arith.constant 0 : i32
        %c0_i32_61 = arith.constant 0 : i32
        %c0_i32_62 = arith.constant 0 : i32
        %c0_i32_63 = arith.constant 0 : i32
        %c0_i32_64 = arith.constant 0 : i32
        %124 = tpu.memref_slice %arg18[%90, %c0_i32_60, %c0_i32_61, %c0_i32_62, %c0_i32_63, %c0_i32_64] : memref<2x8x128x2x2x128xbf16, #tpu.memory_space<vmem>> -> memref<1x8x128x2x2x128xbf16, strided<[524288, 65536, 512, 256, 128, 1], offset: ?>, #tpu.memory_space<vmem>>
        %125 = tpu.memref_squeeze %124 : memref<1x8x128x2x2x128xbf16, strided<[524288, 65536, 512, 256, 128, 1], offset: ?>, #tpu.memory_space<vmem>> -> memref<8x128x2x2x128xbf16, strided<[65536, 512, 256, 128, 1], offset: ?>, #tpu.memory_space<vmem>>
        %c0_i32_65 = arith.constant 0 : i32
        %c0_i32_66 = arith.constant 0 : i32
        %c0_i32_67 = arith.constant 0 : i32
        %c0_i32_68 = arith.constant 0 : i32
        %c0_i32_69 = arith.constant 0 : i32
        %126 = tpu.memref_slice %125[%c0_i32_65, %c0_i32_66, %c0_i32_67, %c0_i32_68, %c0_i32_69] <%123> : memref<8x128x2x2x128xbf16, strided<[65536, 512, 256, 128, 1], offset: ?>, #tpu.memory_space<vmem>> -> memref<8x?x2x2x128xbf16, strided<[65536, 512, 256, 128, 1], offset: ?>, #tpu.memory_space<vmem>>
        %c0_i32_70 = arith.constant 0 : i32
        %c0_i32_71 = arith.constant 0 : i32
        %c0_i32_72 = arith.constant 0 : i32
        %c0_i32_73 = arith.constant 0 : i32
        %127 = tpu.memref_slice %arg14[%c0_i32_70, %118, %c0_i32_71, %c0_i32_72, %c0_i32_73] <%123> : memref<8x8192x2x2x128xbf16, #tpu.memory_space<any>> -> memref<8x?x2x2x128xbf16, strided<[4194304, 512, 256, 128, 1], offset: ?>, #tpu.memory_space<any>>
        %128 = tpu.memref_slice %arg19[%c2_i32_59, %90] : memref<5x2x!tpu.dma_semaphore, #tpu.memory_space<semaphore_mem>> -> memref<1x1x!tpu.dma_semaphore, strided<[2, 1], offset: ?>, #tpu.memory_space<semaphore_mem>>
        %129 = tpu.memref_squeeze %128 : memref<1x1x!tpu.dma_semaphore, strided<[2, 1], offset: ?>, #tpu.memory_space<semaphore_mem>> -> memref<!tpu.dma_semaphore, strided<[], offset: ?>, #tpu.memory_space<semaphore_mem>>
        tpu.enqueue_dma source(%126 : memref<8x?x2x2x128xbf16, strided<[65536, 512, 256, 128, 1], offset: ?>, #tpu.memory_space<vmem>>) target(%127 : memref<8x?x2x2x128xbf16, strided<[4194304, 512, 256, 128, 1], offset: ?>, #tpu.memory_space<any>>) target_semaphore(%129 : memref<!tpu.dma_semaphore, strided<[], offset: ?>, #tpu.memory_space<semaphore_mem>>)
      }
    } else {
    }
    %c1_i32_4 = arith.constant 1 : i32
    %28 = arith.subi %0, %c1_i32_4 : i32
    %29 = arith.cmpi eq, %arg0, %28 : i32
    %30 = arith.extui %29 : i1 to i32
    %c0_i32_5 = arith.constant 0 : i32
    %31 = arith.cmpi ne, %30, %c0_i32_5 : i32
    scf.if %31 {
      %c0_6 = arith.constant 0 : index
      %32 = memref.load %arg8[%c0_6] : memref<4xi32, #tpu.memory_space<smem>>
      %c2_7 = arith.constant 2 : index
      %33 = memref.load %arg8[%c2_7] : memref<4xi32, #tpu.memory_space<smem>>
      %c0_i32_8 = arith.constant 0 : i32
      %34 = arith.cmpi sge, %32, %c0_i32_8 : i32
      %35 = arith.cmpi sle, %32, %arg0 : i32
      %36 = arith.andi %34, %35 : i1
      %37 = arith.extui %36 : i1 to i32
      %c0_i32_9 = arith.constant 0 : i32
      %38 = arith.cmpi ne, %37, %c0_i32_9 : i32
      scf.if %38 {
        %54 = arith.index_cast %32 : i32 to index
        %55 = memref.load %arg3[%54] : memref<5xi32, #tpu.memory_space<smem>>
        %c128_i32 = arith.constant 128 : i32
        %56 = arith.muli %33, %c128_i32 : i32
        %57 = arith.addi %55, %56 : i32
        %c1_i32_17 = arith.constant 1 : i32
        %58 = arith.addi %32, %c1_i32_17 : i32
        %59 = arith.index_cast %58 : i32 to index
        %60 = memref.load %arg3[%59] : memref<5xi32, #tpu.memory_space<smem>>
        %61 = arith.subi %60, %57 : i32
        %c128_i32_18 = arith.constant 128 : i32
        %62 = arith.minsi %c128_i32_18, %61 : i32
        %c0_i32_19 = arith.constant 0 : i32
        %c2_i32 = arith.constant 2 : i32
        %c0_i32_20 = arith.constant 0 : i32
        %c0_i32_21 = arith.constant 0 : i32
        %c0_i32_22 = arith.constant 0 : i32
        %c0_i32_23 = arith.constant 0 : i32
        %c0_i32_24 = arith.constant 0 : i32
        %c0_i32_25 = arith.constant 0 : i32
        %63 = tpu.memref_slice %arg18[%c0_i32_19, %c0_i32_21, %c0_i32_22, %c0_i32_23, %c0_i32_24, %c0_i32_25] : memref<2x8x128x2x2x128xbf16, #tpu.memory_space<vmem>> -> memref<1x8x128x2x2x128xbf16, strided<[524288, 65536, 512, 256, 128, 1]>, #tpu.memory_space<vmem>>
        %64 = tpu.memref_squeeze %63 : memref<1x8x128x2x2x128xbf16, strided<[524288, 65536, 512, 256, 128, 1]>, #tpu.memory_space<vmem>> -> memref<8x128x2x2x128xbf16, strided<[65536, 512, 256, 128, 1]>, #tpu.memory_space<vmem>>
        %c0_i32_26 = arith.constant 0 : i32
        %c0_i32_27 = arith.constant 0 : i32
        %c0_i32_28 = arith.constant 0 : i32
        %c0_i32_29 = arith.constant 0 : i32
        %c0_i32_30 = arith.constant 0 : i32
        %65 = tpu.memref_slice %64[%c0_i32_26, %c0_i32_27, %c0_i32_28, %c0_i32_29, %c0_i32_30] <%62> : memref<8x128x2x2x128xbf16, strided<[65536, 512, 256, 128, 1]>, #tpu.memory_space<vmem>> -> memref<8x?x2x2x128xbf16, strided<[65536, 512, 256, 128, 1]>, #tpu.memory_space<vmem>>
        %c0_i32_31 = arith.constant 0 : i32
        %c0_i32_32 = arith.constant 0 : i32
        %c0_i32_33 = arith.constant 0 : i32
        %c0_i32_34 = arith.constant 0 : i32
        %66 = tpu.memref_slice %arg14[%c0_i32_31, %57, %c0_i32_32, %c0_i32_33, %c0_i32_34] <%62> : memref<8x8192x2x2x128xbf16, #tpu.memory_space<any>> -> memref<8x?x2x2x128xbf16, strided<[4194304, 512, 256, 128, 1], offset: ?>, #tpu.memory_space<any>>
        %67 = tpu.memref_slice %arg19[%c2_i32, %c0_i32_20] : memref<5x2x!tpu.dma_semaphore, #tpu.memory_space<semaphore_mem>> -> memref<1x1x!tpu.dma_semaphore, strided<[2, 1], offset: 4>, #tpu.memory_space<semaphore_mem>>
        %68 = tpu.memref_squeeze %67 : memref<1x1x!tpu.dma_semaphore, strided<[2, 1], offset: 4>, #tpu.memory_space<semaphore_mem>> -> memref<!tpu.dma_semaphore, strided<[], offset: 4>, #tpu.memory_space<semaphore_mem>>
        tpu.wait_dma2 semaphore(%68 : memref<!tpu.dma_semaphore, strided<[], offset: 4>, #tpu.memory_space<semaphore_mem>>) src(%65 : memref<8x?x2x2x128xbf16, strided<[65536, 512, 256, 128, 1]>, #tpu.memory_space<vmem>>) dst(%66 : memref<8x?x2x2x128xbf16, strided<[4194304, 512, 256, 128, 1], offset: ?>, #tpu.memory_space<any>>)
      } else {
      }
      %c4 = arith.constant 4 : index
      %39 = memref.load %arg9[%c4] : memref<6xi32, #tpu.memory_space<smem>>
      %c0_i32_10 = arith.constant 0 : i32
      %40 = arith.cmpi sgt, %39, %c0_i32_10 : i32
      %41 = arith.extui %40 : i1 to i32
      %c0_i32_11 = arith.constant 0 : i32
      %42 = arith.cmpi ne, %41, %c0_i32_11 : i32
      scf.if %42 {
        %c0_17 = arith.constant 0 : index
        %54 = memref.load %arg9[%c0_17] : memref<6xi32, #tpu.memory_space<smem>>
        %c2_18 = arith.constant 2 : index
        %55 = memref.load %arg9[%c2_18] : memref<6xi32, #tpu.memory_space<smem>>
        %c0_i32_19 = arith.constant 0 : i32
        %c4_20 = arith.constant 4 : index
        %56 = memref.load %arg9[%c4_20] : memref<6xi32, #tpu.memory_space<smem>>
        memref.store %c0_i32_19, %arg9[%c4_20] : memref<6xi32, #tpu.memory_space<smem>>
        %c1024_i32 = arith.constant 1024 : i32
        %57 = arith.divsi %55, %c1024_i32 : i32
        %c0_i32_21 = arith.constant 0 : i32
        %58 = arith.cmpi sgt, %55, %c0_i32_21 : i32
        %59 = arith.extui %58 : i1 to i32
        %c0_i32_22 = arith.constant 0 : i32
        %60 = arith.cmpi slt, %55, %c0_i32_22 : i32
        %61 = arith.extui %60 : i1 to i32
        %62 = arith.subi %59, %61 : i32
        %c0_i32_23 = arith.constant 0 : i32
        %63 = arith.cmpi sgt, %c1024_i32, %c0_i32_23 : i32
        %64 = arith.extui %63 : i1 to i32
        %c0_i32_24 = arith.constant 0 : i32
        %65 = arith.cmpi slt, %c1024_i32, %c0_i32_24 : i32
        %66 = arith.extui %65 : i1 to i32
        %67 = arith.subi %64, %66 : i32
        %68 = arith.cmpi ne, %62, %67 : i32
        %69 = arith.remsi %55, %c1024_i32 : i32
        %c0_i32_25 = arith.constant 0 : i32
        %70 = arith.cmpi ne, %69, %c0_i32_25 : i32
        %71 = arith.andi %68, %70 : i1
        %c1_i32_26 = arith.constant 1 : i32
        %72 = arith.subi %57, %c1_i32_26 : i32
        %73 = arith.select %71, %72, %57 : i32
        %c128_i32 = arith.constant 128 : i32
        %74 = arith.divsi %55, %c128_i32 : i32
        %c0_i32_27 = arith.constant 0 : i32
        %75 = arith.cmpi sgt, %55, %c0_i32_27 : i32
        %76 = arith.extui %75 : i1 to i32
        %c0_i32_28 = arith.constant 0 : i32
        %77 = arith.cmpi slt, %55, %c0_i32_28 : i32
        %78 = arith.extui %77 : i1 to i32
        %79 = arith.subi %76, %78 : i32
        %c0_i32_29 = arith.constant 0 : i32
        %80 = arith.cmpi sgt, %c128_i32, %c0_i32_29 : i32
        %81 = arith.extui %80 : i1 to i32
        %c0_i32_30 = arith.constant 0 : i32
        %82 = arith.cmpi slt, %c128_i32, %c0_i32_30 : i32
        %83 = arith.extui %82 : i1 to i32
        %84 = arith.subi %81, %83 : i32
        %85 = arith.cmpi ne, %79, %84 : i32
        %86 = arith.remsi %55, %c128_i32 : i32
        %c0_i32_31 = arith.constant 0 : i32
        %87 = arith.cmpi ne, %86, %c0_i32_31 : i32
        %88 = arith.andi %85, %87 : i1
        %c1_i32_32 = arith.constant 1 : i32
        %89 = arith.subi %74, %c1_i32_32 : i32
        %90 = arith.select %88, %89, %74 : i32
        %91 = arith.addi %55, %39 : i32
        %c128_i32_33 = arith.constant 128 : i32
        %92 = arith.addi %91, %c128_i32_33 : i32
        %c1_i32_34 = arith.constant 1 : i32
        %93 = arith.subi %92, %c1_i32_34 : i32
        %c128_i32_35 = arith.constant 128 : i32
        %94 = arith.divsi %93, %c128_i32_35 : i32
        %c0_i32_36 = arith.constant 0 : i32
        %95 = arith.cmpi sgt, %93, %c0_i32_36 : i32
        %96 = arith.extui %95 : i1 to i32
        %c0_i32_37 = arith.constant 0 : i32
        %97 = arith.cmpi slt, %93, %c0_i32_37 : i32
        %98 = arith.extui %97 : i1 to i32
        %99 = arith.subi %96, %98 : i32
        %c0_i32_38 = arith.constant 0 : i32
        %100 = arith.cmpi sgt, %c128_i32_35, %c0_i32_38 : i32
        %101 = arith.extui %100 : i1 to i32
        %c0_i32_39 = arith.constant 0 : i32
        %102 = arith.cmpi slt, %c128_i32_35, %c0_i32_39 : i32
        %103 = arith.extui %102 : i1 to i32
        %104 = arith.subi %101, %103 : i32
        %105 = arith.cmpi ne, %99, %104 : i32
        %106 = arith.remsi %93, %c128_i32_35 : i32
        %c0_i32_40 = arith.constant 0 : i32
        %107 = arith.cmpi ne, %106, %c0_i32_40 : i32
        %108 = arith.andi %105, %107 : i1
        %c1_i32_41 = arith.constant 1 : i32
        %109 = arith.subi %94, %c1_i32_41 : i32
        %110 = arith.select %108, %109, %94 : i32
        %c128_i32_42 = arith.constant 128 : i32
        %c0_i32_43 = arith.constant 0 : i32
        %111 = arith.cmpi eq, %c128_i32_42, %c0_i32_43 : i32
        %c1_i32_44 = arith.constant 1 : i32
        %112 = arith.select %111, %c1_i32_44, %c128_i32_42 : i32
        %113 = arith.remsi %55, %112 : i32
        %c0_i32_45 = arith.constant 0 : i32
        %114 = arith.cmpi ne, %113, %c0_i32_45 : i32
        %c0_i32_46 = arith.constant 0 : i32
        %115 = arith.cmpi slt, %113, %c0_i32_46 : i32
        %c0_i32_47 = arith.constant 0 : i32
        %116 = arith.cmpi slt, %112, %c0_i32_47 : i32
        %117 = arith.xori %115, %116 : i1
        %118 = arith.andi %117, %114 : i1
        %119 = arith.addi %113, %112 : i32
        %120 = arith.select %118, %119, %113 : i32
        %c8_i32 = arith.constant 8 : i32
        %121 = arith.muli %73, %c8_i32 : i32
        %122 = arith.subi %90, %121 : i32
        %123 = arith.index_cast %54 : i32 to index
        %124 = memref.load %arg4[%123] : memref<5xi32, #tpu.memory_space<smem>>
        %c128_i32_48 = arith.constant 128 : i32
        %125 = arith.addi %124, %c128_i32_48 : i32
        %c1_i32_49 = arith.constant 1 : i32
        %126 = arith.subi %125, %c1_i32_49 : i32
        %c128_i32_50 = arith.constant 128 : i32
        %127 = arith.divsi %126, %c128_i32_50 : i32
        %c0_i32_51 = arith.constant 0 : i32
        %128 = arith.cmpi sgt, %126, %c0_i32_51 : i32
        %129 = arith.extui %128 : i1 to i32
        %c0_i32_52 = arith.constant 0 : i32
        %130 = arith.cmpi slt, %126, %c0_i32_52 : i32
        %131 = arith.extui %130 : i1 to i32
        %132 = arith.subi %129, %131 : i32
        %c0_i32_53 = arith.constant 0 : i32
        %133 = arith.cmpi sgt, %c128_i32_50, %c0_i32_53 : i32
        %134 = arith.extui %133 : i1 to i32
        %c0_i32_54 = arith.constant 0 : i32
        %135 = arith.cmpi slt, %c128_i32_50, %c0_i32_54 : i32
        %136 = arith.extui %135 : i1 to i32
        %137 = arith.subi %134, %136 : i32
        %138 = arith.cmpi ne, %132, %137 : i32
        %139 = arith.remsi %126, %c128_i32_50 : i32
        %c0_i32_55 = arith.constant 0 : i32
        %140 = arith.cmpi ne, %139, %c0_i32_55 : i32
        %141 = arith.andi %138, %140 : i1
        %c1_i32_56 = arith.constant 1 : i32
        %142 = arith.subi %127, %c1_i32_56 : i32
        %143 = arith.select %141, %142, %127 : i32
        %144 = arith.addi %143, %90 : i32
        %145 = arith.subi %110, %90 : i32
        %c0_i32_57 = arith.constant 0 : i32
        %c3_i32 = arith.constant 3 : i32
        %c0_i32_58 = arith.constant 0 : i32
        %c0_i32_59 = arith.constant 0 : i32
        %146 = arith.subi %145, %c0_i32_59 : i32
        %147 = arith.addi %c0_i32_59, %146 : i32
        %c1_i32_60 = arith.constant 1 : i32
        %148:2 = scf.for %arg23 = %c0_i32_59 to %147 step %c1_i32_60 iter_args(%arg24 = %39, %arg25 = %120) -> (i32, i32)  : i32 {
          %c128_i32_61 = arith.constant 128 : i32
          %149 = arith.subi %c128_i32_61, %arg25 : i32
          %150 = arith.minsi %149, %arg24 : i32
          %151 = arith.addi %122, %arg23 : i32
          %c128_i32_62 = arith.constant 128 : i32
          %152 = arith.muli %151, %c128_i32_62 : i32
          %153 = arith.addi %152, %arg25 : i32
          %154 = arith.addi %144, %arg23 : i32
          %155 = arith.index_cast %154 : i32 to index
          %156 = memref.load %arg2[%155] : memref<1280xi32, #tpu.memory_space<smem>>
          %c128_i32_63 = arith.constant 128 : i32
          %157 = arith.muli %156, %c128_i32_63 : i32
          %158 = arith.addi %157, %arg25 : i32
          %c0_i32_64 = arith.constant 0 : i32
          %c0_i32_65 = arith.constant 0 : i32
          %c0_i32_66 = arith.constant 0 : i32
          %c0_i32_67 = arith.constant 0 : i32
          %159 = tpu.memref_slice %arg16[%c0_i32_57, %c0_i32_64, %c0_i32_65, %c0_i32_66, %c0_i32_67] : memref<2x1024x8x2x128xbf16, #tpu.memory_space<vmem>> -> memref<1x1024x8x2x128xbf16, strided<[2097152, 2048, 256, 128, 1]>, #tpu.memory_space<vmem>>
          %160 = tpu.memref_squeeze %159 : memref<1x1024x8x2x128xbf16, strided<[2097152, 2048, 256, 128, 1]>, #tpu.memory_space<vmem>> -> memref<1024x8x2x128xbf16, strided<[2048, 256, 128, 1]>, #tpu.memory_space<vmem>>
          %c0_i32_68 = arith.constant 0 : i32
          %c0_i32_69 = arith.constant 0 : i32
          %c0_i32_70 = arith.constant 0 : i32
          %161 = tpu.memref_slice %160[%153, %c0_i32_68, %c0_i32_69, %c0_i32_70] <%150> : memref<1024x8x2x128xbf16, strided<[2048, 256, 128, 1]>, #tpu.memory_space<vmem>> -> memref<?x8x2x128xbf16, strided<[2048, 256, 128, 1], offset: ?>, #tpu.memory_space<vmem>>
          %162 = tpu.memref_reshape %arg15 : memref<4688x128x8x2x128xbf16, #tpu.memory_space<any>> -> memref<600064x8x2x128xbf16, #tpu.memory_space<any>>
          %c0_i32_71 = arith.constant 0 : i32
          %c0_i32_72 = arith.constant 0 : i32
          %c0_i32_73 = arith.constant 0 : i32
          %163 = tpu.memref_slice %162[%158, %c0_i32_71, %c0_i32_72, %c0_i32_73] <%150> : memref<600064x8x2x128xbf16, #tpu.memory_space<any>> -> memref<?x8x2x128xbf16, strided<[2048, 256, 128, 1], offset: ?>, #tpu.memory_space<any>>
          %164 = tpu.memref_slice %arg19[%c3_i32, %c0_i32_58] : memref<5x2x!tpu.dma_semaphore, #tpu.memory_space<semaphore_mem>> -> memref<1x1x!tpu.dma_semaphore, strided<[2, 1], offset: 6>, #tpu.memory_space<semaphore_mem>>
          %165 = tpu.memref_squeeze %164 : memref<1x1x!tpu.dma_semaphore, strided<[2, 1], offset: 6>, #tpu.memory_space<semaphore_mem>> -> memref<!tpu.dma_semaphore, strided<[], offset: 6>, #tpu.memory_space<semaphore_mem>>
          tpu.wait_dma2 semaphore(%165 : memref<!tpu.dma_semaphore, strided<[], offset: 6>, #tpu.memory_space<semaphore_mem>>) src(%161 : memref<?x8x2x128xbf16, strided<[2048, 256, 128, 1], offset: ?>, #tpu.memory_space<vmem>>) dst(%163 : memref<?x8x2x128xbf16, strided<[2048, 256, 128, 1], offset: ?>, #tpu.memory_space<any>>)
          %166 = arith.subi %arg24, %150 : i32
          %c0_i32_74 = arith.constant 0 : i32
          scf.yield %166, %c0_i32_74 : i32, i32
        }
      } else {
      }
      %c1_12 = arith.constant 1 : index
      %43 = memref.load %arg8[%c1_12] : memref<4xi32, #tpu.memory_space<smem>>
      %c3 = arith.constant 3 : index
      %44 = memref.load %arg8[%c3] : memref<4xi32, #tpu.memory_space<smem>>
      %c0_i32_13 = arith.constant 0 : i32
      %45 = arith.cmpi sge, %43, %c0_i32_13 : i32
      %46 = arith.cmpi sle, %43, %arg0 : i32
      %47 = arith.andi %45, %46 : i1
      %48 = arith.extui %47 : i1 to i32
      %c0_i32_14 = arith.constant 0 : i32
      %49 = arith.cmpi ne, %48, %c0_i32_14 : i32
      scf.if %49 {
        %54 = arith.index_cast %43 : i32 to index
        %55 = memref.load %arg3[%54] : memref<5xi32, #tpu.memory_space<smem>>
        %c128_i32 = arith.constant 128 : i32
        %56 = arith.muli %44, %c128_i32 : i32
        %57 = arith.addi %55, %56 : i32
        %c1_i32_17 = arith.constant 1 : i32
        %58 = arith.addi %43, %c1_i32_17 : i32
        %59 = arith.index_cast %58 : i32 to index
        %60 = memref.load %arg3[%59] : memref<5xi32, #tpu.memory_space<smem>>
        %61 = arith.subi %60, %57 : i32
        %c128_i32_18 = arith.constant 128 : i32
        %62 = arith.minsi %c128_i32_18, %61 : i32
        %c1_i32_19 = arith.constant 1 : i32
        %c2_i32 = arith.constant 2 : i32
        %c1_i32_20 = arith.constant 1 : i32
        %c0_i32_21 = arith.constant 0 : i32
        %c0_i32_22 = arith.constant 0 : i32
        %c0_i32_23 = arith.constant 0 : i32
        %c0_i32_24 = arith.constant 0 : i32
        %c0_i32_25 = arith.constant 0 : i32
        %63 = tpu.memref_slice %arg18[%c1_i32_19, %c0_i32_21, %c0_i32_22, %c0_i32_23, %c0_i32_24, %c0_i32_25] : memref<2x8x128x2x2x128xbf16, #tpu.memory_space<vmem>> -> memref<1x8x128x2x2x128xbf16, strided<[524288, 65536, 512, 256, 128, 1], offset: 524288>, #tpu.memory_space<vmem>>
        %64 = tpu.memref_squeeze %63 : memref<1x8x128x2x2x128xbf16, strided<[524288, 65536, 512, 256, 128, 1], offset: 524288>, #tpu.memory_space<vmem>> -> memref<8x128x2x2x128xbf16, strided<[65536, 512, 256, 128, 1], offset: 524288>, #tpu.memory_space<vmem>>
        %c0_i32_26 = arith.constant 0 : i32
        %c0_i32_27 = arith.constant 0 : i32
        %c0_i32_28 = arith.constant 0 : i32
        %c0_i32_29 = arith.constant 0 : i32
        %c0_i32_30 = arith.constant 0 : i32
        %65 = tpu.memref_slice %64[%c0_i32_26, %c0_i32_27, %c0_i32_28, %c0_i32_29, %c0_i32_30] <%62> : memref<8x128x2x2x128xbf16, strided<[65536, 512, 256, 128, 1], offset: 524288>, #tpu.memory_space<vmem>> -> memref<8x?x2x2x128xbf16, strided<[65536, 512, 256, 128, 1], offset: 524288>, #tpu.memory_space<vmem>>
        %c0_i32_31 = arith.constant 0 : i32
        %c0_i32_32 = arith.constant 0 : i32
        %c0_i32_33 = arith.constant 0 : i32
        %c0_i32_34 = arith.constant 0 : i32
        %66 = tpu.memref_slice %arg14[%c0_i32_31, %57, %c0_i32_32, %c0_i32_33, %c0_i32_34] <%62> : memref<8x8192x2x2x128xbf16, #tpu.memory_space<any>> -> memref<8x?x2x2x128xbf16, strided<[4194304, 512, 256, 128, 1], offset: ?>, #tpu.memory_space<any>>
        %67 = tpu.memref_slice %arg19[%c2_i32, %c1_i32_20] : memref<5x2x!tpu.dma_semaphore, #tpu.memory_space<semaphore_mem>> -> memref<1x1x!tpu.dma_semaphore, strided<[2, 1], offset: 5>, #tpu.memory_space<semaphore_mem>>
        %68 = tpu.memref_squeeze %67 : memref<1x1x!tpu.dma_semaphore, strided<[2, 1], offset: 5>, #tpu.memory_space<semaphore_mem>> -> memref<!tpu.dma_semaphore, strided<[], offset: 5>, #tpu.memory_space<semaphore_mem>>
        tpu.wait_dma2 semaphore(%68 : memref<!tpu.dma_semaphore, strided<[], offset: 5>, #tpu.memory_space<semaphore_mem>>) src(%65 : memref<8x?x2x2x128xbf16, strided<[65536, 512, 256, 128, 1], offset: 524288>, #tpu.memory_space<vmem>>) dst(%66 : memref<8x?x2x2x128xbf16, strided<[4194304, 512, 256, 128, 1], offset: ?>, #tpu.memory_space<any>>)
      } else {
      }
      %c5 = arith.constant 5 : index
      %50 = memref.load %arg9[%c5] : memref<6xi32, #tpu.memory_space<smem>>
      %c0_i32_15 = arith.constant 0 : i32
      %51 = arith.cmpi sgt, %50, %c0_i32_15 : i32
      %52 = arith.extui %51 : i1 to i32
      %c0_i32_16 = arith.constant 0 : i32
      %53 = arith.cmpi ne, %52, %c0_i32_16 : i32
      scf.if %53 {
        %c1_17 = arith.constant 1 : index
        %54 = memref.load %arg9[%c1_17] : memref<6xi32, #tpu.memory_space<smem>>
        %c3_18 = arith.constant 3 : index
        %55 = memref.load %arg9[%c3_18] : memref<6xi32, #tpu.memory_space<smem>>
        %c0_i32_19 = arith.constant 0 : i32
        %c5_20 = arith.constant 5 : index
        %56 = memref.load %arg9[%c5_20] : memref<6xi32, #tpu.memory_space<smem>>
        memref.store %c0_i32_19, %arg9[%c5_20] : memref<6xi32, #tpu.memory_space<smem>>
        %c1024_i32 = arith.constant 1024 : i32
        %57 = arith.divsi %55, %c1024_i32 : i32
        %c0_i32_21 = arith.constant 0 : i32
        %58 = arith.cmpi sgt, %55, %c0_i32_21 : i32
        %59 = arith.extui %58 : i1 to i32
        %c0_i32_22 = arith.constant 0 : i32
        %60 = arith.cmpi slt, %55, %c0_i32_22 : i32
        %61 = arith.extui %60 : i1 to i32
        %62 = arith.subi %59, %61 : i32
        %c0_i32_23 = arith.constant 0 : i32
        %63 = arith.cmpi sgt, %c1024_i32, %c0_i32_23 : i32
        %64 = arith.extui %63 : i1 to i32
        %c0_i32_24 = arith.constant 0 : i32
        %65 = arith.cmpi slt, %c1024_i32, %c0_i32_24 : i32
        %66 = arith.extui %65 : i1 to i32
        %67 = arith.subi %64, %66 : i32
        %68 = arith.cmpi ne, %62, %67 : i32
        %69 = arith.remsi %55, %c1024_i32 : i32
        %c0_i32_25 = arith.constant 0 : i32
        %70 = arith.cmpi ne, %69, %c0_i32_25 : i32
        %71 = arith.andi %68, %70 : i1
        %c1_i32_26 = arith.constant 1 : i32
        %72 = arith.subi %57, %c1_i32_26 : i32
        %73 = arith.select %71, %72, %57 : i32
        %c128_i32 = arith.constant 128 : i32
        %74 = arith.divsi %55, %c128_i32 : i32
        %c0_i32_27 = arith.constant 0 : i32
        %75 = arith.cmpi sgt, %55, %c0_i32_27 : i32
        %76 = arith.extui %75 : i1 to i32
        %c0_i32_28 = arith.constant 0 : i32
        %77 = arith.cmpi slt, %55, %c0_i32_28 : i32
        %78 = arith.extui %77 : i1 to i32
        %79 = arith.subi %76, %78 : i32
        %c0_i32_29 = arith.constant 0 : i32
        %80 = arith.cmpi sgt, %c128_i32, %c0_i32_29 : i32
        %81 = arith.extui %80 : i1 to i32
        %c0_i32_30 = arith.constant 0 : i32
        %82 = arith.cmpi slt, %c128_i32, %c0_i32_30 : i32
        %83 = arith.extui %82 : i1 to i32
        %84 = arith.subi %81, %83 : i32
        %85 = arith.cmpi ne, %79, %84 : i32
        %86 = arith.remsi %55, %c128_i32 : i32
        %c0_i32_31 = arith.constant 0 : i32
        %87 = arith.cmpi ne, %86, %c0_i32_31 : i32
        %88 = arith.andi %85, %87 : i1
        %c1_i32_32 = arith.constant 1 : i32
        %89 = arith.subi %74, %c1_i32_32 : i32
        %90 = arith.select %88, %89, %74 : i32
        %91 = arith.addi %55, %50 : i32
        %c128_i32_33 = arith.constant 128 : i32
        %92 = arith.addi %91, %c128_i32_33 : i32
        %c1_i32_34 = arith.constant 1 : i32
        %93 = arith.subi %92, %c1_i32_34 : i32
        %c128_i32_35 = arith.constant 128 : i32
        %94 = arith.divsi %93, %c128_i32_35 : i32
        %c0_i32_36 = arith.constant 0 : i32
        %95 = arith.cmpi sgt, %93, %c0_i32_36 : i32
        %96 = arith.extui %95 : i1 to i32
        %c0_i32_37 = arith.constant 0 : i32
        %97 = arith.cmpi slt, %93, %c0_i32_37 : i32
        %98 = arith.extui %97 : i1 to i32
        %99 = arith.subi %96, %98 : i32
        %c0_i32_38 = arith.constant 0 : i32
        %100 = arith.cmpi sgt, %c128_i32_35, %c0_i32_38 : i32
        %101 = arith.extui %100 : i1 to i32
        %c0_i32_39 = arith.constant 0 : i32
        %102 = arith.cmpi slt, %c128_i32_35, %c0_i32_39 : i32
        %103 = arith.extui %102 : i1 to i32
        %104 = arith.subi %101, %103 : i32
        %105 = arith.cmpi ne, %99, %104 : i32
        %106 = arith.remsi %93, %c128_i32_35 : i32
        %c0_i32_40 = arith.constant 0 : i32
        %107 = arith.cmpi ne, %106, %c0_i32_40 : i32
        %108 = arith.andi %105, %107 : i1
        %c1_i32_41 = arith.constant 1 : i32
        %109 = arith.subi %94, %c1_i32_41 : i32
        %110 = arith.select %108, %109, %94 : i32
        %c128_i32_42 = arith.constant 128 : i32
        %c0_i32_43 = arith.constant 0 : i32
        %111 = arith.cmpi eq, %c128_i32_42, %c0_i32_43 : i32
        %c1_i32_44 = arith.constant 1 : i32
        %112 = arith.select %111, %c1_i32_44, %c128_i32_42 : i32
        %113 = arith.remsi %55, %112 : i32
        %c0_i32_45 = arith.constant 0 : i32
        %114 = arith.cmpi ne, %113, %c0_i32_45 : i32
        %c0_i32_46 = arith.constant 0 : i32
        %115 = arith.cmpi slt, %113, %c0_i32_46 : i32
        %c0_i32_47 = arith.constant 0 : i32
        %116 = arith.cmpi slt, %112, %c0_i32_47 : i32
        %117 = arith.xori %115, %116 : i1
        %118 = arith.andi %117, %114 : i1
        %119 = arith.addi %113, %112 : i32
        %120 = arith.select %118, %119, %113 : i32
        %c8_i32 = arith.constant 8 : i32
        %121 = arith.muli %73, %c8_i32 : i32
        %122 = arith.subi %90, %121 : i32
        %123 = arith.index_cast %54 : i32 to index
        %124 = memref.load %arg4[%123] : memref<5xi32, #tpu.memory_space<smem>>
        %c128_i32_48 = arith.constant 128 : i32
        %125 = arith.addi %124, %c128_i32_48 : i32
        %c1_i32_49 = arith.constant 1 : i32
        %126 = arith.subi %125, %c1_i32_49 : i32
        %c128_i32_50 = arith.constant 128 : i32
        %127 = arith.divsi %126, %c128_i32_50 : i32
        %c0_i32_51 = arith.constant 0 : i32
        %128 = arith.cmpi sgt, %126, %c0_i32_51 : i32
        %129 = arith.extui %128 : i1 to i32
        %c0_i32_52 = arith.constant 0 : i32
        %130 = arith.cmpi slt, %126, %c0_i32_52 : i32
        %131 = arith.extui %130 : i1 to i32
        %132 = arith.subi %129, %131 : i32
        %c0_i32_53 = arith.constant 0 : i32
        %133 = arith.cmpi sgt, %c128_i32_50, %c0_i32_53 : i32
        %134 = arith.extui %133 : i1 to i32
        %c0_i32_54 = arith.constant 0 : i32
        %135 = arith.cmpi slt, %c128_i32_50, %c0_i32_54 : i32
        %136 = arith.extui %135 : i1 to i32
        %137 = arith.subi %134, %136 : i32
        %138 = arith.cmpi ne, %132, %137 : i32
        %139 = arith.remsi %126, %c128_i32_50 : i32
        %c0_i32_55 = arith.constant 0 : i32
        %140 = arith.cmpi ne, %139, %c0_i32_55 : i32
        %141 = arith.andi %138, %140 : i1
        %c1_i32_56 = arith.constant 1 : i32
        %142 = arith.subi %127, %c1_i32_56 : i32
        %143 = arith.select %141, %142, %127 : i32
        %144 = arith.addi %143, %90 : i32
        %145 = arith.subi %110, %90 : i32
        %c1_i32_57 = arith.constant 1 : i32
        %c3_i32 = arith.constant 3 : i32
        %c1_i32_58 = arith.constant 1 : i32
        %c0_i32_59 = arith.constant 0 : i32
        %146 = arith.subi %145, %c0_i32_59 : i32
        %147 = arith.addi %c0_i32_59, %146 : i32
        %c1_i32_60 = arith.constant 1 : i32
        %148:2 = scf.for %arg23 = %c0_i32_59 to %147 step %c1_i32_60 iter_args(%arg24 = %50, %arg25 = %120) -> (i32, i32)  : i32 {
          %c128_i32_61 = arith.constant 128 : i32
          %149 = arith.subi %c128_i32_61, %arg25 : i32
          %150 = arith.minsi %149, %arg24 : i32
          %151 = arith.addi %122, %arg23 : i32
          %c128_i32_62 = arith.constant 128 : i32
          %152 = arith.muli %151, %c128_i32_62 : i32
          %153 = arith.addi %152, %arg25 : i32
          %154 = arith.addi %144, %arg23 : i32
          %155 = arith.index_cast %154 : i32 to index
          %156 = memref.load %arg2[%155] : memref<1280xi32, #tpu.memory_space<smem>>
          %c128_i32_63 = arith.constant 128 : i32
          %157 = arith.muli %156, %c128_i32_63 : i32
          %158 = arith.addi %157, %arg25 : i32
          %c0_i32_64 = arith.constant 0 : i32
          %c0_i32_65 = arith.constant 0 : i32
          %c0_i32_66 = arith.constant 0 : i32
          %c0_i32_67 = arith.constant 0 : i32
          %159 = tpu.memref_slice %arg16[%c1_i32_57, %c0_i32_64, %c0_i32_65, %c0_i32_66, %c0_i32_67] : memref<2x1024x8x2x128xbf16, #tpu.memory_space<vmem>> -> memref<1x1024x8x2x128xbf16, strided<[2097152, 2048, 256, 128, 1], offset: 2097152>, #tpu.memory_space<vmem>>
          %160 = tpu.memref_squeeze %159 : memref<1x1024x8x2x128xbf16, strided<[2097152, 2048, 256, 128, 1], offset: 2097152>, #tpu.memory_space<vmem>> -> memref<1024x8x2x128xbf16, strided<[2048, 256, 128, 1], offset: 2097152>, #tpu.memory_space<vmem>>
          %c0_i32_68 = arith.constant 0 : i32
          %c0_i32_69 = arith.constant 0 : i32
          %c0_i32_70 = arith.constant 0 : i32
          %161 = tpu.memref_slice %160[%153, %c0_i32_68, %c0_i32_69, %c0_i32_70] <%150> : memref<1024x8x2x128xbf16, strided<[2048, 256, 128, 1], offset: 2097152>, #tpu.memory_space<vmem>> -> memref<?x8x2x128xbf16, strided<[2048, 256, 128, 1], offset: ?>, #tpu.memory_space<vmem>>
          %162 = tpu.memref_reshape %arg15 : memref<4688x128x8x2x128xbf16, #tpu.memory_space<any>> -> memref<600064x8x2x128xbf16, #tpu.memory_space<any>>
          %c0_i32_71 = arith.constant 0 : i32
          %c0_i32_72 = arith.constant 0 : i32
          %c0_i32_73 = arith.constant 0 : i32
          %163 = tpu.memref_slice %162[%158, %c0_i32_71, %c0_i32_72, %c0_i32_73] <%150> : memref<600064x8x2x128xbf16, #tpu.memory_space<any>> -> memref<?x8x2x128xbf16, strided<[2048, 256, 128, 1], offset: ?>, #tpu.memory_space<any>>
          %164 = tpu.memref_slice %arg19[%c3_i32, %c1_i32_58] : memref<5x2x!tpu.dma_semaphore, #tpu.memory_space<semaphore_mem>> -> memref<1x1x!tpu.dma_semaphore, strided<[2, 1], offset: 7>, #tpu.memory_space<semaphore_mem>>
          %165 = tpu.memref_squeeze %164 : memref<1x1x!tpu.dma_semaphore, strided<[2, 1], offset: 7>, #tpu.memory_space<semaphore_mem>> -> memref<!tpu.dma_semaphore, strided<[], offset: 7>, #tpu.memory_space<semaphore_mem>>
          tpu.wait_dma2 semaphore(%165 : memref<!tpu.dma_semaphore, strided<[], offset: 7>, #tpu.memory_space<semaphore_mem>>) src(%161 : memref<?x8x2x128xbf16, strided<[2048, 256, 128, 1], offset: ?>, #tpu.memory_space<vmem>>) dst(%163 : memref<?x8x2x128xbf16, strided<[2048, 256, 128, 1], offset: ?>, #tpu.memory_space<any>>)
          %166 = arith.subi %arg24, %150 : i32
          %c0_i32_74 = arith.constant 0 : i32
          scf.yield %166, %c0_i32_74 : i32, i32
        }
      } else {
      }
    } else {
    }
    return
  }
}
