module @"RPA-bq_128-bkvp_8-p_128" attributes {stable_mosaic.version = 9 : i64} {
  func.func @main(%arg0: i32, %arg1: memref<128xi32, #tpu.tiled<(128),[1]>, #tpu.memory_space<smem>>, %arg2: memref<2048xi32, #tpu.tiled<(1024),[1]>, #tpu.memory_space<smem>>, %arg3: memref<128xi32, #tpu.tiled<(128),[1]>, #tpu.memory_space<smem>>, %arg4: memref<128xi32, #tpu.tiled<(128),[1]>, #tpu.memory_space<smem>>, %arg5: memref<128xi32, #tpu.tiled<(128),[1]>, #tpu.memory_space<smem>>, %arg6: memref<128xi32, #tpu.tiled<(128),[1]>, #tpu.memory_space<smem>>, %arg7: memref<128xi32, #tpu.tiled<(128),[1]>, #tpu.memory_space<smem>>, %arg8: memref<128xi32, #tpu.tiled<(128),[1]>, #tpu.memory_space<smem>>, %arg9: memref<128xi32, #tpu.tiled<(128),[1]>, #tpu.memory_space<smem>>, %arg10: memref<8x8192x2x2x128xbf16, #tpu.tiled<(2,128)(2,1),[16384,2,1,1,1]>, #tpu.memory_space<vmem>> {llo.passthrough_operand, llo.unspecified_memory_space}, %arg11: memref<8192x8x2x128xbf16, #tpu.tiled<(2,128)(2,1),[8,1,1,1]>, #tpu.memory_space<hbm>> {llo.passthrough_operand, llo.unspecified_memory_space}, %arg12: memref<4688x128x8x2x128xbf16, #tpu.tiled<(2,128)(2,1),[1024,8,1,1,1]>, #tpu.memory_space<hbm>> {llo.passthrough_operand, llo.unspecified_memory_space}, %arg13: memref<1024x128xi32, #tpu.tiled<(8,128),[1,1]>, #tpu.memory_space<hbm>> {llo.passthrough_operand, llo.unspecified_memory_space}, %arg14: memref<8x8192x2x2x128xbf16, #tpu.tiled<(2,128)(2,1),[16384,2,1,1,1]>, #tpu.memory_space<vmem>> {llo.passthrough_operand, llo.unspecified_memory_space}, %arg15: memref<4688x128x8x2x128xbf16, #tpu.tiled<(2,128)(2,1),[1024,8,1,1,1]>, #tpu.memory_space<hbm>> {llo.passthrough_operand, llo.unspecified_memory_space}, %arg16: memref<2x1024x8x2x128xbf16, #tpu.tiled<(2,128)(2,1),[8192,8,1,1,1]>, #tpu.memory_space<vmem>>, %arg17: memref<2x8x128x2x2x128xbf16, #tpu.tiled<(2,128)(2,1),[2048,256,2,1,1,1]>, #tpu.memory_space<vmem>>, %arg18: memref<2x8x128x2x2x128xbf16, #tpu.tiled<(2,128)(2,1),[2048,256,2,1,1,1]>, #tpu.memory_space<vmem>>, %arg19: memref<5x2x!tpu.dma_semaphore, #tpu.tiled<,[2,1]>, #tpu.memory_space<semaphore_mem>> {llo.passthrough_operand}, %arg20: memref<8x512x128xf32, #tpu.tiled<(8,128),[64,1,1]>, #tpu.memory_space<vmem>>, %arg21: memref<8x512x128xf32, #tpu.tiled<(8,128),[64,1,1]>, #tpu.memory_space<vmem>>, %arg22: memref<8x512x128xf32, #tpu.tiled<(8,128),[64,1,1]>, #tpu.memory_space<vmem>>) attributes {dimension_semantics = [#tpu.dimension_semantics<arbitrary>], iteration_bounds = array<i64: -9223372036854775808>, scalar_prefetch = 9 : i64, scratch_operands = 7 : i64, window_params = [{}, {}, {}, {}, {}, {}]} {
    %cst = arith.constant dense<0xFF800000> : vector<512x128xf32>
    %cst_0 = arith.constant dense<-2.38197633E+38> : vector<8x512x1024xf32>
    %cst_1 = arith.constant dense<1> : vector<8x512x1024xi32>
    %cst_2 = arith.constant dense<0> : vector<8x512x1024xi32>
    %cst_3 = arith.constant dense<4> : vector<8x512x1024xi32>
    %cst_4 = arith.constant dense<0.0883883461> : vector<8x512x1024xf32>
    %cst_5 = arith.constant dense<0xFF800000> : vector<4x128xf32>
    %cst_6 = arith.constant dense<-2.38197633E+38> : vector<8x4x1024xf32>
    %cst_7 = arith.constant dense<1> : vector<8x4x1024xi32>
    %cst_8 = arith.constant dense<0> : vector<8x4x1024xi32>
    %cst_9 = arith.constant dense<4> : vector<8x4x1024xi32>
    %cst_10 = arith.constant dense<0.0883883461> : vector<8x4x1024xf32>
    %cst_11 = arith.constant dense<16> : vector<1024x128xi32>
    %cst_12 = arith.constant dense<0> : vector<1024x128xi32>
    %cst_13 = arith.constant dense<-1> : vector<1024x128xi32>
    %c1023_i32 = arith.constant 1023 : i32
    %c127_i32 = arith.constant 127 : i32
    %cst_14 = arith.constant dense<0.000000e+00> : vector<512xf32>
    %cst_15 = arith.constant dense<0.000000e+00> : vector<512x128xf32>
    %cst_16 = arith.constant dense<0xFF800000> : vector<512xf32>
    %cst_17 = arith.constant dense<0.000000e+00> : vector<8x512x1024xf32>
    %cst_18 = arith.constant dense<0.000000e+00> : vector<4xf32>
    %cst_19 = arith.constant dense<0.000000e+00> : vector<4x128xf32>
    %cst_20 = arith.constant dense<0xFF800000> : vector<4xf32>
    %cst_21 = arith.constant dense<0.000000e+00> : vector<8x4x1024xf32>
    %c7_i32 = arith.constant 7 : i32
    %c6_i32 = arith.constant 6 : i32
    %c5_i32 = arith.constant 5 : i32
    %c7 = arith.constant 7 : index
    %c6 = arith.constant 6 : index
    %c5 = arith.constant 5 : index
    %c3 = arith.constant 3 : index
    %c2_i32 = arith.constant 2 : i32
    %c4_i32 = arith.constant 4 : i32
    %c3_i32 = arith.constant 3 : i32
    %c4 = arith.constant 4 : index
    %c1024_i32 = arith.constant 1024 : i32
    %c8_i32 = arith.constant 8 : i32
    %c128_i32 = arith.constant 128 : i32
    %c0_i32 = arith.constant 0 : i32
    %c1_i32 = arith.constant 1 : i32
    %c2 = arith.constant 2 : index
    %c1 = arith.constant 1 : index
    %c0 = arith.constant 0 : index
    %0 = tpu.erase_memref_layout %arg1 : memref<128xi32, #tpu.tiled<(128),[1]>, #tpu.memory_space<smem>> -> memref<128xi32, #tpu.memory_space<smem>>
    %1 = tpu.erase_memref_layout %arg2 : memref<2048xi32, #tpu.tiled<(1024),[1]>, #tpu.memory_space<smem>> -> memref<2048xi32, #tpu.memory_space<smem>>
    %2 = tpu.erase_memref_layout %arg3 : memref<128xi32, #tpu.tiled<(128),[1]>, #tpu.memory_space<smem>> -> memref<128xi32, #tpu.memory_space<smem>>
    %3 = tpu.erase_memref_layout %arg4 : memref<128xi32, #tpu.tiled<(128),[1]>, #tpu.memory_space<smem>> -> memref<128xi32, #tpu.memory_space<smem>>
    %4 = tpu.erase_memref_layout %arg6 : memref<128xi32, #tpu.tiled<(128),[1]>, #tpu.memory_space<smem>> -> memref<128xi32, #tpu.memory_space<smem>>
    %5 = tpu.erase_memref_layout %arg7 : memref<128xi32, #tpu.tiled<(128),[1]>, #tpu.memory_space<smem>> -> memref<128xi32, #tpu.memory_space<smem>>
    %6 = tpu.erase_memref_layout %arg8 : memref<128xi32, #tpu.tiled<(128),[1]>, #tpu.memory_space<smem>> -> memref<128xi32, #tpu.memory_space<smem>>
    %7 = tpu.erase_memref_layout %arg9 : memref<128xi32, #tpu.tiled<(128),[1]>, #tpu.memory_space<smem>> -> memref<128xi32, #tpu.memory_space<smem>>
    %8 = tpu.reinterpret_cast %arg20 : memref<8x512x128xf32, #tpu.tiled<(8,128),[64,1,1]>, #tpu.memory_space<vmem>> -> memref<8x512x128xf32, #tpu.tiled<(1,128),[512,1,1]>, #tpu.memory_space<vmem>>
    %9 = tpu.erase_memref_layout %8 : memref<8x512x128xf32, #tpu.tiled<(1,128),[512,1,1]>, #tpu.memory_space<vmem>> -> memref<8x512x128xf32, #tpu.memory_space<vmem>>
    %10 = tpu.reinterpret_cast %arg21 : memref<8x512x128xf32, #tpu.tiled<(8,128),[64,1,1]>, #tpu.memory_space<vmem>> -> memref<8x512x128xf32, #tpu.tiled<(1,128),[512,1,1]>, #tpu.memory_space<vmem>>
    %11 = tpu.erase_memref_layout %10 : memref<8x512x128xf32, #tpu.tiled<(1,128),[512,1,1]>, #tpu.memory_space<vmem>> -> memref<8x512x128xf32, #tpu.memory_space<vmem>>
    %12 = tpu.reinterpret_cast %arg22 : memref<8x512x128xf32, #tpu.tiled<(8,128),[64,1,1]>, #tpu.memory_space<vmem>> -> memref<8x512x128xf32, #tpu.tiled<(1,128),[512,1,1]>, #tpu.memory_space<vmem>>
    %13 = tpu.erase_memref_layout %12 : memref<8x512x128xf32, #tpu.tiled<(1,128),[512,1,1]>, #tpu.memory_space<vmem>> -> memref<8x512x128xf32, #tpu.memory_space<vmem>>
    %14 = tpu.iteration_bound 0 : i32
    %15 = memref.load %4[%c0] : memref<128xi32, #tpu.memory_space<smem>>
    %16 = memref.load %4[%c1] : memref<128xi32, #tpu.memory_space<smem>>
    %17 = memref.load %4[%c2] : memref<128xi32, #tpu.memory_space<smem>>
    %18 = arith.index_cast %arg0 : i32 to index
    %19 = memref.load %2[%18] : memref<128xi32, #tpu.memory_space<smem>>
    %20 = arith.addi %arg0, %c1_i32 : i32
    %21 = arith.index_cast %20 : i32 to index
    %22 = memref.load %2[%21] : memref<128xi32, #tpu.memory_space<smem>>
    %23 = arith.subi %22, %19 : i32
    %24 = memref.load %0[%18] : memref<128xi32, #tpu.memory_space<smem>>
    %25 = arith.cmpi eq, %arg0, %c0_i32 : i32
    scf.if %25 {
      %35 = memref.load %2[%c0] : memref<128xi32, #tpu.memory_space<smem>>
      %36 = memref.load %2[%c1] : memref<128xi32, #tpu.memory_space<smem>>
      %37 = arith.subi %36, %35 : i32
      %38 = arith.minsi %37, %c128_i32 : i32
      %39 = tpu.memref_slice %arg10[%c0_i32, %35, %c0_i32, %c0_i32, %c0_i32] <%38> : memref<8x8192x2x2x128xbf16, #tpu.tiled<(2,128)(2,1),[16384,2,1,1,1]>, #tpu.memory_space<vmem>> -> memref<8x?x2x2x128xbf16, #tpu.tiled<(2,128)(2,1),[16384,2,1,1,1]>, #tpu.memory_space<vmem>>
      %40 = tpu.erase_memref_layout %39 : memref<8x?x2x2x128xbf16, #tpu.tiled<(2,128)(2,1),[16384,2,1,1,1]>, #tpu.memory_space<vmem>> -> memref<8x?x2x2x128xbf16, strided<[4194304, 512, 256, 128, 1], offset: ?>, #tpu.memory_space<vmem>>
      %41 = tpu.memref_slice %arg17[%c0_i32, %c0_i32, %c0_i32, %c0_i32, %c0_i32, %c0_i32] : memref<2x8x128x2x2x128xbf16, #tpu.tiled<(2,128)(2,1),[2048,256,2,1,1,1]>, #tpu.memory_space<vmem>> -> memref<1x8x128x2x2x128xbf16, #tpu.tiled<(2,128)(2,1),[2048,256,2,1,1,1]>, #tpu.memory_space<vmem>>
      %42 = tpu.memref_squeeze %41 : memref<1x8x128x2x2x128xbf16, #tpu.tiled<(2,128)(2,1),[2048,256,2,1,1,1]>, #tpu.memory_space<vmem>> -> memref<8x128x2x2x128xbf16, #tpu.tiled<(2,128)(2,1),[256,2,1,1,1]>, #tpu.memory_space<vmem>>
      %43 = tpu.memref_slice %42[%c0_i32, %c0_i32, %c0_i32, %c0_i32, %c0_i32] <%38> : memref<8x128x2x2x128xbf16, #tpu.tiled<(2,128)(2,1),[256,2,1,1,1]>, #tpu.memory_space<vmem>> -> memref<8x?x2x2x128xbf16, #tpu.tiled<(2,128)(2,1),[256,2,1,1,1]>, #tpu.memory_space<vmem>>
      %44 = tpu.erase_memref_layout %43 : memref<8x?x2x2x128xbf16, #tpu.tiled<(2,128)(2,1),[256,2,1,1,1]>, #tpu.memory_space<vmem>> -> memref<8x?x2x2x128xbf16, strided<[65536, 512, 256, 128, 1]>, #tpu.memory_space<vmem>>
      %45 = tpu.memref_slice %arg19[%c1_i32, %c0_i32] : memref<5x2x!tpu.dma_semaphore, #tpu.tiled<,[2,1]>, #tpu.memory_space<semaphore_mem>> -> memref<1x1x!tpu.dma_semaphore, #tpu.tiled<,[2,1]>, #tpu.memory_space<semaphore_mem>>
      %46 = tpu.memref_squeeze %45 : memref<1x1x!tpu.dma_semaphore, #tpu.tiled<,[2,1]>, #tpu.memory_space<semaphore_mem>> -> memref<!tpu.dma_semaphore, #tpu.tiled<,[]>, #tpu.memory_space<semaphore_mem>>
      %47 = tpu.erase_memref_layout %46 : memref<!tpu.dma_semaphore, #tpu.tiled<,[]>, #tpu.memory_space<semaphore_mem>> -> memref<!tpu.dma_semaphore, strided<[], offset: 2>, #tpu.memory_space<semaphore_mem>>
      tpu.enqueue_dma source(%40 : memref<8x?x2x2x128xbf16, strided<[4194304, 512, 256, 128, 1], offset: ?>, #tpu.memory_space<vmem>>) target(%44 : memref<8x?x2x2x128xbf16, strided<[65536, 512, 256, 128, 1]>, #tpu.memory_space<vmem>>) target_semaphore(%47 : memref<!tpu.dma_semaphore, strided<[], offset: 2>, #tpu.memory_space<semaphore_mem>>)
      %48 = memref.load %0[%c0] : memref<128xi32, #tpu.memory_space<smem>>
      %49 = memref.load %2[%c0] : memref<128xi32, #tpu.memory_space<smem>>
      %50 = memref.load %2[%c1] : memref<128xi32, #tpu.memory_space<smem>>
      %51 = arith.subi %50, %49 : i32
      %52 = arith.subi %48, %51 : i32
      %53 = arith.maxsi %52, %c0_i32 : i32
      %54 = arith.subi %48, %53 : i32
      %55 = arith.addi %53, %c127_i32 : i32
      %56 = arith.divsi %55, %c128_i32 : i32
      %57 = arith.cmpi sgt, %55, %c0_i32 : i32
      %58 = arith.extui %57 : i1 to i32
      %59 = arith.cmpi slt, %55, %c0_i32 : i32
      %60 = arith.extui %59 : i1 to i32
      %61 = arith.subi %58, %60 : i32
      %62 = arith.cmpi ne, %61, %c1_i32 : i32
      %63 = arith.remsi %55, %c128_i32 : i32
      %64 = arith.cmpi ne, %63, %c0_i32 : i32
      %65 = arith.andi %62, %64 : i1
      %66 = arith.subi %56, %c1_i32 : i32
      %67 = arith.select %65, %66, %56 : i32
      %68 = arith.minsi %67, %c8_i32 : i32
      %69 = arith.subi %c1024_i32, %53 : i32
      %70 = arith.maxsi %69, %c0_i32 : i32
      %71 = arith.minsi %70, %54 : i32
      %72 = memref.load %3[%c0] : memref<128xi32, #tpu.memory_space<smem>>
      %73 = arith.addi %72, %c127_i32 : i32
      %74 = arith.divsi %73, %c128_i32 : i32
      %75 = arith.cmpi sgt, %73, %c0_i32 : i32
      %76 = arith.extui %75 : i1 to i32
      %77 = arith.cmpi slt, %73, %c0_i32 : i32
      %78 = arith.extui %77 : i1 to i32
      %79 = arith.subi %76, %78 : i32
      %80 = arith.cmpi ne, %79, %c1_i32 : i32
      %81 = arith.remsi %73, %c128_i32 : i32
      %82 = arith.cmpi ne, %81, %c0_i32 : i32
      %83 = arith.andi %80, %82 : i1
      %84 = arith.subi %74, %c1_i32 : i32
      %85 = arith.select %83, %84, %74 : i32
      %86 = memref.load %7[%c4] : memref<128xi32, #tpu.memory_space<smem>>
      %87 = arith.cmpi sgt, %86, %c0_i32 : i32
      scf.if %87 {
        %90 = memref.load %7[%c0] : memref<128xi32, #tpu.memory_space<smem>>
        %91 = memref.load %7[%c2] : memref<128xi32, #tpu.memory_space<smem>>
        memref.store %c0_i32, %7[%c4] : memref<128xi32, #tpu.memory_space<smem>>
        %92 = arith.divsi %91, %c1024_i32 : i32
        %93 = arith.cmpi sgt, %91, %c0_i32 : i32
        %94 = arith.extui %93 : i1 to i32
        %95 = arith.cmpi slt, %91, %c0_i32 : i32
        %96 = arith.extui %95 : i1 to i32
        %97 = arith.subi %94, %96 : i32
        %98 = arith.cmpi ne, %97, %c1_i32 : i32
        %99 = arith.remsi %91, %c1024_i32 : i32
        %100 = arith.cmpi ne, %99, %c0_i32 : i32
        %101 = arith.andi %98, %100 : i1
        %102 = arith.subi %92, %c1_i32 : i32
        %103 = arith.select %101, %102, %92 : i32
        %104 = arith.divsi %91, %c128_i32 : i32
        %105 = arith.remsi %91, %c128_i32 : i32
        %106 = arith.cmpi ne, %105, %c0_i32 : i32
        %107 = arith.andi %98, %106 : i1
        %108 = arith.subi %104, %c1_i32 : i32
        %109 = arith.select %107, %108, %104 : i32
        %110 = arith.addi %91, %86 : i32
        %111 = arith.addi %110, %c127_i32 : i32
        %112 = arith.divsi %111, %c128_i32 : i32
        %113 = arith.cmpi sgt, %111, %c0_i32 : i32
        %114 = arith.extui %113 : i1 to i32
        %115 = arith.cmpi slt, %111, %c0_i32 : i32
        %116 = arith.extui %115 : i1 to i32
        %117 = arith.subi %114, %116 : i32
        %118 = arith.cmpi ne, %117, %c1_i32 : i32
        %119 = arith.remsi %111, %c128_i32 : i32
        %120 = arith.cmpi ne, %119, %c0_i32 : i32
        %121 = arith.andi %118, %120 : i1
        %122 = arith.subi %112, %c1_i32 : i32
        %123 = arith.select %121, %122, %112 : i32
        %124 = arith.cmpi slt, %105, %c0_i32 : i32
        %125 = arith.andi %124, %106 : i1
        %126 = arith.addi %105, %c128_i32 : i32
        %127 = arith.select %125, %126, %105 : i32
        %128 = arith.muli %103, %c8_i32 : i32
        %129 = arith.subi %109, %128 : i32
        %130 = arith.index_cast %90 : i32 to index
        %131 = memref.load %3[%130] : memref<128xi32, #tpu.memory_space<smem>>
        %132 = arith.addi %131, %c127_i32 : i32
        %133 = arith.divsi %132, %c128_i32 : i32
        %134 = arith.cmpi sgt, %132, %c0_i32 : i32
        %135 = arith.extui %134 : i1 to i32
        %136 = arith.cmpi slt, %132, %c0_i32 : i32
        %137 = arith.extui %136 : i1 to i32
        %138 = arith.subi %135, %137 : i32
        %139 = arith.cmpi ne, %138, %c1_i32 : i32
        %140 = arith.remsi %132, %c128_i32 : i32
        %141 = arith.cmpi ne, %140, %c0_i32 : i32
        %142 = arith.andi %139, %141 : i1
        %143 = arith.subi %133, %c1_i32 : i32
        %144 = arith.select %142, %143, %133 : i32
        %145 = arith.addi %144, %109 : i32
        %146 = arith.subi %123, %109 : i32
        %147:2 = scf.for %arg23 = %c0_i32 to %146 step %c1_i32 iter_args(%arg24 = %86, %arg25 = %127) -> (i32, i32)  : i32 {
          %148 = arith.subi %c128_i32, %arg25 : i32
          %149 = arith.minsi %148, %arg24 : i32
          %150 = arith.addi %129, %arg23 : i32
          %151 = arith.muli %150, %c128_i32 : i32
          %152 = arith.addi %151, %arg25 : i32
          %153 = arith.addi %145, %arg23 : i32
          %154 = arith.index_cast %153 : i32 to index
          %155 = memref.load %1[%154] : memref<2048xi32, #tpu.memory_space<smem>>
          %156 = arith.muli %155, %c128_i32 : i32
          %157 = arith.addi %156, %arg25 : i32
          %158 = tpu.memref_slice %arg16[%c0_i32, %c0_i32, %c0_i32, %c0_i32, %c0_i32] : memref<2x1024x8x2x128xbf16, #tpu.tiled<(2,128)(2,1),[8192,8,1,1,1]>, #tpu.memory_space<vmem>> -> memref<1x1024x8x2x128xbf16, #tpu.tiled<(2,128)(2,1),[8192,8,1,1,1]>, #tpu.memory_space<vmem>>
          %159 = tpu.memref_squeeze %158 : memref<1x1024x8x2x128xbf16, #tpu.tiled<(2,128)(2,1),[8192,8,1,1,1]>, #tpu.memory_space<vmem>> -> memref<1024x8x2x128xbf16, #tpu.tiled<(2,128)(2,1),[8,1,1,1]>, #tpu.memory_space<vmem>>
          %160 = tpu.memref_slice %159[%152, %c0_i32, %c0_i32, %c0_i32] <%149> : memref<1024x8x2x128xbf16, #tpu.tiled<(2,128)(2,1),[8,1,1,1]>, #tpu.memory_space<vmem>> -> memref<?x8x2x128xbf16, #tpu.tiled<(2,128)(2,1),[8,1,1,1]>, #tpu.memory_space<vmem>>
          %161 = tpu.erase_memref_layout %160 : memref<?x8x2x128xbf16, #tpu.tiled<(2,128)(2,1),[8,1,1,1]>, #tpu.memory_space<vmem>> -> memref<?x8x2x128xbf16, strided<[2048, 256, 128, 1], offset: ?>, #tpu.memory_space<vmem>>
          %162 = tpu.memref_reshape %arg15 : memref<4688x128x8x2x128xbf16, #tpu.tiled<(2,128)(2,1),[1024,8,1,1,1]>, #tpu.memory_space<hbm>> -> memref<600064x8x2x128xbf16, #tpu.tiled<(2,128)(2,1),[8,1,1,1]>, #tpu.memory_space<hbm>>
          %163 = tpu.memref_slice %162[%157, %c0_i32, %c0_i32, %c0_i32] <%149> : memref<600064x8x2x128xbf16, #tpu.tiled<(2,128)(2,1),[8,1,1,1]>, #tpu.memory_space<hbm>> -> memref<?x8x2x128xbf16, #tpu.tiled<(2,128)(2,1),[8,1,1,1]>, #tpu.memory_space<hbm>>
          %164 = tpu.erase_memref_layout %163 : memref<?x8x2x128xbf16, #tpu.tiled<(2,128)(2,1),[8,1,1,1]>, #tpu.memory_space<hbm>> -> memref<?x8x2x128xbf16, strided<[2048, 256, 128, 1], offset: ?>, #tpu.memory_space<hbm>>
          %165 = tpu.memref_slice %arg19[%c3_i32, %c0_i32] : memref<5x2x!tpu.dma_semaphore, #tpu.tiled<,[2,1]>, #tpu.memory_space<semaphore_mem>> -> memref<1x1x!tpu.dma_semaphore, #tpu.tiled<,[2,1]>, #tpu.memory_space<semaphore_mem>>
          %166 = tpu.memref_squeeze %165 : memref<1x1x!tpu.dma_semaphore, #tpu.tiled<,[2,1]>, #tpu.memory_space<semaphore_mem>> -> memref<!tpu.dma_semaphore, #tpu.tiled<,[]>, #tpu.memory_space<semaphore_mem>>
          %167 = tpu.erase_memref_layout %166 : memref<!tpu.dma_semaphore, #tpu.tiled<,[]>, #tpu.memory_space<semaphore_mem>> -> memref<!tpu.dma_semaphore, strided<[], offset: 6>, #tpu.memory_space<semaphore_mem>>
          tpu.wait_dma2 semaphore(%167 : memref<!tpu.dma_semaphore, strided<[], offset: 6>, #tpu.memory_space<semaphore_mem>>) src(%161 : memref<?x8x2x128xbf16, strided<[2048, 256, 128, 1], offset: ?>, #tpu.memory_space<vmem>>) dst(%164 : memref<?x8x2x128xbf16, strided<[2048, 256, 128, 1], offset: ?>, #tpu.memory_space<hbm>>)
          %168 = arith.subi %arg24, %149 : i32
          scf.yield %168, %c0_i32 : i32, i32
        }
      }
      %88 = scf.for %arg23 = %c0_i32 to %68 step %c1_i32 iter_args(%arg24 = %c0_i32) -> (i32)  : i32 {
        %90 = arith.muli %arg23, %c128_i32 : i32
        %91 = arith.subi %53, %90 : i32
        %92 = arith.minsi %91, %c128_i32 : i32
        %93 = arith.addi %85, %arg23 : i32
        %94 = arith.index_cast %93 : i32 to index
        %95 = memref.load %1[%94] : memref<2048xi32, #tpu.memory_space<smem>>
        %96 = arith.muli %95, %c128_i32 : i32
        %97 = tpu.memref_reshape %arg12 : memref<4688x128x8x2x128xbf16, #tpu.tiled<(2,128)(2,1),[1024,8,1,1,1]>, #tpu.memory_space<hbm>> -> memref<600064x8x2x128xbf16, #tpu.tiled<(2,128)(2,1),[8,1,1,1]>, #tpu.memory_space<hbm>>
        %98 = tpu.memref_slice %97[%96, %c0_i32, %c0_i32, %c0_i32] <%92> : memref<600064x8x2x128xbf16, #tpu.tiled<(2,128)(2,1),[8,1,1,1]>, #tpu.memory_space<hbm>> -> memref<?x8x2x128xbf16, #tpu.tiled<(2,128)(2,1),[8,1,1,1]>, #tpu.memory_space<hbm>>
        %99 = tpu.erase_memref_layout %98 : memref<?x8x2x128xbf16, #tpu.tiled<(2,128)(2,1),[8,1,1,1]>, #tpu.memory_space<hbm>> -> memref<?x8x2x128xbf16, strided<[2048, 256, 128, 1], offset: ?>, #tpu.memory_space<hbm>>
        %100 = tpu.memref_slice %arg16[%c0_i32, %c0_i32, %c0_i32, %c0_i32, %c0_i32] : memref<2x1024x8x2x128xbf16, #tpu.tiled<(2,128)(2,1),[8192,8,1,1,1]>, #tpu.memory_space<vmem>> -> memref<1x1024x8x2x128xbf16, #tpu.tiled<(2,128)(2,1),[8192,8,1,1,1]>, #tpu.memory_space<vmem>>
        %101 = tpu.memref_squeeze %100 : memref<1x1024x8x2x128xbf16, #tpu.tiled<(2,128)(2,1),[8192,8,1,1,1]>, #tpu.memory_space<vmem>> -> memref<1024x8x2x128xbf16, #tpu.tiled<(2,128)(2,1),[8,1,1,1]>, #tpu.memory_space<vmem>>
        %102 = tpu.memref_slice %101[%90, %c0_i32, %c0_i32, %c0_i32] <%92> : memref<1024x8x2x128xbf16, #tpu.tiled<(2,128)(2,1),[8,1,1,1]>, #tpu.memory_space<vmem>> -> memref<?x8x2x128xbf16, #tpu.tiled<(2,128)(2,1),[8,1,1,1]>, #tpu.memory_space<vmem>>
        %103 = tpu.erase_memref_layout %102 : memref<?x8x2x128xbf16, #tpu.tiled<(2,128)(2,1),[8,1,1,1]>, #tpu.memory_space<vmem>> -> memref<?x8x2x128xbf16, strided<[2048, 256, 128, 1], offset: ?>, #tpu.memory_space<vmem>>
        %104 = tpu.memref_slice %arg19[%c0_i32, %c0_i32] : memref<5x2x!tpu.dma_semaphore, #tpu.tiled<,[2,1]>, #tpu.memory_space<semaphore_mem>> -> memref<1x1x!tpu.dma_semaphore, #tpu.tiled<,[2,1]>, #tpu.memory_space<semaphore_mem>>
        %105 = tpu.memref_squeeze %104 : memref<1x1x!tpu.dma_semaphore, #tpu.tiled<,[2,1]>, #tpu.memory_space<semaphore_mem>> -> memref<!tpu.dma_semaphore, #tpu.tiled<,[]>, #tpu.memory_space<semaphore_mem>>
        %106 = tpu.erase_memref_layout %105 : memref<!tpu.dma_semaphore, #tpu.tiled<,[]>, #tpu.memory_space<semaphore_mem>> -> memref<!tpu.dma_semaphore, strided<[]>, #tpu.memory_space<semaphore_mem>>
        tpu.enqueue_dma source(%99 : memref<?x8x2x128xbf16, strided<[2048, 256, 128, 1], offset: ?>, #tpu.memory_space<hbm>>) target(%103 : memref<?x8x2x128xbf16, strided<[2048, 256, 128, 1], offset: ?>, #tpu.memory_space<vmem>>) target_semaphore(%106 : memref<!tpu.dma_semaphore, strided<[]>, #tpu.memory_space<semaphore_mem>>)
        %107 = arith.addi %arg24, %92 : i32
        scf.yield %107 : i32
      }
      %89 = arith.cmpi sgt, %71, %c0_i32 : i32
      scf.if %89 {
        %90 = arith.subi %50, %54 : i32
        %91 = tpu.memref_slice %arg11[%90, %c0_i32, %c0_i32, %c0_i32] <%71> : memref<8192x8x2x128xbf16, #tpu.tiled<(2,128)(2,1),[8,1,1,1]>, #tpu.memory_space<hbm>> -> memref<?x8x2x128xbf16, #tpu.tiled<(2,128)(2,1),[8,1,1,1]>, #tpu.memory_space<hbm>>
        %92 = tpu.erase_memref_layout %91 : memref<?x8x2x128xbf16, #tpu.tiled<(2,128)(2,1),[8,1,1,1]>, #tpu.memory_space<hbm>> -> memref<?x8x2x128xbf16, strided<[2048, 256, 128, 1], offset: ?>, #tpu.memory_space<hbm>>
        %93 = tpu.memref_slice %arg16[%c0_i32, %c0_i32, %c0_i32, %c0_i32, %c0_i32] : memref<2x1024x8x2x128xbf16, #tpu.tiled<(2,128)(2,1),[8192,8,1,1,1]>, #tpu.memory_space<vmem>> -> memref<1x1024x8x2x128xbf16, #tpu.tiled<(2,128)(2,1),[8192,8,1,1,1]>, #tpu.memory_space<vmem>>
        %94 = tpu.memref_squeeze %93 : memref<1x1024x8x2x128xbf16, #tpu.tiled<(2,128)(2,1),[8192,8,1,1,1]>, #tpu.memory_space<vmem>> -> memref<1024x8x2x128xbf16, #tpu.tiled<(2,128)(2,1),[8,1,1,1]>, #tpu.memory_space<vmem>>
        %95 = tpu.memref_slice %94[%88, %c0_i32, %c0_i32, %c0_i32] <%71> : memref<1024x8x2x128xbf16, #tpu.tiled<(2,128)(2,1),[8,1,1,1]>, #tpu.memory_space<vmem>> -> memref<?x8x2x128xbf16, #tpu.tiled<(2,128)(2,1),[8,1,1,1]>, #tpu.memory_space<vmem>>
        %96 = tpu.erase_memref_layout %95 : memref<?x8x2x128xbf16, #tpu.tiled<(2,128)(2,1),[8,1,1,1]>, #tpu.memory_space<vmem>> -> memref<?x8x2x128xbf16, strided<[2048, 256, 128, 1], offset: ?>, #tpu.memory_space<vmem>>
        %97 = tpu.memref_slice %arg19[%c0_i32, %c0_i32] : memref<5x2x!tpu.dma_semaphore, #tpu.tiled<,[2,1]>, #tpu.memory_space<semaphore_mem>> -> memref<1x1x!tpu.dma_semaphore, #tpu.tiled<,[2,1]>, #tpu.memory_space<semaphore_mem>>
        %98 = tpu.memref_squeeze %97 : memref<1x1x!tpu.dma_semaphore, #tpu.tiled<,[2,1]>, #tpu.memory_space<semaphore_mem>> -> memref<!tpu.dma_semaphore, #tpu.tiled<,[]>, #tpu.memory_space<semaphore_mem>>
        %99 = tpu.erase_memref_layout %98 : memref<!tpu.dma_semaphore, #tpu.tiled<,[]>, #tpu.memory_space<semaphore_mem>> -> memref<!tpu.dma_semaphore, strided<[]>, #tpu.memory_space<semaphore_mem>>
        tpu.enqueue_dma source(%92 : memref<?x8x2x128xbf16, strided<[2048, 256, 128, 1], offset: ?>, #tpu.memory_space<hbm>>) target(%96 : memref<?x8x2x128xbf16, strided<[2048, 256, 128, 1], offset: ?>, #tpu.memory_space<vmem>>) target_semaphore(%99 : memref<!tpu.dma_semaphore, strided<[]>, #tpu.memory_space<semaphore_mem>>)
      }
    }
    %26 = arith.cmpi slt, %arg0, %15 : i32
    scf.if %26 {
      %35 = arith.addi %24, %c1023_i32 : i32
      %36 = arith.divsi %35, %c1024_i32 : i32
      %37 = arith.cmpi sgt, %35, %c0_i32 : i32
      %38 = arith.extui %37 : i1 to i32
      %39 = arith.cmpi slt, %35, %c0_i32 : i32
      %40 = arith.extui %39 : i1 to i32
      %41 = arith.subi %38, %40 : i32
      %42 = arith.cmpi ne, %41, %c1_i32 : i32
      %43 = arith.remsi %35, %c1024_i32 : i32
      %44 = arith.cmpi ne, %43, %c0_i32 : i32
      %45 = arith.andi %42, %44 : i1
      %46 = arith.subi %36, %c1_i32 : i32
      %47 = arith.select %45, %46, %36 : i32
      %48 = memref.load %5[%c0] : memref<128xi32, #tpu.memory_space<smem>>
      %49 = arith.cmpi eq, %48, %c0_i32 : i32
      %50 = arith.extui %49 : i1 to i32
      %51 = arith.cmpi slt, %20, %14 : i32
      scf.if %51 {
        memref.store %50, %5[%c0] : memref<128xi32, #tpu.memory_space<smem>>
        %85 = memref.load %2[%21] : memref<128xi32, #tpu.memory_space<smem>>
        %86 = arith.addi %arg0, %c2_i32 : i32
        %87 = arith.index_cast %86 : i32 to index
        %88 = memref.load %2[%87] : memref<128xi32, #tpu.memory_space<smem>>
        %89 = arith.subi %88, %85 : i32
        %90 = arith.minsi %89, %c128_i32 : i32
        %91 = tpu.memref_slice %arg10[%c0_i32, %85, %c0_i32, %c0_i32, %c0_i32] <%90> : memref<8x8192x2x2x128xbf16, #tpu.tiled<(2,128)(2,1),[16384,2,1,1,1]>, #tpu.memory_space<vmem>> -> memref<8x?x2x2x128xbf16, #tpu.tiled<(2,128)(2,1),[16384,2,1,1,1]>, #tpu.memory_space<vmem>>
        %92 = tpu.erase_memref_layout %91 : memref<8x?x2x2x128xbf16, #tpu.tiled<(2,128)(2,1),[16384,2,1,1,1]>, #tpu.memory_space<vmem>> -> memref<8x?x2x2x128xbf16, strided<[4194304, 512, 256, 128, 1], offset: ?>, #tpu.memory_space<vmem>>
        %93 = tpu.memref_slice %arg17[%50, %c0_i32, %c0_i32, %c0_i32, %c0_i32, %c0_i32] : memref<2x8x128x2x2x128xbf16, #tpu.tiled<(2,128)(2,1),[2048,256,2,1,1,1]>, #tpu.memory_space<vmem>> -> memref<1x8x128x2x2x128xbf16, #tpu.tiled<(2,128)(2,1),[2048,256,2,1,1,1]>, #tpu.memory_space<vmem>>
        %94 = tpu.memref_squeeze %93 : memref<1x8x128x2x2x128xbf16, #tpu.tiled<(2,128)(2,1),[2048,256,2,1,1,1]>, #tpu.memory_space<vmem>> -> memref<8x128x2x2x128xbf16, #tpu.tiled<(2,128)(2,1),[256,2,1,1,1]>, #tpu.memory_space<vmem>>
        %95 = tpu.memref_slice %94[%c0_i32, %c0_i32, %c0_i32, %c0_i32, %c0_i32] <%90> : memref<8x128x2x2x128xbf16, #tpu.tiled<(2,128)(2,1),[256,2,1,1,1]>, #tpu.memory_space<vmem>> -> memref<8x?x2x2x128xbf16, #tpu.tiled<(2,128)(2,1),[256,2,1,1,1]>, #tpu.memory_space<vmem>>
        %96 = tpu.erase_memref_layout %95 : memref<8x?x2x2x128xbf16, #tpu.tiled<(2,128)(2,1),[256,2,1,1,1]>, #tpu.memory_space<vmem>> -> memref<8x?x2x2x128xbf16, strided<[65536, 512, 256, 128, 1], offset: ?>, #tpu.memory_space<vmem>>
        %97 = tpu.memref_slice %arg19[%c1_i32, %50] : memref<5x2x!tpu.dma_semaphore, #tpu.tiled<,[2,1]>, #tpu.memory_space<semaphore_mem>> -> memref<1x1x!tpu.dma_semaphore, #tpu.tiled<,[2,1]>, #tpu.memory_space<semaphore_mem>>
        %98 = tpu.memref_squeeze %97 : memref<1x1x!tpu.dma_semaphore, #tpu.tiled<,[2,1]>, #tpu.memory_space<semaphore_mem>> -> memref<!tpu.dma_semaphore, #tpu.tiled<,[]>, #tpu.memory_space<semaphore_mem>>
        %99 = tpu.erase_memref_layout %98 : memref<!tpu.dma_semaphore, #tpu.tiled<,[]>, #tpu.memory_space<semaphore_mem>> -> memref<!tpu.dma_semaphore, strided<[], offset: ?>, #tpu.memory_space<semaphore_mem>>
        tpu.enqueue_dma source(%92 : memref<8x?x2x2x128xbf16, strided<[4194304, 512, 256, 128, 1], offset: ?>, #tpu.memory_space<vmem>>) target(%96 : memref<8x?x2x2x128xbf16, strided<[65536, 512, 256, 128, 1], offset: ?>, #tpu.memory_space<vmem>>) target_semaphore(%99 : memref<!tpu.dma_semaphore, strided<[], offset: ?>, #tpu.memory_space<semaphore_mem>>)
      }
      scf.for %arg23 = %c0_i32 to %47 step %c1_i32  : i32 {
        %85 = arith.muli %arg23, %c1024_i32 : i32
        %86 = arith.subi %24, %85 : i32
        %87 = arith.minsi %86, %c1024_i32 : i32
        %88 = tpu.iota {dimensions = array<i32: 0>} : vector<1024x128xi32>
        %89 = vector.broadcast %87 : i32 to vector<1024x128xi32>
        %90 = arith.cmpi slt, %88, %89 : vector<1024x128xi32>
        %91 = arith.select %90, %cst_13, %cst_12 : vector<1024x128xi1>, vector<1024x128xi32>
        %92 = arith.trunci %91 : vector<1024x128xi32> to vector<1024x128xi16>
        %93 = tpu.bitcast %92 : vector<1024x128xi16> -> vector<512x128xi32>
        %94 = memref.load %5[%c1] : memref<128xi32, #tpu.memory_space<smem>>
        %95 = arith.addi %arg23, %c1_i32 : i32
        %96 = arith.cmpi eq, %95, %47 : i32
        %97 = arith.select %96, %c0_i32, %95 : i32
        %98 = arith.extui %96 : i1 to i32
        %99 = arith.cmpi eq, %98, %c1_i32 : i32
        %100 = arith.select %99, %20, %arg0 : i32
        %101 = arith.cmpi eq, %94, %c0_i32 : i32
        %102 = arith.extui %101 : i1 to i32
        %103 = arith.cmpi slt, %100, %14 : i32
        scf.if %103 {
          memref.store %102, %5[%c1] : memref<128xi32, #tpu.memory_space<smem>>
          %702 = arith.index_cast %100 : i32 to index
          %703 = memref.load %0[%702] : memref<128xi32, #tpu.memory_space<smem>>
          %704 = arith.muli %97, %c1024_i32 : i32
          %705 = arith.muli %97, %c8_i32 : i32
          %706 = memref.load %2[%702] : memref<128xi32, #tpu.memory_space<smem>>
          %707 = arith.addi %100, %c1_i32 : i32
          %708 = arith.index_cast %707 : i32 to index
          %709 = memref.load %2[%708] : memref<128xi32, #tpu.memory_space<smem>>
          %710 = arith.subi %709, %706 : i32
          %711 = arith.subi %703, %704 : i32
          %712 = arith.subi %711, %710 : i32
          %713 = arith.maxsi %712, %c0_i32 : i32
          %714 = arith.subi %711, %713 : i32
          %715 = arith.addi %713, %c127_i32 : i32
          %716 = arith.divsi %715, %c128_i32 : i32
          %717 = arith.cmpi sgt, %715, %c0_i32 : i32
          %718 = arith.extui %717 : i1 to i32
          %719 = arith.cmpi slt, %715, %c0_i32 : i32
          %720 = arith.extui %719 : i1 to i32
          %721 = arith.subi %718, %720 : i32
          %722 = arith.cmpi ne, %721, %c1_i32 : i32
          %723 = arith.remsi %715, %c128_i32 : i32
          %724 = arith.cmpi ne, %723, %c0_i32 : i32
          %725 = arith.andi %722, %724 : i1
          %726 = arith.subi %716, %c1_i32 : i32
          %727 = arith.select %725, %726, %716 : i32
          %728 = arith.minsi %727, %c8_i32 : i32
          %729 = arith.subi %c1024_i32, %713 : i32
          %730 = arith.maxsi %729, %c0_i32 : i32
          %731 = arith.minsi %730, %714 : i32
          %732 = memref.load %3[%702] : memref<128xi32, #tpu.memory_space<smem>>
          %733 = arith.addi %732, %c127_i32 : i32
          %734 = arith.divsi %733, %c128_i32 : i32
          %735 = arith.cmpi sgt, %733, %c0_i32 : i32
          %736 = arith.extui %735 : i1 to i32
          %737 = arith.cmpi slt, %733, %c0_i32 : i32
          %738 = arith.extui %737 : i1 to i32
          %739 = arith.subi %736, %738 : i32
          %740 = arith.cmpi ne, %739, %c1_i32 : i32
          %741 = arith.remsi %733, %c128_i32 : i32
          %742 = arith.cmpi ne, %741, %c0_i32 : i32
          %743 = arith.andi %740, %742 : i1
          %744 = arith.subi %734, %c1_i32 : i32
          %745 = arith.select %743, %744, %734 : i32
          %746 = arith.addi %745, %705 : i32
          %747 = arith.addi %102, %c4_i32 : i32
          %748 = arith.index_cast %747 : i32 to index
          %749 = memref.load %7[%748] : memref<128xi32, #tpu.memory_space<smem>>
          %750 = arith.cmpi sgt, %749, %c0_i32 : i32
          scf.if %750 {
            %753 = arith.index_cast %102 : i32 to index
            %754 = memref.load %7[%753] : memref<128xi32, #tpu.memory_space<smem>>
            %755 = arith.addi %102, %c2_i32 : i32
            %756 = arith.index_cast %755 : i32 to index
            %757 = memref.load %7[%756] : memref<128xi32, #tpu.memory_space<smem>>
            memref.store %c0_i32, %7[%748] : memref<128xi32, #tpu.memory_space<smem>>
            %758 = arith.divsi %757, %c1024_i32 : i32
            %759 = arith.cmpi sgt, %757, %c0_i32 : i32
            %760 = arith.extui %759 : i1 to i32
            %761 = arith.cmpi slt, %757, %c0_i32 : i32
            %762 = arith.extui %761 : i1 to i32
            %763 = arith.subi %760, %762 : i32
            %764 = arith.cmpi ne, %763, %c1_i32 : i32
            %765 = arith.remsi %757, %c1024_i32 : i32
            %766 = arith.cmpi ne, %765, %c0_i32 : i32
            %767 = arith.andi %764, %766 : i1
            %768 = arith.subi %758, %c1_i32 : i32
            %769 = arith.select %767, %768, %758 : i32
            %770 = arith.divsi %757, %c128_i32 : i32
            %771 = arith.remsi %757, %c128_i32 : i32
            %772 = arith.cmpi ne, %771, %c0_i32 : i32
            %773 = arith.andi %764, %772 : i1
            %774 = arith.subi %770, %c1_i32 : i32
            %775 = arith.select %773, %774, %770 : i32
            %776 = arith.addi %757, %749 : i32
            %777 = arith.addi %776, %c127_i32 : i32
            %778 = arith.divsi %777, %c128_i32 : i32
            %779 = arith.cmpi sgt, %777, %c0_i32 : i32
            %780 = arith.extui %779 : i1 to i32
            %781 = arith.cmpi slt, %777, %c0_i32 : i32
            %782 = arith.extui %781 : i1 to i32
            %783 = arith.subi %780, %782 : i32
            %784 = arith.cmpi ne, %783, %c1_i32 : i32
            %785 = arith.remsi %777, %c128_i32 : i32
            %786 = arith.cmpi ne, %785, %c0_i32 : i32
            %787 = arith.andi %784, %786 : i1
            %788 = arith.subi %778, %c1_i32 : i32
            %789 = arith.select %787, %788, %778 : i32
            %790 = arith.cmpi slt, %771, %c0_i32 : i32
            %791 = arith.andi %790, %772 : i1
            %792 = arith.addi %771, %c128_i32 : i32
            %793 = arith.select %791, %792, %771 : i32
            %794 = arith.muli %769, %c8_i32 : i32
            %795 = arith.subi %775, %794 : i32
            %796 = arith.index_cast %754 : i32 to index
            %797 = memref.load %3[%796] : memref<128xi32, #tpu.memory_space<smem>>
            %798 = arith.addi %797, %c127_i32 : i32
            %799 = arith.divsi %798, %c128_i32 : i32
            %800 = arith.cmpi sgt, %798, %c0_i32 : i32
            %801 = arith.extui %800 : i1 to i32
            %802 = arith.cmpi slt, %798, %c0_i32 : i32
            %803 = arith.extui %802 : i1 to i32
            %804 = arith.subi %801, %803 : i32
            %805 = arith.cmpi ne, %804, %c1_i32 : i32
            %806 = arith.remsi %798, %c128_i32 : i32
            %807 = arith.cmpi ne, %806, %c0_i32 : i32
            %808 = arith.andi %805, %807 : i1
            %809 = arith.subi %799, %c1_i32 : i32
            %810 = arith.select %808, %809, %799 : i32
            %811 = arith.addi %810, %775 : i32
            %812 = arith.subi %789, %775 : i32
            %813:2 = scf.for %arg24 = %c0_i32 to %812 step %c1_i32 iter_args(%arg25 = %749, %arg26 = %793) -> (i32, i32)  : i32 {
              %814 = arith.subi %c128_i32, %arg26 : i32
              %815 = arith.minsi %814, %arg25 : i32
              %816 = arith.addi %795, %arg24 : i32
              %817 = arith.muli %816, %c128_i32 : i32
              %818 = arith.addi %817, %arg26 : i32
              %819 = arith.addi %811, %arg24 : i32
              %820 = arith.index_cast %819 : i32 to index
              %821 = memref.load %1[%820] : memref<2048xi32, #tpu.memory_space<smem>>
              %822 = arith.muli %821, %c128_i32 : i32
              %823 = arith.addi %822, %arg26 : i32
              %824 = tpu.memref_slice %arg16[%102, %c0_i32, %c0_i32, %c0_i32, %c0_i32] : memref<2x1024x8x2x128xbf16, #tpu.tiled<(2,128)(2,1),[8192,8,1,1,1]>, #tpu.memory_space<vmem>> -> memref<1x1024x8x2x128xbf16, #tpu.tiled<(2,128)(2,1),[8192,8,1,1,1]>, #tpu.memory_space<vmem>>
              %825 = tpu.memref_squeeze %824 : memref<1x1024x8x2x128xbf16, #tpu.tiled<(2,128)(2,1),[8192,8,1,1,1]>, #tpu.memory_space<vmem>> -> memref<1024x8x2x128xbf16, #tpu.tiled<(2,128)(2,1),[8,1,1,1]>, #tpu.memory_space<vmem>>
              %826 = tpu.memref_slice %825[%818, %c0_i32, %c0_i32, %c0_i32] <%815> : memref<1024x8x2x128xbf16, #tpu.tiled<(2,128)(2,1),[8,1,1,1]>, #tpu.memory_space<vmem>> -> memref<?x8x2x128xbf16, #tpu.tiled<(2,128)(2,1),[8,1,1,1]>, #tpu.memory_space<vmem>>
              %827 = tpu.erase_memref_layout %826 : memref<?x8x2x128xbf16, #tpu.tiled<(2,128)(2,1),[8,1,1,1]>, #tpu.memory_space<vmem>> -> memref<?x8x2x128xbf16, strided<[2048, 256, 128, 1], offset: ?>, #tpu.memory_space<vmem>>
              %828 = tpu.memref_reshape %arg15 : memref<4688x128x8x2x128xbf16, #tpu.tiled<(2,128)(2,1),[1024,8,1,1,1]>, #tpu.memory_space<hbm>> -> memref<600064x8x2x128xbf16, #tpu.tiled<(2,128)(2,1),[8,1,1,1]>, #tpu.memory_space<hbm>>
              %829 = tpu.memref_slice %828[%823, %c0_i32, %c0_i32, %c0_i32] <%815> : memref<600064x8x2x128xbf16, #tpu.tiled<(2,128)(2,1),[8,1,1,1]>, #tpu.memory_space<hbm>> -> memref<?x8x2x128xbf16, #tpu.tiled<(2,128)(2,1),[8,1,1,1]>, #tpu.memory_space<hbm>>
              %830 = tpu.erase_memref_layout %829 : memref<?x8x2x128xbf16, #tpu.tiled<(2,128)(2,1),[8,1,1,1]>, #tpu.memory_space<hbm>> -> memref<?x8x2x128xbf16, strided<[2048, 256, 128, 1], offset: ?>, #tpu.memory_space<hbm>>
              %831 = tpu.memref_slice %arg19[%c3_i32, %102] : memref<5x2x!tpu.dma_semaphore, #tpu.tiled<,[2,1]>, #tpu.memory_space<semaphore_mem>> -> memref<1x1x!tpu.dma_semaphore, #tpu.tiled<,[2,1]>, #tpu.memory_space<semaphore_mem>>
              %832 = tpu.memref_squeeze %831 : memref<1x1x!tpu.dma_semaphore, #tpu.tiled<,[2,1]>, #tpu.memory_space<semaphore_mem>> -> memref<!tpu.dma_semaphore, #tpu.tiled<,[]>, #tpu.memory_space<semaphore_mem>>
              %833 = tpu.erase_memref_layout %832 : memref<!tpu.dma_semaphore, #tpu.tiled<,[]>, #tpu.memory_space<semaphore_mem>> -> memref<!tpu.dma_semaphore, strided<[], offset: ?>, #tpu.memory_space<semaphore_mem>>
              tpu.wait_dma2 semaphore(%833 : memref<!tpu.dma_semaphore, strided<[], offset: ?>, #tpu.memory_space<semaphore_mem>>) src(%827 : memref<?x8x2x128xbf16, strided<[2048, 256, 128, 1], offset: ?>, #tpu.memory_space<vmem>>) dst(%830 : memref<?x8x2x128xbf16, strided<[2048, 256, 128, 1], offset: ?>, #tpu.memory_space<hbm>>)
              %834 = arith.subi %arg25, %815 : i32
              scf.yield %834, %c0_i32 : i32, i32
            }
          }
          %751 = scf.for %arg24 = %c0_i32 to %728 step %c1_i32 iter_args(%arg25 = %c0_i32) -> (i32)  : i32 {
            %753 = arith.muli %arg24, %c128_i32 : i32
            %754 = arith.subi %713, %753 : i32
            %755 = arith.minsi %754, %c128_i32 : i32
            %756 = arith.addi %746, %arg24 : i32
            %757 = arith.index_cast %756 : i32 to index
            %758 = memref.load %1[%757] : memref<2048xi32, #tpu.memory_space<smem>>
            %759 = arith.muli %758, %c128_i32 : i32
            %760 = tpu.memref_reshape %arg12 : memref<4688x128x8x2x128xbf16, #tpu.tiled<(2,128)(2,1),[1024,8,1,1,1]>, #tpu.memory_space<hbm>> -> memref<600064x8x2x128xbf16, #tpu.tiled<(2,128)(2,1),[8,1,1,1]>, #tpu.memory_space<hbm>>
            %761 = tpu.memref_slice %760[%759, %c0_i32, %c0_i32, %c0_i32] <%755> : memref<600064x8x2x128xbf16, #tpu.tiled<(2,128)(2,1),[8,1,1,1]>, #tpu.memory_space<hbm>> -> memref<?x8x2x128xbf16, #tpu.tiled<(2,128)(2,1),[8,1,1,1]>, #tpu.memory_space<hbm>>
            %762 = tpu.erase_memref_layout %761 : memref<?x8x2x128xbf16, #tpu.tiled<(2,128)(2,1),[8,1,1,1]>, #tpu.memory_space<hbm>> -> memref<?x8x2x128xbf16, strided<[2048, 256, 128, 1], offset: ?>, #tpu.memory_space<hbm>>
            %763 = tpu.memref_slice %arg16[%102, %c0_i32, %c0_i32, %c0_i32, %c0_i32] : memref<2x1024x8x2x128xbf16, #tpu.tiled<(2,128)(2,1),[8192,8,1,1,1]>, #tpu.memory_space<vmem>> -> memref<1x1024x8x2x128xbf16, #tpu.tiled<(2,128)(2,1),[8192,8,1,1,1]>, #tpu.memory_space<vmem>>
            %764 = tpu.memref_squeeze %763 : memref<1x1024x8x2x128xbf16, #tpu.tiled<(2,128)(2,1),[8192,8,1,1,1]>, #tpu.memory_space<vmem>> -> memref<1024x8x2x128xbf16, #tpu.tiled<(2,128)(2,1),[8,1,1,1]>, #tpu.memory_space<vmem>>
            %765 = tpu.memref_slice %764[%753, %c0_i32, %c0_i32, %c0_i32] <%755> : memref<1024x8x2x128xbf16, #tpu.tiled<(2,128)(2,1),[8,1,1,1]>, #tpu.memory_space<vmem>> -> memref<?x8x2x128xbf16, #tpu.tiled<(2,128)(2,1),[8,1,1,1]>, #tpu.memory_space<vmem>>
            %766 = tpu.erase_memref_layout %765 : memref<?x8x2x128xbf16, #tpu.tiled<(2,128)(2,1),[8,1,1,1]>, #tpu.memory_space<vmem>> -> memref<?x8x2x128xbf16, strided<[2048, 256, 128, 1], offset: ?>, #tpu.memory_space<vmem>>
            %767 = tpu.memref_slice %arg19[%c0_i32, %102] : memref<5x2x!tpu.dma_semaphore, #tpu.tiled<,[2,1]>, #tpu.memory_space<semaphore_mem>> -> memref<1x1x!tpu.dma_semaphore, #tpu.tiled<,[2,1]>, #tpu.memory_space<semaphore_mem>>
            %768 = tpu.memref_squeeze %767 : memref<1x1x!tpu.dma_semaphore, #tpu.tiled<,[2,1]>, #tpu.memory_space<semaphore_mem>> -> memref<!tpu.dma_semaphore, #tpu.tiled<,[]>, #tpu.memory_space<semaphore_mem>>
            %769 = tpu.erase_memref_layout %768 : memref<!tpu.dma_semaphore, #tpu.tiled<,[]>, #tpu.memory_space<semaphore_mem>> -> memref<!tpu.dma_semaphore, strided<[], offset: ?>, #tpu.memory_space<semaphore_mem>>
            tpu.enqueue_dma source(%762 : memref<?x8x2x128xbf16, strided<[2048, 256, 128, 1], offset: ?>, #tpu.memory_space<hbm>>) target(%766 : memref<?x8x2x128xbf16, strided<[2048, 256, 128, 1], offset: ?>, #tpu.memory_space<vmem>>) target_semaphore(%769 : memref<!tpu.dma_semaphore, strided<[], offset: ?>, #tpu.memory_space<semaphore_mem>>)
            %770 = arith.addi %arg25, %755 : i32
            scf.yield %770 : i32
          }
          %752 = arith.cmpi sgt, %731, %c0_i32 : i32
          scf.if %752 {
            %753 = arith.subi %709, %714 : i32
            %754 = tpu.memref_slice %arg11[%753, %c0_i32, %c0_i32, %c0_i32] <%731> : memref<8192x8x2x128xbf16, #tpu.tiled<(2,128)(2,1),[8,1,1,1]>, #tpu.memory_space<hbm>> -> memref<?x8x2x128xbf16, #tpu.tiled<(2,128)(2,1),[8,1,1,1]>, #tpu.memory_space<hbm>>
            %755 = tpu.erase_memref_layout %754 : memref<?x8x2x128xbf16, #tpu.tiled<(2,128)(2,1),[8,1,1,1]>, #tpu.memory_space<hbm>> -> memref<?x8x2x128xbf16, strided<[2048, 256, 128, 1], offset: ?>, #tpu.memory_space<hbm>>
            %756 = tpu.memref_slice %arg16[%102, %c0_i32, %c0_i32, %c0_i32, %c0_i32] : memref<2x1024x8x2x128xbf16, #tpu.tiled<(2,128)(2,1),[8192,8,1,1,1]>, #tpu.memory_space<vmem>> -> memref<1x1024x8x2x128xbf16, #tpu.tiled<(2,128)(2,1),[8192,8,1,1,1]>, #tpu.memory_space<vmem>>
            %757 = tpu.memref_squeeze %756 : memref<1x1024x8x2x128xbf16, #tpu.tiled<(2,128)(2,1),[8192,8,1,1,1]>, #tpu.memory_space<vmem>> -> memref<1024x8x2x128xbf16, #tpu.tiled<(2,128)(2,1),[8,1,1,1]>, #tpu.memory_space<vmem>>
            %758 = tpu.memref_slice %757[%751, %c0_i32, %c0_i32, %c0_i32] <%731> : memref<1024x8x2x128xbf16, #tpu.tiled<(2,128)(2,1),[8,1,1,1]>, #tpu.memory_space<vmem>> -> memref<?x8x2x128xbf16, #tpu.tiled<(2,128)(2,1),[8,1,1,1]>, #tpu.memory_space<vmem>>
            %759 = tpu.erase_memref_layout %758 : memref<?x8x2x128xbf16, #tpu.tiled<(2,128)(2,1),[8,1,1,1]>, #tpu.memory_space<vmem>> -> memref<?x8x2x128xbf16, strided<[2048, 256, 128, 1], offset: ?>, #tpu.memory_space<vmem>>
            %760 = tpu.memref_slice %arg19[%c0_i32, %102] : memref<5x2x!tpu.dma_semaphore, #tpu.tiled<,[2,1]>, #tpu.memory_space<semaphore_mem>> -> memref<1x1x!tpu.dma_semaphore, #tpu.tiled<,[2,1]>, #tpu.memory_space<semaphore_mem>>
            %761 = tpu.memref_squeeze %760 : memref<1x1x!tpu.dma_semaphore, #tpu.tiled<,[2,1]>, #tpu.memory_space<semaphore_mem>> -> memref<!tpu.dma_semaphore, #tpu.tiled<,[]>, #tpu.memory_space<semaphore_mem>>
            %762 = tpu.erase_memref_layout %761 : memref<!tpu.dma_semaphore, #tpu.tiled<,[]>, #tpu.memory_space<semaphore_mem>> -> memref<!tpu.dma_semaphore, strided<[], offset: ?>, #tpu.memory_space<semaphore_mem>>
            tpu.enqueue_dma source(%755 : memref<?x8x2x128xbf16, strided<[2048, 256, 128, 1], offset: ?>, #tpu.memory_space<hbm>>) target(%759 : memref<?x8x2x128xbf16, strided<[2048, 256, 128, 1], offset: ?>, #tpu.memory_space<vmem>>) target_semaphore(%762 : memref<!tpu.dma_semaphore, strided<[], offset: ?>, #tpu.memory_space<semaphore_mem>>)
          }
        }
        %104 = arith.cmpi eq, %arg23, %c0_i32 : i32
        scf.if %104 {
          %702 = memref.load %2[%18] : memref<128xi32, #tpu.memory_space<smem>>
          %703 = memref.load %2[%21] : memref<128xi32, #tpu.memory_space<smem>>
          %704 = arith.subi %703, %702 : i32
          %705 = arith.minsi %704, %c128_i32 : i32
          %706 = tpu.memref_slice %arg10[%c0_i32, %702, %c0_i32, %c0_i32, %c0_i32] <%705> : memref<8x8192x2x2x128xbf16, #tpu.tiled<(2,128)(2,1),[16384,2,1,1,1]>, #tpu.memory_space<vmem>> -> memref<8x?x2x2x128xbf16, #tpu.tiled<(2,128)(2,1),[16384,2,1,1,1]>, #tpu.memory_space<vmem>>
          %707 = tpu.erase_memref_layout %706 : memref<8x?x2x2x128xbf16, #tpu.tiled<(2,128)(2,1),[16384,2,1,1,1]>, #tpu.memory_space<vmem>> -> memref<8x?x2x2x128xbf16, strided<[4194304, 512, 256, 128, 1], offset: ?>, #tpu.memory_space<vmem>>
          %708 = tpu.memref_slice %arg17[%48, %c0_i32, %c0_i32, %c0_i32, %c0_i32, %c0_i32] : memref<2x8x128x2x2x128xbf16, #tpu.tiled<(2,128)(2,1),[2048,256,2,1,1,1]>, #tpu.memory_space<vmem>> -> memref<1x8x128x2x2x128xbf16, #tpu.tiled<(2,128)(2,1),[2048,256,2,1,1,1]>, #tpu.memory_space<vmem>>
          %709 = tpu.memref_squeeze %708 : memref<1x8x128x2x2x128xbf16, #tpu.tiled<(2,128)(2,1),[2048,256,2,1,1,1]>, #tpu.memory_space<vmem>> -> memref<8x128x2x2x128xbf16, #tpu.tiled<(2,128)(2,1),[256,2,1,1,1]>, #tpu.memory_space<vmem>>
          %710 = tpu.memref_slice %709[%c0_i32, %c0_i32, %c0_i32, %c0_i32, %c0_i32] <%705> : memref<8x128x2x2x128xbf16, #tpu.tiled<(2,128)(2,1),[256,2,1,1,1]>, #tpu.memory_space<vmem>> -> memref<8x?x2x2x128xbf16, #tpu.tiled<(2,128)(2,1),[256,2,1,1,1]>, #tpu.memory_space<vmem>>
          %711 = tpu.erase_memref_layout %710 : memref<8x?x2x2x128xbf16, #tpu.tiled<(2,128)(2,1),[256,2,1,1,1]>, #tpu.memory_space<vmem>> -> memref<8x?x2x2x128xbf16, strided<[65536, 512, 256, 128, 1], offset: ?>, #tpu.memory_space<vmem>>
          %712 = tpu.memref_slice %arg19[%c1_i32, %48] : memref<5x2x!tpu.dma_semaphore, #tpu.tiled<,[2,1]>, #tpu.memory_space<semaphore_mem>> -> memref<1x1x!tpu.dma_semaphore, #tpu.tiled<,[2,1]>, #tpu.memory_space<semaphore_mem>>
          %713 = tpu.memref_squeeze %712 : memref<1x1x!tpu.dma_semaphore, #tpu.tiled<,[2,1]>, #tpu.memory_space<semaphore_mem>> -> memref<!tpu.dma_semaphore, #tpu.tiled<,[]>, #tpu.memory_space<semaphore_mem>>
          %714 = tpu.erase_memref_layout %713 : memref<!tpu.dma_semaphore, #tpu.tiled<,[]>, #tpu.memory_space<semaphore_mem>> -> memref<!tpu.dma_semaphore, strided<[], offset: ?>, #tpu.memory_space<semaphore_mem>>
          tpu.wait_dma2 semaphore(%714 : memref<!tpu.dma_semaphore, strided<[], offset: ?>, #tpu.memory_space<semaphore_mem>>) src(%707 : memref<8x?x2x2x128xbf16, strided<[4194304, 512, 256, 128, 1], offset: ?>, #tpu.memory_space<vmem>>) dst(%711 : memref<8x?x2x2x128xbf16, strided<[65536, 512, 256, 128, 1], offset: ?>, #tpu.memory_space<vmem>>)
        }
        %105 = memref.load %0[%18] : memref<128xi32, #tpu.memory_space<smem>>
        %106 = arith.muli %arg23, %c8_i32 : i32
        %107 = memref.load %2[%18] : memref<128xi32, #tpu.memory_space<smem>>
        %108 = memref.load %2[%21] : memref<128xi32, #tpu.memory_space<smem>>
        %109 = arith.subi %108, %107 : i32
        %110 = arith.subi %105, %85 : i32
        %111 = arith.subi %110, %109 : i32
        %112 = arith.maxsi %111, %c0_i32 : i32
        %113 = arith.subi %110, %112 : i32
        %114 = arith.addi %112, %c127_i32 : i32
        %115 = arith.divsi %114, %c128_i32 : i32
        %116 = arith.cmpi sgt, %114, %c0_i32 : i32
        %117 = arith.extui %116 : i1 to i32
        %118 = arith.cmpi slt, %114, %c0_i32 : i32
        %119 = arith.extui %118 : i1 to i32
        %120 = arith.subi %117, %119 : i32
        %121 = arith.cmpi ne, %120, %c1_i32 : i32
        %122 = arith.remsi %114, %c128_i32 : i32
        %123 = arith.cmpi ne, %122, %c0_i32 : i32
        %124 = arith.andi %121, %123 : i1
        %125 = arith.subi %115, %c1_i32 : i32
        %126 = arith.select %124, %125, %115 : i32
        %127 = arith.minsi %126, %c8_i32 : i32
        %128 = arith.subi %c1024_i32, %112 : i32
        %129 = arith.maxsi %128, %c0_i32 : i32
        %130 = arith.minsi %129, %113 : i32
        %131 = memref.load %3[%18] : memref<128xi32, #tpu.memory_space<smem>>
        %132 = arith.addi %131, %c127_i32 : i32
        %133 = arith.divsi %132, %c128_i32 : i32
        %134 = arith.cmpi sgt, %132, %c0_i32 : i32
        %135 = arith.extui %134 : i1 to i32
        %136 = arith.cmpi slt, %132, %c0_i32 : i32
        %137 = arith.extui %136 : i1 to i32
        %138 = arith.subi %135, %137 : i32
        %139 = arith.cmpi ne, %138, %c1_i32 : i32
        %140 = arith.remsi %132, %c128_i32 : i32
        %141 = arith.cmpi ne, %140, %c0_i32 : i32
        %142 = arith.andi %139, %141 : i1
        %143 = arith.subi %133, %c1_i32 : i32
        %144 = arith.select %142, %143, %133 : i32
        %145 = arith.addi %144, %106 : i32
        %146 = arith.addi %94, %c4_i32 : i32
        %147 = arith.index_cast %146 : i32 to index
        %148 = memref.load %7[%147] : memref<128xi32, #tpu.memory_space<smem>>
        %149 = arith.cmpi sgt, %148, %c0_i32 : i32
        scf.if %149 {
          %702 = arith.index_cast %94 : i32 to index
          %703 = memref.load %7[%702] : memref<128xi32, #tpu.memory_space<smem>>
          %704 = arith.addi %94, %c2_i32 : i32
          %705 = arith.index_cast %704 : i32 to index
          %706 = memref.load %7[%705] : memref<128xi32, #tpu.memory_space<smem>>
          memref.store %c0_i32, %7[%147] : memref<128xi32, #tpu.memory_space<smem>>
          %707 = arith.divsi %706, %c1024_i32 : i32
          %708 = arith.cmpi sgt, %706, %c0_i32 : i32
          %709 = arith.extui %708 : i1 to i32
          %710 = arith.cmpi slt, %706, %c0_i32 : i32
          %711 = arith.extui %710 : i1 to i32
          %712 = arith.subi %709, %711 : i32
          %713 = arith.cmpi ne, %712, %c1_i32 : i32
          %714 = arith.remsi %706, %c1024_i32 : i32
          %715 = arith.cmpi ne, %714, %c0_i32 : i32
          %716 = arith.andi %713, %715 : i1
          %717 = arith.subi %707, %c1_i32 : i32
          %718 = arith.select %716, %717, %707 : i32
          %719 = arith.divsi %706, %c128_i32 : i32
          %720 = arith.remsi %706, %c128_i32 : i32
          %721 = arith.cmpi ne, %720, %c0_i32 : i32
          %722 = arith.andi %713, %721 : i1
          %723 = arith.subi %719, %c1_i32 : i32
          %724 = arith.select %722, %723, %719 : i32
          %725 = arith.addi %706, %148 : i32
          %726 = arith.addi %725, %c127_i32 : i32
          %727 = arith.divsi %726, %c128_i32 : i32
          %728 = arith.cmpi sgt, %726, %c0_i32 : i32
          %729 = arith.extui %728 : i1 to i32
          %730 = arith.cmpi slt, %726, %c0_i32 : i32
          %731 = arith.extui %730 : i1 to i32
          %732 = arith.subi %729, %731 : i32
          %733 = arith.cmpi ne, %732, %c1_i32 : i32
          %734 = arith.remsi %726, %c128_i32 : i32
          %735 = arith.cmpi ne, %734, %c0_i32 : i32
          %736 = arith.andi %733, %735 : i1
          %737 = arith.subi %727, %c1_i32 : i32
          %738 = arith.select %736, %737, %727 : i32
          %739 = arith.cmpi slt, %720, %c0_i32 : i32
          %740 = arith.andi %739, %721 : i1
          %741 = arith.addi %720, %c128_i32 : i32
          %742 = arith.select %740, %741, %720 : i32
          %743 = arith.muli %718, %c8_i32 : i32
          %744 = arith.subi %724, %743 : i32
          %745 = arith.index_cast %703 : i32 to index
          %746 = memref.load %3[%745] : memref<128xi32, #tpu.memory_space<smem>>
          %747 = arith.addi %746, %c127_i32 : i32
          %748 = arith.divsi %747, %c128_i32 : i32
          %749 = arith.cmpi sgt, %747, %c0_i32 : i32
          %750 = arith.extui %749 : i1 to i32
          %751 = arith.cmpi slt, %747, %c0_i32 : i32
          %752 = arith.extui %751 : i1 to i32
          %753 = arith.subi %750, %752 : i32
          %754 = arith.cmpi ne, %753, %c1_i32 : i32
          %755 = arith.remsi %747, %c128_i32 : i32
          %756 = arith.cmpi ne, %755, %c0_i32 : i32
          %757 = arith.andi %754, %756 : i1
          %758 = arith.subi %748, %c1_i32 : i32
          %759 = arith.select %757, %758, %748 : i32
          %760 = arith.addi %759, %724 : i32
          %761 = arith.subi %738, %724 : i32
          %762:2 = scf.for %arg24 = %c0_i32 to %761 step %c1_i32 iter_args(%arg25 = %148, %arg26 = %742) -> (i32, i32)  : i32 {
            %763 = arith.subi %c128_i32, %arg26 : i32
            %764 = arith.minsi %763, %arg25 : i32
            %765 = arith.addi %744, %arg24 : i32
            %766 = arith.muli %765, %c128_i32 : i32
            %767 = arith.addi %766, %arg26 : i32
            %768 = arith.addi %760, %arg24 : i32
            %769 = arith.index_cast %768 : i32 to index
            %770 = memref.load %1[%769] : memref<2048xi32, #tpu.memory_space<smem>>
            %771 = arith.muli %770, %c128_i32 : i32
            %772 = arith.addi %771, %arg26 : i32
            %773 = tpu.memref_slice %arg16[%94, %c0_i32, %c0_i32, %c0_i32, %c0_i32] : memref<2x1024x8x2x128xbf16, #tpu.tiled<(2,128)(2,1),[8192,8,1,1,1]>, #tpu.memory_space<vmem>> -> memref<1x1024x8x2x128xbf16, #tpu.tiled<(2,128)(2,1),[8192,8,1,1,1]>, #tpu.memory_space<vmem>>
            %774 = tpu.memref_squeeze %773 : memref<1x1024x8x2x128xbf16, #tpu.tiled<(2,128)(2,1),[8192,8,1,1,1]>, #tpu.memory_space<vmem>> -> memref<1024x8x2x128xbf16, #tpu.tiled<(2,128)(2,1),[8,1,1,1]>, #tpu.memory_space<vmem>>
            %775 = tpu.memref_slice %774[%767, %c0_i32, %c0_i32, %c0_i32] <%764> : memref<1024x8x2x128xbf16, #tpu.tiled<(2,128)(2,1),[8,1,1,1]>, #tpu.memory_space<vmem>> -> memref<?x8x2x128xbf16, #tpu.tiled<(2,128)(2,1),[8,1,1,1]>, #tpu.memory_space<vmem>>
            %776 = tpu.erase_memref_layout %775 : memref<?x8x2x128xbf16, #tpu.tiled<(2,128)(2,1),[8,1,1,1]>, #tpu.memory_space<vmem>> -> memref<?x8x2x128xbf16, strided<[2048, 256, 128, 1], offset: ?>, #tpu.memory_space<vmem>>
            %777 = tpu.memref_reshape %arg15 : memref<4688x128x8x2x128xbf16, #tpu.tiled<(2,128)(2,1),[1024,8,1,1,1]>, #tpu.memory_space<hbm>> -> memref<600064x8x2x128xbf16, #tpu.tiled<(2,128)(2,1),[8,1,1,1]>, #tpu.memory_space<hbm>>
            %778 = tpu.memref_slice %777[%772, %c0_i32, %c0_i32, %c0_i32] <%764> : memref<600064x8x2x128xbf16, #tpu.tiled<(2,128)(2,1),[8,1,1,1]>, #tpu.memory_space<hbm>> -> memref<?x8x2x128xbf16, #tpu.tiled<(2,128)(2,1),[8,1,1,1]>, #tpu.memory_space<hbm>>
            %779 = tpu.erase_memref_layout %778 : memref<?x8x2x128xbf16, #tpu.tiled<(2,128)(2,1),[8,1,1,1]>, #tpu.memory_space<hbm>> -> memref<?x8x2x128xbf16, strided<[2048, 256, 128, 1], offset: ?>, #tpu.memory_space<hbm>>
            %780 = tpu.memref_slice %arg19[%c3_i32, %94] : memref<5x2x!tpu.dma_semaphore, #tpu.tiled<,[2,1]>, #tpu.memory_space<semaphore_mem>> -> memref<1x1x!tpu.dma_semaphore, #tpu.tiled<,[2,1]>, #tpu.memory_space<semaphore_mem>>
            %781 = tpu.memref_squeeze %780 : memref<1x1x!tpu.dma_semaphore, #tpu.tiled<,[2,1]>, #tpu.memory_space<semaphore_mem>> -> memref<!tpu.dma_semaphore, #tpu.tiled<,[]>, #tpu.memory_space<semaphore_mem>>
            %782 = tpu.erase_memref_layout %781 : memref<!tpu.dma_semaphore, #tpu.tiled<,[]>, #tpu.memory_space<semaphore_mem>> -> memref<!tpu.dma_semaphore, strided<[], offset: ?>, #tpu.memory_space<semaphore_mem>>
            tpu.wait_dma2 semaphore(%782 : memref<!tpu.dma_semaphore, strided<[], offset: ?>, #tpu.memory_space<semaphore_mem>>) src(%776 : memref<?x8x2x128xbf16, strided<[2048, 256, 128, 1], offset: ?>, #tpu.memory_space<vmem>>) dst(%779 : memref<?x8x2x128xbf16, strided<[2048, 256, 128, 1], offset: ?>, #tpu.memory_space<hbm>>)
            %783 = arith.subi %arg25, %764 : i32
            scf.yield %783, %c0_i32 : i32, i32
          }
        }
        %150 = scf.for %arg24 = %c0_i32 to %127 step %c1_i32 iter_args(%arg25 = %c0_i32) -> (i32)  : i32 {
          %702 = arith.muli %arg24, %c128_i32 : i32
          %703 = arith.subi %112, %702 : i32
          %704 = arith.minsi %703, %c128_i32 : i32
          %705 = arith.addi %145, %arg24 : i32
          %706 = arith.index_cast %705 : i32 to index
          %707 = memref.load %1[%706] : memref<2048xi32, #tpu.memory_space<smem>>
          %708 = arith.muli %707, %c128_i32 : i32
          %709 = tpu.memref_reshape %arg12 : memref<4688x128x8x2x128xbf16, #tpu.tiled<(2,128)(2,1),[1024,8,1,1,1]>, #tpu.memory_space<hbm>> -> memref<600064x8x2x128xbf16, #tpu.tiled<(2,128)(2,1),[8,1,1,1]>, #tpu.memory_space<hbm>>
          %710 = tpu.memref_slice %709[%708, %c0_i32, %c0_i32, %c0_i32] <%704> : memref<600064x8x2x128xbf16, #tpu.tiled<(2,128)(2,1),[8,1,1,1]>, #tpu.memory_space<hbm>> -> memref<?x8x2x128xbf16, #tpu.tiled<(2,128)(2,1),[8,1,1,1]>, #tpu.memory_space<hbm>>
          %711 = tpu.erase_memref_layout %710 : memref<?x8x2x128xbf16, #tpu.tiled<(2,128)(2,1),[8,1,1,1]>, #tpu.memory_space<hbm>> -> memref<?x8x2x128xbf16, strided<[2048, 256, 128, 1], offset: ?>, #tpu.memory_space<hbm>>
          %712 = tpu.memref_slice %arg16[%94, %c0_i32, %c0_i32, %c0_i32, %c0_i32] : memref<2x1024x8x2x128xbf16, #tpu.tiled<(2,128)(2,1),[8192,8,1,1,1]>, #tpu.memory_space<vmem>> -> memref<1x1024x8x2x128xbf16, #tpu.tiled<(2,128)(2,1),[8192,8,1,1,1]>, #tpu.memory_space<vmem>>
          %713 = tpu.memref_squeeze %712 : memref<1x1024x8x2x128xbf16, #tpu.tiled<(2,128)(2,1),[8192,8,1,1,1]>, #tpu.memory_space<vmem>> -> memref<1024x8x2x128xbf16, #tpu.tiled<(2,128)(2,1),[8,1,1,1]>, #tpu.memory_space<vmem>>
          %714 = tpu.memref_slice %713[%702, %c0_i32, %c0_i32, %c0_i32] <%704> : memref<1024x8x2x128xbf16, #tpu.tiled<(2,128)(2,1),[8,1,1,1]>, #tpu.memory_space<vmem>> -> memref<?x8x2x128xbf16, #tpu.tiled<(2,128)(2,1),[8,1,1,1]>, #tpu.memory_space<vmem>>
          %715 = tpu.erase_memref_layout %714 : memref<?x8x2x128xbf16, #tpu.tiled<(2,128)(2,1),[8,1,1,1]>, #tpu.memory_space<vmem>> -> memref<?x8x2x128xbf16, strided<[2048, 256, 128, 1], offset: ?>, #tpu.memory_space<vmem>>
          %716 = tpu.memref_slice %arg19[%c0_i32, %94] : memref<5x2x!tpu.dma_semaphore, #tpu.tiled<,[2,1]>, #tpu.memory_space<semaphore_mem>> -> memref<1x1x!tpu.dma_semaphore, #tpu.tiled<,[2,1]>, #tpu.memory_space<semaphore_mem>>
          %717 = tpu.memref_squeeze %716 : memref<1x1x!tpu.dma_semaphore, #tpu.tiled<,[2,1]>, #tpu.memory_space<semaphore_mem>> -> memref<!tpu.dma_semaphore, #tpu.tiled<,[]>, #tpu.memory_space<semaphore_mem>>
          %718 = tpu.erase_memref_layout %717 : memref<!tpu.dma_semaphore, #tpu.tiled<,[]>, #tpu.memory_space<semaphore_mem>> -> memref<!tpu.dma_semaphore, strided<[], offset: ?>, #tpu.memory_space<semaphore_mem>>
          tpu.wait_dma2 semaphore(%718 : memref<!tpu.dma_semaphore, strided<[], offset: ?>, #tpu.memory_space<semaphore_mem>>) src(%711 : memref<?x8x2x128xbf16, strided<[2048, 256, 128, 1], offset: ?>, #tpu.memory_space<hbm>>) dst(%715 : memref<?x8x2x128xbf16, strided<[2048, 256, 128, 1], offset: ?>, #tpu.memory_space<vmem>>)
          %719 = arith.addi %arg25, %704 : i32
          scf.yield %719 : i32
        }
        %151 = arith.cmpi sgt, %130, %c0_i32 : i32
        scf.if %151 {
          %702 = arith.subi %108, %113 : i32
          %703 = tpu.memref_slice %arg11[%702, %c0_i32, %c0_i32, %c0_i32] <%130> : memref<8192x8x2x128xbf16, #tpu.tiled<(2,128)(2,1),[8,1,1,1]>, #tpu.memory_space<hbm>> -> memref<?x8x2x128xbf16, #tpu.tiled<(2,128)(2,1),[8,1,1,1]>, #tpu.memory_space<hbm>>
          %704 = tpu.erase_memref_layout %703 : memref<?x8x2x128xbf16, #tpu.tiled<(2,128)(2,1),[8,1,1,1]>, #tpu.memory_space<hbm>> -> memref<?x8x2x128xbf16, strided<[2048, 256, 128, 1], offset: ?>, #tpu.memory_space<hbm>>
          %705 = tpu.memref_slice %arg16[%94, %c0_i32, %c0_i32, %c0_i32, %c0_i32] : memref<2x1024x8x2x128xbf16, #tpu.tiled<(2,128)(2,1),[8192,8,1,1,1]>, #tpu.memory_space<vmem>> -> memref<1x1024x8x2x128xbf16, #tpu.tiled<(2,128)(2,1),[8192,8,1,1,1]>, #tpu.memory_space<vmem>>
          %706 = tpu.memref_squeeze %705 : memref<1x1024x8x2x128xbf16, #tpu.tiled<(2,128)(2,1),[8192,8,1,1,1]>, #tpu.memory_space<vmem>> -> memref<1024x8x2x128xbf16, #tpu.tiled<(2,128)(2,1),[8,1,1,1]>, #tpu.memory_space<vmem>>
          %707 = tpu.memref_slice %706[%150, %c0_i32, %c0_i32, %c0_i32] <%130> : memref<1024x8x2x128xbf16, #tpu.tiled<(2,128)(2,1),[8,1,1,1]>, #tpu.memory_space<vmem>> -> memref<?x8x2x128xbf16, #tpu.tiled<(2,128)(2,1),[8,1,1,1]>, #tpu.memory_space<vmem>>
          %708 = tpu.erase_memref_layout %707 : memref<?x8x2x128xbf16, #tpu.tiled<(2,128)(2,1),[8,1,1,1]>, #tpu.memory_space<vmem>> -> memref<?x8x2x128xbf16, strided<[2048, 256, 128, 1], offset: ?>, #tpu.memory_space<vmem>>
          %709 = tpu.memref_slice %arg19[%c0_i32, %94] : memref<5x2x!tpu.dma_semaphore, #tpu.tiled<,[2,1]>, #tpu.memory_space<semaphore_mem>> -> memref<1x1x!tpu.dma_semaphore, #tpu.tiled<,[2,1]>, #tpu.memory_space<semaphore_mem>>
          %710 = tpu.memref_squeeze %709 : memref<1x1x!tpu.dma_semaphore, #tpu.tiled<,[2,1]>, #tpu.memory_space<semaphore_mem>> -> memref<!tpu.dma_semaphore, #tpu.tiled<,[]>, #tpu.memory_space<semaphore_mem>>
          %711 = tpu.erase_memref_layout %710 : memref<!tpu.dma_semaphore, #tpu.tiled<,[]>, #tpu.memory_space<semaphore_mem>> -> memref<!tpu.dma_semaphore, strided<[], offset: ?>, #tpu.memory_space<semaphore_mem>>
          tpu.wait_dma2 semaphore(%711 : memref<!tpu.dma_semaphore, strided<[], offset: ?>, #tpu.memory_space<semaphore_mem>>) src(%704 : memref<?x8x2x128xbf16, strided<[2048, 256, 128, 1], offset: ?>, #tpu.memory_space<hbm>>) dst(%708 : memref<?x8x2x128xbf16, strided<[2048, 256, 128, 1], offset: ?>, #tpu.memory_space<vmem>>)
        }
        %152 = arith.addi %85, %150 : i32
        scf.if %151 {
          %702 = arith.index_cast %94 : i32 to index
          memref.store %arg0, %7[%702] : memref<128xi32, #tpu.memory_space<smem>>
          %703 = arith.addi %94, %c2_i32 : i32
          %704 = arith.index_cast %703 : i32 to index
          memref.store %152, %7[%704] : memref<128xi32, #tpu.memory_space<smem>>
          memref.store %130, %7[%147] : memref<128xi32, #tpu.memory_space<smem>>
          %705 = arith.divsi %152, %c1024_i32 : i32
          %706 = arith.cmpi sgt, %152, %c0_i32 : i32
          %707 = arith.extui %706 : i1 to i32
          %708 = arith.cmpi slt, %152, %c0_i32 : i32
          %709 = arith.extui %708 : i1 to i32
          %710 = arith.subi %707, %709 : i32
          %711 = arith.cmpi ne, %710, %c1_i32 : i32
          %712 = arith.remsi %152, %c1024_i32 : i32
          %713 = arith.cmpi ne, %712, %c0_i32 : i32
          %714 = arith.andi %711, %713 : i1
          %715 = arith.subi %705, %c1_i32 : i32
          %716 = arith.select %714, %715, %705 : i32
          %717 = arith.divsi %152, %c128_i32 : i32
          %718 = arith.remsi %152, %c128_i32 : i32
          %719 = arith.cmpi ne, %718, %c0_i32 : i32
          %720 = arith.andi %711, %719 : i1
          %721 = arith.subi %717, %c1_i32 : i32
          %722 = arith.select %720, %721, %717 : i32
          %723 = arith.addi %152, %130 : i32
          %724 = arith.addi %723, %c127_i32 : i32
          %725 = arith.divsi %724, %c128_i32 : i32
          %726 = arith.cmpi sgt, %724, %c0_i32 : i32
          %727 = arith.extui %726 : i1 to i32
          %728 = arith.cmpi slt, %724, %c0_i32 : i32
          %729 = arith.extui %728 : i1 to i32
          %730 = arith.subi %727, %729 : i32
          %731 = arith.cmpi ne, %730, %c1_i32 : i32
          %732 = arith.remsi %724, %c128_i32 : i32
          %733 = arith.cmpi ne, %732, %c0_i32 : i32
          %734 = arith.andi %731, %733 : i1
          %735 = arith.subi %725, %c1_i32 : i32
          %736 = arith.select %734, %735, %725 : i32
          %737 = arith.cmpi slt, %718, %c0_i32 : i32
          %738 = arith.andi %737, %719 : i1
          %739 = arith.addi %718, %c128_i32 : i32
          %740 = arith.select %738, %739, %718 : i32
          %741 = arith.muli %716, %c8_i32 : i32
          %742 = arith.subi %722, %741 : i32
          %743 = memref.load %3[%18] : memref<128xi32, #tpu.memory_space<smem>>
          %744 = arith.addi %743, %c127_i32 : i32
          %745 = arith.divsi %744, %c128_i32 : i32
          %746 = arith.cmpi sgt, %744, %c0_i32 : i32
          %747 = arith.extui %746 : i1 to i32
          %748 = arith.cmpi slt, %744, %c0_i32 : i32
          %749 = arith.extui %748 : i1 to i32
          %750 = arith.subi %747, %749 : i32
          %751 = arith.cmpi ne, %750, %c1_i32 : i32
          %752 = arith.remsi %744, %c128_i32 : i32
          %753 = arith.cmpi ne, %752, %c0_i32 : i32
          %754 = arith.andi %751, %753 : i1
          %755 = arith.subi %745, %c1_i32 : i32
          %756 = arith.select %754, %755, %745 : i32
          %757 = arith.addi %756, %722 : i32
          %758 = arith.subi %736, %722 : i32
          %759:2 = scf.for %arg24 = %c0_i32 to %758 step %c1_i32 iter_args(%arg25 = %130, %arg26 = %740) -> (i32, i32)  : i32 {
            %760 = arith.subi %c128_i32, %arg26 : i32
            %761 = arith.minsi %760, %arg25 : i32
            %762 = arith.addi %742, %arg24 : i32
            %763 = arith.muli %762, %c128_i32 : i32
            %764 = arith.addi %763, %arg26 : i32
            %765 = arith.addi %757, %arg24 : i32
            %766 = arith.index_cast %765 : i32 to index
            %767 = memref.load %1[%766] : memref<2048xi32, #tpu.memory_space<smem>>
            %768 = arith.muli %767, %c128_i32 : i32
            %769 = arith.addi %768, %arg26 : i32
            %770 = tpu.memref_slice %arg16[%94, %c0_i32, %c0_i32, %c0_i32, %c0_i32] : memref<2x1024x8x2x128xbf16, #tpu.tiled<(2,128)(2,1),[8192,8,1,1,1]>, #tpu.memory_space<vmem>> -> memref<1x1024x8x2x128xbf16, #tpu.tiled<(2,128)(2,1),[8192,8,1,1,1]>, #tpu.memory_space<vmem>>
            %771 = tpu.memref_squeeze %770 : memref<1x1024x8x2x128xbf16, #tpu.tiled<(2,128)(2,1),[8192,8,1,1,1]>, #tpu.memory_space<vmem>> -> memref<1024x8x2x128xbf16, #tpu.tiled<(2,128)(2,1),[8,1,1,1]>, #tpu.memory_space<vmem>>
            %772 = tpu.memref_slice %771[%764, %c0_i32, %c0_i32, %c0_i32] <%761> : memref<1024x8x2x128xbf16, #tpu.tiled<(2,128)(2,1),[8,1,1,1]>, #tpu.memory_space<vmem>> -> memref<?x8x2x128xbf16, #tpu.tiled<(2,128)(2,1),[8,1,1,1]>, #tpu.memory_space<vmem>>
            %773 = tpu.erase_memref_layout %772 : memref<?x8x2x128xbf16, #tpu.tiled<(2,128)(2,1),[8,1,1,1]>, #tpu.memory_space<vmem>> -> memref<?x8x2x128xbf16, strided<[2048, 256, 128, 1], offset: ?>, #tpu.memory_space<vmem>>
            %774 = tpu.memref_reshape %arg15 : memref<4688x128x8x2x128xbf16, #tpu.tiled<(2,128)(2,1),[1024,8,1,1,1]>, #tpu.memory_space<hbm>> -> memref<600064x8x2x128xbf16, #tpu.tiled<(2,128)(2,1),[8,1,1,1]>, #tpu.memory_space<hbm>>
            %775 = tpu.memref_slice %774[%769, %c0_i32, %c0_i32, %c0_i32] <%761> : memref<600064x8x2x128xbf16, #tpu.tiled<(2,128)(2,1),[8,1,1,1]>, #tpu.memory_space<hbm>> -> memref<?x8x2x128xbf16, #tpu.tiled<(2,128)(2,1),[8,1,1,1]>, #tpu.memory_space<hbm>>
            %776 = tpu.erase_memref_layout %775 : memref<?x8x2x128xbf16, #tpu.tiled<(2,128)(2,1),[8,1,1,1]>, #tpu.memory_space<hbm>> -> memref<?x8x2x128xbf16, strided<[2048, 256, 128, 1], offset: ?>, #tpu.memory_space<hbm>>
            %777 = tpu.memref_slice %arg19[%c3_i32, %94] : memref<5x2x!tpu.dma_semaphore, #tpu.tiled<,[2,1]>, #tpu.memory_space<semaphore_mem>> -> memref<1x1x!tpu.dma_semaphore, #tpu.tiled<,[2,1]>, #tpu.memory_space<semaphore_mem>>
            %778 = tpu.memref_squeeze %777 : memref<1x1x!tpu.dma_semaphore, #tpu.tiled<,[2,1]>, #tpu.memory_space<semaphore_mem>> -> memref<!tpu.dma_semaphore, #tpu.tiled<,[]>, #tpu.memory_space<semaphore_mem>>
            %779 = tpu.erase_memref_layout %778 : memref<!tpu.dma_semaphore, #tpu.tiled<,[]>, #tpu.memory_space<semaphore_mem>> -> memref<!tpu.dma_semaphore, strided<[], offset: ?>, #tpu.memory_space<semaphore_mem>>
            tpu.enqueue_dma source(%773 : memref<?x8x2x128xbf16, strided<[2048, 256, 128, 1], offset: ?>, #tpu.memory_space<vmem>>) target(%776 : memref<?x8x2x128xbf16, strided<[2048, 256, 128, 1], offset: ?>, #tpu.memory_space<hbm>>) target_semaphore(%779 : memref<!tpu.dma_semaphore, strided<[], offset: ?>, #tpu.memory_space<semaphore_mem>>)
            %780 = arith.subi %arg25, %761 : i32
            scf.yield %780, %c0_i32 : i32, i32
          }
        }
        %153 = tpu.memref_bitcast %arg16 : memref<2x1024x8x2x128xbf16, #tpu.tiled<(2,128)(2,1),[8192,8,1,1,1]>, #tpu.memory_space<vmem>> -> memref<2x1024x8x1x128xi32, #tpu.tiled<(1,128),[8192,8,1,1,1]>, #tpu.memory_space<vmem>>
        %154 = tpu.memref_slice %153[%94, %c0_i32, %c0_i32, %c0_i32, %c0_i32] : memref<2x1024x8x1x128xi32, #tpu.tiled<(1,128),[8192,8,1,1,1]>, #tpu.memory_space<vmem>> -> memref<1x1024x8x1x128xi32, #tpu.tiled<(1,128),[8192,8,1,1,1]>, #tpu.memory_space<vmem>>
        %155 = tpu.memref_squeeze %154 : memref<1x1024x8x1x128xi32, #tpu.tiled<(1,128),[8192,8,1,1,1]>, #tpu.memory_space<vmem>> -> memref<1024x8x1x128xi32, #tpu.tiled<(1,128),[8,1,1,1]>, #tpu.memory_space<vmem>>
        %156 = tpu.memref_reshape %155 : memref<1024x8x1x128xi32, #tpu.tiled<(1,128),[8,1,1,1]>, #tpu.memory_space<vmem>> -> memref<8192x128xi32, #tpu.tiled<(1,128),[1,1]>, #tpu.memory_space<vmem>>
        %157 = tpu.memref_reshape %156 : memref<8192x128xi32, #tpu.tiled<(1,128),[1,1]>, #tpu.memory_space<vmem>> -> memref<8192x128xi32, #tpu.tiled<(1,128),[1,1]>, #tpu.memory_space<vmem>>
        %158 = tpu.erase_memref_layout %157 : memref<8192x128xi32, #tpu.tiled<(1,128),[1,1]>, #tpu.memory_space<vmem>> -> memref<8192x128xi32, #tpu.memory_space<vmem>>
        %159 = tpu.strided_load %158[%c0, %c0] {strides = array<i32: 8, 1>} : memref<8192x128xi32, #tpu.memory_space<vmem>>, vector<1024x128xi32>
        %160 = arith.trunci %159 : vector<1024x128xi32> to vector<1024x128xi16>
        %161 = arith.shrui %159, %cst_11 : vector<1024x128xi32>
        %162 = arith.trunci %161 : vector<1024x128xi32> to vector<1024x128xi16>
        %163 = tpu.bitcast %160 : vector<1024x128xi16> -> vector<512x128xi32>
        %164 = tpu.bitcast %162 : vector<1024x128xi16> -> vector<512x128xi32>
        %165 = arith.andi %163, %93 : vector<512x128xi32>
        %166 = arith.andi %164, %93 : vector<512x128xi32>
        %167 = tpu.bitcast %165 : vector<512x128xi32> -> vector<1024x128xbf16>
        %168 = tpu.bitcast %166 : vector<512x128xi32> -> vector<1024x128xbf16>
        %169 = tpu.strided_load %158[%c1, %c0] {strides = array<i32: 8, 1>} : memref<8192x128xi32, #tpu.memory_space<vmem>>, vector<1024x128xi32>
        %170 = arith.trunci %169 : vector<1024x128xi32> to vector<1024x128xi16>
        %171 = arith.shrui %169, %cst_11 : vector<1024x128xi32>
        %172 = arith.trunci %171 : vector<1024x128xi32> to vector<1024x128xi16>
        %173 = tpu.bitcast %170 : vector<1024x128xi16> -> vector<512x128xi32>
        %174 = tpu.bitcast %172 : vector<1024x128xi16> -> vector<512x128xi32>
        %175 = arith.andi %173, %93 : vector<512x128xi32>
        %176 = arith.andi %174, %93 : vector<512x128xi32>
        %177 = tpu.bitcast %175 : vector<512x128xi32> -> vector<1024x128xbf16>
        %178 = tpu.bitcast %176 : vector<512x128xi32> -> vector<1024x128xbf16>
        %179 = tpu.strided_load %158[%c2, %c0] {strides = array<i32: 8, 1>} : memref<8192x128xi32, #tpu.memory_space<vmem>>, vector<1024x128xi32>
        %180 = arith.trunci %179 : vector<1024x128xi32> to vector<1024x128xi16>
        %181 = arith.shrui %179, %cst_11 : vector<1024x128xi32>
        %182 = arith.trunci %181 : vector<1024x128xi32> to vector<1024x128xi16>
        %183 = tpu.bitcast %180 : vector<1024x128xi16> -> vector<512x128xi32>
        %184 = tpu.bitcast %182 : vector<1024x128xi16> -> vector<512x128xi32>
        %185 = arith.andi %183, %93 : vector<512x128xi32>
        %186 = arith.andi %184, %93 : vector<512x128xi32>
        %187 = tpu.bitcast %185 : vector<512x128xi32> -> vector<1024x128xbf16>
        %188 = tpu.bitcast %186 : vector<512x128xi32> -> vector<1024x128xbf16>
        %189 = tpu.strided_load %158[%c3, %c0] {strides = array<i32: 8, 1>} : memref<8192x128xi32, #tpu.memory_space<vmem>>, vector<1024x128xi32>
        %190 = arith.trunci %189 : vector<1024x128xi32> to vector<1024x128xi16>
        %191 = arith.shrui %189, %cst_11 : vector<1024x128xi32>
        %192 = arith.trunci %191 : vector<1024x128xi32> to vector<1024x128xi16>
        %193 = tpu.bitcast %190 : vector<1024x128xi16> -> vector<512x128xi32>
        %194 = tpu.bitcast %192 : vector<1024x128xi16> -> vector<512x128xi32>
        %195 = arith.andi %193, %93 : vector<512x128xi32>
        %196 = arith.andi %194, %93 : vector<512x128xi32>
        %197 = tpu.bitcast %195 : vector<512x128xi32> -> vector<1024x128xbf16>
        %198 = tpu.bitcast %196 : vector<512x128xi32> -> vector<1024x128xbf16>
        %199 = tpu.strided_load %158[%c4, %c0] {strides = array<i32: 8, 1>} : memref<8192x128xi32, #tpu.memory_space<vmem>>, vector<1024x128xi32>
        %200 = arith.trunci %199 : vector<1024x128xi32> to vector<1024x128xi16>
        %201 = arith.shrui %199, %cst_11 : vector<1024x128xi32>
        %202 = arith.trunci %201 : vector<1024x128xi32> to vector<1024x128xi16>
        %203 = tpu.bitcast %200 : vector<1024x128xi16> -> vector<512x128xi32>
        %204 = tpu.bitcast %202 : vector<1024x128xi16> -> vector<512x128xi32>
        %205 = arith.andi %203, %93 : vector<512x128xi32>
        %206 = arith.andi %204, %93 : vector<512x128xi32>
        %207 = tpu.bitcast %205 : vector<512x128xi32> -> vector<1024x128xbf16>
        %208 = tpu.bitcast %206 : vector<512x128xi32> -> vector<1024x128xbf16>
        %209 = tpu.strided_load %158[%c5, %c0] {strides = array<i32: 8, 1>} : memref<8192x128xi32, #tpu.memory_space<vmem>>, vector<1024x128xi32>
        %210 = arith.trunci %209 : vector<1024x128xi32> to vector<1024x128xi16>
        %211 = arith.shrui %209, %cst_11 : vector<1024x128xi32>
        %212 = arith.trunci %211 : vector<1024x128xi32> to vector<1024x128xi16>
        %213 = tpu.bitcast %210 : vector<1024x128xi16> -> vector<512x128xi32>
        %214 = tpu.bitcast %212 : vector<1024x128xi16> -> vector<512x128xi32>
        %215 = arith.andi %213, %93 : vector<512x128xi32>
        %216 = arith.andi %214, %93 : vector<512x128xi32>
        %217 = tpu.bitcast %215 : vector<512x128xi32> -> vector<1024x128xbf16>
        %218 = tpu.bitcast %216 : vector<512x128xi32> -> vector<1024x128xbf16>
        %219 = tpu.strided_load %158[%c6, %c0] {strides = array<i32: 8, 1>} : memref<8192x128xi32, #tpu.memory_space<vmem>>, vector<1024x128xi32>
        %220 = arith.trunci %219 : vector<1024x128xi32> to vector<1024x128xi16>
        %221 = arith.shrui %219, %cst_11 : vector<1024x128xi32>
        %222 = arith.trunci %221 : vector<1024x128xi32> to vector<1024x128xi16>
        %223 = tpu.bitcast %220 : vector<1024x128xi16> -> vector<512x128xi32>
        %224 = tpu.bitcast %222 : vector<1024x128xi16> -> vector<512x128xi32>
        %225 = arith.andi %223, %93 : vector<512x128xi32>
        %226 = arith.andi %224, %93 : vector<512x128xi32>
        %227 = tpu.bitcast %225 : vector<512x128xi32> -> vector<1024x128xbf16>
        %228 = tpu.bitcast %226 : vector<512x128xi32> -> vector<1024x128xbf16>
        %229 = tpu.strided_load %158[%c7, %c0] {strides = array<i32: 8, 1>} : memref<8192x128xi32, #tpu.memory_space<vmem>>, vector<1024x128xi32>
        %230 = arith.trunci %229 : vector<1024x128xi32> to vector<1024x128xi16>
        %231 = arith.shrui %229, %cst_11 : vector<1024x128xi32>
        %232 = arith.trunci %231 : vector<1024x128xi32> to vector<1024x128xi16>
        %233 = tpu.bitcast %230 : vector<1024x128xi16> -> vector<512x128xi32>
        %234 = tpu.bitcast %232 : vector<1024x128xi16> -> vector<512x128xi32>
        %235 = arith.andi %233, %93 : vector<512x128xi32>
        %236 = arith.andi %234, %93 : vector<512x128xi32>
        %237 = tpu.bitcast %235 : vector<512x128xi32> -> vector<1024x128xbf16>
        %238 = tpu.bitcast %236 : vector<512x128xi32> -> vector<1024x128xbf16>
        %239 = tpu.reshape %167 : vector<1024x128xbf16> -> vector<1x1024x128xbf16>
        %240 = tpu.reshape %177 : vector<1024x128xbf16> -> vector<1x1024x128xbf16>
        %241 = tpu.reshape %187 : vector<1024x128xbf16> -> vector<1x1024x128xbf16>
        %242 = tpu.reshape %197 : vector<1024x128xbf16> -> vector<1x1024x128xbf16>
        %243 = tpu.reshape %207 : vector<1024x128xbf16> -> vector<1x1024x128xbf16>
        %244 = tpu.reshape %217 : vector<1024x128xbf16> -> vector<1x1024x128xbf16>
        %245 = tpu.reshape %227 : vector<1024x128xbf16> -> vector<1x1024x128xbf16>
        %246 = tpu.reshape %237 : vector<1024x128xbf16> -> vector<1x1024x128xbf16>
        %247 = tpu.concatenate %239, %240, %241, %242, %243, %244, %245, %246 in 0 : vector<1x1024x128xbf16>, vector<1x1024x128xbf16>, vector<1x1024x128xbf16>, vector<1x1024x128xbf16>, vector<1x1024x128xbf16>, vector<1x1024x128xbf16>, vector<1x1024x128xbf16>, vector<1x1024x128xbf16> -> vector<8x1024x128xbf16>
        %248 = tpu.reshape %168 : vector<1024x128xbf16> -> vector<1x1024x128xbf16>
        %249 = tpu.reshape %178 : vector<1024x128xbf16> -> vector<1x1024x128xbf16>
        %250 = tpu.reshape %188 : vector<1024x128xbf16> -> vector<1x1024x128xbf16>
        %251 = tpu.reshape %198 : vector<1024x128xbf16> -> vector<1x1024x128xbf16>
        %252 = tpu.reshape %208 : vector<1024x128xbf16> -> vector<1x1024x128xbf16>
        %253 = tpu.reshape %218 : vector<1024x128xbf16> -> vector<1x1024x128xbf16>
        %254 = tpu.reshape %228 : vector<1024x128xbf16> -> vector<1x1024x128xbf16>
        %255 = tpu.reshape %238 : vector<1024x128xbf16> -> vector<1x1024x128xbf16>
        %256 = tpu.concatenate %248, %249, %250, %251, %252, %253, %254, %255 in 0 : vector<1x1024x128xbf16>, vector<1x1024x128xbf16>, vector<1x1024x128xbf16>, vector<1x1024x128xbf16>, vector<1x1024x128xbf16>, vector<1x1024x128xbf16>, vector<1x1024x128xbf16>, vector<1x1024x128xbf16> -> vector<8x1024x128xbf16>
        %257 = tpu.memref_bitcast %arg17 : memref<2x8x128x2x2x128xbf16, #tpu.tiled<(2,128)(2,1),[2048,256,2,1,1,1]>, #tpu.memory_space<vmem>> -> memref<2x8x128x2x1x128xi32, #tpu.tiled<(1,128),[2048,256,2,1,1,1]>, #tpu.memory_space<vmem>>
        %258 = tpu.memref_slice %257[%48, %c0_i32, %c0_i32, %c0_i32, %c0_i32, %c0_i32] : memref<2x8x128x2x1x128xi32, #tpu.tiled<(1,128),[2048,256,2,1,1,1]>, #tpu.memory_space<vmem>> -> memref<1x1x128x2x1x128xi32, #tpu.tiled<(1,128),[2048,256,2,1,1,1]>, #tpu.memory_space<vmem>>
        %259 = tpu.memref_squeeze %258 : memref<1x1x128x2x1x128xi32, #tpu.tiled<(1,128),[2048,256,2,1,1,1]>, #tpu.memory_space<vmem>> -> memref<128x2x1x128xi32, #tpu.tiled<(1,128),[2,1,1,1]>, #tpu.memory_space<vmem>>
        %260 = tpu.memref_reshape %259 : memref<128x2x1x128xi32, #tpu.tiled<(1,128),[2,1,1,1]>, #tpu.memory_space<vmem>> -> memref<256x128xi32, #tpu.tiled<(1,128),[1,1]>, #tpu.memory_space<vmem>>
        %261 = tpu.erase_memref_layout %260 : memref<256x128xi32, #tpu.tiled<(1,128),[1,1]>, #tpu.memory_space<vmem>> -> memref<256x128xi32, #tpu.memory_space<vmem>>
        %262 = vector.load %261[%c0, %c0] : memref<256x128xi32, #tpu.memory_space<vmem>>, vector<2x128xi32>
        %263 = tpu.bitcast %262 : vector<2x128xi32> -> vector<4x128xbf16>
        %264 = tpu.memref_slice %257[%48, %c1_i32, %c0_i32, %c0_i32, %c0_i32, %c0_i32] : memref<2x8x128x2x1x128xi32, #tpu.tiled<(1,128),[2048,256,2,1,1,1]>, #tpu.memory_space<vmem>> -> memref<1x1x128x2x1x128xi32, #tpu.tiled<(1,128),[2048,256,2,1,1,1]>, #tpu.memory_space<vmem>>
        %265 = tpu.memref_squeeze %264 : memref<1x1x128x2x1x128xi32, #tpu.tiled<(1,128),[2048,256,2,1,1,1]>, #tpu.memory_space<vmem>> -> memref<128x2x1x128xi32, #tpu.tiled<(1,128),[2,1,1,1]>, #tpu.memory_space<vmem>>
        %266 = tpu.memref_reshape %265 : memref<128x2x1x128xi32, #tpu.tiled<(1,128),[2,1,1,1]>, #tpu.memory_space<vmem>> -> memref<256x128xi32, #tpu.tiled<(1,128),[1,1]>, #tpu.memory_space<vmem>>
        %267 = tpu.erase_memref_layout %266 : memref<256x128xi32, #tpu.tiled<(1,128),[1,1]>, #tpu.memory_space<vmem>> -> memref<256x128xi32, #tpu.memory_space<vmem>>
        %268 = vector.load %267[%c0, %c0] : memref<256x128xi32, #tpu.memory_space<vmem>>, vector<2x128xi32>
        %269 = tpu.bitcast %268 : vector<2x128xi32> -> vector<4x128xbf16>
        %270 = tpu.memref_slice %257[%48, %c2_i32, %c0_i32, %c0_i32, %c0_i32, %c0_i32] : memref<2x8x128x2x1x128xi32, #tpu.tiled<(1,128),[2048,256,2,1,1,1]>, #tpu.memory_space<vmem>> -> memref<1x1x128x2x1x128xi32, #tpu.tiled<(1,128),[2048,256,2,1,1,1]>, #tpu.memory_space<vmem>>
        %271 = tpu.memref_squeeze %270 : memref<1x1x128x2x1x128xi32, #tpu.tiled<(1,128),[2048,256,2,1,1,1]>, #tpu.memory_space<vmem>> -> memref<128x2x1x128xi32, #tpu.tiled<(1,128),[2,1,1,1]>, #tpu.memory_space<vmem>>
        %272 = tpu.memref_reshape %271 : memref<128x2x1x128xi32, #tpu.tiled<(1,128),[2,1,1,1]>, #tpu.memory_space<vmem>> -> memref<256x128xi32, #tpu.tiled<(1,128),[1,1]>, #tpu.memory_space<vmem>>
        %273 = tpu.erase_memref_layout %272 : memref<256x128xi32, #tpu.tiled<(1,128),[1,1]>, #tpu.memory_space<vmem>> -> memref<256x128xi32, #tpu.memory_space<vmem>>
        %274 = vector.load %273[%c0, %c0] : memref<256x128xi32, #tpu.memory_space<vmem>>, vector<2x128xi32>
        %275 = tpu.bitcast %274 : vector<2x128xi32> -> vector<4x128xbf16>
        %276 = tpu.memref_slice %257[%48, %c3_i32, %c0_i32, %c0_i32, %c0_i32, %c0_i32] : memref<2x8x128x2x1x128xi32, #tpu.tiled<(1,128),[2048,256,2,1,1,1]>, #tpu.memory_space<vmem>> -> memref<1x1x128x2x1x128xi32, #tpu.tiled<(1,128),[2048,256,2,1,1,1]>, #tpu.memory_space<vmem>>
        %277 = tpu.memref_squeeze %276 : memref<1x1x128x2x1x128xi32, #tpu.tiled<(1,128),[2048,256,2,1,1,1]>, #tpu.memory_space<vmem>> -> memref<128x2x1x128xi32, #tpu.tiled<(1,128),[2,1,1,1]>, #tpu.memory_space<vmem>>
        %278 = tpu.memref_reshape %277 : memref<128x2x1x128xi32, #tpu.tiled<(1,128),[2,1,1,1]>, #tpu.memory_space<vmem>> -> memref<256x128xi32, #tpu.tiled<(1,128),[1,1]>, #tpu.memory_space<vmem>>
        %279 = tpu.erase_memref_layout %278 : memref<256x128xi32, #tpu.tiled<(1,128),[1,1]>, #tpu.memory_space<vmem>> -> memref<256x128xi32, #tpu.memory_space<vmem>>
        %280 = vector.load %279[%c0, %c0] : memref<256x128xi32, #tpu.memory_space<vmem>>, vector<2x128xi32>
        %281 = tpu.bitcast %280 : vector<2x128xi32> -> vector<4x128xbf16>
        %282 = tpu.memref_slice %257[%48, %c4_i32, %c0_i32, %c0_i32, %c0_i32, %c0_i32] : memref<2x8x128x2x1x128xi32, #tpu.tiled<(1,128),[2048,256,2,1,1,1]>, #tpu.memory_space<vmem>> -> memref<1x1x128x2x1x128xi32, #tpu.tiled<(1,128),[2048,256,2,1,1,1]>, #tpu.memory_space<vmem>>
        %283 = tpu.memref_squeeze %282 : memref<1x1x128x2x1x128xi32, #tpu.tiled<(1,128),[2048,256,2,1,1,1]>, #tpu.memory_space<vmem>> -> memref<128x2x1x128xi32, #tpu.tiled<(1,128),[2,1,1,1]>, #tpu.memory_space<vmem>>
        %284 = tpu.memref_reshape %283 : memref<128x2x1x128xi32, #tpu.tiled<(1,128),[2,1,1,1]>, #tpu.memory_space<vmem>> -> memref<256x128xi32, #tpu.tiled<(1,128),[1,1]>, #tpu.memory_space<vmem>>
        %285 = tpu.erase_memref_layout %284 : memref<256x128xi32, #tpu.tiled<(1,128),[1,1]>, #tpu.memory_space<vmem>> -> memref<256x128xi32, #tpu.memory_space<vmem>>
        %286 = vector.load %285[%c0, %c0] : memref<256x128xi32, #tpu.memory_space<vmem>>, vector<2x128xi32>
        %287 = tpu.bitcast %286 : vector<2x128xi32> -> vector<4x128xbf16>
        %288 = tpu.memref_slice %257[%48, %c5_i32, %c0_i32, %c0_i32, %c0_i32, %c0_i32] : memref<2x8x128x2x1x128xi32, #tpu.tiled<(1,128),[2048,256,2,1,1,1]>, #tpu.memory_space<vmem>> -> memref<1x1x128x2x1x128xi32, #tpu.tiled<(1,128),[2048,256,2,1,1,1]>, #tpu.memory_space<vmem>>
        %289 = tpu.memref_squeeze %288 : memref<1x1x128x2x1x128xi32, #tpu.tiled<(1,128),[2048,256,2,1,1,1]>, #tpu.memory_space<vmem>> -> memref<128x2x1x128xi32, #tpu.tiled<(1,128),[2,1,1,1]>, #tpu.memory_space<vmem>>
        %290 = tpu.memref_reshape %289 : memref<128x2x1x128xi32, #tpu.tiled<(1,128),[2,1,1,1]>, #tpu.memory_space<vmem>> -> memref<256x128xi32, #tpu.tiled<(1,128),[1,1]>, #tpu.memory_space<vmem>>
        %291 = tpu.erase_memref_layout %290 : memref<256x128xi32, #tpu.tiled<(1,128),[1,1]>, #tpu.memory_space<vmem>> -> memref<256x128xi32, #tpu.memory_space<vmem>>
        %292 = vector.load %291[%c0, %c0] : memref<256x128xi32, #tpu.memory_space<vmem>>, vector<2x128xi32>
        %293 = tpu.bitcast %292 : vector<2x128xi32> -> vector<4x128xbf16>
        %294 = tpu.memref_slice %257[%48, %c6_i32, %c0_i32, %c0_i32, %c0_i32, %c0_i32] : memref<2x8x128x2x1x128xi32, #tpu.tiled<(1,128),[2048,256,2,1,1,1]>, #tpu.memory_space<vmem>> -> memref<1x1x128x2x1x128xi32, #tpu.tiled<(1,128),[2048,256,2,1,1,1]>, #tpu.memory_space<vmem>>
        %295 = tpu.memref_squeeze %294 : memref<1x1x128x2x1x128xi32, #tpu.tiled<(1,128),[2048,256,2,1,1,1]>, #tpu.memory_space<vmem>> -> memref<128x2x1x128xi32, #tpu.tiled<(1,128),[2,1,1,1]>, #tpu.memory_space<vmem>>
        %296 = tpu.memref_reshape %295 : memref<128x2x1x128xi32, #tpu.tiled<(1,128),[2,1,1,1]>, #tpu.memory_space<vmem>> -> memref<256x128xi32, #tpu.tiled<(1,128),[1,1]>, #tpu.memory_space<vmem>>
        %297 = tpu.erase_memref_layout %296 : memref<256x128xi32, #tpu.tiled<(1,128),[1,1]>, #tpu.memory_space<vmem>> -> memref<256x128xi32, #tpu.memory_space<vmem>>
        %298 = vector.load %297[%c0, %c0] : memref<256x128xi32, #tpu.memory_space<vmem>>, vector<2x128xi32>
        %299 = tpu.bitcast %298 : vector<2x128xi32> -> vector<4x128xbf16>
        %300 = tpu.memref_slice %257[%48, %c7_i32, %c0_i32, %c0_i32, %c0_i32, %c0_i32] : memref<2x8x128x2x1x128xi32, #tpu.tiled<(1,128),[2048,256,2,1,1,1]>, #tpu.memory_space<vmem>> -> memref<1x1x128x2x1x128xi32, #tpu.tiled<(1,128),[2048,256,2,1,1,1]>, #tpu.memory_space<vmem>>
        %301 = tpu.memref_squeeze %300 : memref<1x1x128x2x1x128xi32, #tpu.tiled<(1,128),[2048,256,2,1,1,1]>, #tpu.memory_space<vmem>> -> memref<128x2x1x128xi32, #tpu.tiled<(1,128),[2,1,1,1]>, #tpu.memory_space<vmem>>
        %302 = tpu.memref_reshape %301 : memref<128x2x1x128xi32, #tpu.tiled<(1,128),[2,1,1,1]>, #tpu.memory_space<vmem>> -> memref<256x128xi32, #tpu.tiled<(1,128),[1,1]>, #tpu.memory_space<vmem>>
        %303 = tpu.erase_memref_layout %302 : memref<256x128xi32, #tpu.tiled<(1,128),[1,1]>, #tpu.memory_space<vmem>> -> memref<256x128xi32, #tpu.memory_space<vmem>>
        %304 = vector.load %303[%c0, %c0] : memref<256x128xi32, #tpu.memory_space<vmem>>, vector<2x128xi32>
        %305 = tpu.bitcast %304 : vector<2x128xi32> -> vector<4x128xbf16>
        %306 = tpu.reshape %263 : vector<4x128xbf16> -> vector<1x4x128xbf16>
        %307 = tpu.reshape %269 : vector<4x128xbf16> -> vector<1x4x128xbf16>
        %308 = tpu.reshape %275 : vector<4x128xbf16> -> vector<1x4x128xbf16>
        %309 = tpu.reshape %281 : vector<4x128xbf16> -> vector<1x4x128xbf16>
        %310 = tpu.reshape %287 : vector<4x128xbf16> -> vector<1x4x128xbf16>
        %311 = tpu.reshape %293 : vector<4x128xbf16> -> vector<1x4x128xbf16>
        %312 = tpu.reshape %299 : vector<4x128xbf16> -> vector<1x4x128xbf16>
        %313 = tpu.reshape %305 : vector<4x128xbf16> -> vector<1x4x128xbf16>
        %314 = tpu.concatenate %306, %307, %308, %309, %310, %311, %312, %313 in 0 : vector<1x4x128xbf16>, vector<1x4x128xbf16>, vector<1x4x128xbf16>, vector<1x4x128xbf16>, vector<1x4x128xbf16>, vector<1x4x128xbf16>, vector<1x4x128xbf16>, vector<1x4x128xbf16> -> vector<8x4x128xbf16>
        %315 = tpu.extf %314 : vector<8x4x128xbf16> -> vector<8x4x128xf32>
        %316 = tpu.extf %247 : vector<8x1024x128xbf16> -> vector<8x1024x128xf32>
        %317 = tpu.extf %256 : vector<8x1024x128xbf16> -> vector<8x1024x128xf32>
        "tpu.trace_start"() <{level = 10 : i32, message = "hqd,hkd->hqk"}> : () -> ()
        %318 = vector.extract %315[0] : vector<4x128xf32> from vector<8x4x128xf32>
        %319 = vector.extract %316[0] : vector<1024x128xf32> from vector<8x1024x128xf32>
        %320 = vector.extract %cst_21[0] : vector<4x1024xf32> from vector<8x4x1024xf32>
        %321 = tpu.matmul %318, %319, %320 {dimension_numbers = #tpu.dot_dimension_numbers<[1], [1], [0], [0], [0, 0, 1, 0], [], []>} : vector<4x128xf32>, vector<1024x128xf32>, vector<4x1024xf32> -> vector<4x1024xf32>
        %322 = tpu.reshape %321 : vector<4x1024xf32> -> vector<1x4x1024xf32>
        %323 = vector.extract %315[1] : vector<4x128xf32> from vector<8x4x128xf32>
        %324 = vector.extract %316[1] : vector<1024x128xf32> from vector<8x1024x128xf32>
        %325 = vector.extract %cst_21[1] : vector<4x1024xf32> from vector<8x4x1024xf32>
        %326 = tpu.matmul %323, %324, %325 {dimension_numbers = #tpu.dot_dimension_numbers<[1], [1], [0], [0], [0, 0, 1, 0], [], []>} : vector<4x128xf32>, vector<1024x128xf32>, vector<4x1024xf32> -> vector<4x1024xf32>
        %327 = tpu.reshape %326 : vector<4x1024xf32> -> vector<1x4x1024xf32>
        %328 = vector.extract %315[2] : vector<4x128xf32> from vector<8x4x128xf32>
        %329 = vector.extract %316[2] : vector<1024x128xf32> from vector<8x1024x128xf32>
        %330 = vector.extract %cst_21[2] : vector<4x1024xf32> from vector<8x4x1024xf32>
        %331 = tpu.matmul %328, %329, %330 {dimension_numbers = #tpu.dot_dimension_numbers<[1], [1], [0], [0], [0, 0, 1, 0], [], []>} : vector<4x128xf32>, vector<1024x128xf32>, vector<4x1024xf32> -> vector<4x1024xf32>
        %332 = tpu.reshape %331 : vector<4x1024xf32> -> vector<1x4x1024xf32>
        %333 = vector.extract %315[3] : vector<4x128xf32> from vector<8x4x128xf32>
        %334 = vector.extract %316[3] : vector<1024x128xf32> from vector<8x1024x128xf32>
        %335 = vector.extract %cst_21[3] : vector<4x1024xf32> from vector<8x4x1024xf32>
        %336 = tpu.matmul %333, %334, %335 {dimension_numbers = #tpu.dot_dimension_numbers<[1], [1], [0], [0], [0, 0, 1, 0], [], []>} : vector<4x128xf32>, vector<1024x128xf32>, vector<4x1024xf32> -> vector<4x1024xf32>
        %337 = tpu.reshape %336 : vector<4x1024xf32> -> vector<1x4x1024xf32>
        %338 = vector.extract %315[4] : vector<4x128xf32> from vector<8x4x128xf32>
        %339 = vector.extract %316[4] : vector<1024x128xf32> from vector<8x1024x128xf32>
        %340 = vector.extract %cst_21[4] : vector<4x1024xf32> from vector<8x4x1024xf32>
        %341 = tpu.matmul %338, %339, %340 {dimension_numbers = #tpu.dot_dimension_numbers<[1], [1], [0], [0], [0, 0, 1, 0], [], []>} : vector<4x128xf32>, vector<1024x128xf32>, vector<4x1024xf32> -> vector<4x1024xf32>
        %342 = tpu.reshape %341 : vector<4x1024xf32> -> vector<1x4x1024xf32>
        %343 = vector.extract %315[5] : vector<4x128xf32> from vector<8x4x128xf32>
        %344 = vector.extract %316[5] : vector<1024x128xf32> from vector<8x1024x128xf32>
        %345 = vector.extract %cst_21[5] : vector<4x1024xf32> from vector<8x4x1024xf32>
        %346 = tpu.matmul %343, %344, %345 {dimension_numbers = #tpu.dot_dimension_numbers<[1], [1], [0], [0], [0, 0, 1, 0], [], []>} : vector<4x128xf32>, vector<1024x128xf32>, vector<4x1024xf32> -> vector<4x1024xf32>
        %347 = tpu.reshape %346 : vector<4x1024xf32> -> vector<1x4x1024xf32>
        %348 = vector.extract %315[6] : vector<4x128xf32> from vector<8x4x128xf32>
        %349 = vector.extract %316[6] : vector<1024x128xf32> from vector<8x1024x128xf32>
        %350 = vector.extract %cst_21[6] : vector<4x1024xf32> from vector<8x4x1024xf32>
        %351 = tpu.matmul %348, %349, %350 {dimension_numbers = #tpu.dot_dimension_numbers<[1], [1], [0], [0], [0, 0, 1, 0], [], []>} : vector<4x128xf32>, vector<1024x128xf32>, vector<4x1024xf32> -> vector<4x1024xf32>
        %352 = tpu.reshape %351 : vector<4x1024xf32> -> vector<1x4x1024xf32>
        %353 = vector.extract %315[7] : vector<4x128xf32> from vector<8x4x128xf32>
        %354 = vector.extract %316[7] : vector<1024x128xf32> from vector<8x1024x128xf32>
        %355 = vector.extract %cst_21[7] : vector<4x1024xf32> from vector<8x4x1024xf32>
        %356 = tpu.matmul %353, %354, %355 {dimension_numbers = #tpu.dot_dimension_numbers<[1], [1], [0], [0], [0, 0, 1, 0], [], []>} : vector<4x128xf32>, vector<1024x128xf32>, vector<4x1024xf32> -> vector<4x1024xf32>
        %357 = tpu.reshape %356 : vector<4x1024xf32> -> vector<1x4x1024xf32>
        %358 = tpu.concatenate %322, %327, %332, %337, %342, %347, %352, %357 in 0 : vector<1x4x1024xf32>, vector<1x4x1024xf32>, vector<1x4x1024xf32>, vector<1x4x1024xf32>, vector<1x4x1024xf32>, vector<1x4x1024xf32>, vector<1x4x1024xf32>, vector<1x4x1024xf32> -> vector<8x4x1024xf32>
        "tpu.trace_stop"() : () -> ()
        %359 = arith.mulf %358, %cst_10 : vector<8x4x1024xf32>
        %360 = arith.subi %24, %23 : i32
        %361 = tpu.iota {dimensions = array<i32: 1>} : vector<8x4x1024xi32>
        %362 = arith.divsi %361, %cst_9 : vector<8x4x1024xi32>
        %363 = arith.cmpi sgt, %361, %cst_8 : vector<8x4x1024xi32>
        %364 = arith.extui %363 : vector<8x4x1024xi1> to vector<8x4x1024xi32>
        %365 = arith.cmpi slt, %361, %cst_8 : vector<8x4x1024xi32>
        %366 = arith.extui %365 : vector<8x4x1024xi1> to vector<8x4x1024xi32>
        %367 = arith.subi %364, %366 : vector<8x4x1024xi32>
        %368 = arith.cmpi ne, %367, %cst_7 : vector<8x4x1024xi32>
        %369 = arith.remsi %361, %cst_9 : vector<8x4x1024xi32>
        %370 = arith.cmpi ne, %369, %cst_8 : vector<8x4x1024xi32>
        %371 = arith.andi %368, %370 : vector<8x4x1024xi1>
        %372 = arith.subi %362, %cst_7 : vector<8x4x1024xi32>
        %373 = arith.select %371, %372, %362 : vector<8x4x1024xi1>, vector<8x4x1024xi32>
        %374 = vector.broadcast %360 : i32 to vector<8x4x1024xi32>
        %375 = arith.addi %374, %373 : vector<8x4x1024xi32>
        %376 = tpu.iota {dimensions = array<i32: 2>} : vector<8x4x1024xi32>
        %377 = vector.broadcast %85 : i32 to vector<8x4x1024xi32>
        %378 = arith.addi %377, %376 : vector<8x4x1024xi32>
        %379 = arith.cmpi slt, %375, %378 : vector<8x4x1024xi32>
        %380 = arith.select %379, %cst_6, %cst_21 : vector<8x4x1024xi1>, vector<8x4x1024xf32>
        %381 = arith.addf %359, %380 : vector<8x4x1024xf32>
        %382 = vector.extract %381[0] : vector<4x1024xf32> from vector<8x4x1024xf32>
        %383 = vector.multi_reduction <maximumf>, %382, %cst_20 [1] : vector<4x1024xf32> to vector<4xf32>
        %384 = tpu.reshape %383 : vector<4xf32> -> vector<4x1xf32>
        %385 = vector.load %11[%c0, %c0, %c0] : memref<8x512x128xf32, #tpu.memory_space<vmem>>, vector<1x4x128xf32>
        %386 = tpu.reshape %385 : vector<1x4x128xf32> -> vector<4x128xf32>
        %387 = arith.extui %104 : i1 to i32
        %388 = vector.broadcast %387 : i32 to vector<4x128xi32>
        %cst_22 = arith.constant dense<1> : vector<4x128xi32>
        %389 = arith.cmpi eq, %388, %cst_22 : vector<4x128xi32>
        %390 = arith.select %389, %cst_5, %386 : vector<4x128xi1>, vector<4x128xf32>
        %391 = vector.broadcast %384 : vector<4x1xf32> to vector<4x128xf32>
        %392 = arith.maximumf %390, %391 : vector<4x128xf32>
        %393 = tpu.reshape %392 : vector<4x128xf32> -> vector<1x4x128xf32>
        tpu.vector_store %11[%c0, %c0, %c0], %393 {strides = array<i32>} : memref<8x512x128xf32, #tpu.memory_space<vmem>>, vector<1x4x128xf32>, 
        %394 = tpu.concatenate %392, %392, %392, %392, %392, %392, %392, %392 in 1 : vector<4x128xf32>, vector<4x128xf32>, vector<4x128xf32>, vector<4x128xf32>, vector<4x128xf32>, vector<4x128xf32>, vector<4x128xf32>, vector<4x128xf32> -> vector<4x1024xf32>
        %395 = arith.subf %382, %394 : vector<4x1024xf32>
        %396 = math.exp %395 : vector<4x1024xf32>
        %397 = vector.extract %317[0] : vector<1024x128xf32> from vector<8x1024x128xf32>
        "tpu.trace_start"() <{level = 10 : i32, message = "qk,kd->qd"}> : () -> ()
        %398 = tpu.matmul %396, %397, %cst_19 {dimension_numbers = #tpu.dot_dimension_numbers<[1], [0], [0], [1], [0, 0, 1, 1], [], []>} : vector<4x1024xf32>, vector<1024x128xf32>, vector<4x128xf32> -> vector<4x128xf32>
        "tpu.trace_stop"() : () -> ()
        %399 = vector.multi_reduction <add>, %396, %cst_18 [1] : vector<4x1024xf32> to vector<4xf32>
        %400 = tpu.reshape %399 : vector<4xf32> -> vector<4x1xf32>
        %401 = arith.subf %390, %392 : vector<4x128xf32>
        %402 = math.exp %401 : vector<4x128xf32>
        %403 = vector.load %9[%c0, %c0, %c0] : memref<8x512x128xf32, #tpu.memory_space<vmem>>, vector<1x4x128xf32>
        %404 = tpu.reshape %403 : vector<1x4x128xf32> -> vector<4x128xf32>
        %405 = arith.extui %104 : i1 to i32
        %406 = vector.broadcast %405 : i32 to vector<4x128xi32>
        %cst_23 = arith.constant dense<1> : vector<4x128xi32>
        %407 = arith.cmpi eq, %406, %cst_23 : vector<4x128xi32>
        %408 = arith.select %407, %cst_19, %404 : vector<4x128xi1>, vector<4x128xf32>
        %409 = arith.mulf %402, %408 : vector<4x128xf32>
        %410 = vector.broadcast %400 : vector<4x1xf32> to vector<4x128xf32>
        %411 = arith.addf %409, %410 : vector<4x128xf32>
        %412 = tpu.reshape %411 : vector<4x128xf32> -> vector<1x4x128xf32>
        tpu.vector_store %9[%c0, %c0, %c0], %412 {strides = array<i32>} : memref<8x512x128xf32, #tpu.memory_space<vmem>>, vector<1x4x128xf32>, 
        %413 = vector.load %13[%c0, %c0, %c0] : memref<8x512x128xf32, #tpu.memory_space<vmem>>, vector<1x4x128xf32>
        %414 = tpu.reshape %413 : vector<1x4x128xf32> -> vector<4x128xf32>
        %415 = arith.extui %104 : i1 to i32
        %416 = vector.broadcast %415 : i32 to vector<4x128xi32>
        %cst_24 = arith.constant dense<1> : vector<4x128xi32>
        %417 = arith.cmpi eq, %416, %cst_24 : vector<4x128xi32>
        %418 = arith.select %417, %cst_19, %414 : vector<4x128xi1>, vector<4x128xf32>
        %419 = arith.mulf %402, %418 : vector<4x128xf32>
        %420 = arith.addf %419, %398 : vector<4x128xf32>
        %421 = tpu.reshape %420 : vector<4x128xf32> -> vector<1x4x128xf32>
        tpu.vector_store %13[%c0, %c0, %c0], %421 {strides = array<i32>} : memref<8x512x128xf32, #tpu.memory_space<vmem>>, vector<1x4x128xf32>, 
        %422 = vector.extract %381[1] : vector<4x1024xf32> from vector<8x4x1024xf32>
        %423 = vector.multi_reduction <maximumf>, %422, %cst_20 [1] : vector<4x1024xf32> to vector<4xf32>
        %424 = tpu.reshape %423 : vector<4xf32> -> vector<4x1xf32>
        %425 = vector.load %11[%c1, %c0, %c0] : memref<8x512x128xf32, #tpu.memory_space<vmem>>, vector<1x4x128xf32>
        %426 = tpu.reshape %425 : vector<1x4x128xf32> -> vector<4x128xf32>
        %427 = arith.extui %104 : i1 to i32
        %428 = vector.broadcast %427 : i32 to vector<4x128xi32>
        %cst_25 = arith.constant dense<1> : vector<4x128xi32>
        %429 = arith.cmpi eq, %428, %cst_25 : vector<4x128xi32>
        %430 = arith.select %429, %cst_5, %426 : vector<4x128xi1>, vector<4x128xf32>
        %431 = vector.broadcast %424 : vector<4x1xf32> to vector<4x128xf32>
        %432 = arith.maximumf %430, %431 : vector<4x128xf32>
        %433 = tpu.reshape %432 : vector<4x128xf32> -> vector<1x4x128xf32>
        tpu.vector_store %11[%c1, %c0, %c0], %433 {strides = array<i32>} : memref<8x512x128xf32, #tpu.memory_space<vmem>>, vector<1x4x128xf32>, 
        %434 = tpu.concatenate %432, %432, %432, %432, %432, %432, %432, %432 in 1 : vector<4x128xf32>, vector<4x128xf32>, vector<4x128xf32>, vector<4x128xf32>, vector<4x128xf32>, vector<4x128xf32>, vector<4x128xf32>, vector<4x128xf32> -> vector<4x1024xf32>
        %435 = arith.subf %422, %434 : vector<4x1024xf32>
        %436 = math.exp %435 : vector<4x1024xf32>
        %437 = vector.extract %317[1] : vector<1024x128xf32> from vector<8x1024x128xf32>
        "tpu.trace_start"() <{level = 10 : i32, message = "qk,kd->qd"}> : () -> ()
        %438 = tpu.matmul %436, %437, %cst_19 {dimension_numbers = #tpu.dot_dimension_numbers<[1], [0], [0], [1], [0, 0, 1, 1], [], []>} : vector<4x1024xf32>, vector<1024x128xf32>, vector<4x128xf32> -> vector<4x128xf32>
        "tpu.trace_stop"() : () -> ()
        %439 = vector.multi_reduction <add>, %436, %cst_18 [1] : vector<4x1024xf32> to vector<4xf32>
        %440 = tpu.reshape %439 : vector<4xf32> -> vector<4x1xf32>
        %441 = arith.subf %430, %432 : vector<4x128xf32>
        %442 = math.exp %441 : vector<4x128xf32>
        %443 = vector.load %9[%c1, %c0, %c0] : memref<8x512x128xf32, #tpu.memory_space<vmem>>, vector<1x4x128xf32>
        %444 = tpu.reshape %443 : vector<1x4x128xf32> -> vector<4x128xf32>
        %445 = arith.extui %104 : i1 to i32
        %446 = vector.broadcast %445 : i32 to vector<4x128xi32>
        %cst_26 = arith.constant dense<1> : vector<4x128xi32>
        %447 = arith.cmpi eq, %446, %cst_26 : vector<4x128xi32>
        %448 = arith.select %447, %cst_19, %444 : vector<4x128xi1>, vector<4x128xf32>
        %449 = arith.mulf %442, %448 : vector<4x128xf32>
        %450 = vector.broadcast %440 : vector<4x1xf32> to vector<4x128xf32>
        %451 = arith.addf %449, %450 : vector<4x128xf32>
        %452 = tpu.reshape %451 : vector<4x128xf32> -> vector<1x4x128xf32>
        tpu.vector_store %9[%c1, %c0, %c0], %452 {strides = array<i32>} : memref<8x512x128xf32, #tpu.memory_space<vmem>>, vector<1x4x128xf32>, 
        %453 = vector.load %13[%c1, %c0, %c0] : memref<8x512x128xf32, #tpu.memory_space<vmem>>, vector<1x4x128xf32>
        %454 = tpu.reshape %453 : vector<1x4x128xf32> -> vector<4x128xf32>
        %455 = arith.extui %104 : i1 to i32
        %456 = vector.broadcast %455 : i32 to vector<4x128xi32>
        %cst_27 = arith.constant dense<1> : vector<4x128xi32>
        %457 = arith.cmpi eq, %456, %cst_27 : vector<4x128xi32>
        %458 = arith.select %457, %cst_19, %454 : vector<4x128xi1>, vector<4x128xf32>
        %459 = arith.mulf %442, %458 : vector<4x128xf32>
        %460 = arith.addf %459, %438 : vector<4x128xf32>
        %461 = tpu.reshape %460 : vector<4x128xf32> -> vector<1x4x128xf32>
        tpu.vector_store %13[%c1, %c0, %c0], %461 {strides = array<i32>} : memref<8x512x128xf32, #tpu.memory_space<vmem>>, vector<1x4x128xf32>, 
        %462 = vector.extract %381[2] : vector<4x1024xf32> from vector<8x4x1024xf32>
        %463 = vector.multi_reduction <maximumf>, %462, %cst_20 [1] : vector<4x1024xf32> to vector<4xf32>
        %464 = tpu.reshape %463 : vector<4xf32> -> vector<4x1xf32>
        %465 = vector.load %11[%c2, %c0, %c0] : memref<8x512x128xf32, #tpu.memory_space<vmem>>, vector<1x4x128xf32>
        %466 = tpu.reshape %465 : vector<1x4x128xf32> -> vector<4x128xf32>
        %467 = arith.extui %104 : i1 to i32
        %468 = vector.broadcast %467 : i32 to vector<4x128xi32>
        %cst_28 = arith.constant dense<1> : vector<4x128xi32>
        %469 = arith.cmpi eq, %468, %cst_28 : vector<4x128xi32>
        %470 = arith.select %469, %cst_5, %466 : vector<4x128xi1>, vector<4x128xf32>
        %471 = vector.broadcast %464 : vector<4x1xf32> to vector<4x128xf32>
        %472 = arith.maximumf %470, %471 : vector<4x128xf32>
        %473 = tpu.reshape %472 : vector<4x128xf32> -> vector<1x4x128xf32>
        tpu.vector_store %11[%c2, %c0, %c0], %473 {strides = array<i32>} : memref<8x512x128xf32, #tpu.memory_space<vmem>>, vector<1x4x128xf32>, 
        %474 = tpu.concatenate %472, %472, %472, %472, %472, %472, %472, %472 in 1 : vector<4x128xf32>, vector<4x128xf32>, vector<4x128xf32>, vector<4x128xf32>, vector<4x128xf32>, vector<4x128xf32>, vector<4x128xf32>, vector<4x128xf32> -> vector<4x1024xf32>
        %475 = arith.subf %462, %474 : vector<4x1024xf32>
        %476 = math.exp %475 : vector<4x1024xf32>
        %477 = vector.extract %317[2] : vector<1024x128xf32> from vector<8x1024x128xf32>
        "tpu.trace_start"() <{level = 10 : i32, message = "qk,kd->qd"}> : () -> ()
        %478 = tpu.matmul %476, %477, %cst_19 {dimension_numbers = #tpu.dot_dimension_numbers<[1], [0], [0], [1], [0, 0, 1, 1], [], []>} : vector<4x1024xf32>, vector<1024x128xf32>, vector<4x128xf32> -> vector<4x128xf32>
        "tpu.trace_stop"() : () -> ()
        %479 = vector.multi_reduction <add>, %476, %cst_18 [1] : vector<4x1024xf32> to vector<4xf32>
        %480 = tpu.reshape %479 : vector<4xf32> -> vector<4x1xf32>
        %481 = arith.subf %470, %472 : vector<4x128xf32>
        %482 = math.exp %481 : vector<4x128xf32>
        %483 = vector.load %9[%c2, %c0, %c0] : memref<8x512x128xf32, #tpu.memory_space<vmem>>, vector<1x4x128xf32>
        %484 = tpu.reshape %483 : vector<1x4x128xf32> -> vector<4x128xf32>
        %485 = arith.extui %104 : i1 to i32
        %486 = vector.broadcast %485 : i32 to vector<4x128xi32>
        %cst_29 = arith.constant dense<1> : vector<4x128xi32>
        %487 = arith.cmpi eq, %486, %cst_29 : vector<4x128xi32>
        %488 = arith.select %487, %cst_19, %484 : vector<4x128xi1>, vector<4x128xf32>
        %489 = arith.mulf %482, %488 : vector<4x128xf32>
        %490 = vector.broadcast %480 : vector<4x1xf32> to vector<4x128xf32>
        %491 = arith.addf %489, %490 : vector<4x128xf32>
        %492 = tpu.reshape %491 : vector<4x128xf32> -> vector<1x4x128xf32>
        tpu.vector_store %9[%c2, %c0, %c0], %492 {strides = array<i32>} : memref<8x512x128xf32, #tpu.memory_space<vmem>>, vector<1x4x128xf32>, 
        %493 = vector.load %13[%c2, %c0, %c0] : memref<8x512x128xf32, #tpu.memory_space<vmem>>, vector<1x4x128xf32>
        %494 = tpu.reshape %493 : vector<1x4x128xf32> -> vector<4x128xf32>
        %495 = arith.extui %104 : i1 to i32
        %496 = vector.broadcast %495 : i32 to vector<4x128xi32>
        %cst_30 = arith.constant dense<1> : vector<4x128xi32>
        %497 = arith.cmpi eq, %496, %cst_30 : vector<4x128xi32>
        %498 = arith.select %497, %cst_19, %494 : vector<4x128xi1>, vector<4x128xf32>
        %499 = arith.mulf %482, %498 : vector<4x128xf32>
        %500 = arith.addf %499, %478 : vector<4x128xf32>
        %501 = tpu.reshape %500 : vector<4x128xf32> -> vector<1x4x128xf32>
        tpu.vector_store %13[%c2, %c0, %c0], %501 {strides = array<i32>} : memref<8x512x128xf32, #tpu.memory_space<vmem>>, vector<1x4x128xf32>, 
        %502 = vector.extract %381[3] : vector<4x1024xf32> from vector<8x4x1024xf32>
        %503 = vector.multi_reduction <maximumf>, %502, %cst_20 [1] : vector<4x1024xf32> to vector<4xf32>
        %504 = tpu.reshape %503 : vector<4xf32> -> vector<4x1xf32>
        %505 = vector.load %11[%c3, %c0, %c0] : memref<8x512x128xf32, #tpu.memory_space<vmem>>, vector<1x4x128xf32>
        %506 = tpu.reshape %505 : vector<1x4x128xf32> -> vector<4x128xf32>
        %507 = arith.extui %104 : i1 to i32
        %508 = vector.broadcast %507 : i32 to vector<4x128xi32>
        %cst_31 = arith.constant dense<1> : vector<4x128xi32>
        %509 = arith.cmpi eq, %508, %cst_31 : vector<4x128xi32>
        %510 = arith.select %509, %cst_5, %506 : vector<4x128xi1>, vector<4x128xf32>
        %511 = vector.broadcast %504 : vector<4x1xf32> to vector<4x128xf32>
        %512 = arith.maximumf %510, %511 : vector<4x128xf32>
        %513 = tpu.reshape %512 : vector<4x128xf32> -> vector<1x4x128xf32>
        tpu.vector_store %11[%c3, %c0, %c0], %513 {strides = array<i32>} : memref<8x512x128xf32, #tpu.memory_space<vmem>>, vector<1x4x128xf32>, 
        %514 = tpu.concatenate %512, %512, %512, %512, %512, %512, %512, %512 in 1 : vector<4x128xf32>, vector<4x128xf32>, vector<4x128xf32>, vector<4x128xf32>, vector<4x128xf32>, vector<4x128xf32>, vector<4x128xf32>, vector<4x128xf32> -> vector<4x1024xf32>
        %515 = arith.subf %502, %514 : vector<4x1024xf32>
        %516 = math.exp %515 : vector<4x1024xf32>
        %517 = vector.extract %317[3] : vector<1024x128xf32> from vector<8x1024x128xf32>
        "tpu.trace_start"() <{level = 10 : i32, message = "qk,kd->qd"}> : () -> ()
        %518 = tpu.matmul %516, %517, %cst_19 {dimension_numbers = #tpu.dot_dimension_numbers<[1], [0], [0], [1], [0, 0, 1, 1], [], []>} : vector<4x1024xf32>, vector<1024x128xf32>, vector<4x128xf32> -> vector<4x128xf32>
        "tpu.trace_stop"() : () -> ()
        %519 = vector.multi_reduction <add>, %516, %cst_18 [1] : vector<4x1024xf32> to vector<4xf32>
        %520 = tpu.reshape %519 : vector<4xf32> -> vector<4x1xf32>
        %521 = arith.subf %510, %512 : vector<4x128xf32>
        %522 = math.exp %521 : vector<4x128xf32>
        %523 = vector.load %9[%c3, %c0, %c0] : memref<8x512x128xf32, #tpu.memory_space<vmem>>, vector<1x4x128xf32>
        %524 = tpu.reshape %523 : vector<1x4x128xf32> -> vector<4x128xf32>
        %525 = arith.extui %104 : i1 to i32
        %526 = vector.broadcast %525 : i32 to vector<4x128xi32>
        %cst_32 = arith.constant dense<1> : vector<4x128xi32>
        %527 = arith.cmpi eq, %526, %cst_32 : vector<4x128xi32>
        %528 = arith.select %527, %cst_19, %524 : vector<4x128xi1>, vector<4x128xf32>
        %529 = arith.mulf %522, %528 : vector<4x128xf32>
        %530 = vector.broadcast %520 : vector<4x1xf32> to vector<4x128xf32>
        %531 = arith.addf %529, %530 : vector<4x128xf32>
        %532 = tpu.reshape %531 : vector<4x128xf32> -> vector<1x4x128xf32>
        tpu.vector_store %9[%c3, %c0, %c0], %532 {strides = array<i32>} : memref<8x512x128xf32, #tpu.memory_space<vmem>>, vector<1x4x128xf32>, 
        %533 = vector.load %13[%c3, %c0, %c0] : memref<8x512x128xf32, #tpu.memory_space<vmem>>, vector<1x4x128xf32>
        %534 = tpu.reshape %533 : vector<1x4x128xf32> -> vector<4x128xf32>
        %535 = arith.extui %104 : i1 to i32
        %536 = vector.broadcast %535 : i32 to vector<4x128xi32>
        %cst_33 = arith.constant dense<1> : vector<4x128xi32>
        %537 = arith.cmpi eq, %536, %cst_33 : vector<4x128xi32>
        %538 = arith.select %537, %cst_19, %534 : vector<4x128xi1>, vector<4x128xf32>
        %539 = arith.mulf %522, %538 : vector<4x128xf32>
        %540 = arith.addf %539, %518 : vector<4x128xf32>
        %541 = tpu.reshape %540 : vector<4x128xf32> -> vector<1x4x128xf32>
        tpu.vector_store %13[%c3, %c0, %c0], %541 {strides = array<i32>} : memref<8x512x128xf32, #tpu.memory_space<vmem>>, vector<1x4x128xf32>, 
        %542 = vector.extract %381[4] : vector<4x1024xf32> from vector<8x4x1024xf32>
        %543 = vector.multi_reduction <maximumf>, %542, %cst_20 [1] : vector<4x1024xf32> to vector<4xf32>
        %544 = tpu.reshape %543 : vector<4xf32> -> vector<4x1xf32>
        %545 = vector.load %11[%c4, %c0, %c0] : memref<8x512x128xf32, #tpu.memory_space<vmem>>, vector<1x4x128xf32>
        %546 = tpu.reshape %545 : vector<1x4x128xf32> -> vector<4x128xf32>
        %547 = arith.extui %104 : i1 to i32
        %548 = vector.broadcast %547 : i32 to vector<4x128xi32>
        %cst_34 = arith.constant dense<1> : vector<4x128xi32>
        %549 = arith.cmpi eq, %548, %cst_34 : vector<4x128xi32>
        %550 = arith.select %549, %cst_5, %546 : vector<4x128xi1>, vector<4x128xf32>
        %551 = vector.broadcast %544 : vector<4x1xf32> to vector<4x128xf32>
        %552 = arith.maximumf %550, %551 : vector<4x128xf32>
        %553 = tpu.reshape %552 : vector<4x128xf32> -> vector<1x4x128xf32>
        tpu.vector_store %11[%c4, %c0, %c0], %553 {strides = array<i32>} : memref<8x512x128xf32, #tpu.memory_space<vmem>>, vector<1x4x128xf32>, 
        %554 = tpu.concatenate %552, %552, %552, %552, %552, %552, %552, %552 in 1 : vector<4x128xf32>, vector<4x128xf32>, vector<4x128xf32>, vector<4x128xf32>, vector<4x128xf32>, vector<4x128xf32>, vector<4x128xf32>, vector<4x128xf32> -> vector<4x1024xf32>
        %555 = arith.subf %542, %554 : vector<4x1024xf32>
        %556 = math.exp %555 : vector<4x1024xf32>
        %557 = vector.extract %317[4] : vector<1024x128xf32> from vector<8x1024x128xf32>
        "tpu.trace_start"() <{level = 10 : i32, message = "qk,kd->qd"}> : () -> ()
        %558 = tpu.matmul %556, %557, %cst_19 {dimension_numbers = #tpu.dot_dimension_numbers<[1], [0], [0], [1], [0, 0, 1, 1], [], []>} : vector<4x1024xf32>, vector<1024x128xf32>, vector<4x128xf32> -> vector<4x128xf32>
        "tpu.trace_stop"() : () -> ()
        %559 = vector.multi_reduction <add>, %556, %cst_18 [1] : vector<4x1024xf32> to vector<4xf32>
        %560 = tpu.reshape %559 : vector<4xf32> -> vector<4x1xf32>
        %561 = arith.subf %550, %552 : vector<4x128xf32>
        %562 = math.exp %561 : vector<4x128xf32>
        %563 = vector.load %9[%c4, %c0, %c0] : memref<8x512x128xf32, #tpu.memory_space<vmem>>, vector<1x4x128xf32>
        %564 = tpu.reshape %563 : vector<1x4x128xf32> -> vector<4x128xf32>
        %565 = arith.extui %104 : i1 to i32
        %566 = vector.broadcast %565 : i32 to vector<4x128xi32>
        %cst_35 = arith.constant dense<1> : vector<4x128xi32>
        %567 = arith.cmpi eq, %566, %cst_35 : vector<4x128xi32>
        %568 = arith.select %567, %cst_19, %564 : vector<4x128xi1>, vector<4x128xf32>
        %569 = arith.mulf %562, %568 : vector<4x128xf32>
        %570 = vector.broadcast %560 : vector<4x1xf32> to vector<4x128xf32>
        %571 = arith.addf %569, %570 : vector<4x128xf32>
        %572 = tpu.reshape %571 : vector<4x128xf32> -> vector<1x4x128xf32>
        tpu.vector_store %9[%c4, %c0, %c0], %572 {strides = array<i32>} : memref<8x512x128xf32, #tpu.memory_space<vmem>>, vector<1x4x128xf32>, 
        %573 = vector.load %13[%c4, %c0, %c0] : memref<8x512x128xf32, #tpu.memory_space<vmem>>, vector<1x4x128xf32>
        %574 = tpu.reshape %573 : vector<1x4x128xf32> -> vector<4x128xf32>
        %575 = arith.extui %104 : i1 to i32
        %576 = vector.broadcast %575 : i32 to vector<4x128xi32>
        %cst_36 = arith.constant dense<1> : vector<4x128xi32>
        %577 = arith.cmpi eq, %576, %cst_36 : vector<4x128xi32>
        %578 = arith.select %577, %cst_19, %574 : vector<4x128xi1>, vector<4x128xf32>
        %579 = arith.mulf %562, %578 : vector<4x128xf32>
        %580 = arith.addf %579, %558 : vector<4x128xf32>
        %581 = tpu.reshape %580 : vector<4x128xf32> -> vector<1x4x128xf32>
        tpu.vector_store %13[%c4, %c0, %c0], %581 {strides = array<i32>} : memref<8x512x128xf32, #tpu.memory_space<vmem>>, vector<1x4x128xf32>, 
        %582 = vector.extract %381[5] : vector<4x1024xf32> from vector<8x4x1024xf32>
        %583 = vector.multi_reduction <maximumf>, %582, %cst_20 [1] : vector<4x1024xf32> to vector<4xf32>
        %584 = tpu.reshape %583 : vector<4xf32> -> vector<4x1xf32>
        %585 = vector.load %11[%c5, %c0, %c0] : memref<8x512x128xf32, #tpu.memory_space<vmem>>, vector<1x4x128xf32>
        %586 = tpu.reshape %585 : vector<1x4x128xf32> -> vector<4x128xf32>
        %587 = arith.extui %104 : i1 to i32
        %588 = vector.broadcast %587 : i32 to vector<4x128xi32>
        %cst_37 = arith.constant dense<1> : vector<4x128xi32>
        %589 = arith.cmpi eq, %588, %cst_37 : vector<4x128xi32>
        %590 = arith.select %589, %cst_5, %586 : vector<4x128xi1>, vector<4x128xf32>
        %591 = vector.broadcast %584 : vector<4x1xf32> to vector<4x128xf32>
        %592 = arith.maximumf %590, %591 : vector<4x128xf32>
        %593 = tpu.reshape %592 : vector<4x128xf32> -> vector<1x4x128xf32>
        tpu.vector_store %11[%c5, %c0, %c0], %593 {strides = array<i32>} : memref<8x512x128xf32, #tpu.memory_space<vmem>>, vector<1x4x128xf32>, 
        %594 = tpu.concatenate %592, %592, %592, %592, %592, %592, %592, %592 in 1 : vector<4x128xf32>, vector<4x128xf32>, vector<4x128xf32>, vector<4x128xf32>, vector<4x128xf32>, vector<4x128xf32>, vector<4x128xf32>, vector<4x128xf32> -> vector<4x1024xf32>
        %595 = arith.subf %582, %594 : vector<4x1024xf32>
        %596 = math.exp %595 : vector<4x1024xf32>
        %597 = vector.extract %317[5] : vector<1024x128xf32> from vector<8x1024x128xf32>
        "tpu.trace_start"() <{level = 10 : i32, message = "qk,kd->qd"}> : () -> ()
        %598 = tpu.matmul %596, %597, %cst_19 {dimension_numbers = #tpu.dot_dimension_numbers<[1], [0], [0], [1], [0, 0, 1, 1], [], []>} : vector<4x1024xf32>, vector<1024x128xf32>, vector<4x128xf32> -> vector<4x128xf32>
        "tpu.trace_stop"() : () -> ()
        %599 = vector.multi_reduction <add>, %596, %cst_18 [1] : vector<4x1024xf32> to vector<4xf32>
        %600 = tpu.reshape %599 : vector<4xf32> -> vector<4x1xf32>
        %601 = arith.subf %590, %592 : vector<4x128xf32>
        %602 = math.exp %601 : vector<4x128xf32>
        %603 = vector.load %9[%c5, %c0, %c0] : memref<8x512x128xf32, #tpu.memory_space<vmem>>, vector<1x4x128xf32>
        %604 = tpu.reshape %603 : vector<1x4x128xf32> -> vector<4x128xf32>
        %605 = arith.extui %104 : i1 to i32
        %606 = vector.broadcast %605 : i32 to vector<4x128xi32>
        %cst_38 = arith.constant dense<1> : vector<4x128xi32>
        %607 = arith.cmpi eq, %606, %cst_38 : vector<4x128xi32>
        %608 = arith.select %607, %cst_19, %604 : vector<4x128xi1>, vector<4x128xf32>
        %609 = arith.mulf %602, %608 : vector<4x128xf32>
        %610 = vector.broadcast %600 : vector<4x1xf32> to vector<4x128xf32>
        %611 = arith.addf %609, %610 : vector<4x128xf32>
        %612 = tpu.reshape %611 : vector<4x128xf32> -> vector<1x4x128xf32>
        tpu.vector_store %9[%c5, %c0, %c0], %612 {strides = array<i32>} : memref<8x512x128xf32, #tpu.memory_space<vmem>>, vector<1x4x128xf32>, 
        %613 = vector.load %13[%c5, %c0, %c0] : memref<8x512x128xf32, #tpu.memory_space<vmem>>, vector<1x4x128xf32>
        %614 = tpu.reshape %613 : vector<1x4x128xf32> -> vector<4x128xf32>
        %615 = arith.extui %104 : i1 to i32
        %616 = vector.broadcast %615 : i32 to vector<4x128xi32>
        %cst_39 = arith.constant dense<1> : vector<4x128xi32>
        %617 = arith.cmpi eq, %616, %cst_39 : vector<4x128xi32>
        %618 = arith.select %617, %cst_19, %614 : vector<4x128xi1>, vector<4x128xf32>
        %619 = arith.mulf %602, %618 : vector<4x128xf32>
        %620 = arith.addf %619, %598 : vector<4x128xf32>
        %621 = tpu.reshape %620 : vector<4x128xf32> -> vector<1x4x128xf32>
        tpu.vector_store %13[%c5, %c0, %c0], %621 {strides = array<i32>} : memref<8x512x128xf32, #tpu.memory_space<vmem>>, vector<1x4x128xf32>, 
        %622 = vector.extract %381[6] : vector<4x1024xf32> from vector<8x4x1024xf32>
        %623 = vector.multi_reduction <maximumf>, %622, %cst_20 [1] : vector<4x1024xf32> to vector<4xf32>
        %624 = tpu.reshape %623 : vector<4xf32> -> vector<4x1xf32>
        %625 = vector.load %11[%c6, %c0, %c0] : memref<8x512x128xf32, #tpu.memory_space<vmem>>, vector<1x4x128xf32>
        %626 = tpu.reshape %625 : vector<1x4x128xf32> -> vector<4x128xf32>
        %627 = arith.extui %104 : i1 to i32
        %628 = vector.broadcast %627 : i32 to vector<4x128xi32>
        %cst_40 = arith.constant dense<1> : vector<4x128xi32>
        %629 = arith.cmpi eq, %628, %cst_40 : vector<4x128xi32>
        %630 = arith.select %629, %cst_5, %626 : vector<4x128xi1>, vector<4x128xf32>
        %631 = vector.broadcast %624 : vector<4x1xf32> to vector<4x128xf32>
        %632 = arith.maximumf %630, %631 : vector<4x128xf32>
        %633 = tpu.reshape %632 : vector<4x128xf32> -> vector<1x4x128xf32>
        tpu.vector_store %11[%c6, %c0, %c0], %633 {strides = array<i32>} : memref<8x512x128xf32, #tpu.memory_space<vmem>>, vector<1x4x128xf32>, 
        %634 = tpu.concatenate %632, %632, %632, %632, %632, %632, %632, %632 in 1 : vector<4x128xf32>, vector<4x128xf32>, vector<4x128xf32>, vector<4x128xf32>, vector<4x128xf32>, vector<4x128xf32>, vector<4x128xf32>, vector<4x128xf32> -> vector<4x1024xf32>
        %635 = arith.subf %622, %634 : vector<4x1024xf32>
        %636 = math.exp %635 : vector<4x1024xf32>
        %637 = vector.extract %317[6] : vector<1024x128xf32> from vector<8x1024x128xf32>
        "tpu.trace_start"() <{level = 10 : i32, message = "qk,kd->qd"}> : () -> ()
        %638 = tpu.matmul %636, %637, %cst_19 {dimension_numbers = #tpu.dot_dimension_numbers<[1], [0], [0], [1], [0, 0, 1, 1], [], []>} : vector<4x1024xf32>, vector<1024x128xf32>, vector<4x128xf32> -> vector<4x128xf32>
        "tpu.trace_stop"() : () -> ()
        %639 = vector.multi_reduction <add>, %636, %cst_18 [1] : vector<4x1024xf32> to vector<4xf32>
        %640 = tpu.reshape %639 : vector<4xf32> -> vector<4x1xf32>
        %641 = arith.subf %630, %632 : vector<4x128xf32>
        %642 = math.exp %641 : vector<4x128xf32>
        %643 = vector.load %9[%c6, %c0, %c0] : memref<8x512x128xf32, #tpu.memory_space<vmem>>, vector<1x4x128xf32>
        %644 = tpu.reshape %643 : vector<1x4x128xf32> -> vector<4x128xf32>
        %645 = arith.extui %104 : i1 to i32
        %646 = vector.broadcast %645 : i32 to vector<4x128xi32>
        %cst_41 = arith.constant dense<1> : vector<4x128xi32>
        %647 = arith.cmpi eq, %646, %cst_41 : vector<4x128xi32>
        %648 = arith.select %647, %cst_19, %644 : vector<4x128xi1>, vector<4x128xf32>
        %649 = arith.mulf %642, %648 : vector<4x128xf32>
        %650 = vector.broadcast %640 : vector<4x1xf32> to vector<4x128xf32>
        %651 = arith.addf %649, %650 : vector<4x128xf32>
        %652 = tpu.reshape %651 : vector<4x128xf32> -> vector<1x4x128xf32>
        tpu.vector_store %9[%c6, %c0, %c0], %652 {strides = array<i32>} : memref<8x512x128xf32, #tpu.memory_space<vmem>>, vector<1x4x128xf32>, 
        %653 = vector.load %13[%c6, %c0, %c0] : memref<8x512x128xf32, #tpu.memory_space<vmem>>, vector<1x4x128xf32>
        %654 = tpu.reshape %653 : vector<1x4x128xf32> -> vector<4x128xf32>
        %655 = arith.extui %104 : i1 to i32
        %656 = vector.broadcast %655 : i32 to vector<4x128xi32>
        %cst_42 = arith.constant dense<1> : vector<4x128xi32>
        %657 = arith.cmpi eq, %656, %cst_42 : vector<4x128xi32>
        %658 = arith.select %657, %cst_19, %654 : vector<4x128xi1>, vector<4x128xf32>
        %659 = arith.mulf %642, %658 : vector<4x128xf32>
        %660 = arith.addf %659, %638 : vector<4x128xf32>
        %661 = tpu.reshape %660 : vector<4x128xf32> -> vector<1x4x128xf32>
        tpu.vector_store %13[%c6, %c0, %c0], %661 {strides = array<i32>} : memref<8x512x128xf32, #tpu.memory_space<vmem>>, vector<1x4x128xf32>, 
        %662 = vector.extract %381[7] : vector<4x1024xf32> from vector<8x4x1024xf32>
        %663 = vector.multi_reduction <maximumf>, %662, %cst_20 [1] : vector<4x1024xf32> to vector<4xf32>
        %664 = tpu.reshape %663 : vector<4xf32> -> vector<4x1xf32>
        %665 = vector.load %11[%c7, %c0, %c0] : memref<8x512x128xf32, #tpu.memory_space<vmem>>, vector<1x4x128xf32>
        %666 = tpu.reshape %665 : vector<1x4x128xf32> -> vector<4x128xf32>
        %667 = arith.extui %104 : i1 to i32
        %668 = vector.broadcast %667 : i32 to vector<4x128xi32>
        %cst_43 = arith.constant dense<1> : vector<4x128xi32>
        %669 = arith.cmpi eq, %668, %cst_43 : vector<4x128xi32>
        %670 = arith.select %669, %cst_5, %666 : vector<4x128xi1>, vector<4x128xf32>
        %671 = vector.broadcast %664 : vector<4x1xf32> to vector<4x128xf32>
        %672 = arith.maximumf %670, %671 : vector<4x128xf32>
        %673 = tpu.reshape %672 : vector<4x128xf32> -> vector<1x4x128xf32>
        tpu.vector_store %11[%c7, %c0, %c0], %673 {strides = array<i32>} : memref<8x512x128xf32, #tpu.memory_space<vmem>>, vector<1x4x128xf32>, 
        %674 = tpu.concatenate %672, %672, %672, %672, %672, %672, %672, %672 in 1 : vector<4x128xf32>, vector<4x128xf32>, vector<4x128xf32>, vector<4x128xf32>, vector<4x128xf32>, vector<4x128xf32>, vector<4x128xf32>, vector<4x128xf32> -> vector<4x1024xf32>
        %675 = arith.subf %662, %674 : vector<4x1024xf32>
        %676 = math.exp %675 : vector<4x1024xf32>
        %677 = vector.extract %317[7] : vector<1024x128xf32> from vector<8x1024x128xf32>
        "tpu.trace_start"() <{level = 10 : i32, message = "qk,kd->qd"}> : () -> ()
        %678 = tpu.matmul %676, %677, %cst_19 {dimension_numbers = #tpu.dot_dimension_numbers<[1], [0], [0], [1], [0, 0, 1, 1], [], []>} : vector<4x1024xf32>, vector<1024x128xf32>, vector<4x128xf32> -> vector<4x128xf32>
        "tpu.trace_stop"() : () -> ()
        %679 = vector.multi_reduction <add>, %676, %cst_18 [1] : vector<4x1024xf32> to vector<4xf32>
        %680 = tpu.reshape %679 : vector<4xf32> -> vector<4x1xf32>
        %681 = arith.subf %670, %672 : vector<4x128xf32>
        %682 = math.exp %681 : vector<4x128xf32>
        %683 = vector.load %9[%c7, %c0, %c0] : memref<8x512x128xf32, #tpu.memory_space<vmem>>, vector<1x4x128xf32>
        %684 = tpu.reshape %683 : vector<1x4x128xf32> -> vector<4x128xf32>
        %685 = arith.extui %104 : i1 to i32
        %686 = vector.broadcast %685 : i32 to vector<4x128xi32>
        %cst_44 = arith.constant dense<1> : vector<4x128xi32>
        %687 = arith.cmpi eq, %686, %cst_44 : vector<4x128xi32>
        %688 = arith.select %687, %cst_19, %684 : vector<4x128xi1>, vector<4x128xf32>
        %689 = arith.mulf %682, %688 : vector<4x128xf32>
        %690 = vector.broadcast %680 : vector<4x1xf32> to vector<4x128xf32>
        %691 = arith.addf %689, %690 : vector<4x128xf32>
        %692 = tpu.reshape %691 : vector<4x128xf32> -> vector<1x4x128xf32>
        tpu.vector_store %9[%c7, %c0, %c0], %692 {strides = array<i32>} : memref<8x512x128xf32, #tpu.memory_space<vmem>>, vector<1x4x128xf32>, 
        %693 = vector.load %13[%c7, %c0, %c0] : memref<8x512x128xf32, #tpu.memory_space<vmem>>, vector<1x4x128xf32>
        %694 = tpu.reshape %693 : vector<1x4x128xf32> -> vector<4x128xf32>
        %695 = arith.extui %104 : i1 to i32
        %696 = vector.broadcast %695 : i32 to vector<4x128xi32>
        %cst_45 = arith.constant dense<1> : vector<4x128xi32>
        %697 = arith.cmpi eq, %696, %cst_45 : vector<4x128xi32>
        %698 = arith.select %697, %cst_19, %694 : vector<4x128xi1>, vector<4x128xf32>
        %699 = arith.mulf %682, %698 : vector<4x128xf32>
        %700 = arith.addf %699, %678 : vector<4x128xf32>
        %701 = tpu.reshape %700 : vector<4x128xf32> -> vector<1x4x128xf32>
        tpu.vector_store %13[%c7, %c0, %c0], %701 {strides = array<i32>} : memref<8x512x128xf32, #tpu.memory_space<vmem>>, vector<1x4x128xf32>, 
      }
      %52 = vector.load %13[%c0, %c0, %c0] : memref<8x512x128xf32, #tpu.memory_space<vmem>>, vector<8x512x128xf32>
      %53 = vector.load %9[%c0, %c0, %c0] : memref<8x512x128xf32, #tpu.memory_space<vmem>>, vector<8x512x128xf32>
      %54 = tpu.reciprocal %53 {approx = true} : vector<8x512x128xf32> -> vector<8x512x128xf32>
      %55 = arith.mulf %52, %54 : vector<8x512x128xf32>
      %56 = tpu.truncf %55 {rounding_mode = #tpu.rounding_mode<to_nearest_even>} : vector<8x512x128xf32> -> vector<8x512x128xbf16>
      %57 = memref.load %5[%c2] : memref<128xi32, #tpu.memory_space<smem>>
      %58 = arith.cmpi eq, %57, %c0_i32 : i32
      %59 = arith.extui %58 : i1 to i32
      memref.store %59, %5[%c2] : memref<128xi32, #tpu.memory_space<smem>>
      %60 = arith.index_cast %57 : i32 to index
      %61 = memref.load %6[%60] : memref<128xi32, #tpu.memory_space<smem>>
      %62 = arith.addi %57, %c2_i32 : i32
      %63 = arith.index_cast %62 : i32 to index
      %64 = memref.load %6[%63] : memref<128xi32, #tpu.memory_space<smem>>
      %65 = arith.cmpi sge, %61, %c0_i32 : i32
      %66 = arith.cmpi sle, %61, %arg0 : i32
      %67 = arith.andi %65, %66 : i1
      scf.if %67 {
        %85 = arith.index_cast %61 : i32 to index
        %86 = memref.load %2[%85] : memref<128xi32, #tpu.memory_space<smem>>
        %87 = arith.muli %64, %c128_i32 : i32
        %88 = arith.addi %86, %87 : i32
        %89 = arith.addi %61, %c1_i32 : i32
        %90 = arith.index_cast %89 : i32 to index
        %91 = memref.load %2[%90] : memref<128xi32, #tpu.memory_space<smem>>
        %92 = arith.subi %91, %88 : i32
        %93 = arith.minsi %92, %c128_i32 : i32
        %94 = tpu.memref_slice %arg18[%57, %c0_i32, %c0_i32, %c0_i32, %c0_i32, %c0_i32] : memref<2x8x128x2x2x128xbf16, #tpu.tiled<(2,128)(2,1),[2048,256,2,1,1,1]>, #tpu.memory_space<vmem>> -> memref<1x8x128x2x2x128xbf16, #tpu.tiled<(2,128)(2,1),[2048,256,2,1,1,1]>, #tpu.memory_space<vmem>>
        %95 = tpu.memref_squeeze %94 : memref<1x8x128x2x2x128xbf16, #tpu.tiled<(2,128)(2,1),[2048,256,2,1,1,1]>, #tpu.memory_space<vmem>> -> memref<8x128x2x2x128xbf16, #tpu.tiled<(2,128)(2,1),[256,2,1,1,1]>, #tpu.memory_space<vmem>>
        %96 = tpu.memref_slice %95[%c0_i32, %c0_i32, %c0_i32, %c0_i32, %c0_i32] <%93> : memref<8x128x2x2x128xbf16, #tpu.tiled<(2,128)(2,1),[256,2,1,1,1]>, #tpu.memory_space<vmem>> -> memref<8x?x2x2x128xbf16, #tpu.tiled<(2,128)(2,1),[256,2,1,1,1]>, #tpu.memory_space<vmem>>
        %97 = tpu.erase_memref_layout %96 : memref<8x?x2x2x128xbf16, #tpu.tiled<(2,128)(2,1),[256,2,1,1,1]>, #tpu.memory_space<vmem>> -> memref<8x?x2x2x128xbf16, strided<[65536, 512, 256, 128, 1], offset: ?>, #tpu.memory_space<vmem>>
        %98 = tpu.memref_slice %arg14[%c0_i32, %88, %c0_i32, %c0_i32, %c0_i32] <%93> : memref<8x8192x2x2x128xbf16, #tpu.tiled<(2,128)(2,1),[16384,2,1,1,1]>, #tpu.memory_space<vmem>> -> memref<8x?x2x2x128xbf16, #tpu.tiled<(2,128)(2,1),[16384,2,1,1,1]>, #tpu.memory_space<vmem>>
        %99 = tpu.erase_memref_layout %98 : memref<8x?x2x2x128xbf16, #tpu.tiled<(2,128)(2,1),[16384,2,1,1,1]>, #tpu.memory_space<vmem>> -> memref<8x?x2x2x128xbf16, strided<[4194304, 512, 256, 128, 1], offset: ?>, #tpu.memory_space<vmem>>
        %100 = tpu.memref_slice %arg19[%c2_i32, %57] : memref<5x2x!tpu.dma_semaphore, #tpu.tiled<,[2,1]>, #tpu.memory_space<semaphore_mem>> -> memref<1x1x!tpu.dma_semaphore, #tpu.tiled<,[2,1]>, #tpu.memory_space<semaphore_mem>>
        %101 = tpu.memref_squeeze %100 : memref<1x1x!tpu.dma_semaphore, #tpu.tiled<,[2,1]>, #tpu.memory_space<semaphore_mem>> -> memref<!tpu.dma_semaphore, #tpu.tiled<,[]>, #tpu.memory_space<semaphore_mem>>
        %102 = tpu.erase_memref_layout %101 : memref<!tpu.dma_semaphore, #tpu.tiled<,[]>, #tpu.memory_space<semaphore_mem>> -> memref<!tpu.dma_semaphore, strided<[], offset: ?>, #tpu.memory_space<semaphore_mem>>
        tpu.wait_dma2 semaphore(%102 : memref<!tpu.dma_semaphore, strided<[], offset: ?>, #tpu.memory_space<semaphore_mem>>) src(%97 : memref<8x?x2x2x128xbf16, strided<[65536, 512, 256, 128, 1], offset: ?>, #tpu.memory_space<vmem>>) dst(%99 : memref<8x?x2x2x128xbf16, strided<[4194304, 512, 256, 128, 1], offset: ?>, #tpu.memory_space<vmem>>)
      }
      %68 = tpu.bitcast %56 : vector<8x512x128xbf16> -> vector<8x256x128xi32>
      %69 = tpu.memref_slice %arg18[%57, %c0_i32, %c0_i32, %c0_i32, %c0_i32, %c0_i32] : memref<2x8x128x2x2x128xbf16, #tpu.tiled<(2,128)(2,1),[2048,256,2,1,1,1]>, #tpu.memory_space<vmem>> -> memref<1x8x128x2x2x128xbf16, #tpu.tiled<(2,128)(2,1),[2048,256,2,1,1,1]>, #tpu.memory_space<vmem>>
      %70 = tpu.memref_squeeze %69 : memref<1x8x128x2x2x128xbf16, #tpu.tiled<(2,128)(2,1),[2048,256,2,1,1,1]>, #tpu.memory_space<vmem>> -> memref<8x128x2x2x128xbf16, #tpu.tiled<(2,128)(2,1),[256,2,1,1,1]>, #tpu.memory_space<vmem>>
      %71 = tpu.memref_bitcast %70 : memref<8x128x2x2x128xbf16, #tpu.tiled<(2,128)(2,1),[256,2,1,1,1]>, #tpu.memory_space<vmem>> -> memref<8x128x2x1x128xi32, #tpu.tiled<(1,128),[256,2,1,1,1]>, #tpu.memory_space<vmem>>
      %72 = tpu.memref_reshape %71 : memref<8x128x2x1x128xi32, #tpu.tiled<(1,128),[256,2,1,1,1]>, #tpu.memory_space<vmem>> -> memref<8x256x128xi32, #tpu.tiled<(1,128),[256,1,1]>, #tpu.memory_space<vmem>>
      %73 = tpu.erase_memref_layout %72 : memref<8x256x128xi32, #tpu.tiled<(1,128),[256,1,1]>, #tpu.memory_space<vmem>> -> memref<8x256x128xi32, #tpu.memory_space<vmem>>
      tpu.vector_store %73[%c0, %c0, %c0], %68 {strides = array<i32>} : memref<8x256x128xi32, #tpu.memory_space<vmem>>, vector<8x256x128xi32>, 
      memref.store %arg0, %6[%60] : memref<128xi32, #tpu.memory_space<smem>>
      memref.store %c0_i32, %6[%63] : memref<128xi32, #tpu.memory_space<smem>>
      %74 = memref.load %2[%18] : memref<128xi32, #tpu.memory_space<smem>>
      %75 = memref.load %2[%21] : memref<128xi32, #tpu.memory_space<smem>>
      %76 = arith.subi %75, %74 : i32
      %77 = arith.minsi %76, %c128_i32 : i32
      %78 = tpu.memref_slice %70[%c0_i32, %c0_i32, %c0_i32, %c0_i32, %c0_i32] <%77> : memref<8x128x2x2x128xbf16, #tpu.tiled<(2,128)(2,1),[256,2,1,1,1]>, #tpu.memory_space<vmem>> -> memref<8x?x2x2x128xbf16, #tpu.tiled<(2,128)(2,1),[256,2,1,1,1]>, #tpu.memory_space<vmem>>
      %79 = tpu.erase_memref_layout %78 : memref<8x?x2x2x128xbf16, #tpu.tiled<(2,128)(2,1),[256,2,1,1,1]>, #tpu.memory_space<vmem>> -> memref<8x?x2x2x128xbf16, strided<[65536, 512, 256, 128, 1], offset: ?>, #tpu.memory_space<vmem>>
      %80 = tpu.memref_slice %arg14[%c0_i32, %74, %c0_i32, %c0_i32, %c0_i32] <%77> : memref<8x8192x2x2x128xbf16, #tpu.tiled<(2,128)(2,1),[16384,2,1,1,1]>, #tpu.memory_space<vmem>> -> memref<8x?x2x2x128xbf16, #tpu.tiled<(2,128)(2,1),[16384,2,1,1,1]>, #tpu.memory_space<vmem>>
      %81 = tpu.erase_memref_layout %80 : memref<8x?x2x2x128xbf16, #tpu.tiled<(2,128)(2,1),[16384,2,1,1,1]>, #tpu.memory_space<vmem>> -> memref<8x?x2x2x128xbf16, strided<[4194304, 512, 256, 128, 1], offset: ?>, #tpu.memory_space<vmem>>
      %82 = tpu.memref_slice %arg19[%c2_i32, %57] : memref<5x2x!tpu.dma_semaphore, #tpu.tiled<,[2,1]>, #tpu.memory_space<semaphore_mem>> -> memref<1x1x!tpu.dma_semaphore, #tpu.tiled<,[2,1]>, #tpu.memory_space<semaphore_mem>>
      %83 = tpu.memref_squeeze %82 : memref<1x1x!tpu.dma_semaphore, #tpu.tiled<,[2,1]>, #tpu.memory_space<semaphore_mem>> -> memref<!tpu.dma_semaphore, #tpu.tiled<,[]>, #tpu.memory_space<semaphore_mem>>
      %84 = tpu.erase_memref_layout %83 : memref<!tpu.dma_semaphore, #tpu.tiled<,[]>, #tpu.memory_space<semaphore_mem>> -> memref<!tpu.dma_semaphore, strided<[], offset: ?>, #tpu.memory_space<semaphore_mem>>
      tpu.enqueue_dma source(%79 : memref<8x?x2x2x128xbf16, strided<[65536, 512, 256, 128, 1], offset: ?>, #tpu.memory_space<vmem>>) target(%81 : memref<8x?x2x2x128xbf16, strided<[4194304, 512, 256, 128, 1], offset: ?>, #tpu.memory_space<vmem>>) target_semaphore(%84 : memref<!tpu.dma_semaphore, strided<[], offset: ?>, #tpu.memory_space<semaphore_mem>>)
    }
    %27 = arith.cmpi sle, %15, %arg0 : i32
    %28 = arith.cmpi slt, %arg0, %16 : i32
    %29 = arith.andi %27, %28 : i1
    scf.if %29 {
      %35 = arith.addi %24, %c1023_i32 : i32
      %36 = arith.divsi %35, %c1024_i32 : i32
      %37 = arith.cmpi sgt, %35, %c0_i32 : i32
      %38 = arith.extui %37 : i1 to i32
      %39 = arith.cmpi slt, %35, %c0_i32 : i32
      %40 = arith.extui %39 : i1 to i32
      %41 = arith.subi %38, %40 : i32
      %42 = arith.cmpi ne, %41, %c1_i32 : i32
      %43 = arith.remsi %35, %c1024_i32 : i32
      %44 = arith.cmpi ne, %43, %c0_i32 : i32
      %45 = arith.andi %42, %44 : i1
      %46 = arith.subi %36, %c1_i32 : i32
      %47 = arith.select %45, %46, %36 : i32
      %48 = arith.addi %23, %c127_i32 : i32
      %49 = arith.divsi %48, %c128_i32 : i32
      %50 = arith.cmpi sgt, %48, %c0_i32 : i32
      %51 = arith.extui %50 : i1 to i32
      %52 = arith.cmpi slt, %48, %c0_i32 : i32
      %53 = arith.extui %52 : i1 to i32
      %54 = arith.subi %51, %53 : i32
      %55 = arith.cmpi ne, %54, %c1_i32 : i32
      %56 = arith.remsi %48, %c128_i32 : i32
      %57 = arith.cmpi ne, %56, %c0_i32 : i32
      %58 = arith.andi %55, %57 : i1
      %59 = arith.subi %49, %c1_i32 : i32
      %60 = arith.select %58, %59, %49 : i32
      scf.for %arg23 = %c0_i32 to %60 step %c1_i32  : i32 {
        %61 = memref.load %5[%c0] : memref<128xi32, #tpu.memory_space<smem>>
        %62 = arith.addi %arg23, %c1_i32 : i32
        %63 = arith.cmpi eq, %62, %60 : i32
        %64 = arith.select %63, %c0_i32, %62 : i32
        %65 = arith.select %63, %20, %arg0 : i32
        %66 = arith.cmpi eq, %61, %c0_i32 : i32
        %67 = arith.extui %66 : i1 to i32
        %68 = arith.cmpi slt, %65, %14 : i32
        scf.if %68 {
          memref.store %67, %5[%c0] : memref<128xi32, #tpu.memory_space<smem>>
          %104 = arith.index_cast %65 : i32 to index
          %105 = memref.load %2[%104] : memref<128xi32, #tpu.memory_space<smem>>
          %106 = arith.muli %64, %c128_i32 : i32
          %107 = arith.addi %105, %106 : i32
          %108 = arith.addi %65, %c1_i32 : i32
          %109 = arith.index_cast %108 : i32 to index
          %110 = memref.load %2[%109] : memref<128xi32, #tpu.memory_space<smem>>
          %111 = arith.subi %110, %107 : i32
          %112 = arith.minsi %111, %c128_i32 : i32
          %113 = tpu.memref_slice %arg10[%c0_i32, %107, %c0_i32, %c0_i32, %c0_i32] <%112> : memref<8x8192x2x2x128xbf16, #tpu.tiled<(2,128)(2,1),[16384,2,1,1,1]>, #tpu.memory_space<vmem>> -> memref<8x?x2x2x128xbf16, #tpu.tiled<(2,128)(2,1),[16384,2,1,1,1]>, #tpu.memory_space<vmem>>
          %114 = tpu.erase_memref_layout %113 : memref<8x?x2x2x128xbf16, #tpu.tiled<(2,128)(2,1),[16384,2,1,1,1]>, #tpu.memory_space<vmem>> -> memref<8x?x2x2x128xbf16, strided<[4194304, 512, 256, 128, 1], offset: ?>, #tpu.memory_space<vmem>>
          %115 = tpu.memref_slice %arg17[%67, %c0_i32, %c0_i32, %c0_i32, %c0_i32, %c0_i32] : memref<2x8x128x2x2x128xbf16, #tpu.tiled<(2,128)(2,1),[2048,256,2,1,1,1]>, #tpu.memory_space<vmem>> -> memref<1x8x128x2x2x128xbf16, #tpu.tiled<(2,128)(2,1),[2048,256,2,1,1,1]>, #tpu.memory_space<vmem>>
          %116 = tpu.memref_squeeze %115 : memref<1x8x128x2x2x128xbf16, #tpu.tiled<(2,128)(2,1),[2048,256,2,1,1,1]>, #tpu.memory_space<vmem>> -> memref<8x128x2x2x128xbf16, #tpu.tiled<(2,128)(2,1),[256,2,1,1,1]>, #tpu.memory_space<vmem>>
          %117 = tpu.memref_slice %116[%c0_i32, %c0_i32, %c0_i32, %c0_i32, %c0_i32] <%112> : memref<8x128x2x2x128xbf16, #tpu.tiled<(2,128)(2,1),[256,2,1,1,1]>, #tpu.memory_space<vmem>> -> memref<8x?x2x2x128xbf16, #tpu.tiled<(2,128)(2,1),[256,2,1,1,1]>, #tpu.memory_space<vmem>>
          %118 = tpu.erase_memref_layout %117 : memref<8x?x2x2x128xbf16, #tpu.tiled<(2,128)(2,1),[256,2,1,1,1]>, #tpu.memory_space<vmem>> -> memref<8x?x2x2x128xbf16, strided<[65536, 512, 256, 128, 1], offset: ?>, #tpu.memory_space<vmem>>
          %119 = tpu.memref_slice %arg19[%c1_i32, %67] : memref<5x2x!tpu.dma_semaphore, #tpu.tiled<,[2,1]>, #tpu.memory_space<semaphore_mem>> -> memref<1x1x!tpu.dma_semaphore, #tpu.tiled<,[2,1]>, #tpu.memory_space<semaphore_mem>>
          %120 = tpu.memref_squeeze %119 : memref<1x1x!tpu.dma_semaphore, #tpu.tiled<,[2,1]>, #tpu.memory_space<semaphore_mem>> -> memref<!tpu.dma_semaphore, #tpu.tiled<,[]>, #tpu.memory_space<semaphore_mem>>
          %121 = tpu.erase_memref_layout %120 : memref<!tpu.dma_semaphore, #tpu.tiled<,[]>, #tpu.memory_space<semaphore_mem>> -> memref<!tpu.dma_semaphore, strided<[], offset: ?>, #tpu.memory_space<semaphore_mem>>
          tpu.enqueue_dma source(%114 : memref<8x?x2x2x128xbf16, strided<[4194304, 512, 256, 128, 1], offset: ?>, #tpu.memory_space<vmem>>) target(%118 : memref<8x?x2x2x128xbf16, strided<[65536, 512, 256, 128, 1], offset: ?>, #tpu.memory_space<vmem>>) target_semaphore(%121 : memref<!tpu.dma_semaphore, strided<[], offset: ?>, #tpu.memory_space<semaphore_mem>>)
        }
        scf.for %arg24 = %c0_i32 to %47 step %c1_i32  : i32 {
          %104 = arith.muli %arg24, %c1024_i32 : i32
          %105 = arith.subi %24, %104 : i32
          %106 = arith.minsi %105, %c1024_i32 : i32
          %107 = tpu.iota {dimensions = array<i32: 0>} : vector<1024x128xi32>
          %108 = vector.broadcast %106 : i32 to vector<1024x128xi32>
          %109 = arith.cmpi slt, %107, %108 : vector<1024x128xi32>
          %110 = arith.select %109, %cst_13, %cst_12 : vector<1024x128xi1>, vector<1024x128xi32>
          %111 = arith.trunci %110 : vector<1024x128xi32> to vector<1024x128xi16>
          %112 = tpu.bitcast %111 : vector<1024x128xi16> -> vector<512x128xi32>
          %113 = memref.load %5[%c1] : memref<128xi32, #tpu.memory_space<smem>>
          %114 = arith.addi %arg24, %c1_i32 : i32
          %115 = arith.cmpi eq, %114, %47 : i32
          %116 = arith.select %115, %c0_i32, %114 : i32
          %117 = arith.select %115, %62, %arg23 : i32
          %118 = arith.cmpi eq, %117, %60 : i32
          %119 = arith.select %118, %20, %arg0 : i32
          %120 = arith.cmpi eq, %113, %c0_i32 : i32
          %121 = arith.extui %120 : i1 to i32
          %122 = arith.cmpi slt, %119, %14 : i32
          scf.if %122 {
            memref.store %121, %5[%c1] : memref<128xi32, #tpu.memory_space<smem>>
            %725 = arith.index_cast %119 : i32 to index
            %726 = memref.load %0[%725] : memref<128xi32, #tpu.memory_space<smem>>
            %727 = arith.muli %116, %c1024_i32 : i32
            %728 = arith.muli %116, %c8_i32 : i32
            %729 = memref.load %2[%725] : memref<128xi32, #tpu.memory_space<smem>>
            %730 = arith.addi %119, %c1_i32 : i32
            %731 = arith.index_cast %730 : i32 to index
            %732 = memref.load %2[%731] : memref<128xi32, #tpu.memory_space<smem>>
            %733 = arith.subi %732, %729 : i32
            %734 = arith.subi %726, %727 : i32
            %735 = arith.subi %734, %733 : i32
            %736 = arith.maxsi %735, %c0_i32 : i32
            %737 = arith.subi %734, %736 : i32
            %738 = arith.addi %736, %c127_i32 : i32
            %739 = arith.divsi %738, %c128_i32 : i32
            %740 = arith.cmpi sgt, %738, %c0_i32 : i32
            %741 = arith.extui %740 : i1 to i32
            %742 = arith.cmpi slt, %738, %c0_i32 : i32
            %743 = arith.extui %742 : i1 to i32
            %744 = arith.subi %741, %743 : i32
            %745 = arith.cmpi ne, %744, %c1_i32 : i32
            %746 = arith.remsi %738, %c128_i32 : i32
            %747 = arith.cmpi ne, %746, %c0_i32 : i32
            %748 = arith.andi %745, %747 : i1
            %749 = arith.subi %739, %c1_i32 : i32
            %750 = arith.select %748, %749, %739 : i32
            %751 = arith.minsi %750, %c8_i32 : i32
            %752 = arith.subi %c1024_i32, %736 : i32
            %753 = arith.maxsi %752, %c0_i32 : i32
            %754 = arith.minsi %753, %737 : i32
            %755 = memref.load %3[%725] : memref<128xi32, #tpu.memory_space<smem>>
            %756 = arith.addi %755, %c127_i32 : i32
            %757 = arith.divsi %756, %c128_i32 : i32
            %758 = arith.cmpi sgt, %756, %c0_i32 : i32
            %759 = arith.extui %758 : i1 to i32
            %760 = arith.cmpi slt, %756, %c0_i32 : i32
            %761 = arith.extui %760 : i1 to i32
            %762 = arith.subi %759, %761 : i32
            %763 = arith.cmpi ne, %762, %c1_i32 : i32
            %764 = arith.remsi %756, %c128_i32 : i32
            %765 = arith.cmpi ne, %764, %c0_i32 : i32
            %766 = arith.andi %763, %765 : i1
            %767 = arith.subi %757, %c1_i32 : i32
            %768 = arith.select %766, %767, %757 : i32
            %769 = arith.addi %768, %728 : i32
            %770 = arith.addi %121, %c4_i32 : i32
            %771 = arith.index_cast %770 : i32 to index
            %772 = memref.load %7[%771] : memref<128xi32, #tpu.memory_space<smem>>
            %773 = arith.cmpi sgt, %772, %c0_i32 : i32
            scf.if %773 {
              %776 = arith.index_cast %121 : i32 to index
              %777 = memref.load %7[%776] : memref<128xi32, #tpu.memory_space<smem>>
              %778 = arith.addi %121, %c2_i32 : i32
              %779 = arith.index_cast %778 : i32 to index
              %780 = memref.load %7[%779] : memref<128xi32, #tpu.memory_space<smem>>
              memref.store %c0_i32, %7[%771] : memref<128xi32, #tpu.memory_space<smem>>
              %781 = arith.divsi %780, %c1024_i32 : i32
              %782 = arith.cmpi sgt, %780, %c0_i32 : i32
              %783 = arith.extui %782 : i1 to i32
              %784 = arith.cmpi slt, %780, %c0_i32 : i32
              %785 = arith.extui %784 : i1 to i32
              %786 = arith.subi %783, %785 : i32
              %787 = arith.cmpi ne, %786, %c1_i32 : i32
              %788 = arith.remsi %780, %c1024_i32 : i32
              %789 = arith.cmpi ne, %788, %c0_i32 : i32
              %790 = arith.andi %787, %789 : i1
              %791 = arith.subi %781, %c1_i32 : i32
              %792 = arith.select %790, %791, %781 : i32
              %793 = arith.divsi %780, %c128_i32 : i32
              %794 = arith.remsi %780, %c128_i32 : i32
              %795 = arith.cmpi ne, %794, %c0_i32 : i32
              %796 = arith.andi %787, %795 : i1
              %797 = arith.subi %793, %c1_i32 : i32
              %798 = arith.select %796, %797, %793 : i32
              %799 = arith.addi %780, %772 : i32
              %800 = arith.addi %799, %c127_i32 : i32
              %801 = arith.divsi %800, %c128_i32 : i32
              %802 = arith.cmpi sgt, %800, %c0_i32 : i32
              %803 = arith.extui %802 : i1 to i32
              %804 = arith.cmpi slt, %800, %c0_i32 : i32
              %805 = arith.extui %804 : i1 to i32
              %806 = arith.subi %803, %805 : i32
              %807 = arith.cmpi ne, %806, %c1_i32 : i32
              %808 = arith.remsi %800, %c128_i32 : i32
              %809 = arith.cmpi ne, %808, %c0_i32 : i32
              %810 = arith.andi %807, %809 : i1
              %811 = arith.subi %801, %c1_i32 : i32
              %812 = arith.select %810, %811, %801 : i32
              %813 = arith.cmpi slt, %794, %c0_i32 : i32
              %814 = arith.andi %813, %795 : i1
              %815 = arith.addi %794, %c128_i32 : i32
              %816 = arith.select %814, %815, %794 : i32
              %817 = arith.muli %792, %c8_i32 : i32
              %818 = arith.subi %798, %817 : i32
              %819 = arith.index_cast %777 : i32 to index
              %820 = memref.load %3[%819] : memref<128xi32, #tpu.memory_space<smem>>
              %821 = arith.addi %820, %c127_i32 : i32
              %822 = arith.divsi %821, %c128_i32 : i32
              %823 = arith.cmpi sgt, %821, %c0_i32 : i32
              %824 = arith.extui %823 : i1 to i32
              %825 = arith.cmpi slt, %821, %c0_i32 : i32
              %826 = arith.extui %825 : i1 to i32
              %827 = arith.subi %824, %826 : i32
              %828 = arith.cmpi ne, %827, %c1_i32 : i32
              %829 = arith.remsi %821, %c128_i32 : i32
              %830 = arith.cmpi ne, %829, %c0_i32 : i32
              %831 = arith.andi %828, %830 : i1
              %832 = arith.subi %822, %c1_i32 : i32
              %833 = arith.select %831, %832, %822 : i32
              %834 = arith.addi %833, %798 : i32
              %835 = arith.subi %812, %798 : i32
              %836:2 = scf.for %arg25 = %c0_i32 to %835 step %c1_i32 iter_args(%arg26 = %772, %arg27 = %816) -> (i32, i32)  : i32 {
                %837 = arith.subi %c128_i32, %arg27 : i32
                %838 = arith.minsi %837, %arg26 : i32
                %839 = arith.addi %818, %arg25 : i32
                %840 = arith.muli %839, %c128_i32 : i32
                %841 = arith.addi %840, %arg27 : i32
                %842 = arith.addi %834, %arg25 : i32
                %843 = arith.index_cast %842 : i32 to index
                %844 = memref.load %1[%843] : memref<2048xi32, #tpu.memory_space<smem>>
                %845 = arith.muli %844, %c128_i32 : i32
                %846 = arith.addi %845, %arg27 : i32
                %847 = tpu.memref_slice %arg16[%121, %c0_i32, %c0_i32, %c0_i32, %c0_i32] : memref<2x1024x8x2x128xbf16, #tpu.tiled<(2,128)(2,1),[8192,8,1,1,1]>, #tpu.memory_space<vmem>> -> memref<1x1024x8x2x128xbf16, #tpu.tiled<(2,128)(2,1),[8192,8,1,1,1]>, #tpu.memory_space<vmem>>
                %848 = tpu.memref_squeeze %847 : memref<1x1024x8x2x128xbf16, #tpu.tiled<(2,128)(2,1),[8192,8,1,1,1]>, #tpu.memory_space<vmem>> -> memref<1024x8x2x128xbf16, #tpu.tiled<(2,128)(2,1),[8,1,1,1]>, #tpu.memory_space<vmem>>
                %849 = tpu.memref_slice %848[%841, %c0_i32, %c0_i32, %c0_i32] <%838> : memref<1024x8x2x128xbf16, #tpu.tiled<(2,128)(2,1),[8,1,1,1]>, #tpu.memory_space<vmem>> -> memref<?x8x2x128xbf16, #tpu.tiled<(2,128)(2,1),[8,1,1,1]>, #tpu.memory_space<vmem>>
                %850 = tpu.erase_memref_layout %849 : memref<?x8x2x128xbf16, #tpu.tiled<(2,128)(2,1),[8,1,1,1]>, #tpu.memory_space<vmem>> -> memref<?x8x2x128xbf16, strided<[2048, 256, 128, 1], offset: ?>, #tpu.memory_space<vmem>>
                %851 = tpu.memref_reshape %arg15 : memref<4688x128x8x2x128xbf16, #tpu.tiled<(2,128)(2,1),[1024,8,1,1,1]>, #tpu.memory_space<hbm>> -> memref<600064x8x2x128xbf16, #tpu.tiled<(2,128)(2,1),[8,1,1,1]>, #tpu.memory_space<hbm>>
                %852 = tpu.memref_slice %851[%846, %c0_i32, %c0_i32, %c0_i32] <%838> : memref<600064x8x2x128xbf16, #tpu.tiled<(2,128)(2,1),[8,1,1,1]>, #tpu.memory_space<hbm>> -> memref<?x8x2x128xbf16, #tpu.tiled<(2,128)(2,1),[8,1,1,1]>, #tpu.memory_space<hbm>>
                %853 = tpu.erase_memref_layout %852 : memref<?x8x2x128xbf16, #tpu.tiled<(2,128)(2,1),[8,1,1,1]>, #tpu.memory_space<hbm>> -> memref<?x8x2x128xbf16, strided<[2048, 256, 128, 1], offset: ?>, #tpu.memory_space<hbm>>
                %854 = tpu.memref_slice %arg19[%c3_i32, %121] : memref<5x2x!tpu.dma_semaphore, #tpu.tiled<,[2,1]>, #tpu.memory_space<semaphore_mem>> -> memref<1x1x!tpu.dma_semaphore, #tpu.tiled<,[2,1]>, #tpu.memory_space<semaphore_mem>>
                %855 = tpu.memref_squeeze %854 : memref<1x1x!tpu.dma_semaphore, #tpu.tiled<,[2,1]>, #tpu.memory_space<semaphore_mem>> -> memref<!tpu.dma_semaphore, #tpu.tiled<,[]>, #tpu.memory_space<semaphore_mem>>
                %856 = tpu.erase_memref_layout %855 : memref<!tpu.dma_semaphore, #tpu.tiled<,[]>, #tpu.memory_space<semaphore_mem>> -> memref<!tpu.dma_semaphore, strided<[], offset: ?>, #tpu.memory_space<semaphore_mem>>
…
          %510 = arith.cmpi eq, %509, %cst_29 : vector<512x128xi32>
          %511 = arith.select %510, %cst_15, %507 : vector<512x128xi1>, vector<512x128xf32>
          %512 = arith.mulf %505, %511 : vector<512x128xf32>
          %513 = vector.broadcast %503 : vector<512x1xf32> to vector<512x128xf32>
          %514 = arith.addf %512, %513 : vector<512x128xf32>
          %515 = tpu.reshape %514 : vector<512x128xf32> -> vector<1x512x128xf32>
          tpu.vector_store %9[%c2, %c0, %c0], %515 {strides = array<i32>} : memref<8x512x128xf32, #tpu.memory_space<vmem>>, vector<1x512x128xf32>, 
          %516 = vector.load %13[%c2, %c0, %c0] : memref<8x512x128xf32, #tpu.memory_space<vmem>>, vector<1x512x128xf32>
          %517 = tpu.reshape %516 : vector<1x512x128xf32> -> vector<512x128xf32>
          %518 = arith.extui %123 : i1 to i32
          %519 = vector.broadcast %518 : i32 to vector<512x128xi32>
          %cst_30 = arith.constant dense<1> : vector<512x128xi32>
          %520 = arith.cmpi eq, %519, %cst_30 : vector<512x128xi32>
          %521 = arith.select %520, %cst_15, %517 : vector<512x128xi1>, vector<512x128xf32>
          %522 = arith.mulf %505, %521 : vector<512x128xf32>
          %523 = arith.addf %522, %501 : vector<512x128xf32>
          %524 = tpu.reshape %523 : vector<512x128xf32> -> vector<1x512x128xf32>
          tpu.vector_store %13[%c2, %c0, %c0], %524 {strides = array<i32>} : memref<8x512x128xf32, #tpu.memory_space<vmem>>, vector<1x512x128xf32>, 
          %525 = vector.extract %404[3] : vector<512x1024xf32> from vector<8x512x1024xf32>
          %526 = vector.multi_reduction <maximumf>, %525, %cst_16 [1] : vector<512x1024xf32> to vector<512xf32>
          %527 = tpu.reshape %526 : vector<512xf32> -> vector<512x1xf32>
          %528 = vector.load %11[%c3, %c0, %c0] : memref<8x512x128xf32, #tpu.memory_space<vmem>>, vector<1x512x128xf32>
          %529 = tpu.reshape %528 : vector<1x512x128xf32> -> vector<512x128xf32>
          %530 = arith.extui %123 : i1 to i32
          %531 = vector.broadcast %530 : i32 to vector<512x128xi32>
          %cst_31 = arith.constant dense<1> : vector<512x128xi32>
          %532 = arith.cmpi eq, %531, %cst_31 : vector<512x128xi32>
          %533 = arith.select %532, %cst, %529 : vector<512x128xi1>, vector<512x128xf32>
          %534 = vector.broadcast %527 : vector<512x1xf32> to vector<512x128xf32>
          %535 = arith.maximumf %533, %534 : vector<512x128xf32>
          %536 = tpu.reshape %535 : vector<512x128xf32> -> vector<1x512x128xf32>
          tpu.vector_store %11[%c3, %c0, %c0], %536 {strides = array<i32>} : memref<8x512x128xf32, #tpu.memory_space<vmem>>, vector<1x512x128xf32>, 
          %537 = tpu.concatenate %535, %535, %535, %535, %535, %535, %535, %535 in 1 : vector<512x128xf32>, vector<512x128xf32>, vector<512x128xf32>, vector<512x128xf32>, vector<512x128xf32>, vector<512x128xf32>, vector<512x128xf32>, vector<512x128xf32> -> vector<512x1024xf32>
          %538 = arith.subf %525, %537 : vector<512x1024xf32>
          %539 = math.exp %538 : vector<512x1024xf32>
          %540 = vector.extract %338[3] : vector<1024x128xf32> from vector<8x1024x128xf32>
          "tpu.trace_start"() <{level = 10 : i32, message = "qk,kd->qd"}> : () -> ()
          %541 = tpu.matmul %539, %540, %cst_15 {dimension_numbers = #tpu.dot_dimension_numbers<[1], [0], [0], [1], [0, 0, 1, 1], [], []>} : vector<512x1024xf32>, vector<1024x128xf32>, vector<512x128xf32> -> vector<512x128xf32>
          "tpu.trace_stop"() : () -> ()
          %542 = vector.multi_reduction <add>, %539, %cst_14 [1] : vector<512x1024xf32> to vector<512xf32>
          %543 = tpu.reshape %542 : vector<512xf32> -> vector<512x1xf32>
          %544 = arith.subf %533, %535 : vector<512x128xf32>
          %545 = math.exp %544 : vector<512x128xf32>
          %546 = vector.load %9[%c3, %c0, %c0] : memref<8x512x128xf32, #tpu.memory_space<vmem>>, vector<1x512x128xf32>
          %547 = tpu.reshape %546 : vector<1x512x128xf32> -> vector<512x128xf32>
          %548 = arith.extui %123 : i1 to i32
          %549 = vector.broadcast %548 : i32 to vector<512x128xi32>
          %cst_32 = arith.constant dense<1> : vector<512x128xi32>
          %550 = arith.cmpi eq, %549, %cst_32 : vector<512x128xi32>
          %551 = arith.select %550, %cst_15, %547 : vector<512x128xi1>, vector<512x128xf32>
          %552 = arith.mulf %545, %551 : vector<512x128xf32>
          %553 = vector.broadcast %543 : vector<512x1xf32> to vector<512x128xf32>
          %554 = arith.addf %552, %553 : vector<512x128xf32>
          %555 = tpu.reshape %554 : vector<512x128xf32> -> vector<1x512x128xf32>
          tpu.vector_store %9[%c3, %c0, %c0], %555 {strides = array<i32>} : memref<8x512x128xf32, #tpu.memory_space<vmem>>, vector<1x512x128xf32>, 
          %556 = vector.load %13[%c3, %c0, %c0] : memref<8x512x128xf32, #tpu.memory_space<vmem>>, vector<1x512x128xf32>
          %557 = tpu.reshape %556 : vector<1x512x128xf32> -> vector<512x128xf32>
          %558 = arith.extui %123 : i1 to i32
          %559 = vector.broadcast %558 : i32 to vector<512x128xi32>
          %cst_33 = arith.constant dense<1> : vector<512x128xi32>
          %560 = arith.cmpi eq, %559, %cst_33 : vector<512x128xi32>
          %561 = arith.select %560, %cst_15, %557 : vector<512x128xi1>, vector<512x128xf32>
          %562 = arith.mulf %545, %561 : vector<512x128xf32>
          %563 = arith.addf %562, %541 : vector<512x128xf32>
          %564 = tpu.reshape %563 : vector<512x128xf32> -> vector<1x512x128xf32>
          tpu.vector_store %13[%c3, %c0, %c0], %564 {strides = array<i32>} : memref<8x512x128xf32, #tpu.memory_space<vmem>>, vector<1x512x128xf32>, 
          %565 = vector.extract %404[4] : vector<512x1024xf32> from vector<8x512x1024xf32>
          %566 = vector.multi_reduction <maximumf>, %565, %cst_16 [1] : vector<512x1024xf32> to vector<512xf32>
          %567 = tpu.reshape %566 : vector<512xf32> -> vector<512x1xf32>
          %568 = vector.load %11[%c4, %c0, %c0] : memref<8x512x128xf32, #tpu.memory_space<vmem>>, vector<1x512x128xf32>
          %569 = tpu.reshape %568 : vector<1x512x128xf32> -> vector<512x128xf32>
          %570 = arith.extui %123 : i1 to i32
          %571 = vector.broadcast %570 : i32 to vector<512x128xi32>
          %cst_34 = arith.constant dense<1> : vector<512x128xi32>
          %572 = arith.cmpi eq, %571, %cst_34 : vector<512x128xi32>
          %573 = arith.select %572, %cst, %569 : vector<512x128xi1>, vector<512x128xf32>
          %574 = vector.broadcast %567 : vector<512x1xf32> to vector<512x128xf32>
          %575 = arith.maximumf %573, %574 : vector<512x128xf32>
          %576 = tpu.reshape %575 : vector<512x128xf32> -> vector<1x512x128xf32>
          tpu.vector_store %11[%c4, %c0, %c0], %576 {strides = array<i32>} : memref<8x512x128xf32, #tpu.memory_space<vmem>>, vector<1x512x128xf32>, 
          %577 = tpu.concatenate %575, %575, %575, %575, %575, %575, %575, %575 in 1 : vector<512x128xf32>, vector<512x128xf32>, vector<512x128xf32>, vector<512x128xf32>, vector<512x128xf32>, vector<512x128xf32>, vector<512x128xf32>, vector<512x128xf32> -> vector<512x1024xf32>
          %578 = arith.subf %565, %577 : vector<512x1024xf32>
          %579 = math.exp %578 : vector<512x1024xf32>
          %580 = vector.extract %338[4] : vector<1024x128xf32> from vector<8x1024x128xf32>
          "tpu.trace_start"() <{level = 10 : i32, message = "qk,kd->qd"}> : () -> ()
          %581 = tpu.matmul %579, %580, %cst_15 {dimension_numbers = #tpu.dot_dimension_numbers<[1], [0], [0], [1], [0, 0, 1, 1], [], []>} : vector<512x1024xf32>, vector<1024x128xf32>, vector<512x128xf32> -> vector<512x128xf32>
          "tpu.trace_stop"() : () -> ()
          %582 = vector.multi_reduction <add>, %579, %cst_14 [1] : vector<512x1024xf32> to vector<512xf32>
          %583 = tpu.reshape %582 : vector<512xf32> -> vector<512x1xf32>
          %584 = arith.subf %573, %575 : vector<512x128xf32>
          %585 = math.exp %584 : vector<512x128xf32>
          %586 = vector.load %9[%c4, %c0, %c0] : memref<8x512x128xf32, #tpu.memory_space<vmem>>, vector<1x512x128xf32>
          %587 = tpu.reshape %586 : vector<1x512x128xf32> -> vector<512x128xf32>
          %588 = arith.extui %123 : i1 to i32
          %589 = vector.broadcast %588 : i32 to vector<512x128xi32>
          %cst_35 = arith.constant dense<1> : vector<512x128xi32>
          %590 = arith.cmpi eq, %589, %cst_35 : vector<512x128xi32>
          %591 = arith.select %590, %cst_15, %587 : vector<512x128xi1>, vector<512x128xf32>
          %592 = arith.mulf %585, %591 : vector<512x128xf32>
          %593 = vector.broadcast %583 : vector<512x1xf32> to vector<512x128xf32>
          %594 = arith.addf %592, %593 : vector<512x128xf32>
          %595 = tpu.reshape %594 : vector<512x128xf32> -> vector<1x512x128xf32>
          tpu.vector_store %9[%c4, %c0, %c0], %595 {strides = array<i32>} : memref<8x512x128xf32, #tpu.memory_space<vmem>>, vector<1x512x128xf32>, 
          %596 = vector.load %13[%c4, %c0, %c0] : memref<8x512x128xf32, #tpu.memory_space<vmem>>, vector<1x512x128xf32>
          %597 = tpu.reshape %596 : vector<1x512x128xf32> -> vector<512x128xf32>
          %598 = arith.extui %123 : i1 to i32
          %599 = vector.broadcast %598 : i32 to vector<512x128xi32>
          %cst_36 = arith.constant dense<1> : vector<512x128xi32>
          %600 = arith.cmpi eq, %599, %cst_36 : vector<512x128xi32>
          %601 = arith.select %600, %cst_15, %597 : vector<512x128xi1>, vector<512x128xf32>
          %602 = arith.mulf %585, %601 : vector<512x128xf32>
          %603 = arith.addf %602, %581 : vector<512x128xf32>
          %604 = tpu.reshape %603 : vector<512x128xf32> -> vector<1x512x128xf32>
          tpu.vector_store %13[%c4, %c0, %c0], %604 {strides = array<i32>} : memref<8x512x128xf32, #tpu.memory_space<vmem>>, vector<1x512x128xf32>, 
          %605 = vector.extract %404[5] : vector<512x1024xf32> from vector<8x512x1024xf32>
          %606 = vector.multi_reduction <maximumf>, %605, %cst_16 [1] : vector<512x1024xf32> to vector<512xf32>
          %607 = tpu.reshape %606 : vector<512xf32> -> vector<512x1xf32>
          %608 = vector.load %11[%c5, %c0, %c0] : memref<8x512x128xf32, #tpu.memory_space<vmem>>, vector<1x512x128xf32>
          %609 = tpu.reshape %608 : vector<1x512x128xf32> -> vector<512x128xf32>
          %610 = arith.extui %123 : i1 to i32
          %611 = vector.broadcast %610 : i32 to vector<512x128xi32>
          %cst_37 = arith.constant dense<1> : vector<512x128xi32>
          %612 = arith.cmpi eq, %611, %cst_37 : vector<512x128xi32>
          %613 = arith.select %612, %cst, %609 : vector<512x128xi1>, vector<512x128xf32>
          %614 = vector.broadcast %607 : vector<512x1xf32> to vector<512x128xf32>
          %615 = arith.maximumf %613, %614 : vector<512x128xf32>
          %616 = tpu.reshape %615 : vector<512x128xf32> -> vector<1x512x128xf32>
          tpu.vector_store %11[%c5, %c0, %c0], %616 {strides = array<i32>} : memref<8x512x128xf32, #tpu.memory_space<vmem>>, vector<1x512x128xf32>, 
          %617 = tpu.concatenate %615, %615, %615, %615, %615, %615, %615, %615 in 1 : vector<512x128xf32>, vector<512x128xf32>, vector<512x128xf32>, vector<512x128xf32>, vector<512x128xf32>, vector<512x128xf32>, vector<512x128xf32>, vector<512x128xf32> -> vector<512x1024xf32>
          %618 = arith.subf %605, %617 : vector<512x1024xf32>
          %619 = math.exp %618 : vector<512x1024xf32>
          %620 = vector.extract %338[5] : vector<1024x128xf32> from vector<8x1024x128xf32>
          "tpu.trace_start"() <{level = 10 : i32, message = "qk,kd->qd"}> : () -> ()
          %621 = tpu.matmul %619, %620, %cst_15 {dimension_numbers = #tpu.dot_dimension_numbers<[1], [0], [0], [1], [0, 0, 1, 1], [], []>} : vector<512x1024xf32>, vector<1024x128xf32>, vector<512x128xf32> -> vector<512x128xf32>
          "tpu.trace_stop"() : () -> ()
          %622 = vector.multi_reduction <add>, %619, %cst_14 [1] : vector<512x1024xf32> to vector<512xf32>
          %623 = tpu.reshape %622 : vector<512xf32> -> vector<512x1xf32>
          %624 = arith.subf %613, %615 : vector<512x128xf32>
          %625 = math.exp %624 : vector<512x128xf32>
          %626 = vector.load %9[%c5, %c0, %c0] : memref<8x512x128xf32, #tpu.memory_space<vmem>>, vector<1x512x128xf32>
          %627 = tpu.reshape %626 : vector<1x512x128xf32> -> vector<512x128xf32>
          %628 = arith.extui %123 : i1 to i32
          %629 = vector.broadcast %628 : i32 to vector<512x128xi32>
          %cst_38 = arith.constant dense<1> : vector<512x128xi32>
          %630 = arith.cmpi eq, %629, %cst_38 : vector<512x128xi32>
          %631 = arith.select %630, %cst_15, %627 : vector<512x128xi1>, vector<512x128xf32>
          %632 = arith.mulf %625, %631 : vector<512x128xf32>
          %633 = vector.broadcast %623 : vector<512x1xf32> to vector<512x128xf32>
          %634 = arith.addf %632, %633 : vector<512x128xf32>
          %635 = tpu.reshape %634 : vector<512x128xf32> -> vector<1x512x128xf32>
          tpu.vector_store %9[%c5, %c0, %c0], %635 {strides = array<i32>} : memref<8x512x128xf32, #tpu.memory_space<vmem>>, vector<1x512x128xf32>, 
          %636 = vector.load %13[%c5, %c0, %c0] : memref<8x512x128xf32, #tpu.memory_space<vmem>>, vector<1x512x128xf32>
          %637 = tpu.reshape %636 : vector<1x512x128xf32> -> vector<512x128xf32>
          %638 = arith.extui %123 : i1 to i32
          %639 = vector.broadcast %638 : i32 to vector<512x128xi32>
          %cst_39 = arith.constant dense<1> : vector<512x128xi32>
          %640 = arith.cmpi eq, %639, %cst_39 : vector<512x128xi32>
          %641 = arith.select %640, %cst_15, %637 : vector<512x128xi1>, vector<512x128xf32>
          %642 = arith.mulf %625, %641 : vector<512x128xf32>
          %643 = arith.addf %642, %621 : vector<512x128xf32>
          %644 = tpu.reshape %643 : vector<512x128xf32> -> vector<1x512x128xf32>
          tpu.vector_store %13[%c5, %c0, %c0], %644 {strides = array<i32>} : memref<8x512x128xf32, #tpu.memory_space<vmem>>, vector<1x512x128xf32>, 
          %645 = vector.extract %404[6] : vector<512x1024xf32> from vector<8x512x1024xf32>
          %646 = vector.multi_reduction <maximumf>, %645, %cst_16 [1] : vector<512x1024xf32> to vector<512xf32>
          %647 = tpu.reshape %646 : vector<512xf32> -> vector<512x1xf32>
          %648 = vector.load %11[%c6, %c0, %c0] : memref<8x512x128xf32, #tpu.memory_space<vmem>>, vector<1x512x128xf32>
          %649 = tpu.reshape %648 : vector<1x512x128xf32> -> vector<512x128xf32>
          %650 = arith.extui %123 : i1 to i32
          %651 = vector.broadcast %650 : i32 to vector<512x128xi32>
          %cst_40 = arith.constant dense<1> : vector<512x128xi32>
          %652 = arith.cmpi eq, %651, %cst_40 : vector<512x128xi32>
          %653 = arith.select %652, %cst, %649 : vector<512x128xi1>, vector<512x128xf32>
          %654 = vector.broadcast %647 : vector<512x1xf32> to vector<512x128xf32>
          %655 = arith.maximumf %653, %654 : vector<512x128xf32>
          %656 = tpu.reshape %655 : vector<512x128xf32> -> vector<1x512x128xf32>
          tpu.vector_store %11[%c6, %c0, %c0], %656 {strides = array<i32>} : memref<8x512x128xf32, #tpu.memory_space<vmem>>, vector<1x512x128xf32>, 
          %657 = tpu.concatenate %655, %655, %655, %655, %655, %655, %655, %655 in 1 : vector<512x128xf32>, vector<512x128xf32>, vector<512x128xf32>, vector<512x128xf32>, vector<512x128xf32>, vector<512x128xf32>, vector<512x128xf32>, vector<512x128xf32> -> vector<512x1024xf32>
          %658 = arith.subf %645, %657 : vector<512x1024xf32>
          %659 = math.exp %658 : vector<512x1024xf32>
          %660 = vector.extract %338[6] : vector<1024x128xf32> from vector<8x1024x128xf32>
          "tpu.trace_start"() <{level = 10 : i32, message = "qk,kd->qd"}> : () -> ()
          %661 = tpu.matmul %659, %660, %cst_15 {dimension_numbers = #tpu.dot_dimension_numbers<[1], [0], [0], [1], [0, 0, 1, 1], [], []>} : vector<512x1024xf32>, vector<1024x128xf32>, vector<512x128xf32> -> vector<512x128xf32>
          "tpu.trace_stop"() : () -> ()
          %662 = vector.multi_reduction <add>, %659, %cst_14 [1] : vector<512x1024xf32> to vector<512xf32>
          %663 = tpu.reshape %662 : vector<512xf32> -> vector<512x1xf32>
          %664 = arith.subf %653, %655 : vector<512x128xf32>
          %665 = math.exp %664 : vector<512x128xf32>
          %666 = vector.load %9[%c6, %c0, %c0] : memref<8x512x128xf32, #tpu.memory_space<vmem>>, vector<1x512x128xf32>
          %667 = tpu.reshape %666 : vector<1x512x128xf32> -> vector<512x128xf32>
          %668 = arith.extui %123 : i1 to i32
          %669 = vector.broadcast %668 : i32 to vector<512x128xi32>
          %cst_41 = arith.constant dense<1> : vector<512x128xi32>
          %670 = arith.cmpi eq, %669, %cst_41 : vector<512x128xi32>
          %671 = arith.select %670, %cst_15, %667 : vector<512x128xi1>, vector<512x128xf32>
          %672 = arith.mulf %665, %671 : vector<512x128xf32>
          %673 = vector.broadcast %663 : vector<512x1xf32> to vector<512x128xf32>
          %674 = arith.addf %672, %673 : vector<512x128xf32>
          %675 = tpu.reshape %674 : vector<512x128xf32> -> vector<1x512x128xf32>
          tpu.vector_store %9[%c6, %c0, %c0], %675 {strides = array<i32>} : memref<8x512x128xf32, #tpu.memory_space<vmem>>, vector<1x512x128xf32>, 
          %676 = vector.load %13[%c6, %c0, %c0] : memref<8x512x128xf32, #tpu.memory_space<vmem>>, vector<1x512x128xf32>
          %677 = tpu.reshape %676 : vector<1x512x128xf32> -> vector<512x128xf32>
          %678 = arith.extui %123 : i1 to i32
          %679 = vector.broadcast %678 : i32 to vector<512x128xi32>
          %cst_42 = arith.constant dense<1> : vector<512x128xi32>
          %680 = arith.cmpi eq, %679, %cst_42 : vector<512x128xi32>
          %681 = arith.select %680, %cst_15, %677 : vector<512x128xi1>, vector<512x128xf32>
          %682 = arith.mulf %665, %681 : vector<512x128xf32>
          %683 = arith.addf %682, %661 : vector<512x128xf32>
          %684 = tpu.reshape %683 : vector<512x128xf32> -> vector<1x512x128xf32>
          tpu.vector_store %13[%c6, %c0, %c0], %684 {strides = array<i32>} : memref<8x512x128xf32, #tpu.memory_space<vmem>>, vector<1x512x128xf32>, 
          %685 = vector.extract %404[7] : vector<512x1024xf32> from vector<8x512x1024xf32>
          %686 = vector.multi_reduction <maximumf>, %685, %cst_16 [1] : vector<512x1024xf32> to vector<512xf32>
          %687 = tpu.reshape %686 : vector<512xf32> -> vector<512x1xf32>
          %688 = vector.load %11[%c7, %c0, %c0] : memref<8x512x128xf32, #tpu.memory_space<vmem>>, vector<1x512x128xf32>
          %689 = tpu.reshape %688 : vector<1x512x128xf32> -> vector<512x128xf32>
          %690 = arith.extui %123 : i1 to i32
          %691 = vector.broadcast %690 : i32 to vector<512x128xi32>
          %cst_43 = arith.constant dense<1> : vector<512x128xi32>
          %692 = arith.cmpi eq, %691, %cst_43 : vector<512x128xi32>
          %693 = arith.select %692, %cst, %689 : vector<512x128xi1>, vector<512x128xf32>
          %694 = vector.broadcast %687 : vector<512x1xf32> to vector<512x128xf32>
          %695 = arith.maximumf %693, %694 : vector<512x128xf32>
          %696 = tpu.reshape %695 : vector<512x128xf32> -> vector<1x512x128xf32>
          tpu.vector_store %11[%c7, %c0, %c0], %696 {strides = array<i32>} : memref<8x512x128xf32, #tpu.memory_space<vmem>>, vector<1x512x128xf32>, 
          %697 = tpu.concatenate %695, %695, %695, %695, %695, %695, %695, %695 in 1 : vector<512x128xf32>, vector<512x128xf32>, vector<512x128xf32>, vector<512x128xf32>, vector<512x128xf32>, vector<512x128xf32>, vector<512x128xf32>, vector<512x128xf32> -> vector<512x1024xf32>
          %698 = arith.subf %685, %697 : vector<512x1024xf32>
          %699 = math.exp %698 : vector<512x1024xf32>
          %700 = vector.extract %338[7] : vector<1024x128xf32> from vector<8x1024x128xf32>
          "tpu.trace_start"() <{level = 10 : i32, message = "qk,kd->qd"}> : () -> ()
          %701 = tpu.matmul %699, %700, %cst_15 {dimension_numbers = #tpu.dot_dimension_numbers<[1], [0], [0], [1], [0, 0, 1, 1], [], []>} : vector<512x1024xf32>, vector<1024x128xf32>, vector<512x128xf32> -> vector<512x128xf32>
          "tpu.trace_stop"() : () -> ()
          %702 = vector.multi_reduction <add>, %699, %cst_14 [1] : vector<512x1024xf32> to vector<512xf32>
          %703 = tpu.reshape %702 : vector<512xf32> -> vector<512x1xf32>
          %704 = arith.subf %693, %695 : vector<512x128xf32>
          %705 = math.exp %704 : vector<512x128xf32>
          %706 = vector.load %9[%c7, %c0, %c0] : memref<8x512x128xf32, #tpu.memory_space<vmem>>, vector<1x512x128xf32>
          %707 = tpu.reshape %706 : vector<1x512x128xf32> -> vector<512x128xf32>
          %708 = arith.extui %123 : i1 to i32
          %709 = vector.broadcast %708 : i32 to vector<512x128xi32>
          %cst_44 = arith.constant dense<1> : vector<512x128xi32>
          %710 = arith.cmpi eq, %709, %cst_44 : vector<512x128xi32>
          %711 = arith.select %710, %cst_15, %707 : vector<512x128xi1>, vector<512x128xf32>
          %712 = arith.mulf %705, %711 : vector<512x128xf32>
          %713 = vector.broadcast %703 : vector<512x1xf32> to vector<512x128xf32>
          %714 = arith.addf %712, %713 : vector<512x128xf32>
          %715 = tpu.reshape %714 : vector<512x128xf32> -> vector<1x512x128xf32>
          tpu.vector_store %9[%c7, %c0, %c0], %715 {strides = array<i32>} : memref<8x512x128xf32, #tpu.memory_space<vmem>>, vector<1x512x128xf32>, 
          %716 = vector.load %13[%c7, %c0, %c0] : memref<8x512x128xf32, #tpu.memory_space<vmem>>, vector<1x512x128xf32>
          %717 = tpu.reshape %716 : vector<1x512x128xf32> -> vector<512x128xf32>
          %718 = arith.extui %123 : i1 to i32
          %719 = vector.broadcast %718 : i32 to vector<512x128xi32>
          %cst_45 = arith.constant dense<1> : vector<512x128xi32>
          %720 = arith.cmpi eq, %719, %cst_45 : vector<512x128xi32>
          %721 = arith.select %720, %cst_15, %717 : vector<512x128xi1>, vector<512x128xf32>
          %722 = arith.mulf %705, %721 : vector<512x128xf32>
          %723 = arith.addf %722, %701 : vector<512x128xf32>
          %724 = tpu.reshape %723 : vector<512x128xf32> -> vector<1x512x128xf32>
          tpu.vector_store %13[%c7, %c0, %c0], %724 {strides = array<i32>} : memref<8x512x128xf32, #tpu.memory_space<vmem>>, vector<1x512x128xf32>, 
        }
        %69 = vector.load %13[%c0, %c0, %c0] : memref<8x512x128xf32, #tpu.memory_space<vmem>>, vector<8x512x128xf32>
        %70 = vector.load %9[%c0, %c0, %c0] : memref<8x512x128xf32, #tpu.memory_space<vmem>>, vector<8x512x128xf32>
        %71 = tpu.reciprocal %70 {approx = true} : vector<8x512x128xf32> -> vector<8x512x128xf32>
        %72 = arith.mulf %69, %71 : vector<8x512x128xf32>
        %73 = tpu.truncf %72 {rounding_mode = #tpu.rounding_mode<to_nearest_even>} : vector<8x512x128xf32> -> vector<8x512x128xbf16>
        %74 = memref.load %5[%c2] : memref<128xi32, #tpu.memory_space<smem>>
        %75 = arith.cmpi eq, %74, %c0_i32 : i32
        %76 = arith.extui %75 : i1 to i32
        memref.store %76, %5[%c2] : memref<128xi32, #tpu.memory_space<smem>>
        %77 = arith.index_cast %74 : i32 to index
        %78 = memref.load %6[%77] : memref<128xi32, #tpu.memory_space<smem>>
        %79 = arith.addi %74, %c2_i32 : i32
        %80 = arith.index_cast %79 : i32 to index
        %81 = memref.load %6[%80] : memref<128xi32, #tpu.memory_space<smem>>
        %82 = arith.cmpi sge, %78, %c0_i32 : i32
        %83 = arith.cmpi sle, %78, %arg0 : i32
        %84 = arith.andi %82, %83 : i1
        scf.if %84 {
          %104 = arith.index_cast %78 : i32 to index
          %105 = memref.load %2[%104] : memref<128xi32, #tpu.memory_space<smem>>
          %106 = arith.muli %81, %c128_i32 : i32
          %107 = arith.addi %105, %106 : i32
          %108 = arith.addi %78, %c1_i32 : i32
          %109 = arith.index_cast %108 : i32 to index
          %110 = memref.load %2[%109] : memref<128xi32, #tpu.memory_space<smem>>
          %111 = arith.subi %110, %107 : i32
          %112 = arith.minsi %111, %c128_i32 : i32
          %113 = tpu.memref_slice %arg18[%74, %c0_i32, %c0_i32, %c0_i32, %c0_i32, %c0_i32] : memref<2x8x128x2x2x128xbf16, #tpu.tiled<(2,128)(2,1),[2048,256,2,1,1,1]>, #tpu.memory_space<vmem>> -> memref<1x8x128x2x2x128xbf16, #tpu.tiled<(2,128)(2,1),[2048,256,2,1,1,1]>, #tpu.memory_space<vmem>>
          %114 = tpu.memref_squeeze %113 : memref<1x8x128x2x2x128xbf16, #tpu.tiled<(2,128)(2,1),[2048,256,2,1,1,1]>, #tpu.memory_space<vmem>> -> memref<8x128x2x2x128xbf16, #tpu.tiled<(2,128)(2,1),[256,2,1,1,1]>, #tpu.memory_space<vmem>>
          %115 = tpu.memref_slice %114[%c0_i32, %c0_i32, %c0_i32, %c0_i32, %c0_i32] <%112> : memref<8x128x2x2x128xbf16, #tpu.tiled<(2,128)(2,1),[256,2,1,1,1]>, #tpu.memory_space<vmem>> -> memref<8x?x2x2x128xbf16, #tpu.tiled<(2,128)(2,1),[256,2,1,1,1]>, #tpu.memory_space<vmem>>
          %116 = tpu.erase_memref_layout %115 : memref<8x?x2x2x128xbf16, #tpu.tiled<(2,128)(2,1),[256,2,1,1,1]>, #tpu.memory_space<vmem>> -> memref<8x?x2x2x128xbf16, strided<[65536, 512, 256, 128, 1], offset: ?>, #tpu.memory_space<vmem>>
          %117 = tpu.memref_slice %arg14[%c0_i32, %107, %c0_i32, %c0_i32, %c0_i32] <%112> : memref<8x8192x2x2x128xbf16, #tpu.tiled<(2,128)(2,1),[16384,2,1,1,1]>, #tpu.memory_space<vmem>> -> memref<8x?x2x2x128xbf16, #tpu.tiled<(2,128)(2,1),[16384,2,1,1,1]>, #tpu.memory_space<vmem>>
          %118 = tpu.erase_memref_layout %117 : memref<8x?x2x2x128xbf16, #tpu.tiled<(2,128)(2,1),[16384,2,1,1,1]>, #tpu.memory_space<vmem>> -> memref<8x?x2x2x128xbf16, strided<[4194304, 512, 256, 128, 1], offset: ?>, #tpu.memory_space<vmem>>
          %119 = tpu.memref_slice %arg19[%c2_i32, %74] : memref<5x2x!tpu.dma_semaphore, #tpu.tiled<,[2,1]>, #tpu.memory_space<semaphore_mem>> -> memref<1x1x!tpu.dma_semaphore, #tpu.tiled<,[2,1]>, #tpu.memory_space<semaphore_mem>>
          %120 = tpu.memref_squeeze %119 : memref<1x1x!tpu.dma_semaphore, #tpu.tiled<,[2,1]>, #tpu.memory_space<semaphore_mem>> -> memref<!tpu.dma_semaphore, #tpu.tiled<,[]>, #tpu.memory_space<semaphore_mem>>
          %121 = tpu.erase_memref_layout %120 : memref<!tpu.dma_semaphore, #tpu.tiled<,[]>, #tpu.memory_space<semaphore_mem>> -> memref<!tpu.dma_semaphore, strided<[], offset: ?>, #tpu.memory_space<semaphore_mem>>
          tpu.wait_dma2 semaphore(%121 : memref<!tpu.dma_semaphore, strided<[], offset: ?>, #tpu.memory_space<semaphore_mem>>) src(%116 : memref<8x?x2x2x128xbf16, strided<[65536, 512, 256, 128, 1], offset: ?>, #tpu.memory_space<vmem>>) dst(%118 : memref<8x?x2x2x128xbf16, strided<[4194304, 512, 256, 128, 1], offset: ?>, #tpu.memory_space<vmem>>)
        }
        %85 = tpu.bitcast %73 : vector<8x512x128xbf16> -> vector<8x256x128xi32>
        %86 = tpu.memref_slice %arg18[%74, %c0_i32, %c0_i32, %c0_i32, %c0_i32, %c0_i32] : memref<2x8x128x2x2x128xbf16, #tpu.tiled<(2,128)(2,1),[2048,256,2,1,1,1]>, #tpu.memory_space<vmem>> -> memref<1x8x128x2x2x128xbf16, #tpu.tiled<(2,128)(2,1),[2048,256,2,1,1,1]>, #tpu.memory_space<vmem>>
        %87 = tpu.memref_squeeze %86 : memref<1x8x128x2x2x128xbf16, #tpu.tiled<(2,128)(2,1),[2048,256,2,1,1,1]>, #tpu.memory_space<vmem>> -> memref<8x128x2x2x128xbf16, #tpu.tiled<(2,128)(2,1),[256,2,1,1,1]>, #tpu.memory_space<vmem>>
        %88 = tpu.memref_bitcast %87 : memref<8x128x2x2x128xbf16, #tpu.tiled<(2,128)(2,1),[256,2,1,1,1]>, #tpu.memory_space<vmem>> -> memref<8x128x2x1x128xi32, #tpu.tiled<(1,128),[256,2,1,1,1]>, #tpu.memory_space<vmem>>
        %89 = tpu.memref_reshape %88 : memref<8x128x2x1x128xi32, #tpu.tiled<(1,128),[256,2,1,1,1]>, #tpu.memory_space<vmem>> -> memref<8x256x128xi32, #tpu.tiled<(1,128),[256,1,1]>, #tpu.memory_space<vmem>>
        %90 = tpu.erase_memref_layout %89 : memref<8x256x128xi32, #tpu.tiled<(1,128),[256,1,1]>, #tpu.memory_space<vmem>> -> memref<8x256x128xi32, #tpu.memory_space<vmem>>
        tpu.vector_store %90[%c0, %c0, %c0], %85 {strides = array<i32>} : memref<8x256x128xi32, #tpu.memory_space<vmem>>, vector<8x256x128xi32>, 
        memref.store %arg0, %6[%77] : memref<128xi32, #tpu.memory_space<smem>>
        memref.store %arg23, %6[%80] : memref<128xi32, #tpu.memory_space<smem>>
        %91 = memref.load %2[%18] : memref<128xi32, #tpu.memory_space<smem>>
        %92 = arith.muli %arg23, %c128_i32 : i32
        %93 = arith.addi %91, %92 : i32
        %94 = memref.load %2[%21] : memref<128xi32, #tpu.memory_space<smem>>
        %95 = arith.subi %94, %93 : i32
        %96 = arith.minsi %95, %c128_i32 : i32
        %97 = tpu.memref_slice %87[%c0_i32, %c0_i32, %c0_i32, %c0_i32, %c0_i32] <%96> : memref<8x128x2x2x128xbf16, #tpu.tiled<(2,128)(2,1),[256,2,1,1,1]>, #tpu.memory_space<vmem>> -> memref<8x?x2x2x128xbf16, #tpu.tiled<(2,128)(2,1),[256,2,1,1,1]>, #tpu.memory_space<vmem>>
        %98 = tpu.erase_memref_layout %97 : memref<8x?x2x2x128xbf16, #tpu.tiled<(2,128)(2,1),[256,2,1,1,1]>, #tpu.memory_space<vmem>> -> memref<8x?x2x2x128xbf16, strided<[65536, 512, 256, 128, 1], offset: ?>, #tpu.memory_space<vmem>>
        %99 = tpu.memref_slice %arg14[%c0_i32, %93, %c0_i32, %c0_i32, %c0_i32] <%96> : memref<8x8192x2x2x128xbf16, #tpu.tiled<(2,128)(2,1),[16384,2,1,1,1]>, #tpu.memory_space<vmem>> -> memref<8x?x2x2x128xbf16, #tpu.tiled<(2,128)(2,1),[16384,2,1,1,1]>, #tpu.memory_space<vmem>>
        %100 = tpu.erase_memref_layout %99 : memref<8x?x2x2x128xbf16, #tpu.tiled<(2,128)(2,1),[16384,2,1,1,1]>, #tpu.memory_space<vmem>> -> memref<8x?x2x2x128xbf16, strided<[4194304, 512, 256, 128, 1], offset: ?>, #tpu.memory_space<vmem>>
        %101 = tpu.memref_slice %arg19[%c2_i32, %74] : memref<5x2x!tpu.dma_semaphore, #tpu.tiled<,[2,1]>, #tpu.memory_space<semaphore_mem>> -> memref<1x1x!tpu.dma_semaphore, #tpu.tiled<,[2,1]>, #tpu.memory_space<semaphore_mem>>
        %102 = tpu.memref_squeeze %101 : memref<1x1x!tpu.dma_semaphore, #tpu.tiled<,[2,1]>, #tpu.memory_space<semaphore_mem>> -> memref<!tpu.dma_semaphore, #tpu.tiled<,[]>, #tpu.memory_space<semaphore_mem>>
        %103 = tpu.erase_memref_layout %102 : memref<!tpu.dma_semaphore, #tpu.tiled<,[]>, #tpu.memory_space<semaphore_mem>> -> memref<!tpu.dma_semaphore, strided<[], offset: ?>, #tpu.memory_space<semaphore_mem>>
        tpu.enqueue_dma source(%98 : memref<8x?x2x2x128xbf16, strided<[65536, 512, 256, 128, 1], offset: ?>, #tpu.memory_space<vmem>>) target(%100 : memref<8x?x2x2x128xbf16, strided<[4194304, 512, 256, 128, 1], offset: ?>, #tpu.memory_space<vmem>>) target_semaphore(%103 : memref<!tpu.dma_semaphore, strided<[], offset: ?>, #tpu.memory_space<semaphore_mem>>)
      }
    }
    %33 = arith.subi %14, %c1_i32 : i32
    %34 = arith.cmpi eq, %arg0, %33 : i32
    scf.if %34 {
      %35 = memref.load %6[%c0] : memref<128xi32, #tpu.memory_space<smem>>
      %36 = memref.load %6[%c2] : memref<128xi32, #tpu.memory_space<smem>>
      %37 = arith.cmpi sge, %35, %c0_i32 : i32
      %38 = arith.cmpi sle, %35, %arg0 : i32
      %39 = arith.andi %37, %38 : i1
      scf.if %39 {
        %49 = arith.index_cast %35 : i32 to index
        %50 = memref.load %2[%49] : memref<128xi32, #tpu.memory_space<smem>>
        %51 = arith.muli %36, %c128_i32 : i32
        %52 = arith.addi %50, %51 : i32
        %53 = arith.addi %35, %c1_i32 : i32
        %54 = arith.index_cast %53 : i32 to index
        %55 = memref.load %2[%54] : memref<128xi32, #tpu.memory_space<smem>>
        %56 = arith.subi %55, %52 : i32
        %57 = arith.minsi %56, %c128_i32 : i32
        %58 = tpu.memref_slice %arg18[%c0_i32, %c0_i32, %c0_i32, %c0_i32, %c0_i32, %c0_i32] : memref<2x8x128x2x2x128xbf16, #tpu.tiled<(2,128)(2,1),[2048,256,2,1,1,1]>, #tpu.memory_space<vmem>> -> memref<1x8x128x2x2x128xbf16, #tpu.tiled<(2,128)(2,1),[2048,256,2,1,1,1]>, #tpu.memory_space<vmem>>
        %59 = tpu.memref_squeeze %58 : memref<1x8x128x2x2x128xbf16, #tpu.tiled<(2,128)(2,1),[2048,256,2,1,1,1]>, #tpu.memory_space<vmem>> -> memref<8x128x2x2x128xbf16, #tpu.tiled<(2,128)(2,1),[256,2,1,1,1]>, #tpu.memory_space<vmem>>
        %60 = tpu.memref_slice %59[%c0_i32, %c0_i32, %c0_i32, %c0_i32, %c0_i32] <%57> : memref<8x128x2x2x128xbf16, #tpu.tiled<(2,128)(2,1),[256,2,1,1,1]>, #tpu.memory_space<vmem>> -> memref<8x?x2x2x128xbf16, #tpu.tiled<(2,128)(2,1),[256,2,1,1,1]>, #tpu.memory_space<vmem>>
        %61 = tpu.erase_memref_layout %60 : memref<8x?x2x2x128xbf16, #tpu.tiled<(2,128)(2,1),[256,2,1,1,1]>, #tpu.memory_space<vmem>> -> memref<8x?x2x2x128xbf16, strided<[65536, 512, 256, 128, 1]>, #tpu.memory_space<vmem>>
        %62 = tpu.memref_slice %arg14[%c0_i32, %52, %c0_i32, %c0_i32, %c0_i32] <%57> : memref<8x8192x2x2x128xbf16, #tpu.tiled<(2,128)(2,1),[16384,2,1,1,1]>, #tpu.memory_space<vmem>> -> memref<8x?x2x2x128xbf16, #tpu.tiled<(2,128)(2,1),[16384,2,1,1,1]>, #tpu.memory_space<vmem>>
        %63 = tpu.erase_memref_layout %62 : memref<8x?x2x2x128xbf16, #tpu.tiled<(2,128)(2,1),[16384,2,1,1,1]>, #tpu.memory_space<vmem>> -> memref<8x?x2x2x128xbf16, strided<[4194304, 512, 256, 128, 1], offset: ?>, #tpu.memory_space<vmem>>
        %64 = tpu.memref_slice %arg19[%c2_i32, %c0_i32] : memref<5x2x!tpu.dma_semaphore, #tpu.tiled<,[2,1]>, #tpu.memory_space<semaphore_mem>> -> memref<1x1x!tpu.dma_semaphore, #tpu.tiled<,[2,1]>, #tpu.memory_space<semaphore_mem>>
        %65 = tpu.memref_squeeze %64 : memref<1x1x!tpu.dma_semaphore, #tpu.tiled<,[2,1]>, #tpu.memory_space<semaphore_mem>> -> memref<!tpu.dma_semaphore, #tpu.tiled<,[]>, #tpu.memory_space<semaphore_mem>>
        %66 = tpu.erase_memref_layout %65 : memref<!tpu.dma_semaphore, #tpu.tiled<,[]>, #tpu.memory_space<semaphore_mem>> -> memref<!tpu.dma_semaphore, strided<[], offset: 4>, #tpu.memory_space<semaphore_mem>>
        tpu.wait_dma2 semaphore(%66 : memref<!tpu.dma_semaphore, strided<[], offset: 4>, #tpu.memory_space<semaphore_mem>>) src(%61 : memref<8x?x2x2x128xbf16, strided<[65536, 512, 256, 128, 1]>, #tpu.memory_space<vmem>>) dst(%63 : memref<8x?x2x2x128xbf16, strided<[4194304, 512, 256, 128, 1], offset: ?>, #tpu.memory_space<vmem>>)
      }
      %40 = memref.load %7[%c4] : memref<128xi32, #tpu.memory_space<smem>>
      %41 = arith.cmpi sgt, %40, %c0_i32 : i32
      scf.if %41 {
        %49 = memref.load %7[%c0] : memref<128xi32, #tpu.memory_space<smem>>
        %50 = memref.load %7[%c2] : memref<128xi32, #tpu.memory_space<smem>>
        memref.store %c0_i32, %7[%c4] : memref<128xi32, #tpu.memory_space<smem>>
        %51 = arith.divsi %50, %c1024_i32 : i32
        %52 = arith.cmpi sgt, %50, %c0_i32 : i32
        %53 = arith.extui %52 : i1 to i32
        %54 = arith.cmpi slt, %50, %c0_i32 : i32
        %55 = arith.extui %54 : i1 to i32
        %56 = arith.subi %53, %55 : i32
        %57 = arith.cmpi ne, %56, %c1_i32 : i32
        %58 = arith.remsi %50, %c1024_i32 : i32
        %59 = arith.cmpi ne, %58, %c0_i32 : i32
        %60 = arith.andi %57, %59 : i1
        %61 = arith.subi %51, %c1_i32 : i32
        %62 = arith.select %60, %61, %51 : i32
        %63 = arith.divsi %50, %c128_i32 : i32
        %64 = arith.remsi %50, %c128_i32 : i32
        %65 = arith.cmpi ne, %64, %c0_i32 : i32
        %66 = arith.andi %57, %65 : i1
        %67 = arith.subi %63, %c1_i32 : i32
        %68 = arith.select %66, %67, %63 : i32
        %69 = arith.addi %50, %40 : i32
        %70 = arith.addi %69, %c127_i32 : i32
        %71 = arith.divsi %70, %c128_i32 : i32
        %72 = arith.cmpi sgt, %70, %c0_i32 : i32
        %73 = arith.extui %72 : i1 to i32
        %74 = arith.cmpi slt, %70, %c0_i32 : i32
        %75 = arith.extui %74 : i1 to i32
        %76 = arith.subi %73, %75 : i32
        %77 = arith.cmpi ne, %76, %c1_i32 : i32
        %78 = arith.remsi %70, %c128_i32 : i32
        %79 = arith.cmpi ne, %78, %c0_i32 : i32
        %80 = arith.andi %77, %79 : i1
        %81 = arith.subi %71, %c1_i32 : i32
        %82 = arith.select %80, %81, %71 : i32
        %83 = arith.cmpi slt, %64, %c0_i32 : i32
        %84 = arith.andi %83, %65 : i1
        %85 = arith.addi %64, %c128_i32 : i32
        %86 = arith.select %84, %85, %64 : i32
        %87 = arith.muli %62, %c8_i32 : i32
        %88 = arith.subi %68, %87 : i32
        %89 = arith.index_cast %49 : i32 to index
        %90 = memref.load %3[%89] : memref<128xi32, #tpu.memory_space<smem>>
        %91 = arith.addi %90, %c127_i32 : i32
        %92 = arith.divsi %91, %c128_i32 : i32
        %93 = arith.cmpi sgt, %91, %c0_i32 : i32
        %94 = arith.extui %93 : i1 to i32
        %95 = arith.cmpi slt, %91, %c0_i32 : i32
        %96 = arith.extui %95 : i1 to i32
        %97 = arith.subi %94, %96 : i32
        %98 = arith.cmpi ne, %97, %c1_i32 : i32
        %99 = arith.remsi %91, %c128_i32 : i32
        %100 = arith.cmpi ne, %99, %c0_i32 : i32
        %101 = arith.andi %98, %100 : i1
        %102 = arith.subi %92, %c1_i32 : i32
        %103 = arith.select %101, %102, %92 : i32
        %104 = arith.addi %103, %68 : i32
        %105 = arith.subi %82, %68 : i32
        %106:2 = scf.for %arg23 = %c0_i32 to %105 step %c1_i32 iter_args(%arg24 = %40, %arg25 = %86) -> (i32, i32)  : i32 {
          %107 = arith.subi %c128_i32, %arg25 : i32
          %108 = arith.minsi %107, %arg24 : i32
          %109 = arith.addi %88, %arg23 : i32
          %110 = arith.muli %109, %c128_i32 : i32
          %111 = arith.addi %110, %arg25 : i32
          %112 = arith.addi %104, %arg23 : i32
          %113 = arith.index_cast %112 : i32 to index
          %114 = memref.load %1[%113] : memref<2048xi32, #tpu.memory_space<smem>>
          %115 = arith.muli %114, %c128_i32 : i32
          %116 = arith.addi %115, %arg25 : i32
          %117 = tpu.memref_slice %arg16[%c0_i32, %c0_i32, %c0_i32, %c0_i32, %c0_i32] : memref<2x1024x8x2x128xbf16, #tpu.tiled<(2,128)(2,1),[8192,8,1,1,1]>, #tpu.memory_space<vmem>> -> memref<1x1024x8x2x128xbf16, #tpu.tiled<(2,128)(2,1),[8192,8,1,1,1]>, #tpu.memory_space<vmem>>
          %118 = tpu.memref_squeeze %117 : memref<1x1024x8x2x128xbf16, #tpu.tiled<(2,128)(2,1),[8192,8,1,1,1]>, #tpu.memory_space<vmem>> -> memref<1024x8x2x128xbf16, #tpu.tiled<(2,128)(2,1),[8,1,1,1]>, #tpu.memory_space<vmem>>
          %119 = tpu.memref_slice %118[%111, %c0_i32, %c0_i32, %c0_i32] <%108> : memref<1024x8x2x128xbf16, #tpu.tiled<(2,128)(2,1),[8,1,1,1]>, #tpu.memory_space<vmem>> -> memref<?x8x2x128xbf16, #tpu.tiled<(2,128)(2,1),[8,1,1,1]>, #tpu.memory_space<vmem>>
          %120 = tpu.erase_memref_layout %119 : memref<?x8x2x128xbf16, #tpu.tiled<(2,128)(2,1),[8,1,1,1]>, #tpu.memory_space<vmem>> -> memref<?x8x2x128xbf16, strided<[2048, 256, 128, 1], offset: ?>, #tpu.memory_space<vmem>>
          %121 = tpu.memref_reshape %arg15 : memref<4688x128x8x2x128xbf16, #tpu.tiled<(2,128)(2,1),[1024,8,1,1,1]>, #tpu.memory_space<hbm>> -> memref<600064x8x2x128xbf16, #tpu.tiled<(2,128)(2,1),[8,1,1,1]>, #tpu.memory_space<hbm>>
          %122 = tpu.memref_slice %121[%116, %c0_i32, %c0_i32, %c0_i32] <%108> : memref<600064x8x2x128xbf16, #tpu.tiled<(2,128)(2,1),[8,1,1,1]>, #tpu.memory_space<hbm>> -> memref<?x8x2x128xbf16, #tpu.tiled<(2,128)(2,1),[8,1,1,1]>, #tpu.memory_space<hbm>>
          %123 = tpu.erase_memref_layout %122 : memref<?x8x2x128xbf16, #tpu.tiled<(2,128)(2,1),[8,1,1,1]>, #tpu.memory_space<hbm>> -> memref<?x8x2x128xbf16, strided<[2048, 256, 128, 1], offset: ?>, #tpu.memory_space<hbm>>
          %124 = tpu.memref_slice %arg19[%c3_i32, %c0_i32] : memref<5x2x!tpu.dma_semaphore, #tpu.tiled<,[2,1]>, #tpu.memory_space<semaphore_mem>> -> memref<1x1x!tpu.dma_semaphore, #tpu.tiled<,[2,1]>, #tpu.memory_space<semaphore_mem>>
          %125 = tpu.memref_squeeze %124 : memref<1x1x!tpu.dma_semaphore, #tpu.tiled<,[2,1]>, #tpu.memory_space<semaphore_mem>> -> memref<!tpu.dma_semaphore, #tpu.tiled<,[]>, #tpu.memory_space<semaphore_mem>>
          %126 = tpu.erase_memref_layout %125 : memref<!tpu.dma_semaphore, #tpu.tiled<,[]>, #tpu.memory_space<semaphore_mem>> -> memref<!tpu.dma_semaphore, strided<[], offset: 6>, #tpu.memory_space<semaphore_mem>>
          tpu.wait_dma2 semaphore(%126 : memref<!tpu.dma_semaphore, strided<[], offset: 6>, #tpu.memory_space<semaphore_mem>>) src(%120 : memref<?x8x2x128xbf16, strided<[2048, 256, 128, 1], offset: ?>, #tpu.memory_space<vmem>>) dst(%123 : memref<?x8x2x128xbf16, strided<[2048, 256, 128, 1], offset: ?>, #tpu.memory_space<hbm>>)
          %127 = arith.subi %arg24, %108 : i32
          scf.yield %127, %c0_i32 : i32, i32
        }
      }
      %42 = memref.load %6[%c1] : memref<128xi32, #tpu.memory_space<smem>>
      %43 = memref.load %6[%c3] : memref<128xi32, #tpu.memory_space<smem>>
      %44 = arith.cmpi sge, %42, %c0_i32 : i32
      %45 = arith.cmpi sle, %42, %arg0 : i32
      %46 = arith.andi %44, %45 : i1
      scf.if %46 {
        %49 = arith.index_cast %42 : i32 to index
        %50 = memref.load %2[%49] : memref<128xi32, #tpu.memory_space<smem>>
        %51 = arith.muli %43, %c128_i32 : i32
        %52 = arith.addi %50, %51 : i32
        %53 = arith.addi %42, %c1_i32 : i32
        %54 = arith.index_cast %53 : i32 to index
        %55 = memref.load %2[%54] : memref<128xi32, #tpu.memory_space<smem>>
        %56 = arith.subi %55, %52 : i32
        %57 = arith.minsi %56, %c128_i32 : i32
        %58 = tpu.memref_slice %arg18[%c1_i32, %c0_i32, %c0_i32, %c0_i32, %c0_i32, %c0_i32] : memref<2x8x128x2x2x128xbf16, #tpu.tiled<(2,128)(2,1),[2048,256,2,1,1,1]>, #tpu.memory_space<vmem>> -> memref<1x8x128x2x2x128xbf16, #tpu.tiled<(2,128)(2,1),[2048,256,2,1,1,1]>, #tpu.memory_space<vmem>>
        %59 = tpu.memref_squeeze %58 : memref<1x8x128x2x2x128xbf16, #tpu.tiled<(2,128)(2,1),[2048,256,2,1,1,1]>, #tpu.memory_space<vmem>> -> memref<8x128x2x2x128xbf16, #tpu.tiled<(2,128)(2,1),[256,2,1,1,1]>, #tpu.memory_space<vmem>>
        %60 = tpu.memref_slice %59[%c0_i32, %c0_i32, %c0_i32, %c0_i32, %c0_i32] <%57> : memref<8x128x2x2x128xbf16, #tpu.tiled<(2,128)(2,1),[256,2,1,1,1]>, #tpu.memory_space<vmem>> -> memref<8x?x2x2x128xbf16, #tpu.tiled<(2,128)(2,1),[256,2,1,1,1]>, #tpu.memory_space<vmem>>
        %61 = tpu.erase_memref_layout %60 : memref<8x?x2x2x128xbf16, #tpu.tiled<(2,128)(2,1),[256,2,1,1,1]>, #tpu.memory_space<vmem>> -> memref<8x?x2x2x128xbf16, strided<[65536, 512, 256, 128, 1], offset: 524288>, #tpu.memory_space<vmem>>
        %62 = tpu.memref_slice %arg14[%c0_i32, %52, %c0_i32, %c0_i32, %c0_i32] <%57> : memref<8x8192x2x2x128xbf16, #tpu.tiled<(2,128)(2,1),[16384,2,1,1,1]>, #tpu.memory_space<vmem>> -> memref<8x?x2x2x128xbf16, #tpu.tiled<(2,128)(2,1),[16384,2,1,1,1]>, #tpu.memory_space<vmem>>
        %63 = tpu.erase_memref_layout %62 : memref<8x?x2x2x128xbf16, #tpu.tiled<(2,128)(2,1),[16384,2,1,1,1]>, #tpu.memory_space<vmem>> -> memref<8x?x2x2x128xbf16, strided<[4194304, 512, 256, 128, 1], offset: ?>, #tpu.memory_space<vmem>>
        %64 = tpu.memref_slice %arg19[%c2_i32, %c1_i32] : memref<5x2x!tpu.dma_semaphore, #tpu.tiled<,[2,1]>, #tpu.memory_space<semaphore_mem>> -> memref<1x1x!tpu.dma_semaphore, #tpu.tiled<,[2,1]>, #tpu.memory_space<semaphore_mem>>
        %65 = tpu.memref_squeeze %64 : memref<1x1x!tpu.dma_semaphore, #tpu.tiled<,[2,1]>, #tpu.memory_space<semaphore_mem>> -> memref<!tpu.dma_semaphore, #tpu.tiled<,[]>, #tpu.memory_space<semaphore_mem>>
        %66 = tpu.erase_memref_layout %65 : memref<!tpu.dma_semaphore, #tpu.tiled<,[]>, #tpu.memory_space<semaphore_mem>> -> memref<!tpu.dma_semaphore, strided<[], offset: 5>, #tpu.memory_space<semaphore_mem>>
        tpu.wait_dma2 semaphore(%66 : memref<!tpu.dma_semaphore, strided<[], offset: 5>, #tpu.memory_space<semaphore_mem>>) src(%61 : memref<8x?x2x2x128xbf16, strided<[65536, 512, 256, 128, 1], offset: 524288>, #tpu.memory_space<vmem>>) dst(%63 : memref<8x?x2x2x128xbf16, strided<[4194304, 512, 256, 128, 1], offset: ?>, #tpu.memory_space<vmem>>)
      }
      %47 = memref.load %7[%c5] : memref<128xi32, #tpu.memory_space<smem>>
      %48 = arith.cmpi sgt, %47, %c0_i32 : i32
      scf.if %48 {
        %49 = memref.load %7[%c1] : memref<128xi32, #tpu.memory_space<smem>>
        %50 = memref.load %7[%c3] : memref<128xi32, #tpu.memory_space<smem>>
        memref.store %c0_i32, %7[%c5] : memref<128xi32, #tpu.memory_space<smem>>
        %51 = arith.divsi %50, %c1024_i32 : i32
        %52 = arith.cmpi sgt, %50, %c0_i32 : i32
        %53 = arith.extui %52 : i1 to i32
        %54 = arith.cmpi slt, %50, %c0_i32 : i32
        %55 = arith.extui %54 : i1 to i32
        %56 = arith.subi %53, %55 : i32
        %57 = arith.cmpi ne, %56, %c1_i32 : i32
        %58 = arith.remsi %50, %c1024_i32 : i32
        %59 = arith.cmpi ne, %58, %c0_i32 : i32
        %60 = arith.andi %57, %59 : i1
        %61 = arith.subi %51, %c1_i32 : i32
        %62 = arith.select %60, %61, %51 : i32
        %63 = arith.divsi %50, %c128_i32 : i32
        %64 = arith.remsi %50, %c128_i32 : i32
        %65 = arith.cmpi ne, %64, %c0_i32 : i32
        %66 = arith.andi %57, %65 : i1
        %67 = arith.subi %63, %c1_i32 : i32
        %68 = arith.select %66, %67, %63 : i32
        %69 = arith.addi %50, %47 : i32
        %70 = arith.addi %69, %c127_i32 : i32
        %71 = arith.divsi %70, %c128_i32 : i32
        %72 = arith.cmpi sgt, %70, %c0_i32 : i32
        %73 = arith.extui %72 : i1 to i32
        %74 = arith.cmpi slt, %70, %c0_i32 : i32
        %75 = arith.extui %74 : i1 to i32
        %76 = arith.subi %73, %75 : i32
        %77 = arith.cmpi ne, %76, %c1_i32 : i32
        %78 = arith.remsi %70, %c128_i32 : i32
        %79 = arith.cmpi ne, %78, %c0_i32 : i32
        %80 = arith.andi %77, %79 : i1
        %81 = arith.subi %71, %c1_i32 : i32
        %82 = arith.select %80, %81, %71 : i32
        %83 = arith.cmpi slt, %64, %c0_i32 : i32
        %84 = arith.andi %83, %65 : i1
        %85 = arith.addi %64, %c128_i32 : i32
        %86 = arith.select %84, %85, %64 : i32
        %87 = arith.muli %62, %c8_i32 : i32
        %88 = arith.subi %68, %87 : i32
        %89 = arith.index_cast %49 : i32 to index
        %90 = memref.load %3[%89] : memref<128xi32, #tpu.memory_space<smem>>
        %91 = arith.addi %90, %c127_i32 : i32
        %92 = arith.divsi %91, %c128_i32 : i32
        %93 = arith.cmpi sgt, %91, %c0_i32 : i32
        %94 = arith.extui %93 : i1 to i32
        %95 = arith.cmpi slt, %91, %c0_i32 : i32
        %96 = arith.extui %95 : i1 to i32
        %97 = arith.subi %94, %96 : i32
        %98 = arith.cmpi ne, %97, %c1_i32 : i32
        %99 = arith.remsi %91, %c128_i32 : i32
        %100 = arith.cmpi ne, %99, %c0_i32 : i32
        %101 = arith.andi %98, %100 : i1
        %102 = arith.subi %92, %c1_i32 : i32
        %103 = arith.select %101, %102, %92 : i32
        %104 = arith.addi %103, %68 : i32
        %105 = arith.subi %82, %68 : i32
        %106:2 = scf.for %arg23 = %c0_i32 to %105 step %c1_i32 iter_args(%arg24 = %47, %arg25 = %86) -> (i32, i32)  : i32 {
          %107 = arith.subi %c128_i32, %arg25 : i32
          %108 = arith.minsi %107, %arg24 : i32
          %109 = arith.addi %88, %arg23 : i32
          %110 = arith.muli %109, %c128_i32 : i32
          %111 = arith.addi %110, %arg25 : i32
          %112 = arith.addi %104, %arg23 : i32
          %113 = arith.index_cast %112 : i32 to index
          %114 = memref.load %1[%113] : memref<2048xi32, #tpu.memory_space<smem>>
          %115 = arith.muli %114, %c128_i32 : i32
          %116 = arith.addi %115, %arg25 : i32
          %117 = tpu.memref_slice %arg16[%c1_i32, %c0_i32, %c0_i32, %c0_i32, %c0_i32] : memref<2x1024x8x2x128xbf16, #tpu.tiled<(2,128)(2,1),[8192,8,1,1,1]>, #tpu.memory_space<vmem>> -> memref<1x1024x8x2x128xbf16, #tpu.tiled<(2,128)(2,1),[8192,8,1,1,1]>, #tpu.memory_space<vmem>>
          %118 = tpu.memref_squeeze %117 : memref<1x1024x8x2x128xbf16, #tpu.tiled<(2,128)(2,1),[8192,8,1,1,1]>, #tpu.memory_space<vmem>> -> memref<1024x8x2x128xbf16, #tpu.tiled<(2,128)(2,1),[8,1,1,1]>, #tpu.memory_space<vmem>>
          %119 = tpu.memref_slice %118[%111, %c0_i32, %c0_i32, %c0_i32] <%108> : memref<1024x8x2x128xbf16, #tpu.tiled<(2,128)(2,1),[8,1,1,1]>, #tpu.memory_space<vmem>> -> memref<?x8x2x128xbf16, #tpu.tiled<(2,128)(2,1),[8,1,1,1]>, #tpu.memory_space<vmem>>
          %120 = tpu.erase_memref_layout %119 : memref<?x8x2x128xbf16, #tpu.tiled<(2,128)(2,1),[8,1,1,1]>, #tpu.memory_space<vmem>> -> memref<?x8x2x128xbf16, strided<[2048, 256, 128, 1], offset: ?>, #tpu.memory_space<vmem>>
          %121 = tpu.memref_reshape %arg15 : memref<4688x128x8x2x128xbf16, #tpu.tiled<(2,128)(2,1),[1024,8,1,1,1]>, #tpu.memory_space<hbm>> -> memref<600064x8x2x128xbf16, #tpu.tiled<(2,128)(2,1),[8,1,1,1]>, #tpu.memory_space<hbm>>
          %122 = tpu.memref_slice %121[%116, %c0_i32, %c0_i32, %c0_i32] <%108> : memref<600064x8x2x128xbf16, #tpu.tiled<(2,128)(2,1),[8,1,1,1]>, #tpu.memory_space<hbm>> -> memref<?x8x2x128xbf16, #tpu.tiled<(2,128)(2,1),[8,1,1,1]>, #tpu.memory_space<hbm>>
          %123 = tpu.erase_memref_layout %122 : memref<?x8x2x128xbf16, #tpu.tiled<(2,128)(2,1),[8,1,1,1]>, #tpu.memory_space<hbm>> -> memref<?x8x2x128xbf16, strided<[2048, 256, 128, 1], offset: ?>, #tpu.memory_space<hbm>>
          %124 = tpu.memref_slice %arg19[%c3_i32, %c1_i32] : memref<5x2x!tpu.dma_semaphore, #tpu.tiled<,[2,1]>, #tpu.memory_space<semaphore_mem>> -> memref<1x1x!tpu.dma_semaphore, #tpu.tiled<,[2,1]>, #tpu.memory_space<semaphore_mem>>
          %125 = tpu.memref_squeeze %124 : memref<1x1x!tpu.dma_semaphore, #tpu.tiled<,[2,1]>, #tpu.memory_space<semaphore_mem>> -> memref<!tpu.dma_semaphore, #tpu.tiled<,[]>, #tpu.memory_space<semaphore_mem>>
          %126 = tpu.erase_memref_layout %125 : memref<!tpu.dma_semaphore, #tpu.tiled<,[]>, #tpu.memory_space<semaphore_mem>> -> memref<!tpu.dma_semaphore, strided<[], offset: 7>, #tpu.memory_space<semaphore_mem>>
          tpu.wait_dma2 semaphore(%126 : memref<!tpu.dma_semaphore, strided<[], offset: 7>, #tpu.memory_space<semaphore_mem>>) src(%120 : memref<?x8x2x128xbf16, strided<[2048, 256, 128, 1], offset: ?>, #tpu.memory_space<vmem>>) dst(%123 : memref<?x8x2x128xbf16, strided<[2048, 256, 128, 1], offset: ?>, #tpu.memory_space<hbm>>)
          %127 = arith.subi %arg24, %108 : i32
          scf.yield %127, %c0_i32 : i32, i32
        }
      }
    }
    return
  }
}
